resources/pretrained_models/ik_threelink_joint_limits/models/weights_200/model.pth (torch_old, 294855 bytes, 18 tensors)

fc1.weight f4 [100, 20]
0	0xbe5d0ab2	-0.21586111
1	0xbe0da53b	-0.13832562
2	0xbd1322de	-0.035921924
3	0x3e5c8638	0.21535575
4	0x3e01ceb0	0.12676501
5	0xbc062890	-0.008188382
6	0xbd337548	-0.04381302
7	0x3e386d42	0.18010429
8	0xbd9c1cac	-0.07622656
9	0x3d84b264	0.06479338
10	0x3c66c440	0.014084876
11	0xbd547a10	-0.05187422
12	0x3df71f88	0.12066561
13	0xbd22a0e0	-0.039704204
14	0xbe4ec6f6	-0.20193085
15	0xbe1deab2	-0.1542156
16	0xbcf67a88	-0.030087724
17	0xbde4b4cc	-0.11167297
18	0xbdf3f561	-0.11912037
19	0xbdf0f1f3	-0.11764898
20	0xbe62a595	-0.22133477
21	0xbe98daf5	-0.2985455
22	0xbddbac3e	-0.10726212
23	0xbd33c061	-0.04388464
24	0x3cdcab10	0.026937038
25	0xbdfe555e	-0.12418626
26	0xbd10849c	-0.035282716
27	0x3b8ffba0	0.0043940097
28	0x3df69d38	0.12041706
29	0x3d76a638	0.060217112
30	0x3d2638e8	0.040581614
31	0x3df2caec	0.118551105
32	0x3e384bac	0.17997617
33	0xbdfccf4c	-0.12344226
34	0x3c2f4950	0.010698631
35	0x3e426dc0	0.18987179
36	0xbcebba70	-0.028775424
37	0x3da33990	0.079699636
38	0xbd8a06ae	-0.06739555
39	0x3da33a80	0.07970142
40	0x3e806b5b	0.25081906
41	0x3d42003e	0.047363512
42	0xbe304784	-0.17214781
43	0x3e59ff95	0.21288903
44	0x3d462d40	0.048382998
45	0x3e4f7d62	0.20262673
46	0x3e22d6f6	0.15902314
47	0x3dfe6464	0.12421492
48	0xbd134c70	-0.03596157
49	0x3e5000ca	0.20312801
50	0xbdbd27d0	-0.09236109
51	0xbe588fae	-0.2114856
52	0xbe370bc8	-0.17875588
53	0xbd96b6ce	-0.07359086
54	0xbe5f0bf5	-0.21781905
55	0xbdf369d2	-0.11885418
56	0x3e0e2252	0.1388028
57	0xbe587158	-0.21136987
58	0xbda13eb2	-0.07873286
59	0xbdc6c696	-0.09705846
60	0xbd1a6562	-0.037694342
61	0xbd63c33a	-0.055606104
62	0xbe1dc5a6	-0.15407428
63	0xb9fc9b76	-0.00048181013
64	0xbe2a4d93	-0.16631155
65	0xbe371fd0	-0.1788323
66	0x3e03266c	0.12807626
67	0xbe4e336e	-0.20136806
68	0xbe22b23a	-0.158883
69	0xbe44e3d6	-0.19227538
70	0xbd4a7604	-0.049428955
71	0xbdcb4d76	-0.09926884
72	0x3e1be8f2	0.1522558
73	0x3e159888	0.14608967
74	0x3e285eb6	0.1644238
75	0xbd3d2ecc	-0.046187207
76	0xbda3eb12	-0.080038205
77	0x3d8ee1b4	0.06976643
78	0xbe53e55a	-0.2069296
79	0xbd921cf8	-0.071344316
80	0xbd9bc693	-0.076062344
81	0xbdcc0b67	-0.09963112
82	0x3e3395a0	0.17537546
83	0x3e32110c	0.17389315
84	0x3e227ba4	0.15867478
85	0x3d5c9740	0.05385518
86	0x3e3ecdda	0.18633214
87	0x3de4e8c0	0.11177206
88	0x3e19c982	0.15018275
89	0x3e2f8372	0.17139986
90	0xbd30e984	-0.043191448
91	0xbd4afc3c	-0.049556956
92	0x3e5a7ade	0.21335933
93	0x3e13c08a	0.14428917
94	0x3d2ab2a0	0.041674256
95	0xbd8ebd58	-0.06969708
96	0x3de36400	0.11103058
97	0x3e0f9000	0.14019775
98	0xbe4b9d00	-0.1988411
99	0x3d4f8260	0.050661445
100	0x3e05bf94	0.13061363
101	0xbdd29aae	-0.10283409
102	0xbe17f761	-0.14840461
103	0x3d5962b1	0.053072635
104	0x3df0eb38	0.117636144
105	0xbe0594da	-0.13045064
106	0x3db5dc34	0.08879891
107	0xbdb9ce5e	-0.090725645
108	0xbe56c7a7	-0.20974599
109	0xbc3fdd00	-0.011710405
110	0x3de5ece4	0.11226824
111	0x3d684030	0.05670184
112	0x3e2cc116	0.16870531
113	0xbe0fe24a	-0.14051166
114	0x3d7594b0	0.059956253
115	0x3d6f4d88	0.05842355
116	0x3e49da5e	0.19712207
117	0xbde1a500	-0.110177994
118	0xbe1bebe2	-0.15226701
119	0xbca59750	-0.020213753
120	0xbe055866	-0.13022003
121	0x3c46cd50	0.012133911
122	0xbe19833e	-0.14991471
123	0xbda905a1	-0.08253027
124	0x3d55b870	0.052177846
125	0x3b9f8180	0.0048677325
126	0xbe1c5ef4	-0.15270597
127	0xbcc6e498	-0.024278924
128	0x3e043dc2	0.12914184
129	0x3dbc19c8	0.09184605
130	0x3e2292de	0.15876338
131	0xbd1ddcc4	-0.038540617
132	0xbd5f3008	-0.054489166
133	0x3d2dee70	0.04246372
134	0xbdb4a98e	-0.088214025
135	0x3e27e756	0.16396841
136	0xbd347a24	-0.044061795
137	0x3e235a34	0.15952379
138	0xbe533d18	-0.20628774
139	0xbe4a1800	-0.19735718
140	0x3e51d9b4	0.20493203
141	0x3daea78e	0.08528052
142	0x3df8d8ac	0.12150702
143	0x3e97e02f	0.29663226
144	0x3de37fdc	0.111083716
145	0x3e4ac11a	0.19800225
146	0x3e051784	0.12997252
147	0x3d94c120	0.07263398
148	0xbd3eec78	-0.046612233
149	0xbda84706	-0.08216672
150	0xbe2e6978	-0.1703242
151	0xbc00f8c0	-0.007871807
152	0x3cf9d860	0.030498683
153	0x3d3b8370	0.045779645
154	0x3e07a5e0	0.1324687
155	0x3e46ffae	0.19433472
156	0x3dc49320	0.09598374
157	0x3c76a2c0	0.015053451
158	0xbcfe8040	-0.031067014
159	0x3deace64	0.11465147
160	0xbe30da4c	-0.17270774
161	0xbe526c43	-0.20549111
162	0x3e281900	0.16415787
163	0x3e39fff1	0.1816404
164	0xbd525758	-0.05135283
165	0xbe05030a	-0.1298944
166	0xbe57ab8b	-0.21061532
167	0xbe535ecc	-0.20641631
168	0xbb9834a0	-0.0046449453
169	0x3ddb4658	0.107067764
170	0x3d2a7668	0.041616827
171	0xbcb5aec8	-0.022178069
172	0x3de203d0	0.110358834
173	0xbe5c1370	-0.2149179
174	0x3c752340	0.014962018
175	0x3d197db0	0.03747338
176	0x3dfdeb94	0.123984486
177	0x3d297c00	0.04137802
178	0x3d210480	0.039310932
179	0xbc777b30	-0.015105054
180	0xbe1bbd5a	-0.1520895
181	0xbd5d6d50	-0.054059327
182	0xbe30411f	-0.17212342
183	0xbe01968e	-0.12655088
184	0x3e2b9872	0.16757372
185	0xbdbd15de	-0.092326865
186	0x3d8f07e0	0.06983924
187	0xbdd44d76	-0.10366337
188	0xbe2fa3da	-0.17152348
189	0x3d7b9968	0.061425596
190	0xbe2c62d9	-0.16834582
191	0x3e5139c8	0.20432198
192	0xbe0b4165	-0.13599165
193	0xbe496076	-0.19665703
194	0xbe5b8af8	-0.21439731
195	0xbd849b3a	-0.064749196
196	0xbde11c40	-0.109917164
197	0x3d186f50	0.03721553
198	0xbd96d0f4	-0.073640734
199	0x3d997328	0.074926674
200	0xbe7f206b	-0.2491471
201	0x3d287bce	0.041133694
202	0x3dc8d296	0.09805791
203	0xbb02f3d1	-0.0019981752
204	0xbe4a7805	-0.19772346
205	0xbe5d4de6	-0.21611747
206	0x3cd65a90	0.02616623
207	0xbdf8bf31	-0.12145842
208	0x3dc06c68	0.09395677
209	0x3dfdda7c	0.12395188
210	0x3e3ff4b0	0.18745685
211	0x3e2e2fc0	0.17010403
212	0x3d40bc80	0.047054768
213	0x3d8832bc	0.06650302
214	0xbdb68442	-0.08911945
215	0x3d9a06bc	0.07520816
216	0xbe31a490	-0.17347932
217	0xbe3c6438	-0.18397605
218	0xbdf738ff	-0.12071418
219	0x3e403f82	0.18774226
220	0xbd109935	-0.03530236
221	0x3d95e7ec	0.07319626
222	0x3e1e0ce4	0.15434605
223	0x3da4f6ce	0.08054887
224	0xbe5fa94f	-0.2184193
225	0x3da4ff58	0.080565155
226	0xbd737574	-0.059438184
227	0xbdc5fe88	-0.096676886
228	0xbc02c3f0	-0.007981285
229	0xbe5ce686	-0.21572313
230	0xbe2facde	-0.17155787
231	0x3ca9b5b0	0.020716518
232	0x3dfe48fc	0.124162644
233	0x3e1c5ac4	0.15269
234	0xbe38743c	-0.1801309
235	0x3e54c234	0.20777208
236	0xbd7cb868	-0.0616993
237	0x3e58b0da	0.21161214
238	0x3db57204	0.088596374
239	0xbe430924	-0.19046456
240	0x3dc07834	0.09397927
241	0x3e3580ff	0.1772499
242	0xbe04fd93	-0.12987356
243	0x3e3d7137	0.1850022
244	0xbc4dbf90	-0.012557879
245	0x3e09e44e	0.13465998
246	0x3e60e90e	0.21963903
247	0xbe1e0439	-0.15431298
248	0x3dfb79e8	0.12279111
249	0x3e5b4544	0.21413141
250	0x3ad6bf00	0.0016383827
251	0x3d293060	0.0413059
252	0x3d79d578	0.060994595
253	0xbe14c728	-0.14529097
254	0x3dc97048	0.09835869
255	0xbd3aacd4	-0.045574978

fc1.bias f4 [100]
0	0xbad1da97	-0.001601058
1	0x3e15e701	0.14638902
2	0xbe5b86b7	-0.21438108
3	0xbe51952d	-0.20467062
4	0x3db7265f	0.089428656
5	0x3db7327b	0.08945175
6	0xbc40992f	-0.011755272
7	0x3d97ef63	0.07418706
8	0x3e1a810f	0.15088294
9	0x3e1cb517	0.15303455
10	0xbccf0ca2	-0.025274578
11	0x3d25cfb5	0.040481288
12	0x3e1dace3	0.15397982
13	0x3dee38a7	0.11631899
14	0x3d5998a4	0.053124085
15	0xbe08c96e	-0.1335809
16	0xbde3826d	-0.11108861
17	0x3e8411e5	0.25794902
18	0x3e1ebe47	0.15502273
19	0xbda3cb11	-0.07997716
20	0x3e0ee73a	0.13955393
21	0x3e3072fd	0.17231365
22	0xbe4a9ce2	-0.19786409
23	0x3d9715c6	0.073772
24	0xbe389fc1	-0.18029691
25	0x3d71a875	0.058998544
26	0x3e596f96	0.21233973
27	0xbdaf57c8	-0.08561665
28	0x3d31cf43	0.04341055
29	0xbd9b44a1	-0.07581449
30	0x3d75ba02	0.059991844
31	0xbdf3dcb3	-0.119073294
32	0xbdc78e14	-0.09743896
33	0x3e3c167c	0.18367952
34	0x3dd39080	0.103302956
35	0xbe03684c	-0.12832755
36	0x3e3bb96d	0.18332453
37	0xbb47b5de	-0.0030473392
38	0xbbdd9794	-0.0067624543
39	0xbb2610c9	-0.0025339595
40	0xbe4bb0fb	-0.19891731
41	0xbd6c156f	-0.05763763
42	0xbdb34aca	-0.08754499
43	0xbd02dcbc	-0.03194879
44	0x3e4a89f0	0.19779181
45	0x3e02fcd5	0.1279176
46	0x3e5a7fa5	0.21337755
47	0x3aa447b2	0.0012533574
48	0x3dd1718a	0.10226734
49	0x3de8aef4	0.11361495
50	0xbe8049f7	-0.2505643
51	0x3e232a44	0.15934092
52	0x3de9c408	0.11414343
53	0xbe3d1568	-0.18465197
54	0x3d7d9915	0.06191357
55	0x3e5a743a	0.213334
56	0xbe3f0370	-0.18653655
57	0x3e1bc6c0	0.15212536
58	0x3db86c12	0.09004988
59	0x3a792d09	0.0009505307
60	0x3e56d4a4	0.20979553
61	0x3e1bc2fb	0.15211098
62	0xbdd847e1	-0.10560585
63	0xbdd06e89	-0.10177333
64	0xbdbc3785	-0.09190277
65	0x3d2badc9	0.04191378
66	0x3e448065	0.19189604
67	0x3e27025d	0.16309495
68	0x3e857615	0.26066652
69	0x3dc3a6d3	0.095533036
70	0xbd0f14d8	-0.034931988
71	0x3e50d2ca	0.2039291
72	0xbca157ff	-0.01969528
73	0x3e0f3779	0.13986005
74	0xbdaabd25	-0.08336858
75	0xbe35c81b	-0.17752115
76	0x3e43f6ff	0.1913719
77	0xbde5c4f5	-0.11219207
78	0xbe4641e8	-0.19361079
79	0xbe065a7e	-0.13120458
80	0xbe272ab3	-0.16324882
81	0xbdefe83c	-0.11714217
82	0xbde5177e	-0.111861214
83	0x3e3ec395	0.18629296
84	0xbdbb3947	-0.09141784
85	0x3e3eee7e	0.18645665
86	0x3e2d1484	0.16902357
87	0xbe1135cc	-0.14180678
88	0x3e4a064c	0.19728965
89	0x3e23daef	0.16001485
90	0xbe32042a	-0.17384401
91	0xbe595d39	-0.21226968
92	0xbdd85318	-0.10562724
93	0x3ddcfd28	0.10790473
94	0x3e18a52b	0.14906757
95	0x3e8d52b5	0.27602163
96	0x3d60923f	0.05482697
97	0xbe1b96b6	-0.1519421
98	0xbd0a9a9d	-0.033838857
99	0xbdadc47b	-0.08484741

fc2.weight f4 [100, 100]
0	0xbd7cbbf7	-0.061702695
1	0xbc6ec818	-0.014574073
2	0x3dab2aff	0.0835781
3	0xbd290f7d	-0.041274536
4	0xbda627d3	-0.081130646
5	0x3c17cb50	0.009264782
6	0xbd5cb453	-0.053882908
7	0x3d6065c2	0.054784544
8	0xbd8d6e7e	-0.0690584
9	0xbc09f4a8	-0.008420147
10	0x3dc401a7	0.09570628
11	0x3cd09524	0.02546174
12	0xbdc0980b	-0.09404
13	0xbd2d0a83	-0.042246353
14	0x3c090958	0.008364044
15	0x3da46eff	0.08028983
16	0x3c898f60	0.016792
17	0xbdc7b32a	-0.0975097
18	0xbdc92680	-0.098217964
19	0xbd29496a	-0.04132978
20	0xbd626093	-0.05526788
21	0x3d0be636	0.034155093
22	0x3d64f5be	0.05589842
23	0x3d930b13	0.071798466
24	0x3b924730	0.0044640526
25	0xbac9a140	-0.0015383139
26	0x3c01b298	0.007916115
27	0x3cf6ae84	0.030112512
28	0xbdc5cfd0	-0.09658778
29	0x3d23415e	0.03985726
30	0x3dbbf9f1	0.09178532
31	0xbd00b026	-0.03141799
32	0x3d4b02d6	0.04956325
33	0x3d03bc42	0.03216196
34	0xbda1595e	-0.078783736
35	0xbdb556e3	-0.08854463
36	0x3b0f37a0	0.0021853223
37	0x3d44b2fe	0.048022263
38	0xbdc5c8e0	-0.096574545
39	0x3d45c2be	0.048281424
40	0x3d8e7f9d	0.06957934
41	0xbdb3c5b0	-0.0877794
42	0xbc8aeec8	-0.016959563
43	0xbdb3d98d	-0.08781729
44	0x3da100bf	0.078614704
45	0xbcab77a8	-0.02093108
46	0xbcffa048	-0.031204358
47	0xbd8fa6a3	-0.07014205
48	0xbd93b202	-0.07211687
49	0xbd50d667	-0.05098572
50	0x3cbe40a8	0.02322419
51	0xbc690490	-0.014222279
52	0xbd93d340	-0.07218027
53	0xbd1ef1fa	-0.038804986
54	0xbd4bef93	-0.049789023
55	0xbcc75748	-0.024333611
56	0xbd67f0a7	-0.05662599
57	0xbcad7f0c	-0.021178745
58	0xbc293c18	-0.010329269
59	0x3cf2824c	0.029603146
60	0xbca18d28	-0.019720629
61	0xbdb761c7	-0.089541964
62	0xbd1a8687	-0.03772595
63	0xbdb06080	-0.08612156
64	0x3c9ecf88	0.019386068
65	0xbc814b78	-0.015783057
66	0xbbec48e0	-0.007210836
67	0xbc47d8e8	-0.012197711
68	0x3d24d7de	0.04024493
69	0x3bda8420	0.0066685826
70	0xbd1809ca	-0.03711871
71	0xbda39c00	-0.07988739
72	0x3d81a4ff	0.06330299
73	0x3c90f218	0.017693564
74	0xbd81ebbc	-0.06343791
75	0xbd854422	-0.06507136
76	0x3dc60999	0.09669799
77	0x3d812255	0.063053764
78	0x3d81c091	0.06335557
79	0xbb2424a0	-0.0025046244
80	0xbdc9ab3a	-0.09847112
81	0x3c392080	0.0112992525
82	0xbd2acd9a	-0.041699983
83	0xbc9fcac8	-0.019505873
84	0x3d5633a2	0.052295335
85	0xbd376d47	-0.04478195
86	0x3ce3941c	0.027780585
87	0xbdb688d7	-0.08912819
88	0xb9edce00	-0.00045357645
89	0xbd92c52e	-0.07166515
90	0x3d98acd5	0.0745484
91	0x3db9d791	0.09074319
92	0x3d0275ba	0.031850554
93	0x3d5b2c36	0.05350896
94	0x3c47aa68	0.012186624
95	0xbb98f700	-0.0046681166
96	0xbd91396a	-0.07091029
97	0x3d3981de	0.045289867
98	0x38c01800	9.159744e-05
99	0x3a9c9800	0.0011947155
100	0xbce0ef1e	-0.02745777
101	0x3e10d524	0.14143807
102	0xbd9813bf	-0.07425641
103	0x3d3427b2	0.04398317
104	0x3dc4f735	0.096174635
105	0xbd54b634	-0.051931575
106	0x3d8fae80	0.07015705
107	0x3d3741aa	0.044740357
108	0x3dc07e91	0.093991406
109	0x3dc6cbb6	0.097068235
110	0x3de756fd	0.112958886
111	0xbd6cb978	-0.057794064
112	0x3dbf89e2	0.09352471
113	0x3c38fce7	0.011290765
114	0x3e198468	0.14991915
115	0xbd86d058	-0.06582707
116	0xbb1289ce	-0.002235997
117	0xbeb30892	-0.34967476
118	0x3b5441cc	0.003238785
119	0xbd208708	-0.039191276
120	0xbde6601d	-0.11248801
121	0x3c899c64	0.016798206
122	0xbae8ece1	-0.0017770791
123	0x3d2ab042	0.041672
124	0xbc7f8230	-0.015595004
125	0x3d21cc8e	0.03950172
126	0xbd4acbb1	-0.04951066
127	0xbda476e6	-0.080304906
128	0x3de11dac	0.109919876
129	0xbc9484ed	-0.01812979
130	0x3d98fb1f	0.074697725
131	0x3d0fc6b5	0.03510161
132	0xbe0803fa	-0.13282767
133	0xbde8e324	-0.11371449
134	0xbd5fd71a	-0.054648496
135	0x3c948d7c	0.018133871
136	0x3bb27b91	0.005446859
137	0xbce61dfd	-0.028090471
138	0xbc939876	-0.018017035
139	0x3e8b07aa	0.27154285
140	0x3d8be6de	0.06831144
141	0x3e28522d	0.16437598
142	0xbce9289d	-0.028461749
143	0x3c93e5c0	0.01805389
144	0xbd06c481	-0.032902244
145	0x3db26dfd	0.08712385
146	0x3cfeaba9	0.031087713
147	0x3d32aecb	0.043623727
148	0x3d20dc54	0.03927262
149	0xbdafa8e6	-0.08577137
150	0xbce637e3	-0.02810282
151	0x3d6be161	0.057587985
152	0xbdfbf0c6	-0.12301783
153	0xbd833446	-0.06406455
154	0xbb59d4ea	-0.003323848
155	0x3df0f1fe	0.11764906
156	0xbd040e0c	-0.03223996
157	0xbdf26663	-0.11835935
158	0x3acd2a25	0.0015652819
159	0x3dfb3861	0.12266613
160	0xbcad240c	-0.021135353
161	0x3d92d22a	0.07168992
162	0xbcf7de0d	-0.03025725
163	0x3bca0280	0.006164849
164	0xbef7c872	-0.48395115
165	0xbd0898b6	-0.03334876
166	0x3cec6a15	0.028859178
167	0xbe799363	-0.2437263
168	0xbe82ff93	-0.25585613
169	0x3dcfd9a2	0.10148932
170	0xbbde39f6	-0.006781812
171	0x3cb6d6ba	0.022319186
172	0xbe0ced88	-0.13762486
173	0xbde42322	-0.111395136
174	0xbd5ca9af	-0.05387276
175	0xbd3f69b9	-0.046731684
176	0x3e22e004	0.15905768
177	0x3d8f3abf	0.06993627
178	0x3d997dcc	0.07494697
179	0x3dc2da5a	0.095143035
180	0x3dc29ee9	0.09502966
181	0x3d00ddc2	0.031461485
182	0xbd93d196	-0.0721771
183	0xbdee2c41	-0.116295345
184	0x3da7580f	0.08171093
185	0xbd6910cd	-0.056900788
186	0x3b73a1df	0.003717534
187	0x3df5d0cc	0.120027155
188	0x3da6e9a9	0.08150036
189	0x3dbdfe25	0.0927699
190	0x3d484396	0.04889258
191	0x3cb03c79	0.02151321
192	0xbc7ec2d7	-0.015549383
193	0x3db5e2ad	0.088811256
194	0x3b8ebbb4	0.004355872
195	0xbe12bc7c	-0.14329714
196	0xbebf3b7c	-0.3735007
197	0xbe14513c	-0.14484113
198	0xbd8efd11	-0.06981862
199	0x3df0f238	0.117649496
200	0x3de836b8	0.11338562
201	0x3cfec4b2	0.031099651
202	0xbd9fff43	-0.07812359
203	0x3dc60de6	0.0967062
204	0xbd4e6811	-0.050392214
205	0x3d3b0be9	0.045665655
206	0x3d39e8a6	0.045387886
207	0xbdaf3280	-0.08554554
208	0xbdb0be11	-0.08630002
209	0x3d5dec98	0.05418071
210	0xbe1e90bc	-0.154849
211	0xbbbe41bc	-0.005806176
212	0xbdb49ca8	-0.08818942
213	0xbdc4399f	-0.09581303
214	0xbdbb35cf	-0.091411225
215	0x3d9f3c6f	0.07775199
216	0x3ce0d0d3	0.027443325
217	0xbe49f3bc	-0.19721884
218	0x3ce95abc	0.028485648
219	0xbd94efe2	-0.072723165
220	0xbd1a3508	-0.03764823
221	0x3c81603b	0.015792957
222	0xbd1e41ac	-0.03863685
223	0x3da7887c	0.08180329
224	0x3d9e4481	0.0772791
225	0x3deedac3	0.11662819
226	0x3b50d68f	0.0031866168
227	0xbdbaa1e5	-0.0911291
228	0xbd0f7b4a	-0.035029687
229	0x3d622f3f	0.05522084
230	0xbd2787f4	-0.04090114
231	0x3d3215df	0.04347789
232	0xbcf1f9d4	-0.029538073
233	0xbe52def7	-0.20592867
234	0xbdfec65e	-0.12440179
235	0x3d1dd735	0.038535316
236	0x3d0d0f6e	0.034438543
237	0x3dbd2dcb	0.0923725
238	0x3b414ba6	0.0029494553
239	0xbe65ed88	-0.22453892
240	0x3d66409f	0.05621397
241	0xbdab9f39	-0.08379979
242	0x3db15452	0.08658661
243	0x3d326e5e	0.043562286
244	0xbdb9090d	-0.090349294
245	0x3bd3358c	0.0064455923
246	0xbdfc2808	-0.12312323
247	0xbda89c98	-0.08232993
248	0x3d8dd2f0	0.06924999
249	0x3dad5418	0.08463305
250	0x3c82c910	0.015965015
251	0x3e01305e	0.12616107
252	0x3af5041f	0.0018693245
253	0xbda0bb45	-0.07848219
254	0x3dc933ae	0.0982431
255	0xbe685613	-0.22689085

fc2.bias f4 [100]
0	0xbbc51f30	-0.0060156807
1	0xbcacdfa0	-0.021102726
2	0x3d999be5	0.07500438
3	0xbdc385f8	-0.09547037
4	0x3d447d62	0.047971137
5	0x3daa5f9e	0.08319019
6	0x3d95fad0	0.07323229
7	0xbdd5e12e	-0.1044334
8	0xbcb0cd67	-0.021582318
9	0x3c27b560	0.010236114
10	0xbb3069b4	-0.0026918473
11	0x3dbc98e4	0.09208849
12	0xbd3111f0	-0.043229997
13	0xbd221d13	-0.03957851
14	0x3d6afb31	0.05736846
15	0x3db92f2b	0.090422
16	0x3d82f9db	0.063953124
17	0x3dd454f1	0.10367764
18	0x3d2d33dc	0.042285785
19	0xbd36686b	-0.044533174
20	0x3d53e1f2	0.05172915
21	0xbd790b4f	-0.0608018
22	0x3e00e189	0.12586035
23	0x3dc75941	0.09733821
24	0x3d848366	0.06470375
25	0xbdd9af91	-0.1062919
26	0x3d76bfac	0.060241386
27	0xbda1e1ca	-0.07904394
28	0xbd4568e0	-0.04819572
29	0xba350c04	-0.00069063925
30	0x3d7bb6ab	0.061453503
31	0xbbc06f5b	-0.0058726496
32	0x3ca6b8fc	0.02035188
33	0x3c3e1d27	0.01160363
34	0x3d49c374	0.049258664
35	0x3d10ba85	0.03533413
36	0xbc2cc26a	-0.010544399
37	0x3c82de0e	0.015975025
38	0x3d1e5020	0.038650632
39	0xbd1a237e	-0.037631504
40	0xbd8668e0	-0.06562972
41	0x3d85b4fc	0.06528661
42	0xbd00f124	-0.03147997
43	0xbd8ba6fd	-0.0681896
44	0xbcfdd967	-0.030987455
45	0x3d992578	0.0747785
46	0x3daa2d20	0.08309388
47	0xbd185cb6	-0.03719779
48	0xbdaada80	-0.08342457
49	0x3d07cff4	0.033157304
50	0xbc0e4c2b	-0.008685152
51	0xbd469701	-0.048483852
52	0xbcbb5c3c	-0.02287113
53	0xbd8cb7ed	-0.068710186
54	0xbdc66e65	-0.09689025
55	0x3dde8399	0.10864944
56	0x3cb8b899	0.02254896
57	0xbb06cb0a	-0.0020567798
58	0xbd9689b8	-0.073504865
59	0xbc2e05e8	-0.010621525
60	0x3dce0b9d	0.10060809
61	0xbb803844	-0.0039129574
62	0xbd473dfc	-0.048643097
63	0xbd99484e	-0.07484494
64	0xbd95f073	-0.07321253
65	0xbd474b9a	-0.048656084
66	0x3da65c4a	0.081230715
67	0x3b6512c0	0.0034953803
68	0x3d8b481d	0.06800864
69	0x3d9c498d	0.07631216
70	0xbdcfcfac	-0.10147032
71	0xbc88e8f7	-0.016712649
72	0x3c169a8d	0.009192121
73	0xbdf05f0b	-0.11736878
74	0x3d2c0806	0.04199984
75	0xbd2304ea	-0.03979961
76	0xbcfb99c2	-0.030712966
77	0x3d99a571	0.075022586
78	0x3d66b120	0.056321263
79	0xbc2d1046	-0.010562962
80	0x3dacfb4e	0.0844637
81	0xbd7882ef	-0.060671743
82	0xbc33ce1e	-0.010974435
83	0x3cb8baa0	0.022549927
84	0xbcc7a0c9	-0.02436866
85	0x3db18803	0.0866852
86	0x3c44a604	0.012002472
87	0x3d7cccd7	0.061718788
88	0xbd96ba55	-0.07359759
89	0x3dc4e567	0.096140675
90	0x3c365ec6	0.011130994
91	0x3dbd30c1	0.09237815
92	0x3d593dda	0.053037502
93	0x3dbcd6ae	0.092206344
94	0x3d915e39	0.0709805
95	0x3d389054	0.045059517
96	0xbda289b0	-0.07936418
97	0x3c966c16	0.018362086
98	0x3d0f29a9	0.03495184
99	0x3db18420	0.08667779

fc3.weight f4 [100, 100]
0	0xbd3a17d0	-0.045432866
1	0x3d47a36c	0.048739836
2	0xbc974983	-0.01846767
3	0x3cfa02f6	0.03051899
4	0x3d3785a7	0.044805195
5	0xbd2eb497	-0.042652693
6	0xbbfe2a15	-0.0077564814
7	0xbdbad865	-0.09123305
8	0x3e20d4c5	0.15706165
9	0xbde20be9	-0.11037428
10	0x3dd96580	0.10615063
11	0xbd9b09a4	-0.07570198
12	0x3e34fbaa	0.17674127
13	0x3de89282	0.11356069
14	0xbd93121b	-0.07181188
15	0x3c5ba6b8	0.013406448
16	0x3d4468aa	0.047951378
17	0xbd3f7cf4	-0.046750024
18	0xbd860c89	-0.0654536
19	0x3d1da0a6	0.038483284
20	0x3d88d1b1	0.066806205
21	0x3b7d5fcd	0.0038661838
22	0x3d2712ec	0.04078953
23	0xbd1175a0	-0.035512567
24	0xbc914e17	-0.017737431
25	0xbd5f9a4b	-0.054590505
26	0xbd591cbc	-0.05300592
27	0x3d724b46	0.059153818
28	0x3d97080d	0.073745824
29	0xbc2ccc77	-0.010546795
30	0x3c8062ee	0.015672173
31	0x3d2667a2	0.040626176
32	0x3d75b043	0.05998255
33	0x3da961ef	0.082706325
34	0x3d8fc6e7	0.070203595
35	0x3cfc9c0b	0.030836126
36	0x3cef13b7	0.029184205
37	0x3d93e5d2	0.07221569
38	0x3d041b06	0.032252334
39	0x3d2705f6	0.04077717
40	0xbbc66552	-0.006054559
41	0xbcea3c83	-0.028593307
42	0x3db60d75	0.088892855
43	0xbc053248	-0.008129664
44	0x3d51cd8e	0.051221423
45	0x3c969714	0.018382587
46	0x3de0b2b9	0.10971589
47	0xbd7b1d55	-0.06130727
48	0x3cacb6c8	0.02108325
49	0xbb4c75c5	-0.0031198126
50	0xbd369292	-0.044573374
51	0xbc8d5e9a	-0.017257024
52	0xbc5fd060	-0.01366052
53	0x3ccdea2c	0.025136076
54	0xbd95ff30	-0.07324064
55	0x3e52328b	0.20527093
56	0xbc96417a	-0.018341769
57	0x3e2fbb51	0.171613
58	0x3dc1e3dc	0.09467289
59	0x3da4fb91	0.08055795
60	0x3db2014d	0.08691654
61	0xbbc2e4e7	-0.0059476974
62	0xbda47b4a	-0.08031328
63	0x3d7c2b75	0.06156488
64	0xbc202416	-0.009774229
65	0x3d2c5a3b	0.042078238
66	0xbd0884f0	-0.033329904
67	0xbd79596a	-0.060876288
68	0x3cae7c38	0.021299466
69	0x3dc9977d	0.09843347
70	0x3ddb256b	0.10700496
71	0x3df6096d	0.120135166
72	0x3d209004	0.039199844
73	0x3e0863fe	0.13319394
74	0xbd37b04c	-0.044845864
75	0xbcb80ab7	-0.022466047
76	0xbcfc6504	-0.030809887
77	0xbe2f2d04	-0.17107016
78	0xbcaf7c1e	-0.021421488
79	0xbdb7ac21	-0.08968378
80	0x3d699deb	0.057035368
81	0xbd4b6ee8	-0.049666315
82	0x3dccf58d	0.100077726
83	0x3d40988d	0.047020484
84	0x3d9ddbf6	0.0770797
85	0xbd4ad7f8	-0.04952237
86	0xbd64ff9e	-0.055907838
87	0xbd2530fd	-0.040329922
88	0x3bccfd93	0.0062558143
89	0x3d479791	0.04872853
90	0xbd0629b2	-0.032754607
91	0x3d4dc121	0.05023301
92	0xbd7fc858	-0.062446922
93	0x3d2774e0	0.040882945
94	0xbd9a5c07	-0.07537084
95	0x3e0ae154	0.13562518
96	0xbdcad090	-0.099030614
97	0x3dfcbcff	0.12340736
98	0x3d0f32e5	0.034960646
99	0xbd6b2b54	-0.057414368
100	0x3dc10e41	0.09426547
101	0x3da70ead	0.08157096
102	0xbc703fb0	-0.014663622
103	0x3d3443e2	0.04401005
104	0xbd0dae8c	-0.03459029
105	0x3db00a13	0.085956715
106	0x3a9c2540	0.0011912957
107	0xbcdc8274	-0.026917674
108	0xbdb1636a	-0.0866154
109	0xbdbdc4b5	-0.092660345
110	0x3d894d09	0.067041464
111	0x3d3d0cde	0.04615485
112	0xbd35ba57	-0.04436716
113	0xbd1ee7b7	-0.0387952
114	0xbd8fbc85	-0.07018379
115	0xbd86b315	-0.06577126
116	0xbd3cb3fd	-0.046070088
117	0x3ce52a94	0.027974404
118	0xbdb0dc85	-0.08635811
119	0x3bfd0dd0	0.007722594
120	0xbdb1c770	-0.08680618
121	0xbd57fb0a	-0.052729644
122	0x3d884b31	0.066549666
123	0xbd1ae190	-0.03781277
124	0xbca67208	-0.020318046
125	0x3d27346a	0.04082147
126	0xbcae7c4c	-0.021299504
127	0xbc37a9f0	-0.01120995
128	0x3ac5b080	0.0015082508
129	0x3d6c0042	0.057617433
130	0x3cf45a94	0.029828347
131	0x3da6b3f1	0.0813979
132	0xbc8e60f4	-0.017380215
133	0x3c54f7b0	0.012998506
134	0xbd05bd9a	-0.03265152
135	0xbd62fcc3	-0.055416834
136	0xbd602b80	-0.054728985
137	0xbd41a850	-0.047279656
138	0x3d5b86d6	0.053595386
139	0x3c816e88	0.015799776
140	0xbcecb454	-0.02889458
141	0xbd8baabc	-0.068196744
142	0x3ca426cc	0.020038031
143	0x3d8760f9	0.06610293
144	0xbd90d9ca	-0.0707279
145	0xbdbfbc7b	-0.09362122
146	0x3c654050	0.013992384
147	0x3da30fa3	0.07961967
148	0x3db06e43	0.08614781
149	0xbdaa07c6	-0.08302264
150	0x3c37e650	0.011224344
151	0x3da889b3	0.08229389
152	0x3dc6aef9	0.09701342
153	0x3c8e4558	0.01736705
154	0xbc221210	-0.009892002
155	0xbaef82c0	-0.001827322
156	0xbdbb42eb	-0.09143623
157	0x3db43f71	0.08801163
158	0xbda6d675	-0.08146373
159	0xbc998a58	-0.018742725
160	0xbc5b9c58	-0.0134039745
161	0xbd976c12	-0.0739366
162	0xbdb7531d	-0.089513995
163	0xbd18803c	-0.03723167
164	0x3d9b5159	0.07583875
165	0xbd1d32f3	-0.038378667
166	0x3cab5f6c	0.020919524
167	0x3d4d39b2	0.05010385
168	0xbb773540	-0.0037720948
169	0xbd7df7ea	-0.062004007
170	0x3dade555	0.08491007
171	0xbd497e3a	-0.049192645
172	0xbd85a8ed	-0.06526361
173	0x3cea1d5c	0.028578453
174	0xbdb8bc7b	-0.09020325
175	0x3d00d02e	0.031448536
176	0x3d6e287a	0.05814407
177	0x3c27f8d0	0.010252193
178	0xbd45a923	-0.048257004
179	0x3d131416	0.035907827
180	0x3dc55915	0.09636132
181	0x3ce3ec4c	0.027822636
182	0xbdb176e0	-0.08665252
183	0x3d750dca	0.059827603
184	0x3dc88f39	0.097929426
185	0xbd4de560	-0.050267577
186	0x3d8d7bf7	0.0690841
187	0xbd3274ad	-0.043568302
188	0xbd571123	-0.052506577
189	0xbd0ac584	-0.03387977
190	0x3ca9c6e0	0.020724714
191	0xbd10867a	-0.035284497
192	0x3dc193c5	0.09452013
193	0xbd89633d	-0.06708381
194	0xbd9eb256	-0.07748859
195	0x3c60ed00	0.01372838
196	0x3db93eb7	0.09045165
197	0xbd75a25a	-0.059969284
198	0xbd96bd7d	-0.07360361
199	0x3cf93684	0.030421503
200	0x3cad38d4	0.021145262
201	0x3da39f80	0.079894066
202	0x3d821fd1	0.06353725
203	0xbba13bd2	-0.004920461
204	0x3e11a673	0.14223652
205	0x3e11b80b	0.14230363
206	0x3dcdd635	0.100506224
207	0x3e0b7c70	0.13621688
208	0xbbf7cf13	-0.007562527
209	0xbe0a890a	-0.13528839
210	0xbca000ec	-0.01953169
211	0xbe214425	-0.15748651
212	0xbdb67e96	-0.08910863
213	0x3bab7dc2	0.0052334974
214	0x3d4d747e	0.050159924
215	0x3e0f19ff	0.1397476
216	0x3db038cd	0.08604584
217	0xbd88067c	-0.06641862
218	0x3d988e36	0.074489996
219	0xbdc4a4df	-0.09601759
220	0x3d8b04b6	0.06788008
221	0x3ca464d5	0.020067612
222	0xbd97faf8	-0.07420915
223	0xbd6e29b6	-0.058145247
224	0xbd4322e9	-0.047640715
225	0x3e046ac6	0.12931356
226	0x3ca8b249	0.020592825
227	0xbd8b8eaa	-0.068143204
228	0x3dbe1f29	0.09283287
229	0xbd3de047	-0.046356466
230	0x3db83c79	0.08995909
231	0xbdc7b682	-0.097516075
232	0x3c031c3c	0.008002337
233	0x3d8afe0b	0.06786736
234	0x3c93315c	0.017967872
235	0xbd9e73a1	-0.07736898
236	0xbd58e96c	-0.052956983
237	0xbd9ed49b	-0.07755395
238	0x3d30a1ad	0.043122936
239	0x3dd8c151	0.10583747
240	0x3dd1bebb	0.10241457
241	0x3df2d259	0.11856527
242	0x3dbd325b	0.0923812
243	0xbe0cab34	-0.13737184
244	0x3dd8ada7	0.105799966
245	0xbd5efbb0	-0.054439247
246	0x3bb98330	0.0056613907
247	0x3a937d6e	0.0011252591
248	0x3d28cf7e	0.041213505
249	0x3d3c71e6	0.04600706
250	0x3c87b0a0	0.016563714
251	0x3dc56794	0.096388966
252	0xbc9577ca	-0.018245596
253	0xbd7360d7	-0.059418526
254	0xbc81ead8	-0.015859053
255	0xbd823efa	-0.06359668

fc3.bias f4 [100]
0	0xbd18528f	-0.03718811
1	0xbd98a5d8	-0.07453507
2	0xbd1a636f	-0.037692484
3	0x3c872fff	0.016502379
4	0xbdc49612	-0.09598936
5	0xbbb352b8	-0.0054725073
6	0xbdabc4a2	-0.08387114
7	0x3d91e2a8	0.071233094
8	0x3dbec752	0.09315361
9	0x3cf52e95	0.029929439
10	0x3de6d65b	0.11271354
11	0x3d4ad70d	0.049521495
12	0x3dbc39e2	0.09190728
13	0xbbb63e09	-0.0055615944
14	0x3decbf06	0.11559872
15	0x3dff56f3	0.12467756
16	0x3c9cdc46	0.019148003
17	0x3ab3c200	0.0013714433
18	0x3d8cc4f0	0.068735
19	0xbc0e57e7	-0.00868795
20	0x3df1394d	0.117785074
21	0x3dc663cd	0.09687004
22	0xbd2a9fdd	-0.041656364
23	0x3c109c1b	0.008826281
24	0xbcb6e9f7	-0.02232836
25	0xb8af6113	-8.362732e-05
26	0xbdce3537	-0.10068744
27	0xbd529708	-0.051413566
28	0xbbf6e381	-0.007534445
29	0x3cd3dea7	0.025863005
30	0xbcf48142	-0.029846791
31	0x3bbac0df	0.0056992616
32	0xbd70a92d	-0.05875509
33	0x3d9d363c	0.0767636
34	0x3e0b4f6c	0.13604516
35	0x3def419a	0.116824344
36	0xbbbda0ef	-0.005787007
37	0xbd0336f5	-0.032034833
38	0x3cf46f0f	0.029838113
39	0xbc9a7168	-0.018852904
40	0x3ca91597	0.020640178
41	0xbdcceffd	-0.10006712
42	0x3dec85ed	0.11548982
43	0x3d0e439d	0.03473245
44	0xbc39de80	-0.011344552
45	0x3cdcedc2	0.02696884
46	0xbdc4f167	-0.09616356
47	0xbca12b8a	-0.019674081
48	0xbd7870c7	-0.060654428
49	0x3c8e610f	0.017380266
50	0xbd493c0e	-0.04912954
51	0xbd5c0c18	-0.05372247
52	0x3d1947fb	0.03742216
53	0x3d578a50	0.05262214
54	0xbdce8368	-0.100836575
55	0x3da24094	0.079224735
56	0xbdc5e0a0	-0.096619844
57	0xbdca9eba	-0.09893556
58	0x3be64aab	0.007027944
59	0xbc8989fd	-0.01678943
60	0xbd73e7c0	-0.059547186
61	0x3cb2ddc2	0.021834258
62	0x3c5a4331	0.013321684
63	0xbd7f4d77	-0.062329736
64	0x3d9c7cad	0.076409675
65	0xbd775db3	-0.060392093
66	0x3d9e16bb	0.07719179
67	0xbbe7ca74	-0.007073695
68	0x3d5f58e0	0.054528117
69	0x3d34ef1e	0.044173352
70	0xbdca9fcd	-0.09893761
71	0xbd81211a	-0.06305142
72	0x3d09ef11	0.033675257
73	0x3cd05461	0.02543086
74	0xbcb1bd0e	-0.021696594
75	0x3d86fc43	0.06591084
76	0x3d4b4b92	0.049632616
77	0x3cf96731	0.030444713
78	0xbd8548cd	-0.06508026
79	0x3dff7c79	0.12474913
80	0x3d660aa9	0.05616251
81	0xbd9e7cdd	-0.077386595
82	0x3d8b949e	0.06815456
83	0xbd992ccb	-0.07479247
84	0xbd955d02	-0.072931305
85	0x3e00f5a0	0.12593699
86	0x3d37e3e7	0.04489508
87	0xbdab9b13	-0.083791874
88	0xbdbeebe5	-0.09322337
89	0x3dc7f0fa	0.097627595
90	0x3df7bc79	0.12096495
91	0xbd7b05ed	-0.06128495
92	0xbdbd66eb	-0.09248146
93	0xbc31b97e	-0.010847447
94	0x3b9ab101	0.0047208075
95	0xbd488b51	-0.048960987
96	0xbe1f4292	-0.15552738
97	0x3cf90dff	0.030402182
98	0xbbf77856	-0.007552187
99	0x3db3d78f	0.08781349

fc4.weight f4 [100, 100]
0	0xbd4131db	-0.047166687
1	0xbd315bf0	-0.04330057
2	0xbd8e39ee	-0.06944643
3	0x3c859baa	0.016309578
4	0x3d1d0a16	0.038339697
5	0xbcd53d38	-0.026030168
6	0xbd36355e	-0.04448449
7	0x3ca00868	0.019535258
8	0xbcacf97e	-0.02111506
9	0xbd4f8698	-0.050665468
10	0x3de67904	0.11253551
11	0x3d8d160d	0.068889715
12	0x3d35ba19	0.04436693
13	0xbbff9cd8	-0.0078006797
14	0x3dc44b08	0.095846236
15	0x3de21ac3	0.11040261
16	0x3df5e77f	0.12007045
17	0x3db6c962	0.089251295
18	0xbd271493	-0.040791105
19	0x3da2298a	0.07918079
20	0x3d701ee5	0.058623213
21	0x3db452a3	0.08804824
22	0xbd83a25f	-0.06427454
23	0x3cf27565	0.029596994
24	0x3cb7505f	0.022377191
25	0x3c8941a3	0.01675493
26	0xbd767b2a	-0.060176052
27	0x3d54c6c0	0.051947355
28	0x3dd859ee	0.10564028
29	0x3ce223e7	0.02760501
30	0x3e0181e6	0.12647209
31	0xbc7cab28	-0.015421666
32	0x3cc2e6ce	0.023791697
33	0x3dca3148	0.09872681
34	0x3cbc5a8c	0.022992395
35	0x3d8ce30f	0.068792455
36	0xbd2af7ae	-0.041740112
37	0x3cf98fd0	0.030464083
38	0xbd8bd7fe	-0.068283066
39	0xbd7128c3	-0.058876764
40	0x3c8f32b1	0.017480226
41	0xbda65104	-0.08120921
42	0x3dc00320	0.09375596
43	0x3dc9e96d	0.098589756
44	0xbb90bd39	-0.0044170883
45	0xbc41fee9	-0.0118405605
46	0x3d2e08a6	0.042488717
47	0xbda8a8b4	-0.082353026
48	0x3d9d2d73	0.076746844
49	0xbd9fdad0	-0.07805407
50	0xbc8c6d40	-0.017141938
51	0xbd6c0a70	-0.05762714
52	0xbe6c1891	-0.23056246
53	0xbe426f5a	-0.1898779
54	0xbdc033f6	-0.09384911
55	0x3da71d47	0.08159881
56	0xb9c8892c	-0.00038249174
57	0xbd13670e	-0.035986952
58	0xbd6a5a49	-0.05721501
59	0xbd2730a7	-0.040817883
60	0x3d4efb97	0.050532904
61	0x3dcdae71	0.10043038
62	0x3c2b4012	0.010452287
63	0x3d853b8d	0.06505499
64	0x3c729593	0.014806169
65	0x3d08f38e	0.033435397
66	0x3baf3d08	0.0053478517
67	0xbdc4f878	-0.09617704
68	0x3d93e561	0.07221485
69	0x3d2e192d	0.04250448
70	0x3ded3e29	0.11584122
71	0x3c804aa3	0.01566059
72	0xbe24d17f	-0.16095541
73	0xbbd90ab3	-0.00662359
74	0xbd0ac5bc	-0.03387998
75	0xbbfdeb71	-0.007749014
76	0x3da0f188	0.078585684
77	0xbd8e73d4	-0.06955686
78	0x3da196f7	0.078901224
79	0x3d95ecfa	0.0732059
80	0xbe3ea792	-0.1861861
81	0x3ae01df1	0.0017098767
82	0x3d7479e7	0.059686568
83	0xbe239aaf	-0.15976976
84	0xbe072f96	-0.13201746
85	0x3ddc9ffb	0.10772701
86	0xbcef85a3	-0.029238528
87	0xbd885e2c	-0.06658587
88	0xbdacc95b	-0.08436843
89	0xbddd469b	-0.108044825
90	0xbb8415c3	-0.0040309145
91	0xbb24e3fe	-0.0025160308
92	0xbd89571f	-0.0670607
93	0x3d9a5a94	0.07536808
94	0xbd0c1a2d	-0.03420465
95	0x3dc85075	0.09780971
96	0xbdee78b3	-0.11644115
97	0xbdfe0bbd	-0.12404583
98	0xbcee0c73	-0.02905867
99	0xbcb7472b	-0.022372803
100	0x3d2b1368	0.041766554
101	0x3dcb5d17	0.09929865
102	0xbde89a9b	-0.11357614
103	0x3c8ff699	0.017573642
104	0xbd54f11d	-0.051987756
105	0xbd4f5017	-0.05061349
106	0x3c9c78da	0.019100595
107	0xbce6ce73	-0.028174615
108	0x3d5c79e6	0.05382719
109	0x3e0cec1e	0.13761947
110	0x3a876dea	0.001033244
111	0xbd0dc0e3	-0.03460778
112	0x3d07a19f	0.03311312
113	0x3da177b7	0.07884162
114	0x3de920ec	0.113832325
115	0xbc73a1e7	-0.0148701435
116	0xbd9f72e7	-0.07785588
117	0xbd834456	-0.064095184
118	0xbd6acda3	-0.057325017
119	0xbcd5ba73	-0.026089882
120	0x3dab8c30	0.08376348
121	0xbc43ef1f	-0.011958866
122	0x3d120140	0.035645723
123	0x3db3c801	0.08778382
124	0x3db3bf71	0.08776749
125	0xbdc70bd2	-0.097190514
126	0x3dbfac77	0.09359067
127	0x3d9ee702	0.07758905
128	0xbc958fff	-0.01825714
129	0x3d5b487d	0.053535927
130	0x3d101084	0.035172
131	0xbcc15941	-0.02360213
132	0xbda28342	-0.07935192
133	0xbd011ba8	-0.031520516
134	0xbd4dbd46	-0.050229333
135	0xbcea51ad	-0.0286034
136	0x3db27c34	0.08715096
137	0x3e1ef7a4	0.15524155
138	0x3d2298dd	0.039696563
139	0x3c93e4fe	0.018053528
140	0xbdbb361d	-0.09141181
141	0xbd38891b	-0.04505263
142	0x3d63bcfe	0.05560016
143	0x3d0fba41	0.035089735
144	0xbd16f5b8	-0.03685543
145	0x3e16257f	0.14662741
146	0x3dbe0c16	0.09279649
147	0x3c8b8fe5	0.017036388
148	0x3e3053c2	0.17219451
149	0xbd75cc61	-0.060009364
150	0x3e04572b	0.12923877
151	0xbd35159a	-0.044210054
152	0xbd208e3a	-0.039198138
153	0xbc1e76ab	-0.009671847
154	0xbcdeb768	-0.027187064
155	0x3d13a668	0.03604737
156	0x3e00f93b	0.12595074
157	0xbdc607c7	-0.09669452
158	0xbdae218f	-0.085024945
159	0xbce1ff19	-0.02758746
160	0x3cf6792e	0.03008708
161	0xbc4b2e2b	-0.012401144
162	0x3d07f90e	0.0331965
163	0xbdbfa421	-0.09357477
164	0xbc68ffaf	-0.014221116
165	0xbd3b999a	-0.045800783
166	0xbdae0ae8	-0.08498174
167	0x3cbba9a4	0.02290804
168	0xba55ad44	-0.0008151124
169	0x3c281433	0.010258722
170	0x3bc840c9	0.0061112386
171	0x3dd83c5d	0.105583884
172	0x3e36da9a	0.17856827
173	0x3dbf1760	0.0933063
174	0xbcb19a52	-0.021680031
175	0x3d0a288e	0.033730082
176	0xbdfcd34f	-0.123449914
177	0xbb057ae3	-0.0020367436
178	0x3dc7699d	0.09736941
179	0xbcd01f61	-0.025405588
180	0xbe3ef703	-0.18648915
181	0xbd82e099	-0.06390495
182	0x3de6f1c0	0.11276579
183	0xbc151957	-0.00910028
184	0x3d922e3b	0.07137724
185	0xbccdf359	-0.025140451
186	0x3d6fbe7f	0.05853128
187	0x3dac2547	0.084055476
188	0x3dd3e2aa	0.10345967
189	0x3de34067	0.11096268
190	0xbdac6354	-0.08417383
191	0xbd199073	-0.037491273
192	0xbb03f41f	-0.0020134521
193	0xbd886e4f	-0.06661665
194	0x3d318916	0.043343626
195	0x3d9919ae	0.07475601
196	0x3e2cccfc	0.1687507
197	0xbe13f2f7	-0.14448152
198	0xbd7a0a89	-0.061045203
199	0x3dcc8c1c	0.09987661
200	0xbb904ff5	-0.004404063
201	0x3dae060f	0.08497249
202	0x3d449ce5	0.04800119
203	0xbd6995e6	-0.05702772
204	0x3d44a2f2	0.04800696
205	0x3d8a4fe1	0.06753517
206	0xbdc8e570	-0.09809387
207	0x3dd6bc61	0.10485149
208	0xbda5cc1f	-0.08095574
209	0x3d74956b	0.05971281
210	0x3caef7f8	0.021358475
211	0x3add5ec0	0.00168892
212	0xbd45ad99	-0.04826126
213	0xbcb9d67f	-0.022685288
214	0xbd949187	-0.0725432
215	0xbd4d7776	-0.050162755
216	0x3da84a3d	0.08217285
217	0x3cb8d9d1	0.0225648
218	0xbd887064	-0.06662062
219	0xbc6c50f4	-0.014423598
220	0x3d49df8d	0.04928546
221	0x3cfe9698	0.031077668
222	0x3c1f67a6	0.009729302
223	0x3c9eb540	0.019373536
224	0xbc265ded	-0.01015423
225	0x3c1e2b6d	0.009653908
226	0x3d9e4ef5	0.077299036
227	0x3d55d48e	0.05220466
228	0x3da597d3	0.08085599
229	0x3c1959ac	0.009359758
230	0xbce351ea	-0.02774902
231	0xbccad25c	-0.02475851
232	0x3bf3484c	0.00742439
233	0x3d576669	0.0525879
234	0xbda5d554	-0.0809733
235	0xbd94fa46	-0.07274298
236	0x3b01ddb9	0.0019815995
237	0xbdb86c5f	-0.09005045
238	0xbd5d67c3	-0.054054033
239	0x3b71dc38	0.0036904942
240	0x3d97bb50	0.07408774
241	0x3db85751	0.09001029
242	0xbdd993c5	-0.10623888
243	0xbd907d78	-0.07055181
244	0xbd5bafaa	-0.053634323
245	0x3ddb0665	0.10694579
246	0xbdf5138e	-0.119666204
247	0xbe0eaa23	-0.1393209
248	0xbdb793af	-0.08963715
249	0x3d53c648	0.051702768
250	0x3da9f98d	0.08299551
251	0xbd7eead1	-0.062235657
252	0xbe21a6ce	-0.15786287
253	0xbe1ec84a	-0.15506092
254	0x3d871986	0.06596665
255	0xbda997aa	-0.08280881

fc4.bias f4 [100]
0	0x3dc4d06f	0.09610068
1	0xbda4f2d3	-0.080541275
2	0x3c8bbdfb	0.017058363
3	0x3db382fd	0.087652184
4	0xbd92f304	-0.07175258
5	0xbc1a310d	-0.009411109
6	0xbdd3fcd3	-0.10350957
7	0x3bb8c07e	0.005638181
8	0x3dfb065c	0.12257072
9	0x3ba88c05	0.0051436448
10	0x3b9942c2	0.0046771476
11	0x3e1cbaec	0.1530568
12	0xbcc2e1c5	-0.023789296
13	0x3d869c78	0.06572813
14	0x3c29e236	0.010368874
15	0x3d11b24b	0.035570424
16	0xbcade5c7	-0.02122773
17	0xbda5a015	-0.08087174
18	0x3d9999c2	0.0750003
19	0xbd9f670f	-0.07783329
20	0x3df081e2	0.11743523
21	0x3d94a3e1	0.0725782
22	0x3d87ec02	0.06636812
23	0xbd506368	-0.05087605
24	0x3d87a9b8	0.06624168
25	0xbc9059a7	-0.017620875
26	0x3d643b0f	0.055720385
27	0xbdb10fc7	-0.086455874
28	0x3d482709	0.04886535
29	0x3c1ca95c	0.009561863
30	0x3d99b45e	0.075051054
31	0xbdbc5dfb	-0.09197613
32	0xbd868a56	-0.06569354
33	0x3d985640	0.07438326
34	0x3dce436f	0.10071456
35	0x3d04adf7	0.03239247
36	0xbd8e4bf7	-0.06948083
37	0x3d499c1c	0.049221143
38	0x3da5aee4	0.08089998
39	0x3e076138	0.1322068
40	0xbced6ac3	-0.028981572
41	0xbcf3c944	-0.029759057
42	0x3d1c81ef	0.03820985
43	0xbd1205dc	-0.03565012
44	0x3ca21512	0.019785438
45	0xbd8d4cd5	-0.0689942
46	0xbd328fe0	-0.04359424
47	0xbdd2211d	-0.10260222
48	0x3cb1b8a7	0.021694494
49	0xbcb37014	-0.021904029
50	0x3d86ab51	0.06575645
51	0xbd055804	-0.03255464
52	0x3d8f3e57	0.06994312
53	0xbc51d21d	-0.012806443
54	0xbdd52c83	-0.104088806
55	0xbcd964a8	-0.026537254
56	0x3e100a94	0.14066535
57	0x3e0c65c4	0.13710696
58	0x3d8e3fd9	0.06945772
59	0xbd7223ea	-0.05911628
60	0xbd819bc9	-0.06328542
61	0xbd7279a8	-0.05919805
62	0x3cdb1afd	0.026746267
63	0xbb3c2f9a	-0.0028714896
64	0x3de41df8	0.111385286
65	0x3d868227	0.06567793
66	0x3dd5753c	0.10422751
67	0xbd73cad9	-0.059519622
68	0xbd2c863f	-0.042120215
69	0xbd617273	-0.055040788
70	0x3cb81b97	0.022474093
71	0xbccb987b	-0.024852982
72	0xbd71113a	-0.05885432
73	0x3d6ac907	0.05732062
74	0xbd4b28ea	-0.049599566
75	0xbcd09758	-0.025462791
76	0xbd5ab04b	-0.053390782
77	0xb9f64912	-0.00046975218
78	0x3d6b1104	0.057389274
79	0xbd14247b	-0.036167603
80	0xbd4b70c9	-0.049668107
81	0xbdd21b07	-0.10259061
82	0xbd60e9d3	-0.054910492
83	0x3d863b4c	0.06554279
84	0x3d63e4b8	0.055638045
85	0x3db61ac8	0.08891827
86	0x3da7e794	0.08198467
87	0xbd93b728	-0.07212669
88	0xbddb57e6	-0.10710125
89	0xbd121bee	-0.035671167
90	0x3c07c2f1	0.008286224
91	0xbd9fe4e2	-0.07807328
92	0x3d255bd8	0.040370792
93	0xbd22f887	-0.039787795
94	0xbcce4460	-0.025179088
95	0x3d4b3abb	0.049616557
96	0x3dfffe7c	0.12499711
97	0xbd943b54	-0.072378784
98	0xbd7a5d5b	-0.061124187
99	0xbd7a7218	-0.061143965

fc5.weight f4 [100, 100]
0	0x3ce9b414	0.02852825
1	0x3a7e55bf	0.0009702108
2	0xbadcee45	-0.0016855678
3	0xbd5e7a0a	-0.054315604
4	0xbd5580b5	-0.052124698
5	0x3d43a81e	0.04776775
6	0x3d54fdcd	0.051999856
7	0xbd85bcdf	-0.06530165
8	0xbdc6e9ed	-0.097125866
9	0xbd762303	-0.060091984
10	0xbd1973d4	-0.037463978
11	0xbd02e5dd	-0.031957496
12	0xbdabd8a0	-0.08390927
13	0xbd51dcc6	-0.051235937
14	0x3d7215eb	0.059102934
15	0xbad457dd	-0.0016200502
16	0xbd126c30	-0.035747707
17	0xbd9ff4ad	-0.0781034
18	0x3ccb0654	0.02478329
19	0x3d24d71e	0.040244214
20	0x3da2aedb	0.07943507
21	0xbcf30a0c	-0.029667877
22	0xbdaebb9d	-0.08531878
23	0x3d30b061	0.043136958
24	0x3d805786	0.06266694
25	0xbd8ae7b6	-0.067824766
26	0x3c9096f1	0.0176501
27	0xbd3538ce	-0.044243626
28	0x3d9322df	0.071843855
29	0x3d307f23	0.043089997
30	0xbabe6280	-0.0014525205
31	0xbdc6592d	-0.09684978
32	0xbdbbc8e8	-0.09169179
33	0xbd486451	-0.048923794
34	0xbd826161	-0.0636623
35	0xbd5bb199	-0.053636167
36	0x3d7fc6cf	0.062445458
37	0x3d70ac80	0.05875826
38	0x3d5ee086	0.05441334
39	0xbdd8b341	-0.10581065
40	0x3c4ec929	0.0126212025
41	0x3ca274bc	0.019831054
42	0xbd86601f	-0.065613024
43	0x3c8a0b38	0.016851053
44	0x3c52ed10	0.012873903
45	0x3c21b2f9	0.009869331
46	0x3d242596	0.040074907
47	0xbd6f7edb	-0.05847059
48	0xbd9f721b	-0.07785436
49	0x3c94e850	0.018177181
50	0x3db4daf2	0.08830823
51	0xbc219fe2	-0.009864779
52	0x3d8518ad	0.06498847
53	0xbc60e9d8	-0.013727628
54	0x3da645e5	0.081188
55	0xbdabaef6	-0.083829805
56	0x3ce1dd17	0.027571244
57	0x3cf516ae	0.029918041
58	0xbdb5f90e	-0.08885394
59	0xbcb3a714	-0.021930255
60	0xbcff5064	-0.031166263
61	0xbcae806c	-0.02130147
62	0xbda8814a	-0.08227785
63	0x3cdf483a	0.02725612
64	0x3d2ab234	0.041673854
65	0xbd19189b	-0.03737698
66	0x3da43ee9	0.08019812
67	0x3d96ef47	0.07369857
68	0x3c9ed7e5	0.019390056
69	0x3d81b6cb	0.06333693
70	0x3ce6c89d	0.028171832
71	0x3c969d1e	0.018385466
72	0x3bc66ae0	0.006055221
73	0xbda1f6d9	-0.079084106
74	0x3d078c75	0.033092935
75	0xbc8e7f88	-0.017394796
76	0xbde2b4d6	-0.11069648
77	0x3d9943dd	0.07483647
78	0xbdcc4463	-0.09973981
79	0x3ca30b2c	0.019902788
80	0x3d6d77df	0.057975646
81	0xbdb0e47d	-0.08637331
82	0xbd37e5ca	-0.04489688
83	0xbbc7b5bd	-0.006094663
84	0x3d9fda08	0.07805258
85	0x3d925d03	0.07146647
86	0xbd20734c	-0.039172456
87	0x3dc445d2	0.0958363
88	0x3d18ecd2	0.037335224
89	0xbcf0cb94	-0.029393949
90	0xbd6419da	-0.055688716
91	0x3cac1a94	0.021008767
92	0xbd660a5d	-0.056162227
93	0x3d6c3fe8	0.057678133
94	0x3da92e0e	0.08260737
95	0x3d10fabe	0.035395376
96	0xbdceb1c8	-0.10092503
97	0x3d730e01	0.059339527
98	0xbcc0f3b6	-0.02355371
99	0xbd16ef55	-0.03684934
100	0xbd91f7b6	-0.07127325
101	0x3c9d9ec8	0.019240752
102	0xbd1c0187	-0.038087394
103	0x398e9755	0.00027197102
104	0x3d3855f3	0.045003843
105	0xbd31b473	-0.04338498
106	0xbda39f9a	-0.07989426
107	0x3d8062fa	0.06268878
108	0x3d9bf299	0.07614631
109	0x3c26a3c6	0.010170883
110	0x3d223b06	0.03960707
111	0xbdbb5dfb	-0.09148785
112	0x3c241fb8	0.010017328
113	0xbdd18264	-0.10229948
114	0x3daf3a14	0.085559994
115	0xbbd9a0b0	-0.00664147
116	0xbdb5035d	-0.08838532
117	0xbd0469ba	-0.03232739
118	0x3d863c3d	0.06554458
119	0x3d9a7431	0.07541693
120	0x3c0de6fe	0.00866103
121	0xbc939578	-0.018015608
122	0xbcbe8b8f	-0.023259906
123	0xbc8a6a90	-0.016896516
124	0xbd0e5c59	-0.03475604
125	0xbd7afa77	-0.06127402
126	0xbcdce51a	-0.026964713
127	0xbc2d6d28	-0.010585107
128	0xbdacb84d	-0.0843359
129	0xbd0721ed	-0.03299134
130	0xbc694ef0	-0.014240012
131	0x3d372706	0.04471495
132	0xbda15323	-0.07877185
133	0xbd93dd18	-0.07219905
134	0x3db230d5	0.0870072
135	0xbd511dcf	-0.05105382
136	0x3d216d7e	0.03941106
137	0x3dafda5c	0.085865706
138	0xbdc3b9c1	-0.09556914
139	0x3d8f3c1d	0.069938876
140	0x3db330e2	0.08749558
141	0x3d422986	0.04740288
142	0xbdca3c5b	-0.09874793
143	0xbc27fcd8	-0.010253154
144	0x3db09e21	0.08623911
145	0x3d85d83f	0.06535386
146	0x3b8724eb	0.004124274
147	0xbda4026b	-0.08008274
148	0xbd8d8ab3	-0.069112204
149	0xbd379fd9	-0.044830177
150	0x3d932241	0.07184268
151	0xbd0079de	-0.03136622
152	0xbb994e65	-0.004678535
153	0x3c84290c	0.016132854
154	0x3db394e3	0.08768632
155	0xbb981b00	-0.0046418905
156	0x3c8a4542	0.016878728
157	0x3cfdc9c3	0.030979997
158	0x3da20631	0.07911337
159	0xbd8e1a6a	-0.06938632
160	0xbdadcecc	-0.08486709
161	0x3d8cb193	0.06869807
162	0x3cb457a0	0.02201444
163	0xbd80b10b	-0.06283768
164	0xbdc57b58	-0.096426666
165	0x3d7f5d41	0.062344793
166	0xbd928185	-0.0715361
167	0x3c3fb39b	0.011700536
168	0xbdabea86	-0.08394341
169	0xbdad8484	-0.08472541
170	0x3d47fb72	0.04882378
171	0x3c3ff4f4	0.011716116
172	0xbdc051d7	-0.0939061
173	0xbd69234a	-0.05691842
174	0x3d2fa4de	0.04288184
175	0x3d3484aa	0.04407183
176	0x3d936042	0.07196094
177	0x3da67f93	0.081298016
178	0xbd1bddac	-0.0380532
179	0xbdae3388	-0.085059226
180	0x3cf55e7b	0.029952278
181	0x3c661da8	0.014045157
182	0xbdad47d5	-0.084609665
183	0x3b02e71e	0.0019974182
184	0x3cc85d58	0.024458572
185	0xbd8c4471	-0.06848992
186	0x3da6d70b	0.08146485
187	0xbd673813	-0.05644996
188	0x3dc4ed13	0.09615531
189	0x3d2e179e	0.04250299
190	0x3b87dc80	0.0041461587
191	0x3b07a700	0.0020698905
192	0xbd8e9180	-0.06961346
193	0x3cfb259c	0.030657582
194	0x3d4b42d9	0.049624298
195	0xbd07f2aa	-0.033190407
196	0xbda8ecc0	-0.082482815
197	0xbdb790e8	-0.089631855
198	0xbc89c361	-0.016816797
199	0xbd149394	-0.036273554
200	0xbda6ea4e	-0.08150159
201	0x3d58aa8e	0.05289703
202	0xbc56b6c0	-0.013105094
203	0xbd4105f3	-0.047124814
204	0xbc63bb30	-0.013899609
205	0xbd9b2629	-0.07575638
206	0x3d21b460	0.03947866
207	0x3d4d549f	0.05012953
208	0x3d88d10f	0.066805
209	0xbd759859	-0.059959743
210	0xbd8e05a2	-0.06934668
211	0x3c01a4bf	0.007912814
212	0x3d8d96eb	0.06913551
213	0x3d98a877	0.07454007
214	0x3b6a15f9	0.0035718663
215	0xbd35540d	-0.04426961
216	0x3d98a244	0.07452825
217	0x3d0dd25a	0.034624435
218	0xbd9584e2	-0.07300736
219	0xbda49dfd	-0.080379464
220	0xbd914919	-0.070940204
221	0xbc3e0028	-0.011596717
222	0xbc676a98	-0.014124535
223	0x3d837547	0.06418853
224	0xbde24dde	-0.11050008
225	0xbd86bf17	-0.06579416
226	0x3d9ef7fa	0.077621415
227	0x3d988f51	0.074492104
228	0x3d72430d	0.059145976
229	0xbd8f2a2f	-0.06990468
230	0x3d0029fa	0.031290032
231	0xbdc6f64b	-0.097149454
232	0x3db91c84	0.09038642
233	0xbd228733	-0.039679717
234	0xbdaf81e1	-0.08569694
235	0xba8b6939	-0.0010636217
236	0x3d1e631a	0.03866873
237	0xbbcf124e	-0.0063193208
238	0xbdbd5a13	-0.09245696
239	0x3ca34bd3	0.019933617
240	0xbd5ccaf6	-0.053904496
241	0xbd84ff32	-0.06493987
242	0xbd12b1f5	-0.035814244
243	0x3ad76c00	0.0016435385
244	0xbdac7de0	-0.08422446
245	0x3d975f41	0.07391215
246	0xbdaea5e9	-0.085277386
247	0x3bfd2a33	0.007725978
248	0x3b6cdb70	0.0036141537
249	0x3c23b759	0.009992444
250	0x3d105c12	0.035244055
251	0x3d74fa55	0.059809048
252	0x3d403fba	0.046935774
253	0xbd235017	-0.0398713
254	0xba24e700	-0.0006290525
255	0xbb8fffa0	-0.0043944865

fc5.bias f4 [100]
0	0xbd30ff0b	-0.043211978
1	0xbd95941e	-0.07303642
2	0xbd1d5d73	-0.0384192
3	0x3e08cacf	0.13358615
4	0x3d58481e	0.05280315
5	0x3d957658	0.07297963
6	0x3d95906a	0.073029354
7	0xbca166d4	-0.019702353
8	0x3da7c9a7	0.08192759
9	0x3d74b450	0.059742272
10	0xbcc6036e	-0.024171557
11	0x3dc0ca08	0.094135344
12	0x3d96f32d	0.07370601
13	0xbd6764c2	-0.056492575
14	0xbbb5f6b0	-0.005553089
15	0x3c70bed5	0.014693935
16	0x3da1b499	0.078957744
17	0x3e1b3157	0.1515554
18	0xbda23de8	-0.07921964
19	0x3d7c160b	0.06154446
20	0x3d932121	0.07184053
21	0xbd7680b2	-0.060181327
22	0x3cda195b	0.026623419
23	0x3d0775cd	0.033071328
24	0x3dd71169	0.105013676
25	0x3da69857	0.08134525
26	0x3dc20555	0.09473673
27	0x3e3596e4	0.17733341
28	0x3cbf4bfe	0.023351666
29	0xbd97b352	-0.074072495
30	0x3da5a30d	0.0808774
31	0x3dc89d8f	0.09795677
32	0xbd97b5ff	-0.0740776
33	0x3d45b50e	0.04826837
34	0x3da6f8bd	0.08152912
35	0xbe4d9fa8	-0.20080435
36	0x3c356afa	0.0110728685
37	0xbdb14268	-0.08655244
38	0x3e153544	0.145711
39	0x3d196a37	0.03745481
40	0x3dcb2352	0.09918846
41	0x3c0157d6	0.007894477
42	0x3d1455a8	0.0362145
43	0x3d37b838	0.04485342
44	0xbd8ad1c1	-0.06778289
45	0x3d31a0fd	0.04336642
46	0xbd8c26bc	-0.068433255
47	0xbd43fafe	-0.047846787
48	0x3db0bb6c	0.08629498
49	0xbd98d91c	-0.07463285
50	0x3df55958	0.119799316
51	0x3d0d5da7	0.034513142
52	0xbd0baa29	-0.034097824
53	0xbd15c05c	-0.0365604
54	0x3cea2e4d	0.028586531
55	0xbbd6e3c9	-0.006557916
56	0x3d2089ab	0.03919379
57	0x3d5d2c37	0.053997245
58	0x3cb105bb	0.021609178
59	0x3dfb66e0	0.12275481
60	0x3c456cda	0.012049878
61	0x3de2dab1	0.11076868
62	0x3e1e9d39	0.15489663
63	0x3da336f2	0.07969464
64	0x3dd32b6f	0.10311019
65	0x3e27a64c	0.16372031
66	0x3cbd2171	0.023087235
67	0xbd3c03ba	-0.04590199
68	0x3e3287d5	0.17434628
69	0xbda059b7	-0.07829612
70	0xbd5f8e4a	-0.054579057
71	0xbde38ca8	-0.111108124
72	0xbd572ecb	-0.05253486
73	0x3dddf0a7	0.108369164
74	0xbd13fdcc	-0.03613071
75	0x3d32006f	0.043457445
76	0xbdbd79fc	-0.09251782
77	0xbbe5844c	-0.0070042964
78	0x3e17a8e0	0.14810514
79	0x3d2279e0	0.03966701
80	0xbe18b56a	-0.14912954
81	0x3d8b414c	0.06799564
82	0x3e12c2d4	0.14332134
83	0xbdc94833	-0.09828224
84	0xbdb7078f	-0.089369886
85	0x3e2c9ca6	0.16856632
86	0x3d498a6d	0.04920428
87	0x3d35e66c	0.0444092
88	0x3d646e15	0.055769045
89	0x3d171b2c	0.036891147
90	0x3cc4e35d	0.024034197
91	0x3d42c8f4	0.047554925
92	0xbd79c66f	-0.060980257
93	0xbd8017cc	-0.06254539
94	0x3ce096da	0.027415682
95	0x3da7f8db	0.08201762
96	0xbd9973c1	-0.074927814
97	0x3d209611	0.039205614
98	0x3d77d34d	0.060504247
99	0xbdd2bb99	-0.10289688
