resources/pretrained_models/ik_threelink_position/models/weights_600/model.pth (torch_old, 295063 bytes, 18 tensors)

fc1.weight f4 [100, 20]
00000000: d683 41bd 6d73 093e d5b3 debd 4bbf 903d
00000010: a285 133e 10bc dc3d b4ef 05be 40e2 053c
00000020: b019 debc 6632 3d3e 8a52 61be a445 643e
00000030: b677 063e 90a8 6e3c c02d fe3b 54e3 51be
00000040: 44a2 22bd 88f6 ad3c 08af 9b3d eac1 86bd
00000050: 8134 76bd 9bc9 9d3e 0a11 25be a1ed 31bc
00000060: fc80 bcbd 1ae5 fdbd 98fe 393d 1c5f 45bd
00000070: c8c2 9e3c 4615 01be be30 623e e864 b2bd
00000080: 647d 203e 96bc 293e 30b0 2cbd 1cf5 a93d
00000090: 98b2 1a3e 0288 2cbe 6ccf cdbd 001e b2ba
000000a0: a67c d3bd c380 e3bd b62a d13d 7cec 09bc
000000b0: 60e1 09be f8dd 3cbd 80d9 493c 10ee 01be
000000c0: 9c0b a6bd bed9 1d3e 8092 5dbd eede 0d3e
000000d0: 4808 ab3c c089 623b 683a 0ebe b904 4dbe
000000e0: bca4 db3d 68fc 133e 0c5d c93d ee3d 4e3e
000000f0: 7f6f 55be 5ee9 31be b5b9 3e3e 92a4 a13c
00000100: 787f ea3d a0bb 85bd 880d b53d 4071 d3bd
00000110: 3497 dd3d 3e1e a7bd 6ebb 51be ebb6 dbbd
00000120: c20c 2a3e 1736 58be f088 c1bd 20ec eabb
00000130: e09e 39bc 008a dbbc 1af6 03be 1417 3f3e
00000140: 1947 0fbe f491 8cbe b330 d33d 4a96 5f3d
00000150: 08fb b7bc a29c 613e 90d5 99bc 7a78 22be
00000160: d47f 9ebd 909d 14be 2ce2 20be 941a 31be
00000170: 5a7d 543e 5492 613e 46c8 c4bd 4893 783d
00000180: 2759 04be 7c08 1b3e e8c8 093d 2af6 cebd
00000190: 42a7 85bd b025 4a3d 5f44 26be 08b4 bc3d
000001a0: e023 be3d 7805 653d 34dd 97bd 6a52 47be
000001b0: 00bc 41be 3886 e33d 342b ab3d 7027 02be
000001c0: 9c38 3abd 7840 4b3e 714a 03be 08a5 dcbc
000001d0: 26c2 283e 8052 433b acdd 4c3e 622c 91bd
000001e0: f936 3ebe 9f21 003e 74ea 58be 9da9 e1bd
000001f0: 36ae 3f3e 587d 583e e28c 89bd 1084 393d
00000200: 8a73 243e 284c 583e a843 7f3d ca38 563e
00000210: e690 1c3e 614d 13be a035 1e3e 588c e03d
00000220: e203 073e dc8c 183e 3e64 4d3e 0010 ab3d
00000230: e853 d2bd 6935 353e e64f 0d3e 74af 2b3e
00000240: 44df 233e ac5e fdbd e67e 423e 400a b93d
00000250: c033 6abd 1c63 253e 9498 b5bd 3e73 5d3e
00000260: a60b 103e 70ae 2a3e 547c ae3d 0b09 1dbe
00000270: dd59 e6bd 2638 47be bb4a 49be 1c2c 353e
00000280: 3568 0ebe 2134 f6bd 476d 29be 6cf8 393e
00000290: 8492 283e 1f94 0bbe 917d 45be 7afd 49be
000002a0: f056 583c 40db dabc dd3f 25be 24a5 e23d
000002b0: 7c99 2dbd dc52 ef3d f04b 593d 18d8 013e
000002c0: 80e9 003e d45a 3fbe e810 0c3e 08e7 d03d
000002d0: d8f6 b0bc 38db f5bc a47d e53d 8084 cd3d
000002e0: 188a 143e a059 4f3d 9877 86bd 80cb 9e3d
000002f0: 3ae0 a5bd 244b c5bd fc52 16bd fc7d 823d
00000300: c131 1dbe 0041 ad3a 5020 03bc aefc 3c3e
00000310: 785a 9dbd 763e 3ebe 6875 fc3d e0a0 6bbd
00000320: 439f 983d 0bc7 72be c6ff 1c3e 16a0 f93d
00000330: 453e 1ebe ba03 04be 5ea6 573e 2647 023e
00000340: d4bb 76bd 2bde 5bbe 0ae2 3fbe a5e3 edbd
00000350: 8080 5dbd a064 03bc 12b7 353e 342c d03d
00000360: 502d 2abc 32ee 4f3e 60eb ad3d 40b1 aa3b
00000370: 09a9 133d 43c9 883e 82ae 9dbd 1f61 4a3e
00000380: 404c cf3d e87b a83c 28a4 433d 15ae 1bbe
00000390: 363a 10be 40ad 543d c4da 013e 6039 a0bc
000003a0: 9ee3 1abe 9a2e bdbd 58ea 7abd abab 4ebe
000003b0: 6800 6d3d 1601 a4bd c034 073c ee9a 9ebd
000003c0: c566 b4bd 7bb2 aa3d 9747 abbb b86b 523e
000003d0: 68c0 5b3e 9016 09be 90d8 363d ea40 59be
000003e0: 2279 43be c076 803d 5020 a33d d83e 8b3d
000003f0: 9e8d 8cbd aa2b b3bd c34f d0bd fc99 1bbe
-0.04724487 0.13422938 -0.10874144 0.07067736 0.14406446 0.107780576 -0.1307972 0.008171618
-0.027111858 0.18476257 -0.22004142 0.22292191 0.13131604 0.014566556 0.0077569187 -0.20496875
-0.03970553 0.02123572 0.07601744 -0.06579955 -0.060108665 0.30817875 -0.16119781 -0.010859878
-0.09204289 -0.12397213 0.045408815 -0.048186406 0.019379988 -0.12605771 0.22088906 -0.087106526
0.15672833 0.16575846 -0.042160213 0.08298704 0.1510719 -0.16848758 -0.10049328 -0.0013589263
-0.10326509 -0.11108544 0.102132246 -0.008418199 -0.1346488 -0.046110123 0.012319922 -0.1268847
-0.08107683 0.15415093 -0.05409479 0.13854572 0.020877972 0.0034566969 -0.13889468 -0.20021333
0.1072478 0.14451754 0.098322004 0.20140812 -0.20843314 -0.17374179 0.18625529 0.019731794
0.11450094 -0.06529927 0.088404715 -0.10324335 0.10819855 -0.08160065 -0.20481655 -0.10728248
0.16606429 -0.21114384 -0.09449947 -0.0071692616 -0.011329383 -0.026799202 -0.12886849 0.18661147
-0.13991965 -0.27455103 0.10312023 0.054586686 -0.022458568 0.22032407 -0.018778592 -0.1586627
-0.07739225 -0.1451323 -0.15711278 -0.17295295 0.20750943 0.22028476 -0.096085116 0.060687333
-0.12924634 0.15139955 0.033638865 -0.10105546 -0.065260425 0.049352348 -0.16237019 0.09214026
0.09284186 0.05591342 -0.07415238 -0.19465032 -0.18919373 0.111095846 0.0835785 -0.12710357
-0.045464143 0.19848812 -0.12821366 -0.026934162 0.16480312 0.0029803813 0.20006436 -0.070885435
-0.18575658 0.12512825 -0.21183187 -0.11018679 0.187188 0.21141565 -0.067163244 0.04529196
0.160597 0.21122801 0.06232038 0.20920101 0.1528965 -0.14384986 0.15450144 0.109642684
0.13185075 0.14897484 0.2005777 0.08352661 -0.1026991 0.17696156 0.1380001 0.16766149
0.16003138 -0.12371573 0.1899372 0.09035158 -0.05717826 0.16151088 -0.088669926 0.21625993
0.14066944 0.16668105 0.085198075 -0.15335481 -0.11247609 -0.19455013 -0.19657414 0.17692608
-0.1390694 -0.120216615 -0.16545592 0.18161172 0.16462141 -0.13630722 -0.19286181 -0.197256
0.013204321 -0.026715875 -0.16137643 0.11066654 -0.042382702 0.11685726 0.053050935 0.1268009
0.12589073 -0.18686992 0.13678324 0.10200316 -0.02160208 -0.030011758 0.11205605 0.10035038
0.14505804 0.050622582 -0.065657794 0.07753658 -0.080994084 -0.096334726 -0.036700234 0.06371686
-0.15351011 0.0013218224 -0.008003309 0.18455765 -0.07683271 -0.18578514 0.12327081 -0.05752647
0.07452252 -0.23708741 0.15331945 0.12188737 -0.15453441 -0.12892047 0.21059558 0.12722453
-0.06023772 -0.21471469 -0.18738571 -0.116156854 -0.054077625 -0.008019596 0.17745617 0.10164681
-0.01038678 0.20305708 0.0849216 0.005209118 0.036049876 0.2671605 -0.076993 0.19763611
0.101219654 0.020566896 0.047763973 -0.15203126 -0.14084706 0.051923037 0.12681109 -0.019558609
-0.15125892 -0.09237404 -0.061258644 -0.20182674 0.057861716 -0.080080196 0.008252323 -0.07744394
-0.08808664 0.08334824 -0.00522704 0.20548904 0.21460116 -0.13387513 0.044640124 -0.21216169
-0.19089177 0.0627265 0.079651475 0.06799096 -0.06862949 -0.08748563 -0.10171463 -0.15195459

fc1.bias f4 [100]
00000000: 29e3 1c3e fca7 c9bd d56f debd 18ec 3a3e
00000010: 9ccc 5abc 8c9e 5dbe f7c1 d53d 8b33 29bd
00000020: 97f8 8bbb 3e8d 30be b654 6c3e 1d91 233d
00000030: fcc6 fa3d e74c 193e 69fd 44be 85b9 373d
00000040: dd8f 023e 8a50 5abe e4e4 14be c1ce 1d3e
00000050: f853 48bd f063 56be 1af9 aebd 76a7 84be
00000060: 6375 423c 6bbd eb3d 42f5 37be 9040 a1bc
00000070: d0d3 73bd 45b0 5f3e 64b7 e03b a08c 1cbd
00000080: b63d 173e 9ac1 383e 8d34 21bc 787b 8e3d
00000090: 8a07 0f3d 941f 053c e038 e23c 187b 543e
000000a0: 1575 243e 647d 3bbe c80a ccbc 94f9 723d
000000b0: a32d fbbd c0ad 403e 848a 31bd 8c68 433e
000000c0: c007 a03d 4bcd 103e 3713 1e3e 4c4e 073d
000000d0: 9296 203e 035f eebd e8cd 08be 4bdc c7bd
000000e0: 91da fd3d 4653 d53d a053 6a3d 15ea 17bd
000000f0: 3b72 2e3e 70cc 173e b3e8 eabd e8a7 a63d
00000100: b865 fd3c 8e38 37be 8ff8 a33d d6b9 fc3d
00000110: 6e17 92bd 0d74 e4bd 2c69 f5bd f7a5 6bbe
00000120: 1895 ab3c d28e 363e 780f 28be 3e4b 723e
00000130: d4e7 273e 5cb8 253e cb2a 0c3d 68a2 6d3e
00000140: a1e4 223e db3d f23d 7c48 3d3d 4c7b 03be
00000150: 6243 853e e531 58be 2a3e c73d 65ff d63a
00000160: 40ae 743e 0a66 31be 0d53 943d 6f6e 453e
00000170: c9f8 4f3c 36c9 37be f1b9 9f3d 0a90 d4bd
00000180: e47b 8f3d e68e 363e bc75 febd 5c65 87bd
0.1532103 -0.098464936 -0.10861174 0.18254125 -0.013354447 -0.21642512 0.104373865 -0.04130892
-0.0042715776 -0.1724138 0.2307919 0.039933313 0.122449845 0.14970742 -0.19237293 0.04485466
0.12750192 -0.21319786 -0.1454044 0.15410902 -0.048908204 -0.2093656 -0.08543606 -0.25909013
0.0118688075 0.11510738 -0.17964652 -0.019684106 -0.059528172 0.21844585 0.0068577994 -0.038220048
0.14769635 0.18042603 -0.009839189 0.069571435 0.0349193 0.008125205 0.02761501 0.20750082
0.16060288 -0.18309551 -0.024907485 0.059320047 -0.12264564 0.1881628 -0.04334499 0.1908285
0.07813978 0.14140813 0.15437017 0.033033654 0.15682438 -0.11639216 -0.13359797 -0.097588144
0.12395204 0.10416274 0.057208657 -0.037088472 0.17035763 0.1482408 -0.11470165 0.08137494
0.030932292 -0.17892668 0.08006393 0.12340133 -0.07133375 -0.111549474 -0.119829506 -0.2301253
0.020945117 0.17827919 -0.16412151 0.23661515 0.16397029 0.16183609 0.034220498 0.23206484
0.15907528 0.11828204 0.046211705 -0.12840003 0.26027972 -0.21112783 0.09728654 0.0016403018
0.23894596 -0.17324081 0.07242403 0.19280408 0.012693592 -0.1794785 0.077991374 -0.10379036
0.07006052 0.17827949 -0.124248 -0.0661113

fc2.weight f4 [100, 100]
00000000: 8c09 d33c 4a64 2bbd d099 89bd 716d ac3d
00000010: 4cb7 d2bc 95ba 95bd 505c 1ebc 4066 cfbc
00000020: 8082 2f3c b0d1 c73b f4d8 8f3c c0ff c1bd
00000030: 3b3e 8a3d 121e 3e3d 4010 30bb d055 abbd
00000040: 0256 763d 4ab9 c5bd f8eb af3c 2cb5 eebc
00000050: ba6e 61bd c23a 3c3d 6a88 b3bd 2846 9abd
00000060: 10c1 2fbd e011 51bd 026d 89bd edb7 883d
00000070: 1053 81bd 003a 86bc 0060 6e3a d075 5cbc
00000080: 1113 a73d 04e4 d33c 78ff d8bc c47a 00bd
00000090: 3a92 69bd f050 3b3c 4012 773b 4074 e6bc
000000a0: 40c2 44bc 7c0a 08bd cc70 d6bc 4063 1bbd
000000b0: 8bd4 c8bd 4ff3 b1bd 0321 913d 6712 8c3d
000000c0: 54f7 98bc ce3b 8fbd 68a6 8dbc 10d1 c2bd
000000d0: f033 05bd 6ae6 3e3d 908c a8bd 5f4a cc3d
000000e0: c021 4bbb 22b3 3c3d 1804 a3bc fff5 8a3d
000000f0: ce14 0a3d a0e9 8cbd 383e c8bd dae1 633d
00000100: 65bf 93bd a241 0f3d 63f0 61bd 2457 d23c
00000110: 905d 67bc 4471 8bbd 7a11 5cbd 1eb6 553d
00000120: 2275 423d a228 693d c3fc 95bd 1dc8 53bd
00000130: 38a0 e4bc e39b 98bd 3575 a1bd 30d8 5abc
00000140: 7070 743c 054b a23d e0f7 923b a505 bf3d
00000150: 095b 973d a79b b2bd 00ad 53bc 6eb7 9fbd
00000160: b9db 853d 20ce 92bc 5c94 85bd ac47 a73c
00000170: 16d7 113d 7468 86bc 79c6 ad3d 7652 633d
00000180: 50b1 8f3b aa1c 9dbd f35b a3bd 2c5c 10bd
00000190: 710a 5fbd 3401 e23d c064 0a3d e98b bcbc
000001a0: 6dc6 d6bd fa00 6f3d 0e79 dd3d 516b 063e
000001b0: caf4 f03d 7b35 9abd 75ab 78bd 712d 043d
000001c0: df48 493d 0d36 a7bd 8d20 ffbd 27c7 963b
000001d0: 3657 90bd 57a8 41bd 333f 10be d7ae 6fbd
000001e0: 54ce a03c bed9 5d3d 6472 89bd f944 c83d
000001f0: 315d c93d 04b9 e1bc d4ea 18bc 7a78 543d
00000200: a042 e53b 1c5f dcbc 4263 9ebd 6d87 a4bd
00000210: 9491 393d 6639 c93c 3469 b7bc 1cf6 8e3d
00000220: 7fc9 5bbc 0c99 feba d2ec d1be 1319 d6be
00000230: c68c 41bc 3393 c6bc 4a3b b9bd 5edb 013e
00000240: 60a0 3f3e f03f 583d 4322 2fbd d2e6 6a3d
00000250: bcb4 c7bd 641d ba3c 5de0 41bc bc7a b9bd
00000260: f870 a43d d218 af3d 0652 6f3d 114e 833d
00000270: e919 27bd 0cbe 153d d401 77bd 5f64 a8be
00000280: 95a7 4a3d c03c 3dbd 00e5 58ba 689f 81bd
00000290: 6d75 38bd ad1a 88bd 7275 9abd a7c1 553c
000002a0: ae1d b2bd 10f0 3bbc 52f5 02bc 276f 83bd
000002b0: 22c2 2c3d 9850 733c 87fa 95bc 2228 f5bc
000002c0: 2010 52bd a9c5 63bc ccf9 54bd 713f 773d
000002d0: fd48 e6bd e874 133e 6b19 a8bd ae07 25bc
000002e0: b288 053e c0ad 08bd 54c8 8abd 276a 5ebd
000002f0: 15ec c1bb ce78 623d 76af 523d 46e5 553d
00000300: d834 ad3d 6ece 5c3d 8e36 94bd 9d89 0e3c
00000310: fd37 a13d d6cf 453d d643 6d3d a68e c13d
00000320: f815 933d 4511 73bc da2d 61bd d428 383c
00000330: 8ced 083d f626 a43d e8bd 4c3d 4012 163e
00000340: 4b38 cd3d 3daf a4bd 72c8 02be 996a 09bd
00000350: 331b 61bc efd5 483d c13e 1cbd 314e 7abd
00000360: b545 acbb 61a7 ba3d b076 42be 543e cdbc
00000370: 5dad a0bd 7c66 04bd 5fb4 bbbd 8680 ee3d
00000380: 184f eb3c a32b e3bd e26c 14bc def7 313d
00000390: 440c e03c e1fc d4bd 2a7c 95bd 03f3 c7bd
000003a0: fb80 8e3c f7c0 2e3c ec9a 023e 5b5e ab3d
000003b0: a5a5 af3c 50ae 173d 9257 30bf c155 34bf
000003c0: 0b93 cbbc d8ca 16be 6db4 65bd 90fe 0b3e
000003d0: 36a1 ae3d 91f7 4a3d e0a7 cebb d21f 4a3d
000003e0: a6d2 3bbd 0159 043e c0b0 ffbd ebcf 55bd
000003f0: 8e83 e93d 1147 903d 15ca 97bd 0a68 ca3d
0.025761388 -0.04184369 -0.067187905 0.08419312 -0.025722168 -0.07310978 -0.009665564 -0.025317311
0.010712266 0.0060979947 0.017559506 -0.094726086 0.06750151 0.046415396 -0.0026865155 -0.08365977
0.060140617 -0.09654482 0.021474823 -0.029139124 -0.055037238 0.045954473 -0.08766253 -0.075329125
-0.042908728 -0.051042438 -0.06710245 0.06675706 -0.06314671 -0.016385078 0.00090932846 -0.013455823
0.081579335 0.025865562 -0.026489004 -0.03136708 -0.05702422 0.011432871 0.0037700087 -0.028131604
-0.012009203 -0.033213124 -0.026176833 -0.03793645 -0.09806164 -0.086889856 0.070863746 0.068394475
-0.018672623 -0.06993829 -0.017291263 -0.09512532 -0.032520235 0.04660646 -0.08229935 0.09975123
-0.0030995458 0.04606927 -0.019899413 0.06785201 0.033711247 -0.06880498 -0.09777492 0.05563531
-0.0721424 0.0349747 -0.05516089 0.025676318 -0.014121428 -0.06808713 -0.053727604 0.052175634
0.047474988 0.056923516 -0.07323601 -0.051704515 -0.02790843 -0.07451608 -0.078836836 -0.013357207
0.014919385 0.07924465 0.0044851154 0.093272485 0.073904105 -0.087210946 -0.012919664 -0.07798658
0.065360494 -0.017920554 -0.06522438 0.020419918 0.035605513 -0.016407229 0.08485121 0.055498563
0.004385151 -0.07671483 -0.07976522 -0.035244152 -0.054453317 0.11035386 0.03378749 -0.023015933
-0.104870655 0.05835054 0.10814105 0.13126875 0.1176544 -0.07529732 -0.06071039 0.0322699
0.04914176 -0.08164606 -0.124573804 0.0046013775 -0.07047884 -0.047279682 -0.14086609 -0.05851635
0.019629635 0.054162733 -0.067112714 0.097787805 0.09832228 -0.027554043 -0.009333331 0.051872708
0.0069964677 -0.02690082 -0.07733776 -0.08033643 0.04530485 0.024563503 -0.022389032 0.069805354
-0.01341474 -0.0019424274 -0.41000992 -0.41816005 -0.011813348 -0.024240112 -0.090445116 0.12681338
0.18713522 0.05279535 -0.042757284 0.057349034 -0.09751269 0.022719093 -0.0118332775 -0.09056613
0.080293596 0.08549656 0.058427833 0.06411374 -0.040796194 0.036558196 -0.060304478 -0.32889077
0.049476225 -0.046200514 -0.000827387 -0.063292325 -0.04503386 -0.06645713 -0.07541932 0.013046659
-0.08697067 -0.01147081 -0.007993059 -0.06417685 0.042177327 0.014850758 -0.018307937 -0.029926363
-0.05128491 -0.013902106 -0.051996037 0.060363237 -0.1124439 0.14400065 -0.08207973 -0.010072632
0.13040426 -0.033368826 -0.06776491 -0.054300454 -0.0059180357 0.05529099 0.051436864 0.052220605
0.08457345 0.053907804 -0.07236968 0.008699802 0.07872007 0.04829391 0.05792602 0.09451036
0.071819246 -0.01483566 -0.054975368 0.011240203 0.033429667 0.08015244 0.049985796 0.146554
0.10020503 -0.080412365 -0.12771776 -0.033548925 -0.013739395 0.049032148 -0.038145784 -0.061109725
-0.005257333 0.09113956 -0.18990588 -0.025054134 -0.078455664 -0.0323243 -0.091652624 0.11645608
0.028724238 -0.110923074 -0.009059163 0.043449275 0.027349599 -0.10399795 -0.07299073 -0.09763148
0.017395487 0.010666124 0.1275441 0.08367606 0.02144129 0.03703147 -0.6888362 -0.7044335
-0.024850389 -0.14725816 -0.05608027 0.13671327 0.08526842 0.049552504 -0.0063066334 0.049346752
-0.045855187 0.12924577 -0.12484884 -0.05220024 0.11402045 0.07044805 -0.07411591 0.09883125

fc2.bias f4 [100]
00000000: 183f 603c f40d 7fbd 501a a9bb 0aa8 59bd
00000010: b20a 57bd 16b4 ecbc 0111 2abd 143e a33d
00000020: 20d6 813b 25e0 be3d 5631 9cbd e607 303d
00000030: 7fbd 8c3d cae5 3b3d 0ace 9e3d d506 48bd
00000040: 9e0b 65bd 1700 373c c1b5 86bd 6949 a03d
00000050: bfc3 6e3c 013f 8a3d 2151 c7bd d300 323d
00000060: 0c52 92bd 621f 8f3d 35f2 86bd 4471 a63a
00000070: 8b4b acbd 28d1 a0bc 5f6c 8fbc 6c4a a63d
00000080: c154 a8bd 5b57 08bd d9f1 713d 7685 06bc
00000090: 3255 1a3d cbcc c6bd c3d9 6fbd b41d adbb
000000a0: 5ecd ff3c 4ae3 bbbc 68ce ccbc aaa0 f2bc
000000b0: ae5b cabc cadc 85bd b6ed a63d 0da8 7fbd
000000c0: 5d1c 8bbd cb81 c5bd f058 afbb 6b6b 9ebd
000000d0: 2988 bc3c 787b 86bc cccc 42bc ff25 bbbd
000000e0: 180d fa3b 1bb6 42bc 3d58 b03d 2b04 f93c
000000f0: 7d48 bc3c f60f 4d3c bfa8 bcbd 2411 54bc
00000100: e14a 0e3d a312 e5bc a73f 76bd 832a 273d
00000110: 572c be3d fa20 babd ba30 79bd 7103 c03d
00000120: 772c c4bd 57f1 b8bd 3e1a c7bc 1e58 a33d
00000130: 50a3 bbbd 7661 ef3d ba67 3cbd e8d1 8fbd
00000140: e4aa ab3d 83da e13d f8f7 cbbc 8960 5c3b
00000150: 6c6a a73d 1d10 ab3d f92f 3b3d 0743 ab3b
00000160: 866e 8f3d f33c 59bd df74 7ebc 7202 da3d
00000170: c866 2bbd 2092 f4bc 6a76 16bd af33 393d
00000180: af24 ba3c f34e 1bbd 06b4 f83b fcc7 cb3c
0.013686918 -0.062269166 -0.0051606074 -0.05313877 -0.052500434 -0.028894465 -0.041520122 0.07970825
0.0039622933 0.09320096 -0.076265976 0.042976283 0.06872081 0.04587344 0.077541426 -0.04883464
-0.055919282 0.011169455 -0.065776356 0.07826502 0.014573037 0.06750298 -0.09732271 0.043457817
-0.071445554 0.06988408 -0.06589166 0.0012698551 -0.08412846 -0.019630983 -0.01750773 0.081196636
-0.082192905 -0.033286434 0.059068535 -0.0082105305 0.037678905 -0.0970703 -0.058557283 -0.005283082
0.031225856 -0.022935528 -0.025000766 -0.029617626 -0.02470192 -0.06536253 0.081508085 -0.062416125
-0.06792519 -0.09643897 -0.0053511783 -0.07735332 0.023014145 -0.016416296 -0.011889648 -0.091381066
0.0076309554 -0.011884238 0.0861058 0.030397495 0.022983784 0.012516012 -0.09211873 -0.01294354
0.03473938 -0.027962988 -0.060119297 0.040812027 0.09285801 -0.09088321 -0.060837485 0.093756564
-0.095787935 -0.09030407 -0.024304505 0.079757914 -0.09162009 0.11688511 -0.04599736 -0.07022458
0.08382204 0.11028006 -0.024898514 0.0033626875 0.08174595 0.08352683 0.045700047 0.005226496
0.070035025 -0.05303664 -0.015530794 0.10644998 -0.041846067 -0.029854834 -0.036734022 0.045215305
0.02272257 -0.03791709 0.00758982 0.024875633

fc3.weight f4 [100, 100]
00000000: ecad b9bc 7412 213c af8e 55bd 7b56 b43d
00000010: 994f c73d 4574 0239 cc17 a8bd b6bd 063c
00000020: 574d bf3d 815c b03d e396 a63d 6768 6dbd
00000030: f753 023e aec1 8e3d 706e a13d 8df8 5d3d
00000040: 9b9e 5e3a 33ae 1ebe 6d65 adbd 4154 9cbc
00000050: 0abb a33c e705 013e 9803 91bc 3f60 4c3c
00000060: 9b67 d03b 084f 0e3d eefe d13c 5f94 1b3b
00000070: dc00 f63c de0b fcbc 1645 243c f9d6 113e
00000080: eac7 ab3d bf8c f43d 2bd5 003e a9b9 823d
00000090: 30f0 11bd d4d8 ce3c 006e b5bd e8f4 a53d
000000a0: 3c2a be3d 0a19 30be e9e9 8b3d 4a6b f8bc
000000b0: e013 b23d 2888 943d 33af 963d 09ff 233d
000000c0: 97ab ba3d 0837 c3bd 4170 2fbd 00ca 33b9
000000d0: 3e44 f83d 75da 32bd 762e 66bd 25e8 a7bd
000000e0: 9a79 6d3d b53f 32bd c709 94bd df9b 7abd
000000f0: d066 173c f0e6 9e3c b6c1 5d3d e37e ab3d
00000100: f3fb 95bb 2e0d e73d c22d 9f3d 0811 693d
00000110: 5146 babd 787f b4bd 4500 703c 4807 f8bc
00000120: 620a 4a3d 0988 ad3d e89f 313e 4a5a c03c
00000130: b861 90bc b6f3 18bd 26cd 50bc 1dc5 0f3d
00000140: 7120 4dbd a33e 333d 5815 e33d 9f3a dcbb
00000150: 93d6 9cbc cdd0 20bd 18a7 6dbe 780f b03d
00000160: fb04 40bd ee13 173d 78d8 8ebb 0b5e da3d
00000170: 51c6 3abe c94e 3ebd 49a3 533d 9df4 803b
00000180: f72c 11be 0580 6fbd 6a96 323d afa9 6ebe
00000190: b6dd 17bd b369 52be 1de1 60be 697a b13d
000001a0: 74a9 323c acfc 36bc 1336 c13d 5c8a ef3d
000001b0: a07f b03c 11da 8b3c c638 463d b06c 8cbb
000001c0: 6f5f 9e3d 1f35 29bd 03aa 43bd e3cd 2dbd
000001d0: 6314 073e d5e4 103e 5724 a53c e601 7a3d
000001e0: d3b4 173d 3e11 643c 3004 a43d 3525 993d
000001f0: c669 20bd fd5a bf3c c9e1 fe3c dda9 b6bd
00000200: bcf9 86bd c01c 46be c034 68bd 3224 cd3d
00000210: 867e a93d bc42 55bc 7ebd 463b 6bc5 a43d
00000220: 38e2 af3c 0092 35bb 9bdb 863d a6d7 a83b
00000230: 70e4 5ebb d003 94bd 3056 6dbb 0dff 45bd
00000240: 6669 81bd ebc6 3cbd c358 8cbc 0100 363d
00000250: b33f c3bd 82e3 303d 1115 aa3d 3260 3a3d
00000260: 2c31 6fbd 10af c93c d426 67bd 9788 09ba
00000270: d92a ccbd 9452 9c3d 117a b9bd 6238 643d
00000280: bdee a4b9 01af 533d 91fe a3bb 437a e2bc
00000290: 9ecf 4bbc 94df 243d 8376 363d 4fb8 44bc
000002a0: ec1f b63d 00de b83c fb6f 3bbd 5aaf 3ebd
000002b0: 93a7 ca3d 4459 41bc 7344 80bd c1e0 af3d
000002c0: 7384 90bd ea81 abbd a3eb 2b3d 880b 003e
000002d0: 6220 1abd 83fa 3a3a 6dbd ef3d 1bf7 4cbd
000002e0: 6eb8 d53d f1e4 153c 62ce 573d caf7 823d
000002f0: 8d96 85bc 12ed b43d 74bf 503d 261f 8f3d
00000300: 91f3 9fbd 20ca 743d 512d 393c f937 27bd
00000310: c4e0 8fbd fe12 8abe 223f 8c3d 5650 80bc
00000320: 0038 5a3b 68e5 b2bc 0414 95bd 6d3b bdbd
00000330: 6f3b 9b3d 6659 113d 9b30 b83d c9ae 5f3d
00000340: 6a6a 23bd fdab 85bd 76ea 223d d8ad 9cbc
00000350: 4bcc d03d 5d9d e23d b5b8 683d b9fd ed3d
00000360: d9da 133d 5fe2 a0bc 1472 b9bc d0a2 11bd
00000370: 3831 eb3d a0a4 07bd f822 f1bb aabf 8a3d
00000380: 06b5 9d3d 8baa 9d3d 4b25 df3d e496 693d
00000390: 984a 043c 86f0 dfbd 147e afbd 09db 963d
000003a0: f2fc 7b3d bff1 8a3d 1d6b 833a 2858 df3d
000003b0: 114e 9e3d f81a a9bc 099b 363d e3d5 103e
000003c0: 8df5 bd3d 1963 0bbe 4614 643d 1beb 26bd
000003d0: 9781 b33c 0f1b 6dbc 4e72 1cbd 448c 853c
000003e0: 7d06 773d 672c a03d e364 10bd 3dd5 99bd
000003f0: aa66 5dbd 09ec df3d 2d13 cc3d 6131 93bd
-0.02266594 0.00983106 -0.052138027 0.08805557 0.09731979 0.0001244108 -0.08207664 0.008223942
0.09340923 0.08611394 0.08134248 -0.057960894 0.12727343 0.06970535 0.078823924 0.054192115
0.0008492262 -0.15496139 -0.08466611 -0.019083144 0.019986648 0.12599908 -0.017701909 0.012474119
0.006360007 0.03474334 0.025634255 0.002373956 0.030029707 -0.030767377 0.010026237 0.14242162
0.0838774 0.11940908 0.12581317 0.06383068 -0.03562945 0.025249876 -0.088588715 0.08103353
0.09285399 -0.17197052 0.06831724 -0.030324597 0.08695197 0.07252532 0.07357635 0.040038142
0.091147594 -0.09531981 -0.042831663 -0.00017146021 0.12122391 -0.043665368 -0.056196652 -0.08198575
0.057977296 -0.043517787 -0.072284274 -0.061183807 0.009240821 0.019397229 0.054139815 0.08373811
-0.004577154 0.11281811 0.077723995 0.056901008 -0.09095443 -0.08813375 0.014648502 -0.03027691
0.049326308 0.08473212 0.17346156 0.023480553 -0.01762472 -0.037341796 -0.012744224 0.03510009
-0.050079767 0.043760907 0.11088055 -0.0067208554 -0.019145286 -0.039261628 -0.23208272 0.085967004
-0.04687975 0.03688424 -0.004359301 0.106624685 -0.18239714 -0.046461854 0.051669393 0.00393541
-0.14177309 -0.0584717 0.043600477 -0.23306917 -0.037076674 -0.20548134 -0.21960874 0.08665926
0.010904659 -0.01116864 0.09434142 0.11696312 0.021545231 0.017071756 0.048393987 -0.0042854175
0.07733046 -0.041310426 -0.047769558 -0.042432677 0.1319137 0.14149792 0.02015893 0.061036967
0.03703768 0.0139201265 0.08008611 0.074778 -0.039163373 0.023358816 0.031113522 -0.089191176
-0.06590602 -0.19346905 -0.05669093 0.10016669 0.082760856 -0.013016399 0.0030325348 0.08045467
0.021470174 -0.002770543 0.06584855 0.0051526604 -0.003401067 -0.0722729 -0.0036214702 -0.04833894
-0.06318931 -0.04608814 -0.017132169 0.044433597 -0.09533634 0.04318572 0.08304799 0.045501895
-0.058396503 0.02461961 -0.056433514 -0.0005246489 -0.0996911 0.07632938 -0.090564854 0.055717833
-0.00031458391 0.05168057 -0.005004712 -0.02764619 -0.0124396365 0.040252283 0.044546615 -0.012006833
0.08892807 0.022566795 -0.04576109 -0.046553947 0.098952435 -0.011801068 -0.06263056 0.0858779
-0.07056513 -0.083743885 0.041972768 0.12504399 -0.03762854 0.0007132666 0.11706052 -0.050040346
0.10435568 0.009148822 0.052687056 0.06394918 -0.01630714 0.0883428 0.050963834 0.06988363
-0.078101285 0.059763074 0.011302308 -0.040824864 -0.070252925 -0.26967615 0.06847979 -0.015663307
0.0033297539 -0.021837905 -0.07279208 -0.0923985 0.075796954 0.035485648 0.08993646 0.054610047
-0.039896406 -0.06526945 0.03977438 -0.019125864 0.10195216 0.11065171 0.056816775 0.116206594
0.03609738 -0.019639192 -0.022637405 -0.03555566 0.11483997 -0.033115983 -0.007358905 0.06774838
0.07700543 0.07698544 0.10895785 0.057028666 0.008074425 -0.10934548 -0.08568969 0.073659964
0.061520524 0.06784391 0.0010026429 0.10905486 0.07729734 -0.020642743 0.044581447 0.14144091
0.09275351 -0.13612022 0.055683397 -0.040751558 0.02191238 -0.014471783 -0.038194947 0.016302235
0.060308922 0.07820969 -0.035252463 -0.07511375 -0.054052986 0.10933692 0.09964595 -0.07187153

fc3.bias f4 [100]
00000000: 47ab 363d f4fc 9b3d 2fa6 b63d ccbd 293a
00000010: 9645 abb9 b3f5 d83d 1ad4 e4bb 78e4 f3bc
00000020: c073 07bd 704b 37bd 2bc5 753d 894b c2bd
00000030: ee97 e43d 09e0 66bd 4426 1dbd 950b 093c
00000040: 229f 60bc e3cf 223d 371a 1ebc f0de eb3d
00000050: 50f9 41bc 12bb 19bd 9a87 97bd b95b c23d
00000060: c24c 0e3c f2bd 89bd 4095 e33d 3f12 c03d
00000070: 0724 65bd 59a6 a63d 0390 51bd 3a24 adbd
00000080: 7499 a4bd 3ae4 82bd 4f9f fc3b a41a 18bd
00000090: 4c9d 823d 969b 89bd dcd5 46bd 5e7b 173d
000000a0: 7d66 9b3d 0bd4 243d ddba a4bd 9282 7abd
000000b0: 9cdb b0bd 7515 36bd a53c 08bd eff4 29bd
000000c0: 9cfe 43bd 60b1 79bd c8d2 a53d df95 14bd
000000d0: dfb2 1e3b 8801 86bd c23b 853d 161e 603b
000000e0: 36fc 303d 20dd bfbc 80fd ecbb 3e44 d43d
000000f0: 4920 e13c fabc 4b3d 86ed 083d 12e9 84bd
00000100: de4d c2bd 2187 8dbd 3373 d03d 36f3 5d3d
00000110: 128e 5cbd b690 5ebd a316 433c 5d2c 383d
00000120: 600c 9d3d 6981 953d ff17 703d 1b91 d83b
00000130: cbcf 9abd 6c06 c5bd 98fd 9a3b bc23 d9bd
00000140: 40eb cebc 19ad b53d 027a 0e3c 5ceb 7a3c
00000150: 4af1 a8bd adb2 9c3d 42bb 83bd abbc 6c3d
00000160: dde7 653c 2012 bf3b ed49 a4bd 74f7 0fbb
00000170: 202f c33c 42f8 893b 6042 f93c 6168 3f3d
00000180: 44ca d73d 2594 a2bd f8a4 90bd 409c 93bc
0.044596937 0.07616606 0.08918416 0.00064751203 -0.00032667507 0.105937384 -0.0069832923 -0.029772028
-0.033069372 -0.044749677 0.060002487 -0.094870634 0.11161791 -0.056366 -0.03836657 0.008364578
-0.013709815 0.039749037 -0.009649805 0.11517131 -0.011839226 -0.03753192 -0.07398911 0.09490151
0.008685293 -0.06725682 0.111124516 0.0937848 -0.05594256 0.08137197 -0.05116273 -0.08454175
-0.08037081 -0.06391187 0.0077094208 -0.03713478 0.06377658 -0.06719129 -0.048543796 0.036982886
0.075879075 0.040241282 -0.08043454 -0.061159678 -0.08635637 -0.044454057 -0.03326096 -0.041493353
-0.047850236 -0.060960174 0.08096844 -0.03627574 0.0024215502 -0.06543261 0.065055385 0.003419762
0.043209277 -0.02342087 -0.007232368 0.10364579 0.027481215 0.04974077 0.033429645 -0.06489767
-0.09487508 -0.069105394 0.101782225 0.054187022 -0.053846426 -0.054337226 0.0119072525 0.044964183
0.07668376 0.07300074 0.058616634 0.006609095 -0.075591646 -0.096203655 0.0047299378 -0.10602519
-0.02525866 0.088709064 0.008696081 0.015314903 -0.08249147 0.07651267 -0.06432201 0.057797115
0.014032331 0.005831018 -0.08021913 -0.0021967562 0.023826182 0.004210503 0.030427158 0.046730403
0.10536626 -0.079384126 -0.07062715 -0.018018842

fc4.weight f4 [100, 100]
00000000: 3570 493c a732 30be 5030 26bd 5b98 88be
00000010: 3aec 68bb fa6d 2d3c 1b79 173c 2a27 01be
00000020: 0b74 923d 3d46 c8bd 0fb6 9dbd 363a 8abe
00000030: 5a54 db3d 3302 f7bd f3fe 983c 5d46 09be
00000040: 3e37 87bd 273c debc 18d3 7abc b51a 60bd
00000050: 3e7a 363d c36f f1bc e6d8 a33d 322a 9bbd
00000060: c869 c73d aec7 bf3d bbe9 043c f567 b23d
00000070: 83c6 3cbd caa2 e93c c421 343d 2cd0 a23d
00000080: c6bd c2bd 7259 d73d e653 49bd 7ee2 6ebc
00000090: 993e b73d cd18 c1bd 2537 14bd 928c 86bd
000000a0: 3de1 023d 8c8f eabd 5307 86bd 4988 f43a
000000b0: ea80 1cbe 3a31 fe3d decf 443d 57a3 8d3d
000000c0: 4b1b bdbc 7a10 25bd 1c3f d4bd 6685 0ebd
000000d0: 2e98 393e 481a a3bc cb6b d0bd 4aa1 d1ba
000000e0: 069d 053d 5c9a 0dbd 49a1 ebbc b0cf 9bbc
000000f0: 51d6 bebc a268 00be 8b9f 3abc 92d5 113d
00000100: 646a 73be b214 963d 5328 95bd 13ad 05be
00000110: 60af 163e 8841 7cbd 2a92 27be 8a6e 8c3d
00000120: 9290 9f3c 43ff 42bd bfe9 e8bb ada4 c73d
00000130: 80be cabc ccb2 c7ba 86cd 5abd ef0e 26bd
00000140: 9c49 7dbe 953d 34bd 8069 fcbd 5366 4e3d
00000150: 667f 6ebd e3f6 adbd dd21 f4bc 275b 553d
00000160: f7ab 20bc 9857 82bd 4736 a43d d350 23bd
00000170: 92a5 ad3c 8884 413e 99c1 693c d6a9 95be
00000180: 1300 adbd 81e9 2a3c 0652 60be a50f 84bd
00000190: 1b9f 293b 23ed 873d beab 253c 417d 5b3d
000001a0: 3eaf 13bc c1cf 70bd 960c 4f3d 029f 143d
000001b0: 7718 dc3d 5a88 c8bd d777 c53c b07b 073c
000001c0: 6845 0a3d 045f 5bbb d76d b9bd a0fc 993d
000001d0: 1cd9 d9bc 0478 49bd a5d3 c73c 120b 093d
000001e0: 9f45 923d 7af0 163c 1d9e 87bd 403d 17bc
000001f0: 78da 06bc 94bb 55bd f1a2 86bd 0b21 d03d
00000200: 3537 a2bd 198b c9bd ab48 453d 18a1 cebd
00000210: 2932 83bc 89c2 4fbd 68da 37bd f656 983d
00000220: 4372 83bd ffd7 aa3d 9685 88bd 8a8c 893d
00000230: f535 9d3d dd62 183e 4371 4a3d cde9 b8bd
00000240: 3537 66bd 880e 5e3e 8f4e eb3d e18e 1dbd
00000250: d01e 9ebc b2e1 3fbd b1d5 6a3d 1232 7fbc
00000260: 9aa2 45bd ab6f 32bc 2d6e 6f3d a6d1 ef3d
00000270: b95c 093e e044 cfbb 1cad 7d3d ba17 adbc
00000280: d6f3 34bd dde4 733d 9c7d 0bbe 7764 47bd
00000290: e03f 51be 61c5 1dbe ce71 c43d 998b bcbd
000002a0: dd98 c4bd 2c81 c3bd 98b1 d13c 4467 7c3b
000002b0: ccef eebc ef0f 433d bdea 1dbd 4f3d 593d
000002c0: 00f0 b0bd 085b ff3c fa1c b83d 6ae7 9ebd
000002d0: 99eb dabd 6b96 bcbc 5f2b c63d 348e dabc
000002e0: 0e45 aa3b 9c12 eebd bc59 c33d c1f4 67bd
000002f0: e797 4c3d 6a95 b8bd 3d10 34bd 447c c73d
00000300: 5cc3 9b3d dab7 0abe 0526 b93c 6abb 353d
00000310: 96e8 743d 6865 913d afcd 03be 18f3 e4bc
00000320: b24d e33d eb65 ffbc 82c5 c63d eeac 023e
00000330: 1a4a 983d f0a9 7e3d 0d2f 87bd 8193 263d
00000340: b8d8 a6bd 93ea a8bd cbce 91bd fe93 e03d
00000350: 64c0 ffbd 1aae bf3d 8fb4 c4bc 1aa7 603d
00000360: 1940 1bbe 1c5d f53d d632 89bd 8212 b4bd
00000370: 92d8 4b3d 56af 943d d980 fcbd 26be d9bc
00000380: 5255 d43d f01e d9bc d9d6 a23b 5e13 3ebd
00000390: c602 4a3c b93b 873c 6ed5 853d 2af8 b3bd
000003a0: 9657 4a3e 864a 4c3a 5ac8 783d b105 febd
000003b0: 99a4 233b 7a2f a7bc 3766 953d 63e8 fa3b
000003c0: b58c 74bd 9735 d63d 3286 3fbc 3e65 d63d
000003d0: bfb4 243e aba6 75be 9718 263c dac8 73bd
000003e0: c840 f3bc c7da 463d c4b1 273d fa72 903d
000003f0: cd2e 1cbe 41ba 68bd 2a18 15bc 7de0 8b3d
0.012294819 -0.17206822 -0.04057342 -0.26678738 -0.0035541193 0.0105853025 0.009245182 -0.12612596
0.0715104 -0.09779022 -0.077007405 -0.26997536 0.10709448 -0.12060966 0.018676257 -0.13405748
-0.066023335 -0.027128292 -0.015309118 -0.05471297 0.044550173 -0.029472237 0.080003545 -0.075764075
0.09736973 0.09364258 0.008112366 0.087112345 -0.046087753 0.028520007 0.043977514 0.07949862
-0.09508853 0.10515107 -0.049152277 -0.014580367 0.089474864 -0.094285585 -0.036185402 -0.065697804
0.031953085 -0.11453161 -0.06544366 0.0018656339 -0.15283552 0.12411733 0.0480498 0.0691592
-0.023084303 -0.040298916 -0.103636 -0.034795187 0.18124458 -0.019909993 -0.1017681 -0.0015993502
0.032620452 -0.034571037 -0.02876343 -0.019019932 -0.023295553 -0.12539914 -0.011390577 0.035604067
-0.23771054 0.07328166 -0.07283082 -0.13054304 0.14715338 -0.061585933 -0.16364351 0.06857021
0.019478116 -0.047606718 -0.007107943 0.09748206 -0.02474904 -0.0015235781 -0.05341866 -0.040541586
-0.24735111 -0.04400404 -0.1232481 0.050390553 -0.058226965 -0.084943555 -0.029801304 0.052088883
-0.009806625 -0.063643634 0.08018165 -0.039872 0.021197114 0.18898213 0.014267349 -0.29231137
-0.0844728 0.010431648 -0.2190629 -0.064482965 0.0025882188 0.06637027 0.010111747 0.05358625
-0.009013949 -0.05879188 0.050549112 0.036284454 0.10746854 -0.09791632 0.024104996 0.0082692355
0.033757597 -0.0033473382 -0.090541534 0.075188875 -0.026592784 -0.04918672 0.024392912 0.033457823
0.071421854 0.0092126075 -0.066219546 -0.009230912 -0.008230798 -0.05218084 -0.06574047 0.101625524
-0.07920686 -0.09840984 0.048165005 -0.1008932 -0.01601513 -0.050722633 -0.044886023 0.074384615
-0.06418278 0.08341979 -0.066661045 0.06716259 0.07676307 0.14881463 0.04942442 -0.09028969
-0.056204993 0.2168523 0.11489593 -0.038466338 -0.019301802 -0.0468461 0.0573327 -0.015575903
-0.048250772 -0.0108908815 0.05845468 0.11709909 0.13414277 -0.006325349 0.061932668 -0.021129478
-0.044177853 0.059544433 -0.13622135 -0.048679795 -0.20434523 -0.15407325 0.09592019 -0.09206314
-0.09599469 -0.09546122 0.025597379 0.00385137 -0.029167078 0.047622617 -0.038553942 0.053036984
-0.08639526 0.031171337 0.08989902 -0.077589825 -0.10689468 -0.023020944 0.09676241 -0.026679136
0.0051962202 -0.11624643 0.095386 -0.0566299 0.049949553 -0.090128735 -0.0439608 0.09740499
0.07605621 -0.13546696 0.022601137 0.044368185 0.059792124 0.0709942 -0.12871431 -0.027947947
0.110988036 -0.031176528 0.097056404 0.1276128 0.07436009 0.062173784 -0.06600771 0.040668014
-0.081468046 -0.082478665 -0.07119521 0.10965727 -0.124878675 0.09359379 -0.024011878 0.05484686
-0.1516117 0.1198065 -0.06699149 -0.087925926 0.049767084 0.07260005 -0.12329263 -0.026579928
0.10367836 -0.02650401 0.0049694595 -0.04640519 0.012329763 0.01650797 0.06534849 -0.08787568
0.19759974 0.0007793087 0.060737945 -0.12403429 0.0024969934 -0.02040838 0.072948866 0.007657097
-0.0597045 0.1045944 -0.0116897095 0.10468529 0.16084574 -0.2398936 0.010137699 -0.05951772
-0.029693976 0.048548486 0.040941015 0.0705318 -0.15252228 -0.05681825 -0.009099999 0.06829927

fc4.bias f4 [100]
00000000: a3ae 8a3c 3cb2 db3d 8499 15bc ebaa 233a
00000010: bce0 a33b 71be cd3d 8979 903d 28f7 383d
00000020: 492c 9e3d dd4b d23d 0026 29bd ecbd 9fbd
00000030: 695b d43c 0a08 393d c6a8 cfbd 1af8 93bd
00000040: 09f6 1c3d dc75 4d3d 0575 8fbd 233c c9bd
00000050: 5d78 2abd 4746 943d ccf1 c43d 248d 6c3c
00000060: f282 8abd 5e84 093d 16fa 5dbc b6bb 3c3d
00000070: b287 a33d 4f98 843d dd5d ab3d 1e5a 913d
00000080: 15e3 913d 559d 40bd 6329 a6bd 548f f1bd
00000090: 5e63 833d 134f 1abd 5730 993d cb18 063e
000000a0: 4727 d73d a42e 7dbd ffd4 b53b dad5 5dbb
000000b0: 1f8f 103e 838b 46bd 1fc2 043e ef9d 443c
000000c0: a074 aa3d c355 063e 398e 75bd 88a3 353d
000000d0: e411 16bd 0445 62bd 35ee e63d 5da9 6abd
000000e0: f3e7 973d e5d3 d2bb 006b 183e 0370 12bd
000000f0: 7d21 d4ba 4ae6 8fbd a543 883d e2f7 ab3c
00000100: 0b05 babd 2d4a 03bd 38a0 1bbc 7004 fb3b
00000110: 3f2b c9bd 20f5 883c 035a 3bbd 9301 3dbc
00000120: a394 9dbd 40fe bf3c 26df 8b3d 4787 0a3e
00000130: 56ae 7fbd 8e06 813b 3258 59bd 46f9 33bc
00000140: f2f3 af3d ebbd ac3d 3703 523d b6a9 30bd
00000150: ebe1 4bbd 59c6 da3d ab7a aebd 33a2 dd3d
00000160: 051c abbc 0779 9f3d e206 c63b d6d9 ef3d
00000170: 76ae bb3d 9a40 9ebc d565 1d3d 63df a33d
00000180: ec5d 2cbd 3688 b8bc 267e e03d e984 d43c
0.016928976 0.10727355 -0.009130839 0.00062434253 0.0050011557 0.100460894 0.07054431 0.04515758
0.077232905 0.10268376 -0.041296005 -0.077998966 0.025922494 0.045173682 -0.10139613 -0.07225056
0.038320575 0.050161228 -0.070047416 -0.09825923 -0.041618694 0.07239967 0.096164316 0.014437947
-0.06763257 0.0335735 -0.013548395 0.046077453 0.07984866 0.06474363 0.083675124 0.070972666
0.071233906 -0.047025044 -0.08113363 -0.11794916 0.06415437 -0.037673067 0.07479923 0.13095395
0.105055384 -0.061812058 0.0055490728 -0.003384939 0.14117096 -0.048472892 0.12964676 0.012000545
0.08323026 0.13118653 -0.059950087 0.04434541 -0.036638156 -0.0552416 0.11275903 -0.057290424
0.07417288 -0.006433951 0.14884567 -0.035751354 -0.0016184297 -0.07026346 0.06653527 0.020992223
-0.09082993 -0.03205316 -0.009498648 0.007660441 -0.09822702 0.016718447 -0.04574014 -0.01153602
-0.07694366 0.023436666 0.068296716 0.13528167 -0.06242212 0.003937549 -0.053062625 -0.010984724
0.08591451 0.084346615 0.051272597 -0.0431306 -0.049776 0.10682363 -0.08519491 0.10821953
-0.020887384 0.07786756 0.006043301 0.11711471 0.09164135 -0.019317914 0.038427193 0.08001592
-0.04208176 -0.022525888 0.10961561 0.025942283

fc5.weight f4 [100, 100]
00000000: 844d f43c b353 2c3d 08af 833c 5e8f 2d3c
00000010: 2060 4a3d 8748 0cbd c3f2 c8bd 7389 a3bd
00000020: 4c5d ddbc 437f c5bd 0003 e239 809c 89bb
00000030: 183e 863c e5ad 90bd 00bb 91b9 b898 a4bc
00000040: 9726 42bc 8671 c3bc aea9 ae3d 978d adbd
00000050: 34bb de3c 4db4 b93d b066 803c c07c 71bc
00000060: d623 993d d187 78bb 50b3 053d fdf4 24bd
00000070: cb59 1c3d 1267 5e3d 7dc4 ab3d 17a1 45bd
00000080: 8ae7 1f3d a752 23bd d822 803c 309b 79bd
00000090: 3485 b5bd 59fe 9d3d 557a 823d 041c 9bbd
000000a0: 3c9d c13c 5247 bfbc 4915 b0bd c556 e13c
000000b0: 34a9 d13c 48d0 d2bd d8cb 8abd a34e 93bc
000000c0: d514 5abd 0846 a7bd 288f debc 773f 44bd
000000d0: 0d50 ae3c 8c1c 02bd 2198 0cbd daee 74bd
000000e0: f0db 11bd ec40 58bd 4b6e ccbd daa5 73bd
000000f0: a6ca 83bd 51a8 b53d 4305 53bd fa0d 15bd
00000100: 4cdc d73c b854 98bd 5328 8dbd 4c75 41bd
00000110: 4115 973d a80c 05bc a6c3 593d bbf4 95bd
00000120: e8a6 be3c 8020 b3ba 89b8 b03d c65f dbbd
00000130: e83d a03c 64e3 423c 4b17 adbd 0383 90bd
00000140: 43d7 18bd b3e5 a9bd 64ac 1ebd 1a6d 053d
00000150: ec47 913c cbd6 873d 7375 9e3d 6662 1e3d
00000160: 354a a03d d0ff 88bb b900 cebd bcfc 8f3b
00000170: 90f0 19bd ccde ee3c f52c a3bd 9381 9abc
00000180: 1fa2 c5bd 79d4 c7bd 5290 4f3c 6cbe a13c
00000190: 0e8e a1bc be4d c6bd 09b8 bcbc be6e a6bd
000001a0: 26e5 1fbd 65eb 75bd c9b8 a1bd 9124 123d
000001b0: c9b4 5cbc 7cb8 8ebd 142a f5bc 9cad a23d
000001c0: 10d9 a6bd fe4a e93d 838c 11be 6d92 5dbd
000001d0: e342 823c 12ed 85bd d44a 07be d097 b6bd
000001e0: 7928 813d 1d3b 753d 1f57 dc3d 2e9f afbb
000001f0: d013 853d b329 303d 7ed5 1b3d 98fd 13bd
00000200: d862 903c e48d ad3d 6a90 82bd 74b6 a0bd
00000210: d9d0 8d3d 7096 a03c 8c21 efbc 4746 113a
00000220: 39a1 aa3d e83a a4bc 125b cf3c 98b4 023d
00000230: 19e3 113d 5fd3 bfbd f55a bbbd cfc5 dabd
00000240: ece5 8e3d 08a0 a1bd b7dd 17bd ce68 f23c
00000250: 8022 8b3d 05ef e8bc fab6 403d 5f85 16bd
00000260: a879 7ebd 4037 d23d 5d55 1dbd b0e8 d53b
00000270: fa51 873d e1e4 213d 71d0 b13d fc84 e23d
00000280: 1f23 673d f869 893d 1e16 a53c eb9c 03bd
00000290: 8f23 a33d 663a 343d 6144 ecbd ba2d 28be
000002a0: 18a3 17bc 6aac d5bc fa13 18bd 690d 803d
000002b0: bce7 57bd b812 bd3c ed6b 923d b86a dbbc
000002c0: 6ef9 46bd 4d1b 3cbc 2477 98bd 55f9 8d3d
000002d0: a3b4 f63d ca60 fb3d ba51 d53c b136 2abd
000002e0: 2d2a 90bd 4577 d13d e213 763d 63ec 8d3d
000002f0: 3dec 21bc cadd 63bd 531c 4b3d d914 e6bc
00000300: faac 963a edbe adbd a810 253d a8cd b33d
00000310: 4d56 a63b 346c efbc b103 1bbd dd5f 18bd
00000320: fd9d 5fbd 5bf4 d0bd 0182 7a3d e1ef 343d
00000330: f0b3 a7bd 1557 923d 96d2 06bd a786 a7bd
00000340: 122f 88bd aa9d 43bd d430 82bd a60f 94bc
00000350: fa64 433c ef6a 37bd 3e7e a3bd b063 bbbb
00000360: 7232 c8bd 4553 073d 99ae d8bd 331e abbd
00000370: dee4 0c3d d503 5b3d 97b9 a53d 8188 5abd
00000380: a3f1 c7bd da31 933d 0f0f 8bbd 5092 fe3b
00000390: aae4 cebd 7bff 95bd e75d abbd 4d5b a03d
000003a0: bdde a4bd 23a2 51bc e736 b33d be62 a1bd
000003b0: 2088 24bd c8b9 84bd 4284 563d 19e9 203a
000003c0: ac41 5e3c 4042 e33c 1883 8fbd ca7f 82bd
000003d0: f21f b23d a145 453d 4891 4f3d 9ad6 4fbd
000003e0: dd5a 2f3d 1998 dbbd 124f ff3c a05b 4cbb
000003f0: 4f18 6c3d 88c6 b3bc 5b1b 5e3c 9353 9ebd
0.029822119 0.04207201 0.016074672 0.010593263 0.04940808 -0.034248855 -0.09811928 -0.07985201
-0.027022026 -0.09643414 0.00043108314 -0.0041995645 0.01638703 -0.07064418 -0.0002779588 -0.020092353
-0.011850021 -0.023857843 0.085284576 -0.08474272 0.027188875 0.09067593 0.015673965 -0.014739215
0.07477538 -0.003792275 0.03264171 -0.0402727 0.03817157 0.054297514 0.083870865 -0.04824933
0.039039172 -0.039873745 0.015641615 -0.060939014 -0.08863297 0.077145286 0.06370989 -0.07573703
0.023634546 -0.023349438 -0.0859781 0.027507195 0.025593378 -0.10293633 -0.06777161 -0.017981833
-0.053242523 -0.08167654 -0.027167872 -0.047912087 0.021278406 -0.031765506 -0.03432477 -0.0597981
-0.03561014 -0.05279629 -0.09981974 -0.05948434 -0.064351365 0.088699944 -0.05151869 -0.036390282
0.026350163 -0.07438034 -0.06892457 -0.047231004 0.07377101 -0.008120693 0.0531651 -0.07322069
0.023272946 -0.0013666302 0.08628947 -0.10711627 0.01956077 0.011895034 -0.084517084 -0.070562385
-0.037314665 -0.08295765 -0.038738623 0.03257475 0.01773449 0.066327654 0.077372454 0.03866806
0.07826654 -0.004180886 -0.100587316 0.004394142 -0.037582934 0.029158972 -0.07967559 -0.018860614
-0.09650063 -0.09757323 0.012668686 0.01974412 -0.019721057 -0.09682797 -0.023036974 -0.08126591
-0.039036892 -0.060038943 -0.07896573 0.035679404 -0.013470837 -0.06968781 -0.029927291 0.079432696
-0.0814687 0.11391257 -0.14213757 -0.05409472 0.015901035 -0.06539358 -0.13212138 -0.08915675
0.06306548 0.059870828 0.107588045 -0.005359552 0.064979196 0.043008517 0.0380454 -0.036130518
0.017625257 0.08474329 -0.06375201 -0.078473 0.069246 0.019602984 -0.029190801 0.0005541783
0.08331532 -0.02004762 0.02531198 0.03191051 0.035616968 -0.09366488 -0.09148208 -0.1068226
0.06977448 -0.07891852 -0.037076678 0.02959099 0.0679369 -0.028434286 0.0470495 -0.036748286
-0.06212774 0.10264444 -0.038411487 0.0065279827 0.06607433 0.039524917 0.08682335 0.11060521
0.05642998 0.06709665 0.020152148 -0.03213207 0.07965767 0.044001006 -0.1153648 -0.16423693
-0.009255193 -0.02608319 -0.037128426 0.06252558 -0.052711233 0.023080215 0.071494915 -0.026784286
-0.04857772 -0.011481118 -0.07444599 0.06932322 0.120461725 0.122743204 0.026039947 -0.041556064
-0.070392944 0.10227827 0.060077555 0.06929853 -0.009882984 -0.055631436 0.04958756 -0.028086113
0.0011495643 -0.08483682 0.040299088 0.0877946 0.005076206 -0.0292264 -0.037845317 -0.037200797
-0.05459403 -0.10202857 0.061159138 0.04417408 -0.08188617 0.07145516 -0.032915674 -0.0817998
-0.06649603 -0.047757782 -0.063569695 -0.018073868 0.01192593 -0.044779714 -0.07983063 -0.005718671
-0.09775247 0.033038396 -0.10580177 -0.083553694 0.034397952 0.05347045 0.08092039 -0.053352837
-0.097628854 0.07187243 -0.067899816 0.0077689067 -0.10102208 -0.0732412 -0.0836752 0.07829914
-0.080502965 -0.012795004 0.08750706 -0.07880162 -0.04016888 -0.064807475 0.052372225 0.000613825
0.013565462 0.027741551 -0.07007426 -0.0637203 0.08697499 0.048162106 0.05067566 -0.05074177
0.042811263 -0.1072237 0.031165633 -0.0031182542 0.05764037 -0.021945253 0.013556327 -0.07730784

fc5.bias f4 [100]
00000000: 7021 093d d364 c53d 11d9 81bd 95fa 0a3c
00000010: 0022 88bd 7a26 5c3d e173 9a3d 4aa2 103d
00000020: c415 213d 24c1 523c b644 b53d 9d90 86bc
00000030: db15 f43d 2a4f 36bc 59ad 9dbd f9ca 1fbd
00000040: ec1c 06bc 20b3 d23b a537 983d 258d 293e
00000050: 8bdd aebd 166a abbd 5e48 f43c f78b f03d
00000060: 1c1f 3a3d 2013 cfbc f0c2 f33c 5c8e 9f3d
00000070: 557c 683c 4c32 203d 5fc3 733c f92a ec3c
00000080: a246 2cbd 041e 453c e2b4 823c a3db 57bd
00000090: 1e1d 623d 891b 49bd 985c 73bd 5182 fbbb
000000a0: 1775 9b3d afc2 ddbd b253 a4bd 8739 1cbb
000000b0: fc7c 783d 2b08 0a3c 8b45 a83d 80f7 c8bd
000000c0: 7090 54bd daa6 133d a80d 043e ceef 723d
000000d0: bc98 283d 9395 c3bd 4cbb 9a3c 934d c7bc
000000e0: 765f 843d 878a a63d b259 963d ad0e 8cbd
000000f0: 9158 eb3d 250d e63c 98fb 1d3c 6f50 f13c
00000100: b000 d33d 7c6e 0e3d fd8f 5f3d f8c3 4d3d
00000110: a60c 2abd c564 a4bd f735 d73d fe1e 93bc
00000120: cf1b 693d c94b fb3d 371e d2bd 7335 bc3b
00000130: c2b6 f53d 2b39 e43d dbc6 9e3d acfa ba3b
00000140: 0ef5 c43d 58d1 863d 0a86 883c 5898 313d
00000150: e7cf 043e b561 6c3c fd9a 2d3d 4bd6 e23d
00000160: c031 31bd 47b2 b53d 9994 cfbd 9db3 e83d
00000170: dda4 de3d 2c9e b63d 4389 aabc 9858 b3bc
00000180: daa4 c4bc 01db 863d 0e1a f43c efc4 e63d
0.033479154 0.09638371 -0.0634023 0.008482595 -0.0664711 0.05374763 0.075416334 0.03531102
0.039327398 0.012863431 0.08850996 -0.016426379 0.11918231 -0.011127273 -0.07699079 -0.03901193
-0.008185606 0.006430045 0.07432488 0.16557749 -0.0853835 -0.08369844 0.029819664 0.11745446
0.045439824 -0.025277674 0.02975604 0.07790825 0.014189799 0.039110467 0.014878123 0.028829085
-0.04205955 0.012031082 0.015955392 -0.052699696 0.05520355 -0.049098525 -0.059414476 -0.007675447
0.075906925 -0.108281486 -0.08023776 -0.0023838 0.06066607 0.008424799 0.08216389 -0.09812832
-0.05189556 0.036047794 0.12895834 0.059310727 0.041161284 -0.095500134 0.018888138 -0.024328982
0.0646352 0.08131891 0.07341327 -0.06838737 0.11491502 0.02808244 0.009642504 0.029457299
0.103028655 0.034773335 0.054580677 0.05023572 -0.04151597 -0.08027033 0.1050834 -0.017959114
0.056911286 0.12270314 -0.10259669 0.0057436763 0.11997749 0.111437164 0.077527724 0.005706152
0.09617053 0.06582898 0.016665477 0.043358177 0.12969933 0.014427592 0.042384136 0.110760294
-0.043260336 0.08871894 -0.10135765 0.113623835 0.10871289 0.08916888 -0.020817405 -0.02189283
-0.024004389 0.065847404 0.02979758 0.11268031

fc6.weight f4 [100, 100]
00000000: 2f24 253d b38f 6ebd e0a8 313d e837 0ebd
00000010: 955a 49bd a665 9ebd a2d9 123d 451f cdbc
00000020: d2ec 153d dbf6 6c3d 84c8 59bc 3963 3fbe
00000030: c545 de3d 274d b3bd 0a97 833b 457a 083d
00000040: 9ec3 f23d 2041 a73c b694 94bd 247f 443d
00000050: 270d e9bc 2eb3 71bc 3d6f 77bd bc6e 87bd
00000060: de93 cebc 9641 e0bc 1b1a 2fbd 6ee3 ffbc
00000070: 172e 21bd 2a9f 12bd 83ab 92bd 97d4 b0bd
00000080: 0fc6 f2bd e0f1 95bd 3928 24bd 0255 943d
00000090: 12bc 063d 8bf5 a63d 334a 8fbd 4a0e 98bc
000000a0: e34a 643d 18d1 2cbd 67fb beba 60d2 6ebd
000000b0: dec0 84bc 0d6d 98bd 3648 1cbc 2a0e d0bd
000000c0: 10e6 1cbe 7dc7 bb3d d033 8d3d 9e08 d33d
000000d0: 8814 76bd 292f f43b 8a3b 1fbd 9e29 23bd
000000e0: 09b9 b33d 1f32 7a3d 0a65 fd3c 0dc5 ad3c
000000f0: 8b95 b53d 12e9 433d 0b6d acbd 4ee5 693d
00000100: 356f 033d 48ac 86bd 89fe 913d cacf ab3d
00000110: f26c 20bc e449 7fbe bd55 5d3c 3211 703d
00000120: 9e0a a83d 8531 e33d 42f2 4abd 7db5 163c
00000130: 424e fcbb fd41 ec3d 2973 383d 8bbf 2ebd
00000140: fcd7 8c3d 57a6 313d c126 5e3d d4f8 91bd
00000150: 1898 153d a022 8e3b c0f4 9bbd d55d 4b3d
00000160: fa2e c73c e99a fd3b 01bf bdbc 4477 e23d
00000170: 1723 e4bd b018 9fbd fee8 ceba 2dd0 ab3c
00000180: d55c c13d b3f6 c1bd 4ac9 743d ff8e 7f3d
00000190: ee08 aabd e57d ad3c c650 b4bd 38d0 4abd
000001a0: 454a 26be 5398 e7bc 01d1 2738 09f1 2a3b
000001b0: 4ebe 07be fd69 a23d 90a5 dcbc 39c0 09be
000001c0: 8549 00bd 870b 21bd 1e18 ebbd 313e 17be
000001d0: e268 d93c aad6 96bc e9c8 983d 7bea e63d
000001e0: fc88 a0bd 5b64 593d 08cd 843c 74df fd3c
000001f0: a7a1 ab3d 331a 073d 3b70 b73d 4557 ef3d
00000200: 182a 103d 0222 8abc 324f eb3d 1ad8 d8bd
00000210: f32d 12bc 3f91 93bd 27d4 8f3c a787 a83d
00000220: 9352 2cbe 8015 783d 2528 13be 1d45 00bd
00000230: 8160 2ebe 88c0 643d 304b 073d bdad 0cbe
00000240: d786 5dbd 024e 2b3d 5d2f 8ebc 7c32 e53d
00000250: 4cb4 8d3c 963f 84bd b4f7 c13c dd63 3d3d
00000260: 8889 7b3c 6812 473e fb4e 423d 89bc 323a
00000270: 2027 c63d ad34 93bd 53ad c73d b6fc bebd
00000280: 015c 983d 75fe 3a3e 4322 913d 951e 1d3d
00000290: 47a3 4abd beb4 143d 4900 eb3c bf7b ec3d
000002a0: 23c8 653d 1f9c 90be 7917 e7bc 2bf7 9c3d
000002b0: 6689 83bd 7a7b d1bc f36f c8bc e946 a23c
000002c0: d301 063d 915a cd3d f3cd 65bd 884f 9b3d
000002d0: 2408 843d 8be8 f3ba aecb 22be 523f e63d
000002e0: 730a f4bc 281c 14be 6894 fb3d 11f9 9e3d
000002f0: 40a4 edbc d899 80bd 031c 61be 341f 9dbc
00000300: 63cd 33be 317d c73c 6921 9d3d 9886 423d
00000310: f2f3 1abe 6761 bebd 7cb1 86bd 1048 303d
00000320: b45b 743d 85c8 4f3d cc21 78bc e478 163d
00000330: 0730 b83d 0a49 b1bb 3d14 3fbd 9ada b2bb
00000340: 2718 a7bd dc35 533d 77ff 213d f22e 32bd
00000350: eb00 a83d e955 25bd 2276 e13d 75f8 b03d
00000360: 02ac 973d d001 c13d 046d a0bc 0527 6bbd
00000370: 8c3e 353d 5ae1 343d 82f9 31bd dab1 dabb
00000380: c083 273d 3cd5 c23c 3912 043d 38b1 8b3c
00000390: d7a9 39bd 2e72 6cbc 0199 083d 2ade 03bd
000003a0: 430b 8a3c 1fe9 7abc 2217 a43d c19d 8d3d
000003b0: 8bdc ca3c c633 c23d e1ae f8bd 4c3b e43c
000003c0: 6373 81bd 8923 d3bb 8aeb 853d b692 85bd
000003d0: c18d b33d 0058 21be 96e4 ecbc 3fe1 d53d
000003e0: 833a 46be 5fa2 be3d f795 813b 5422 cd3d
000003f0: 1bba a0bc 30e8 40bd 8407 34bd 2583 123d
0.04031771 -0.05824251 0.043373942 -0.034721285 -0.04915865 -0.07734232 0.035852082 -0.025039325
0.036602803 0.057852607 -0.013292436 -0.18690194 0.10853151 -0.0875495 0.004015808 0.03331973
0.11853717 0.020416796 -0.07254927 0.047972813 -0.028448654 -0.014752192 -0.06040882 -0.06612918
-0.025216993 -0.027375024 -0.042749505 -0.031236377 -0.039350595 -0.035796322 -0.071616195 -0.08634298
-0.11854183 -0.073215246 -0.04007742 0.072427765 0.0328942 0.08152302 -0.06996574 -0.018561501
0.05573548 -0.042191595 -0.0014570773 -0.058306098 -0.016205247 -0.07442675 -0.009538701 -0.101589516
-0.15322137 0.09168909 0.06894648 0.10304378 -0.060078174 0.007451911 -0.03887514 -0.03983461
0.08775527 0.061082955 0.030931968 0.021212125 0.08866414 0.047829695 -0.08419236 0.057103448
0.032088477 -0.06575829 0.07128627 0.08389242 -0.0097916 -0.24930531 0.013509211 0.05861015
0.0820515 0.110934295 -0.04954744 0.009198544 -0.0076997587 0.11536024 0.0450317 -0.04266314
0.06877133 0.043371525 0.054236177 -0.07127538 0.036522 0.0043376237 -0.07615042 0.049650032
0.024314392 0.007739414 -0.023162367 0.11057904 -0.11139505 -0.07768381 -0.001578599 0.02097329
0.094415344 -0.09470882 0.059762277 0.06239223 -0.083024845 0.021178195 -0.08804469 -0.04951498
-0.16239269 -0.028270876 4.0010553e-05 0.002608361 -0.13256189 0.07930372 -0.026934415 -0.13452233
-0.031320114 -0.039317634 -0.11479209 -0.14769818 0.02653927 -0.018412907 0.074601956 0.11275192
-0.07838628 0.053074222 0.016211048 0.03099034 0.08380442 0.03298397 0.08956953 0.11686567
0.035196394 -0.01686192 0.11489715 -0.10588093 -0.008922088 -0.07205438 0.017557217 0.08228999
-0.16828375 0.06056738 -0.14370783 -0.03131591 -0.17029001 0.055847675 0.03303069 -0.13738151
-0.05408367 0.04182244 -0.017356569 0.1119127 0.017297886 -0.064574406 0.023677684 0.046237815
0.015352614 0.19440615 0.047438603 0.0006818255 0.09675431 -0.071877815 0.09749856 -0.093255445
0.07439423 0.1826113 0.07086613 0.038359243 -0.04947212 0.03630518 0.02868666 0.1154704
0.05609907 -0.2824411 -0.028209435 0.07664331 -0.06422691 -0.025571574 -0.024467444 0.019809203
0.032716583 0.1002704 -0.05610461 0.07583529 0.06446865 -0.0018608732 -0.1589801 0.11242546
-0.029790139 -0.14463866 0.122841656 0.077623494 -0.029008985 -0.06279343 -0.21983342 -0.019179918
-0.17558818 0.024351688 0.07672388 0.04749164 -0.1513212 -0.09295922 -0.06576821 0.043037474
0.059657767 0.05072834 -0.015144777 0.036736384 0.089935355 -0.0054103183 -0.04665016 -0.0054581882
-0.081589036 0.051565036 0.03955027 -0.0435018 0.082033 -0.040365133 0.1100886 0.086411394
0.07405855 0.09424174 -0.019583233 -0.05741026 0.044249102 0.044160224 -0.04345084 -0.0066740336
0.04089713 0.023783319 0.03224394 0.017052278 -0.045327988 -0.014431519 0.03334904 -0.032194294
0.016851073 -0.015314369 0.08012225 0.06914855 0.024763366 0.09482531 -0.121427305 0.027860306
-0.063208364 -0.006443445 0.06539066 -0.065221235 0.08767272 -0.15756226 -0.028917592 0.10443353
-0.19358258 0.093083136 0.003954645 0.10016313 -0.019619992 -0.04709643 -0.04395248 0.0357696
