resources/pretrained_models/ik_threelink_obs4/models/weights_950/model.pth (torch_old, 295063 bytes, 18 tensors)

fc1.weight f4 [100, 20]
000000 5d 42 fe bd 1d ee 8f be 27 bf cf 3d d6 89 96 bd
       -0.124150015 -0.28111354 0.10143881 -0.07350509
000010 cb 92 1c 3d a3 30 8c 3d b4 9a 17 3e f3 6d fd 3c
       0.03822593 0.06845214 0.14805108 0.030936217
000020 01 f9 48 3e ba 11 15 3e f3 d0 b1 bd a8 3f 4c 3e
       0.19626237 0.14557543 -0.08682432 0.19946158
000030 bf 7e a1 3d 35 f3 22 be 96 e4 2d be d1 04 09 be
       0.07885503 -0.15913089 -0.1698173 -0.13380744
000040 81 04 b9 bd db 67 ad bc d2 cc af bc 90 9b 58 bd
       -0.09034062 -0.021167686 -0.02145997 -0.05288273
000050 76 83 51 3e 66 a4 9a 3e ff e2 fa 3d 67 26 f4 bb
       0.20460305 0.3020355 0.12250327 -0.007450867
000060 38 ce 15 bc a7 b2 28 be 16 fb a3 3d 61 f2 a6 3d
       -0.009143405 -0.164744 0.08006875 0.08151699
000070 80 ef 00 bc 11 a2 19 be 7b ce eb bc ae cf 86 bd
       -0.007869601 -0.1500323 -0.028784981 -0.065825805
000080 bb 65 63 3e 65 1f 3d 3e 7b 85 e8 3d 50 fe 22 3d
       0.22206776 0.18469007 0.113535844 0.039793313
000090 31 32 7a 3d c9 8a 66 3d 90 6e f7 bc 66 ac 8e 3d
       0.061083023 0.0562847 -0.030204087 0.06966476
0000a0 a8 95 44 3e 76 a9 74 3e 7e b7 b2 3d 42 a1 e2 3d
       0.19197714 0.23892769 0.087264046 0.11065914
0000b0 3e 38 9e 3c ea d5 4b 3e a4 62 19 be fa 3d 50 be
       0.019313928 0.1990582 -0.14979035 -0.20336142
0000c0 77 5e c6 3c 57 3d b7 bd 09 ac 3b bd fd a4 27 bd
       0.024214966 -0.089472465 -0.045818362 -0.04092883
0000d0 ff ff 39 3e b2 20 4c be 5e a1 62 3e 82 87 3d 3d
       0.18164061 -0.19934347 0.22131869 0.04627181
0000e0 51 96 7a be f8 27 29 be b6 a2 25 3e 67 e5 f3 3d
       -0.24471404 -0.16519153 0.1617535 0.119089894
0000f0 2b 60 93 be 57 1b 59 3e 69 ad 55 be 37 2d da bd
       -0.28784308 0.21201836 -0.20866932 -0.10653155
000100 71 4b 09 bd 07 66 84 3e a7 fd 1f 3e cc 64 b4 3d
       -0.033519212 0.2585909 0.15624104 0.08808288
000110 2c 8f 34 be 3a 4d c3 bd 23 10 05 be 54 f0 8f 3d
       -0.1763274 -0.09536214 -0.12994437 0.07028261
000120 4f 51 13 3d 32 ac 37 be 89 bc 41 3e ca 0a 58 3d
       0.035966214 -0.17936781 0.18919577 0.052744664
000130 fc 76 d4 bb 62 61 0c 3c 4c a7 ca 3d 30 49 c5 3d
       -0.0064839106 0.00856814 0.098951906 0.096331
000140 f2 c6 9c 3e 3b 9f 46 3e e8 78 28 3a 6f a7 ca bd
       0.30620533 0.19396679 0.0006426708 -0.09895217
000150 d5 81 6f bd 96 00 4e be 04 87 33 3e 7a 8d 8d bc
       -0.058473427 -0.20117411 0.17531973 -0.017279375
000160 9b 98 20 be 63 7b 19 3e ea 87 60 3e 35 6e b5 3d
       -0.15683214 0.14988475 0.21926847 0.08858911
000170 43 72 9f 3d 5b 10 fa bd 70 55 17 be 9d 75 2b 3c
       0.077854656 -0.12210151 -0.14778686 0.010465053
000180 34 1b 99 3d 09 37 65 be c2 c4 15 3e 4d 3b 22 3e
       0.07475892 -0.22384275 0.14625838 0.15842934
000190 50 fe d0 bd a0 e2 22 bc fa 3b 1b 3e 68 cb a4 bd
       -0.10204756 -0.009941727 0.15159598 -0.08046609
0001a0 cc 15 80 bd 8c 65 26 be b0 70 33 be f0 55 88 bc
       -0.062541574 -0.16249675 -0.17523456 -0.01664254
0001b0 08 b3 a1 3c 30 0e 3f 3e 98 fd ca 3c 38 43 c9 3d
       0.019738689 0.18657756 0.024779126 0.09827274
0001c0 ea 43 34 3e 8c 60 1d 3e 4a e2 5a 3e b5 d9 1b be
       0.17604032 0.15368861 0.21375385 -0.15219767
0001d0 e8 1f c0 bd 54 72 ea bd 7c a4 e1 bd 30 e7 29 bd
       -0.09381086 -0.114475876 -0.11017701 -0.041480243
0001e0 84 2c 1a be a8 82 fd bd da 04 22 be cc 0e 0d be
       -0.15056044 -0.12378436 -0.15822163 -0.13775176
0001f0 50 ff a4 bc 5a 16 8c bd bf d4 18 be 64 17 46 3e
       -0.020141274 -0.06840201 -0.14924906 0.1934486
000200 2c be 07 bd a8 6e 83 3d 40 87 64 3b ec 64 07 bd
       -0.033140346 0.064175904 0.0034870654 -0.03305523
000210 de bc b9 bd 98 18 01 3e 28 3f 7a bd 14 7a d1 3d
       -0.09069227 0.12607038 -0.061095387 0.10228363
000220 8c 6b 37 bd f6 2f 15 3e 40 04 ea 3b e8 42 c9 3d
       -0.0447803 0.14569077 0.00714162 0.098272145
000230 99 db 69 3c be 9f d1 bd 40 36 8c 3d 4a 3b fd bd
       0.014273548 -0.102355465 0.06846285 -0.12364824
000240 1b 76 5d be b5 45 4f 3d 05 90 69 be e5 c5 52 bd
       -0.21627085 0.050603587 -0.22808845 -0.05145826
000250 e9 35 21 be 70 0a 60 be 1f 4a 5d be 84 6e 0f bd
       -0.15743221 -0.21878982 -0.21610306 -0.035017505
000260 a3 c4 99 bc 4f f5 ce bc b1 08 dc 3d ea 1c 30 be
       -0.018770522 -0.025263457 0.10743845 -0.1719853
000270 1f 6b e8 bd 46 05 29 3d b0 58 44 bd aa e3 81 bc
       -0.11348557 0.041264795 -0.04793614 -0.015855629
000280 64 bb 1d be 2e f7 a0 bd c4 be 28 3e bc 99 2a bd
       -0.15403515 -0.07859646 0.16479021 -0.04165052
000290 71 da e8 bd 12 d6 96 bd d4 5b 12 be e1 43 f4 bd
       -0.113697894 -0.073650494 -0.14292842 -0.119270094
0002a0 85 c9 cb bd 07 fb 2d be 40 57 05 3b 80 e1 f0 3d
       -0.09950546 -0.1699029 0.0020346195 0.11761761
0002b0 f9 c5 04 be 00 63 9b bb c4 f3 60 3e 0c 5a ec 3d
       -0.12966146 -0.0047420263 0.21967989 0.115406126
0002c0 00 d7 48 be a2 f0 23 3e d8 6c a3 bd 34 7f 5a be
       -0.19613266 0.16009763 -0.07979745 -0.21337587
0002d0 bf 10 4b be 52 9f 9e bd b4 0c 52 3e da 4c 55 bd
       -0.19830607 -0.07745232 0.20512658 -0.052075244
0002e0 36 4c 72 bd 92 84 dd bd d0 fa 73 be e0 77 1d bd
       -0.05915471 -0.108163014 -0.23826146 -0.0384444
0002f0 a3 93 37 be 6d c9 1e 3e a1 e2 2c be 0a 25 41 3e
       -0.17927413 0.15506525 -0.16883327 0.18861786
000300 f3 d5 53 3e 44 48 fd bd 30 b5 65 be 58 04 8f bd
       0.20687084 -0.12367299 -0.22432399 -0.069832504
000310 e1 fd 5e 3e 4b 4d b6 3c 54 9f 70 be 2a 07 b4 bd
       0.21776535 0.022253653 -0.23498279 -0.08790429
000320 cf dc 57 be f3 38 16 be 79 b8 15 be 9b 9f 28 be
       -0.21080326 -0.14670162 -0.14621152 -0.16467135
000330 80 56 4d be 03 86 e2 3d 1a bb 21 bc ce 63 47 be
       -0.20052528 0.11060717 -0.009871269 -0.19471666
000340 0f c7 ae 3d 6c 67 13 be 07 9f 5d 3d 92 1d 3b be
       0.08534061 -0.14394921 0.05410674 -0.18272999
000350 f1 4b 47 be ed ea 31 be aa 40 41 3e db 4b 39 3d
       -0.19462563 -0.17374773 0.18872324 0.045238357
000360 9b 48 1a be 81 09 fd 3c 1e db 46 bd 8e a8 db 3d
       -0.1506676 0.03088832 -0.04854881 0.10725509
000370 ac 6c 89 be 2f 8c 68 3e 2a 8a d4 3d 30 8f b1 3c
       -0.26840723 0.22709726 0.10377915 0.021674722
000380 35 75 45 3c 9b d4 21 3e 51 f4 ad bd 3b 4e 7f be
       0.01205187 0.15803759 -0.08493865 -0.24932186
000390 b5 aa 85 bd bb da 04 be 51 ce f6 bd 94 d6 49 be
       -0.065267004 -0.12974064 -0.120510705 -0.19710761
0003a0 08 a5 3f 3e 31 50 ec bd 73 18 4e bd 62 52 c4 3d
       0.18715298 -0.11538733 -0.050316285 0.09586026
0003b0 f6 a0 2b 3e 1c 16 56 bd fa 20 48 3e 42 79 1d 3e
       0.1676062 -0.05226718 0.1954383 0.15378287
0003c0 a0 2b db bd d4 42 66 be 40 ca 29 3c c2 81 1e bc
       -0.1070168 -0.2248643 0.010363162 -0.009674491
0003d0 01 18 9a 3c a6 14 80 3d 4e ce 7d bc bd f9 b0 3c
       0.018810274 0.062539384 -0.015491081 0.02160346
0003e0 e3 98 4e be d1 ae 40 3c db 7e 0f be ce 98 c3 3d
       -0.20175509 0.0117604295 -0.14013235 0.095506296
0003f0 5b 85 cc 3d 36 18 09 bd 61 22 11 3e 6a 34 aa 3d
       0.09986373 -0.033470355 0.14173271 0.083107784

fc1.bias f4 [100]
000000 dd 05 ea 3d 63 8e eb 3d 71 98 17 be cc 2d 32 be
       0.114268996 0.115017675 -0.14804246 -0.17400283
000010 12 20 4a 3d 88 d4 3a be 20 ce f5 bb 8a 69 98 3d
       0.04934699 -0.18245137 -0.0075013787 0.07442005
000020 80 a2 bc 3c 62 56 01 3e 1a 53 63 3e a6 33 40 3e
       0.023026705 0.12630609 0.2219967 0.18769702
000030 ee c2 0d be 80 f0 9c 3c 2e 0d 04 3e 66 cd 3f 3e
       -0.13843891 0.019157648 0.12895653 0.18730697
000040 38 50 0b be c7 89 77 bd 50 c4 2c 3e 4d 14 a1 3d
       -0.1360482 -0.06043413 0.16871762 0.078652
000050 ff 63 10 be b0 00 5e 3e dd 0c 45 bd 77 de c2 bc
       -0.14100645 0.2167995 -0.04810797 -0.02378772
000060 64 55 0c bd 60 22 92 3d 0d 0d ff 3d bf 1d b7 3d
       -0.034261122 0.07135463 0.12453661 0.089412205
000070 53 90 2e 3e 86 fc 79 bd de e2 cf bd a9 4b 4b be
       0.17047243 -0.06103184 -0.10150693 -0.19853081
000080 fa 26 3d 3e 14 26 18 be a6 b0 8e bd 00 65 26 bc
       0.184719 -0.14858276 -0.06967287 -0.010155916
000090 52 cc 83 3d 5c a4 12 3e 3e 6c c9 bd 34 a6 28 3e
       0.064354554 0.1432051 -0.09835099 0.16469651
0000a0 1e 73 4a 3e 81 74 40 3e 9e b6 cf bd 2d d7 8a 3e
       0.19770476 0.18794443 -0.10142253 0.2711729
0000b0 48 5c 5e be 4d 65 0d 3e 18 98 62 3e a8 1a 3f 3d
       -0.2171489 0.13808174 0.22128332 0.04665628
0000c0 6a b2 d9 3d ac 73 b0 bd c1 d9 2b be c4 71 a3 3d
       0.10629733 -0.08615813 -0.16782285 0.079806834
0000d0 07 20 d2 bb ec 64 70 3e d9 a4 f4 bd a0 a2 fb 3c
       -0.0064125094 0.23475999 -0.11945505 0.030717194
0000e0 70 57 f2 bd 1b f0 87 3c 1c 99 db 3d e4 33 13 bd
       -0.11833084 0.016593983 0.10722563 -0.03593816
0000f0 90 7b 4b 3e fb 6d 50 3e e9 31 ce 3a 79 e7 a7 3d
       0.19871354 0.20354454 0.0015731427 0.08198447
000100 cb c7 15 3e 4d 46 48 bd 74 7a 74 3e 76 57 22 be
       0.14626996 -0.04889517 0.23874837 -0.15853676
000110 4c 54 1b 3e 68 f7 7d bd 2f 3b f0 3c 1d 43 17 3e
       0.15168875 -0.062003523 0.029325096 0.14771695
000120 e7 64 0b 3e f3 71 b3 bd 0b 05 1f be 75 86 4d 3d
       0.1361271 -0.087619685 -0.15529267 0.050177056
000130 f0 1f 89 3d b6 61 df 3d 1a dc 51 3e 75 04 41 3e
       0.06695545 0.10907309 0.20494118 0.18849356
000140 88 b7 ec bd c0 0e 30 bb f8 0d 19 bd d0 5d 28 3e
       -0.11558443 -0.002686426 -0.037366837 0.16442037
000150 41 0a 5f be ae 51 8c bc 6f 63 1b be da 6e bd bd
       -0.21781255 -0.017128792 -0.1517465 -0.09249659
000160 60 af d6 bd 4a 1f 62 bd 16 f1 9b 3d 48 d8 b6 bd
       -0.10482669 -0.05520562 0.07614343 -0.08927971
000170 a5 7b 51 be 44 6a b6 bd 1e 28 34 3e 4b b3 8b 3c
       -0.20457323 -0.08906987 0.17593428 0.017053267
000180 92 12 08 be 2e 31 c9 bd d2 a0 e1 3d c6 6d 1c 3e
       -0.13288334 -0.098238334 0.11017002 0.1527625

fc2.weight f4 [100, 100]
000000 cf e0 f6 3c 36 78 99 bd b5 a4 d8 bd e3 4c b9 3c
       0.030136494 -0.074936315 -0.105782904 0.02261967
000010 5b 8a 3a bc 7b b4 8d bd 1e 18 0a 3d e0 b1 28 3d
       -0.011385526 -0.069191895 0.033714406 0.04118526
000020 4a 24 9d bd 65 cd 95 bd f4 9e df bd ba 4d 9a bd
       -0.07672937 -0.073145665 -0.1091899 -0.075343564
000030 a9 a2 69 3c 35 b3 ab bd b3 46 ba 3d b8 98 f5 bd
       0.014259973 -0.083837904 0.09095516 -0.119920194
000040 e7 48 9b bd e3 f9 93 3d 73 ab 83 3d 83 72 a0 bc
       -0.075822644 0.072253965 0.06429186 -0.019585853
000050 b2 cc 22 bc 64 cf 6f 3d 8d 5d 32 bd f8 f0 bc 3c
       -0.0099364985 0.058547392 -0.04354625 0.023064122
000060 8b 52 a5 bd 40 69 26 bc 56 fa 6a b9 81 20 12 3b
       -0.080723844 -0.0101569295 -0.00022409236 0.0022297206
000070 44 91 d7 bd a4 57 0a 3e 94 78 a2 3d 9f c7 9a 3d
       -0.10525754 0.13509995 0.07933155 0.07557606
000080 fb e2 b2 3d 03 be d8 bb a5 d0 32 3e 0e b2 01 3d
       0.08734699 -0.006614448 0.17462404 0.031663947
000090 7f d2 b7 bc 97 2f 8b bd 48 6f ae bd 92 f3 e7 3c
       -0.02243924 -0.067961864 -0.08517319 0.028314386
0000a0 fc b0 da bb c6 96 ff 3d e9 58 9e 3d 92 97 4b 3c
       -0.00667393 0.124799296 0.07731802 0.012426274
0000b0 0e ee 8f bd 63 cf 16 be d9 ca 75 bd 00 57 f9 bc
       -0.07027827 -0.14727549 -0.060007904 -0.030436993
0000c0 a7 45 16 be 01 76 d2 3d 20 11 83 3d 2b 9c a1 bd
       -0.14675008 0.10276414 0.06399751 -0.07891115
0000d0 91 c2 5c 3d 04 f6 01 be 93 1b 49 3d 0a 9d 32 bd
       0.05389649 -0.12691504 0.049098562 -0.043606795
0000e0 72 0b da bd 67 c2 e6 3c 72 ae 88 bd 07 b0 35 bd
       -0.10646714 0.02816887 -0.06673898 -0.044357326
0000f0 dc c6 8c 3c 4b 60 4b bd 12 ca ff bd 61 44 02 3e
       0.017184667 -0.04965238 -0.12489714 0.12721397
000100 f3 79 73 bd d1 25 d4 3d 9a 53 23 3d fa 07 8f bd
       -0.05944247 0.103587754 0.03987465 -0.06983943
000110 a8 e5 3c bd 6e 97 6e 3d cd fa 54 3d 46 f4 f3 bd
       -0.046117455 0.058249883 0.051996995 -0.11911826
000120 54 b0 e8 bc ec 65 c0 bd c5 88 a4 3d 4b e6 0f be
       -0.028404392 -0.0939444 0.08033899 -0.14052694
000130 5f 11 b6 bd e5 ce a8 bb 3d 1b ca bc ba a8 a8 bc
       -0.08890032 -0.005151617 -0.024671191 -0.020588268
000140 5d e9 bd bc 34 0f 93 bc 53 e0 bb bd 07 63 c5 bd
       -0.023182565 -0.017951585 -0.09173646 -0.096380286
000150 31 de 76 bc 7a 5a 02 3e 3c ae e3 bc ff 60 84 3d
       -0.015067623 0.12729827 -0.027793042 0.06463813
000160 e7 c8 94 3b 0b 02 88 3d 95 ee 0e 3d 42 22 43 3d
       0.004540551 0.06641015 0.0348955 0.047640093
000170 9c 94 cf 3c 94 44 94 3c e5 66 be bd 07 ee 64 bc
       0.025339417 0.018099107 -0.09296969 -0.013972766
000180 91 5e 84 bd 03 39 1b 3e 7b 15 10 bd ae c5 ee 3d
       -0.064633496 0.15158467 -0.035176735 0.11658798
000190 26 b9 1c bd cc ab 81 be 75 a6 2c bd e1 19 28 bd
       -0.03826251 -0.25326383 -0.042150933 -0.041040305
0001a0 c3 42 0a be 03 5f a9 3d 30 36 63 bd 7c 92 d7 3d
       -0.1350203 0.08270075 -0.0554716 0.105259866
0001b0 a8 99 73 3c a0 93 93 3d 69 70 e7 3d 9f 2a 33 3d
       0.0148681775 0.072058916 0.113007374 0.04374182
0001c0 b5 5f 85 be a0 8f 17 bd 00 38 78 bb 84 c0 6c bd
       -0.2604958 -0.037002206 -0.0037875175 -0.057800785
0001d0 d4 b3 02 bd 68 28 60 be ed 3e 18 bc 9b 01 88 3d
       -0.03190978 -0.21890414 -0.009292346 0.06640931
0001e0 b2 a5 00 3e 71 62 1c 3d 0f 63 0f 3d 09 f1 80 3d
       0.12563208 0.03817982 0.03500658 0.06295974
0001f0 15 4d 84 bd 70 04 05 bd 3e 25 0a 3d f0 60 81 3c
       -0.06460015 -0.032474935 0.033726923 0.015793294
000200 2e 35 a6 bc ba d6 9e be f0 33 1d bc 95 12 20 bd
       -0.02028903 -0.31023198 -0.009594902 -0.03908022
000210 a0 6b d2 bb 98 26 8f 3a 1f 19 8b be d8 1c be bc
       -0.0064215213 0.0010921536 -0.27167603 -0.023207113
000220 b2 82 8f 3d ae 14 f1 3d 60 6d 6e bb 7a 37 41 bd
       0.0700735 0.117715225 -0.003638111 -0.047172047
000230 3d e9 4b be 14 ce de bc b0 eb ca bd e1 6f 85 3d
       -0.19913192 -0.027197875 -0.09908235 0.0651548
000240 f4 86 e5 bc a6 48 9e 3d 14 c1 54 bd 72 04 93 bd
       -0.028018452 0.077287 -0.051941946 -0.07178582
000250 aa 8e 08 3d a8 46 d2 bd d4 32 f7 38 85 11 b2 3d
       0.03333918 -0.10267383 0.00011787345 0.08694748
000260 de 7e 0a bc 43 43 5f bd 88 7e 7c 3c e8 9b 59 bc
       -0.008453099 -0.054507505 0.015411027 -0.0132818
000270 bd bc 72 3d 8a 73 eb 3a d6 b8 d4 3d 8c 1e 15 3d
       0.059262026 0.001796351 0.10386817 0.036406085
000280 c2 17 9f bd 23 fe 9c 3d 35 a8 f6 3c 29 b6 f1 bd
       -0.07768203 0.0766566 0.030109504 -0.118023224
000290 d5 05 4d be 46 47 7a be f1 2c c7 3d 32 c5 a2 bd
       -0.20021756 -0.24441251 0.09725369 -0.07947768
0002a0 a2 b2 23 bd b0 8e 1a 3c 08 e5 e0 bc 93 36 96 3d
       -0.03996528 0.009433433 -0.02745296 0.07334628
0002b0 7b b8 a6 3d 89 e2 16 3c d8 b5 bb bd b9 a9 e7 3d
       0.081406556 0.009209284 -0.09165543 0.11311669
0002c0 48 d8 98 bc 3e 72 87 bd 67 3c 08 3d 19 8e 47 bc
       -0.018657818 -0.06613587 0.03326073 -0.012179875
0002d0 f8 99 f3 bd 90 16 2b 3c a7 f0 79 bc 78 44 dd 3d
       -0.118946016 0.010442391 -0.01525513 0.10804075
0002e0 a4 56 dd bd 51 ee 96 be 11 57 14 3e ff ba f1 bd
       -0.10807541 -0.29478696 0.14486338 -0.11803245
0002f0 6d 3e e9 3b 31 8a b5 bc 21 19 ce bd b5 2b ad bd
       0.0071180374 -0.022160621 -0.10063387 -0.08455602
000300 96 34 04 3d 82 dc 71 3d 15 1b 5d be 21 d0 3f bd
       0.032276712 0.059048183 -0.21592362 -0.046829347
000310 55 94 47 3d d6 85 1d be 9c 11 00 3e 74 0c 76 be
       0.048725445 -0.15383086 0.12506717 -0.24028188
000320 6e 71 3b 3d 54 66 e1 3c 3b df 30 bd 47 76 1c bc
       0.04576247 0.027514614 -0.04318164 -0.009549684
000330 01 4f bc 3d 50 e8 b7 bb 80 fe b4 3b 9f 27 ac 3d
       0.09194756 -0.0056124106 0.005523503 0.084059946
000340 f8 f0 b5 bd d1 42 93 3d 53 76 80 3d de a2 83 3c
       -0.08883852 0.071904786 0.062725686 0.016068872
000350 72 48 50 3d 02 78 00 3d f2 43 25 3d f2 c9 08 bb
       0.05085034 0.03136445 0.040348 -0.0020872322
000360 60 3e 88 3d 63 16 dd bd 97 f7 bc 3d 14 d6 87 3d
       0.06652522 -0.107952856 0.092269115 0.06632629
000370 c3 c7 80 ba d3 d8 8f 3a a6 52 7e 3d bf fb c6 bd
       -0.0009825159 0.0010974653 0.06209054 -0.097159855
000380 b8 5f 8c bc 4a 49 31 3d 2c 74 84 bd 3e 98 31 3b
       -0.017135486 0.043282785 -0.064674705 0.00270988
000390 d0 00 c6 bd 03 35 20 3c 5e d8 6f bd 2b d2 8f bd
       -0.09668124 0.009778264 -0.058555953 -0.07022508
0003a0 f0 94 8b bd b6 b3 39 bd 75 34 43 bd ea 55 93 bd
       -0.06815517 -0.0453374 -0.04765745 -0.07194121
0003b0 1c 80 66 3d b3 e3 11 3b f1 20 8a 3d f7 e3 b2 bd
       0.05627452 0.0022260963 0.06744564 -0.08734887
0003c0 09 51 cb 3c cd 40 b2 3d 8a 45 57 3d cf 11 da bd
       0.024818914 0.08703766 0.052556552 -0.10647928
0003d0 11 52 c7 3d 80 e9 ea bc 62 03 e3 3b 87 f6 a1 3d
       0.0973245 -0.028675795 0.0069278935 0.079083495
0003e0 b1 07 f0 bc fd 2f 09 3b 04 08 fc bc 19 3d a6 bd
       -0.029300543 0.0020933144 -0.03076554 -0.08117122
0003f0 66 23 b2 bd 98 b5 96 3d 4f bc 88 3d 90 cb 21 bd
       -0.08698158 0.07358855 0.06676542 -0.039500773

fc2.bias f4 [100]
000000 41 57 46 3d bb 8d c1 3d 77 7f a4 bd 69 7d 99 3d
       0.048423056 0.09450861 -0.080321245 0.07494623
000010 d7 8d 9f bb 53 ea c3 bd c0 3f 5a bd 2c ea fb bc
       -0.0048692035 -0.09566178 -0.053283453 -0.03075131
000020 7a 6d d8 3c ef b2 a0 3d 0d e7 82 3c 10 1f 05 3d
       0.02641939 0.07846629 0.015979314 0.032500327
000030 e9 3a 70 3d d2 0d 13 bd f3 e8 6f bd 61 82 45 3c
       0.05864993 -0.035901852 -0.058571767 0.012055011
000040 61 8c 46 3d 18 fe 8d 3d cd 5c 18 3d 86 02 c1 3d
       0.04847372 0.0693323 0.037197877 0.094243094
000050 2e bd bb 3d c0 5f 5b bc e8 6b 3b 3b b3 11 c6 bc
       0.091669425 -0.013389528 0.0028598253 -0.024178362
000060 fc 40 42 3c 52 b2 92 3c 98 d0 b6 bc 6c 52 a6 bd
       0.011856314 0.017907295 -0.022316262 -0.081211895
000070 87 2e ca bd dc 80 17 3d 7f d1 51 3c f7 aa 65 bd
       -0.09872156 0.036988124 0.012806295 -0.056071248
000080 6e 76 e1 3c 56 fc 65 bd 02 55 08 3d af d4 ab bd
       0.027522292 -0.05614885 0.033284195 -0.083901756
000090 9e 7f a1 bd d0 d1 c3 3d ba aa b4 3d 35 4e ea bc
       -0.07885669 0.09561503 0.08821626 -0.028601745
0000a0 b0 55 9e 3d 43 02 4e 3d 7c 83 a7 bd fb 71 69 3d
       0.07731187 0.050295126 -0.081793755 0.056993466
0000b0 09 4c af 3d f6 12 02 3d d4 50 dd 3d a3 1b 7c bd
       0.085594244 0.031756364 0.10806432 -0.061549794
0000c0 13 db 78 bd 56 9a b7 bc 98 d8 08 3d 18 2c 35 3d
       -0.0607558 -0.02241246 0.033409685 0.044231504
0000d0 83 da c5 3d c9 56 a2 bd 5e 04 ab bc 6d 67 fd 3d
       0.096608184 -0.07926709 -0.020876106 0.123732425
0000e0 fd a0 3b 3d 5c 69 b9 3d f2 5e 88 3d b8 34 50 bd
       0.045807827 0.09053299 0.066587344 -0.050831527
0000f0 1b bb 96 3d 45 6f d9 3d 66 99 ef 3d ec 1e 9d 3c
       0.07359906 0.10616926 0.1169918 0.019179784
000100 9f 27 7d bd bd e7 bc bd 2c 78 7f bc d5 7b c7 3d
       -0.061805364 -0.09223888 -0.015592616 0.09740416
000110 e5 60 9a bd b5 05 82 bd 65 02 28 3d d3 8e 24 3d
       -0.075380124 -0.06348745 0.04101791 0.04017527
000120 02 00 f6 3d ec d4 81 3d 14 39 c7 bd 75 9b 16 3d
       0.1201172 0.0633944 -0.09727684 0.03676935
000130 17 80 03 bd 68 c5 69 bc 3e a9 4b bd 4c 00 cf bc
       -0.032104578 -0.014268257 -0.04972195 -0.025268696
000140 24 85 14 3d 58 f3 42 bb 9c 9e 11 3d 34 a3 15 bd
       0.036259785 -0.0029747095 0.035551652 -0.036532596
000150 94 b6 c3 bc 7b 6c 8b 3d 39 01 43 bc 41 93 c0 3d
       -0.023890771 0.068078004 -0.011902147 0.094030865
000160 0f 53 18 bd b6 7d a9 bc a2 c1 2f bd fd 26 61 3c
       -0.037188586 -0.020689826 -0.042909272 0.013742206
000170 d5 9e bb 3d aa 27 c8 3d 3d 4e f3 bc 4e 74 13 3d
       0.09161154 0.0977319 -0.029700393 0.03599959
000180 7e 75 7c bd 90 63 db bc f3 c5 57 bc b5 36 e7 3c
       -0.061635487 -0.026780874 -0.013169753 0.028224329

fc3.weight f4 [100, 100]
000000 c7 b3 2f 3e 56 19 06 bd 91 32 8d 3d cc 46 f6 bc
       0.17158423 -0.032739006 0.068944104 -0.030063055
000010 eb bd b4 bd 2e bd 2c 3d e5 9f 8d 3b 0c 38 15 bd
       -0.088252865 0.042172603 0.0043220394 -0.036430404
000020 ac 07 e7 bd 8c 91 d1 3c de 33 d6 bd 18 07 ac 3d
       -0.1128076 0.025582097 -0.10459112 0.083997905
000030 d0 6e bb 3c d5 df cc bd 32 41 14 3d db e5 6d 3d
       0.022879988 -0.1000363 0.036194988 0.058080535
000040 06 ac 57 be 0a 84 e0 3c 39 9c 5e bd 5a 8b 6a 3d
       -0.21061715 0.027406711 -0.054348204 0.057261802
000050 ca 9b 88 bd 91 a7 a2 3d af 42 44 3d 2d e8 70 3d
       -0.066703394 0.07942117 0.047915157 0.05881517
000060 dd 4c 7e 3e 44 40 ee 3d 05 c1 ce 3c 04 7f 88 bc
       0.24834009 0.116333514 0.025238523 -0.016662128
000070 ab 9e 05 3e 6b 62 28 bd bb 89 3a 3e 86 f2 c7 bd
       0.13048808 -0.041109484 0.18216603 -0.097630545
000080 44 92 03 3e 26 65 8d bd ed d0 f5 bd e8 9c 8f 3d
       0.12848765 -0.06904058 -0.1200274 0.07012349
000090 d6 88 a4 bc e5 92 08 be 9e b4 3c bd 7f 34 11 be
       -0.02008478 -0.13337286 -0.046070687 -0.14180182
0000a0 2d b6 6e bd f0 68 82 bd 90 25 a9 bd aa 36 ec 3d
       -0.058279205 -0.063676715 -0.082591176 0.11533864
0000b0 45 bc 9d 3d 5c ea 27 3c 91 d8 e7 3c 70 7e 25 3d
       0.07701925 0.010248747 0.02830151 0.040403783
0000c0 5a c3 30 3d a4 2a ba 3d 8d 78 a8 bd 60 aa 14 3e
       0.04315505 0.09090164 -0.08226118 0.14518118
0000d0 7e 36 fd bc 53 20 46 bd b6 c3 26 3c 9b 64 9f 3c
       -0.030909773 -0.04837067 0.010178497 0.019457152
0000e0 58 28 91 bd 8f f6 a4 bd 9b 87 2a be 0b 75 cc 3d
       -0.07087773 -0.0805484 -0.16653292 0.09983262
0000f0 b5 7f 8a 3a d9 07 98 bd 65 4a 8d be 48 2c cf bc
       0.0010566624 -0.07423372 -0.2759582 -0.02528967
000100 bb 7a c9 bd 27 23 b6 bd bf 1b be 3d 52 12 f1 bd
       -0.09837862 -0.088934235 0.09282636 -0.117710724
000110 e1 cf af 3d ac a0 50 be 7a 4d 0e 3e 79 b2 c3 bd
       0.08584572 -0.20373791 0.13896742 -0.09555525
000120 1c 64 0b 3b 55 87 15 bd 3a dd 83 bc 0a 96 a1 bd
       0.0021269387 -0.036506016 -0.0160967 -0.07889946
000130 c0 5d ae bd b7 db 2a 3c 4c 8e 57 3d a0 ee fb bb
       -0.08513975 0.010428361 0.05262594 -0.0076883584
000140 98 46 0f 3c 8d a0 bf 3c bf 41 9b bd 88 66 be 3c
       0.008744858 0.023391986 -0.075808994 0.02324225
000150 83 03 8d 3d 89 6a 84 bd f5 d6 f6 bd 56 e4 ed bd
       0.068854354 -0.064656325 -0.120527185 -0.11615817
000160 77 07 18 bd 25 14 26 3e 42 dc 82 3c c3 1d 80 bd
       -0.037116494 0.16218622 0.015974168 -0.062556766
000170 d6 01 40 bd cd 0c 3e bd a1 2f 71 3d 3d 9d 3c bd
       -0.04687675 -0.046398927 0.058883313 -0.04604839
000180 dc 7a d6 3d e1 3c 07 3e 25 1a f1 bc ba 40 80 bc
       0.10472652 0.13206817 -0.029431412 -0.015655864
000190 96 52 74 3d 7e 7c 40 3c eb e4 a7 3d ac b9 97 3d
       0.059649073 0.011748431 0.081979595 0.07408461
0001a0 8d ea cc bd 7d 7f 3f bd 9d c3 d4 3d 40 55 cd bc
       -0.100056745 -0.04675244 0.10388873 -0.025065064
0001b0 b7 28 41 3d fa c0 2b 3d 35 c0 e6 bd c4 05 90 bd
       0.04715797 0.041932084 -0.11267129 -0.0703235
0001c0 d4 b2 67 3d 81 7a 77 bc 84 46 c7 bd 36 74 07 bd
       0.05656703 -0.015104891 -0.09730247 -0.03306981
0001d0 3b 49 0b 3e b9 9e 18 be 7d b3 a8 bd ee f5 97 bd
       0.13602154 -0.14904298 -0.0823736 -0.07419954
0001e0 31 0b a0 bc c0 70 31 bb 02 a7 86 bd 78 19 e3 bd
       -0.019536586 -0.002707526 -0.06574823 -0.11088842
0001f0 aa 64 e6 bd 8e 8c aa bc fe 93 c9 3d 35 2d 9f 3d
       -0.11249669 -0.020818975 0.098426804 0.077722944
000200 c3 cb b6 bc 0a 6a ed bc 9c ea 10 3e cf 12 5c bc
       -0.022313958 -0.028981227 0.14151996 -0.013432219
000210 3f 93 6e b9 48 3f 90 bd 6d 70 22 bd 24 cb cf 3d
       -0.00022752302 -0.0704332 -0.039658 0.10146168
000220 c5 0d 8d bd 85 92 d4 3c 1f ab 91 bd ee d5 8f 3d
       -0.06887392 0.025948772 -0.07112717 0.07023226
000230 ea 8f 45 bc db 2a f9 3c 86 43 9d 3d b4 c5 2c 3e
       -0.012058238 0.030415943 0.07678895 0.16872293
000240 da b1 0b 3d c1 7e da bd dc 98 4a bd 03 80 9b 3c
       0.03410516 -0.10668708 -0.049462184 0.01898194
000250 af 6f b2 bd 42 c0 8a bc fc 4d ac bc 80 02 f4 3d
       -0.08712708 -0.016937379 -0.02103328 0.11914539
000260 10 58 a9 bd 30 fc c8 bb c5 66 b4 bc 03 1f 66 ba
       -0.0826875 -0.0061335787 -0.02202166 -0.0008778425
000270 76 23 1e 3d 03 52 7f 3d 30 7b e4 3d 30 39 18 3c
       0.038608037 0.06233407 0.11156309 0.009290978
000280 ec e1 1e 3d 5b 5d 7f bd a9 30 5d 3d c0 09 71 3b
       0.038789675 -0.06234489 0.054001484 0.0036779493
000290 66 59 93 bd 2f 3c ef 3c 2e 70 84 bd 82 8a 8a bd
       -0.07194786 0.029203502 -0.06466709 -0.067646995
0002a0 4a 03 3f bd 0d c9 ad 3d e7 23 8f 3d df 3a f7 3d
       -0.046633996 0.08485613 0.0698927 0.12071776
0002b0 38 e0 27 bd 33 ba 88 3d 0b 86 a7 bd 50 0c 07 bd
       -0.040985316 0.0667614 -0.081798635 -0.032970726
0002c0 14 27 b0 3d 08 63 65 bd ef da c9 bd 5d 39 b2 3d
       0.086012036 -0.056002647 -0.098562114 0.087023474
0002d0 a3 e3 d4 3d 80 25 43 3d 7b 51 ad bd 8e 33 c0 bc
       0.10394981 0.047643185 -0.08462807 -0.023462083
0002e0 1a cc 59 3d e0 db 37 bd 8f 77 11 3d c5 8b 0e 3d
       0.053173162 -0.044887424 0.03551441 0.034801263
0002f0 05 d6 25 bd 07 58 10 3d e7 89 58 bd 32 e4 6a 3d
       -0.040487308 0.0352402 -0.05286589 0.05734653
000300 d6 5d a9 bd 80 3a fe 3c 47 56 b2 3d 79 7c a8 3d
       -0.08269851 0.031033754 0.08707862 0.08226866
000310 f6 de 40 3d d3 64 63 bd f7 d5 cf 3d 84 83 35 3b
       0.047087632 -0.055516075 0.101482324 0.0027696798
000320 9a 79 b1 3d ac 19 87 bd 45 7c 29 3d 55 83 fb bd
       0.08665772 -0.065966934 0.04137828 -0.12280909
000330 8f a3 8a bd 86 2b ac bd 76 7d 97 3d b0 26 97 3b
       -0.067694776 -0.08406739 0.07396977 0.004612766
000340 c5 43 82 bd 30 43 e1 bb 67 85 a7 3d 8b 59 12 bd
       -0.06360582 -0.0068744645 0.08179741 -0.035729926
000350 9b b8 40 bd 36 5c be bd 84 cd 12 3d 12 d1 15 3e
       -0.047051053 -0.092949316 0.035840526 0.14630535
000360 0c 4a 0e bc 72 e8 e6 3a 9e 38 43 bd 0a 4f 79 3d
       -0.008684646 0.0017616882 -0.047661416 0.060866393
000370 e5 86 21 3d 06 89 01 3d 04 b7 46 3c 54 05 5c bd
       0.039435286 0.031624816 0.012128595 -0.05371602
000380 7b 3b 11 3e f9 a3 8e bd ad cb cd 3c 60 d8 d5 3d
       0.14182846 -0.06964869 0.025121534 0.10441661
000390 b0 69 05 3c 42 3a ee 3d 05 90 db 3d 03 63 19 bd
       0.008142874 0.116322055 0.10720829 -0.03744794
0003a0 24 4d 8b bb 67 7b 30 bd 39 7c dc 3c fc f0 0d bd
       -0.0042511392 -0.043086436 0.026914703 -0.03465365
0003b0 e5 70 85 3c 9d ca 9f bd ef b6 9d 3c 55 d8 63 3d
       0.016289184 -0.07802317 0.019252269 0.055626232
0003c0 e2 4a 2c 3b 1a a6 8c 3d 6d 22 c0 3d 37 44 54 3e
       0.002628975 0.06867619 0.09381566 0.20729147
0003d0 48 84 83 3c 3e c5 06 bb 32 64 44 3d b5 97 8e 3c
       0.016054288 -0.0020564343 0.047947116 0.017406324
0003e0 0c b1 8b 3d bb 8b 13 bc bc 63 32 3d d4 89 90 3d
       0.068208784 -0.009005482 0.043552145 0.07057539
0003f0 5b 42 36 bd 7a 4f c1 3d 7a a3 58 bc ce 14 58 3c
       -0.044496875 0.09438987 -0.01322257 0.013188554

fc3.bias f4 [100]
000000 09 14 9b 3d 59 30 82 bd 3f 96 9b 3d ff 26 b1 3c
       0.07572181 -0.06356878 0.075970165 0.02162504
000010 85 a2 06 bd e0 61 b9 bc 51 a4 5c 3c fd 71 b1 bd
       -0.032869834 -0.022629678 0.01346691 -0.0866432
000020 54 9b fd bc eb e8 65 bc 9e 9f 1a 3d aa ca ae 3d
       -0.030957855 -0.014032583 0.03774988 0.08534749
000030 01 b2 78 bd ea 63 d2 bc fc bc 57 3d 17 02 63 bd
       -0.060716633 -0.025682408 0.052670464 -0.055421915
000040 42 61 72 bd a7 95 26 3d 47 b4 b7 3d 18 6f 87 3d
       -0.059174784 0.040670063 0.08969932 0.06612986
000050 22 8e 1c 3d 2b aa 0d bd e9 f8 3f 3c d7 c0 a6 bd
       0.038221486 -0.034586113 0.01171706 -0.0814225
000060 fc fb ae bc aa 8b 75 bd f6 f4 5c 3d 69 ef ed 3d
       -0.02136039 -0.059947647 0.05394455 0.116179295
000070 cd 17 d4 3d 75 c4 16 bd 64 a2 05 3e 3d 22 b5 3d
       0.10356102 -0.03680845 0.13050228 0.08844421
000080 49 01 4f bb f2 ef 5f bd f5 5a d4 39 b9 1c 50 3d
       -0.003158646 -0.05467219 0.0004050356 0.050808642
000090 f0 f2 2d bd a3 c8 3e 3d e4 52 f9 3c 28 c4 ca 3c
       -0.04246801 0.04657806 0.030435033 0.024751738
0000a0 c2 34 93 bd fc 13 8e 3d 25 c1 fb bb 81 d0 5d 3d
       -0.07187797 0.069374055 -0.0076829367 0.054153923
0000b0 3e e7 32 3d 5f d3 53 3d e2 ed 15 3e 39 b3 81 bd
       0.04367756 0.05171525 0.14641526 -0.06333012
0000c0 fe 28 09 bd f9 c5 52 3d be 8e 98 bd d9 c4 4a bc
       -0.03348636 0.051458333 -0.07449101 -0.012376034
0000d0 2f 4f a6 3c e1 23 e8 3d 8b 9a e3 3c 8a f0 53 bd
       0.02030143 0.11334968 0.027783653 -0.051743068
0000e0 e6 ab a4 3d 70 e4 12 3d 9f 51 03 bb e9 6a 2d 3d
       0.080405995 0.035862386 -0.0020037664 0.042338286
0000f0 56 ca c1 3c 59 d4 8e 3d bf 30 c0 bb ff 44 12 bc
       0.023656052 0.06974096 -0.005865186 -0.008927583
000100 c2 0c 09 3c 51 e4 b4 3d bc 7d ec 3c 9c de c2 3c
       0.008364858 0.088326104 0.028868549 0.023787789
000110 a2 5a 1c 3d 90 d6 38 bd 52 b3 03 3d d4 48 8d 3d
       0.03817237 -0.045126498 0.032153435 0.068986565
000120 2a 96 3e 3d bc 05 af 3d 7d 26 6b bd 74 74 8e bc
       0.046529926 0.085460156 -0.057409752 -0.017389514
000130 80 b6 76 3d e8 1a a4 bd a3 e3 05 3e 2c d3 0e bd
       0.06023264 -0.080129445 0.13075118 -0.034869358
000140 0c 86 24 3d ed 1d 08 3e ba 83 85 3d c2 73 25 3d
       0.0401669 0.13292666 0.065192655 0.0403936
000150 98 c4 9f bd 3b 0c 5a bc 80 06 92 3b cd bb 4b 3d
       -0.07801169 -0.01330858 0.0044563413 0.049739648
000160 b0 7d 6d bd 4a f9 90 3c 28 cf 8c 3c 02 99 a3 3d
       -0.057981193 0.017696995 0.017188624 0.07988168
000170 17 08 ad bd a5 79 83 bc ca 84 87 bd ef 8c e9 3c
       -0.08448809 -0.016049216 -0.066171244 0.028509585
000180 c3 1b 4e bc 71 6f be 3d 34 a1 bc bd f3 ea a5 bd
       -0.012579861 0.092985995 -0.092104346 -0.08101454

fc4.weight f4 [100, 100]
000000 b6 d1 19 3e 09 77 3c 3c e7 74 cc 3c ac a3 30 bd
       0.15021405 0.01150299 0.024958087 -0.04312484
000010 06 c8 14 3d 2e 8e 38 bd b6 06 aa 3d 64 2e d1 bc
       0.03632357 -0.045057468 0.08302061 -0.025534816
000020 a0 fc a2 3c 30 1a da 3d 6d 5a 2c 3c 76 b7 63 bd
       0.019895852 0.10649526 0.010519606 -0.055594884
000030 90 64 b7 bd 21 be 1c 3d 19 e2 12 bd 5f 65 15 3d
       -0.08954728 0.03826726 -0.035860155 0.036473628
000040 0e 2c bd 3d 3e 69 0e 3d f8 c9 a9 3d c0 82 33 bd
       0.092369184 0.034768336 0.082904756 -0.043825865
000050 ad 59 c9 bc b3 fd c1 bc 8a d7 e9 bc e2 6a 80 bc
       -0.024578894 -0.023680544 -0.02854516 -0.015675966
000060 ff 93 a2 bc bb b8 90 3d 45 87 83 bc c6 4b e1 3d
       -0.01984596 0.070664845 -0.016055712 0.11000781
000070 7e 96 23 3d 87 9d 4f bd ff 6f ac 3d 9b 88 af 3d
       0.039938442 -0.05068734 0.08419799 0.08570977
000080 f8 8d e2 bd 3a 71 9a 3d fe e2 b2 3d b7 dd 69 bd
       -0.11062235 0.075411275 0.087347016 -0.05709621
000090 77 c8 93 3d 79 62 39 3e 13 b4 87 3c 26 cf 91 3d
       0.0721597 0.1810397 0.016565358 0.071195886
0000a0 f3 d8 af 3d a7 2d 17 3d cb 0d 9c 3d fb 74 d8 bd
       0.08586302 0.03690877 0.07619818 -0.10569187
0000b0 17 58 56 3d fd 9c 84 bd ca 8c 7d 3d 93 6a 69 3e
       0.052330103 -0.06475256 0.061901845 0.22794561
0000c0 53 05 83 3e 49 e0 45 bd ba 3b 38 bd 0f 0f 80 bd
       0.2559 -0.048309598 -0.044978835 -0.06252872
0000d0 d5 b7 d2 3d f9 63 44 3c b9 5c 9b 3d 33 d1 b8 3d
       0.102889694 0.011986726 0.07586045 0.090242766
0000e0 5b 25 21 bb 80 75 1c bc 84 d8 eb 3d a1 b4 c0 bc
       -0.0024588916 -0.009549499 0.115159065 -0.02352363
0000f0 9a de d8 bb 39 3e 1c 3e 89 cd 6c 3e 1f 74 4b 3d
       -0.006618333 0.15258111 0.2312528 0.04967129
000100 6c 8f 04 3d 78 38 ef 3c f6 00 3c 3b a0 27 9d bd
       0.03236334 0.029201731 0.0028687096 -0.076735735
000110 37 dd 2b bd 17 8e b6 bc f6 5c 10 3e 1c 54 59 bd
       -0.041959014 -0.02228455 0.14097962 -0.05305873
000120 cf 63 54 3d 42 d9 8c bd 51 2a 1f be 1c 98 8c bd
       0.051852997 -0.06877376 -0.15543486 -0.0686495
000130 1b 13 f5 3a 3d 91 d4 3d cf 32 eb 3d bc 5c db 3d
       0.001869771 0.103792645 0.114843 0.10711047
000140 de 0e 7f bc fd d9 98 3e 0a ab d5 3d f5 3e e9 bc
       -0.015567509 0.29853812 0.10433014 -0.028472403
000150 a9 ca ea bd 46 d4 c2 3d e4 6b af 3d 64 01 76 bd
       -0.114644356 0.09513144 0.085655004 -0.06005992
000160 b4 5f c0 3c 57 09 06 3e 11 67 24 3a c9 35 c6 bb
       0.023483135 0.130895 0.00062714616 -0.006048892
000170 f6 00 57 3d f6 2b 9d bd 99 21 a7 bd 77 84 ad 3d
       0.05249115 -0.076744005 -0.08160705 0.08472531
000180 ea 41 87 bd 9d 6d 28 bd e3 0c af bd 3b c3 89 3d
       -0.06604369 -0.04112016 -0.0854738 0.067266904
000190 47 9b 34 b8 0f 18 3a bd 51 13 1c 3d df 4b 76 bd
       -4.3059958e-05 -0.0454331 0.03810436 -0.06013095
0001a0 01 f2 25 3e c8 a4 9c 3d 52 7f 36 3e a7 56 1b 3d
       0.16205598 0.07648617 0.17822006 0.037924435
0001b0 48 bb 99 bc c6 64 c9 3c 49 96 28 3c bd cf 40 3e
       -0.01876606 0.024584185 0.010289737 0.18829246
0001c0 c3 c2 b1 bd c6 9f cf 3c a3 29 ae bd 28 62 0f 3c
       -0.08679726 0.02534474 -0.08504035 0.00875143
0001d0 f9 70 af bd 7b fe 28 3e 97 03 1f 3d be 83 d3 3d
       -0.0856647 0.16503327 0.038821783 0.10327862
0001e0 a4 7d f1 3c a4 6c 53 bd 15 27 09 3e 39 43 d2 3d
       0.029478855 -0.05161728 0.13393815 0.10266728
0001f0 53 9d 69 3d 77 73 b4 bd 06 3c 20 3d ee b0 1e 3d
       0.0570348 -0.08811086 0.039119743 0.038742952
000200 cf 41 6f bd e9 ec a1 3b 3a 0c 49 bd 2b b1 d5 bb
       -0.05841237 0.004941572 -0.049083926 -0.006521364
000210 7f fa 0a bc 90 12 b1 bd 07 a9 49 bd 4f cf 51 3c
       -0.0084825745 -0.08646119 -0.049233463 0.012805774
000220 69 8b ad bd 9a 22 95 3d 3a 6f ca 3d 59 99 87 bd
       -0.08473856 0.0728199 0.09884496 -0.066210456
000230 ca 23 9a 3d 81 98 e0 3d 4d 37 1d bd da c8 8c 3d
       0.075263575 0.10966588 -0.038382817 0.06874247
000240 df 6e d3 bb 36 f7 c5 bc f9 b6 34 3d e5 42 8d 3c
       -0.006452426 -0.02416573 0.04411981 0.017243812
000250 95 67 4a 3e c9 ff 55 bc 28 60 3c bd ab 16 bf 3d
       0.19766076 -0.013061472 -0.04599014 0.093304954
000260 6b c2 66 bd 5e a0 81 bd 88 4d 15 3e 81 57 53 3e
       -0.056337755 -0.06329416 0.14580357 0.20638849
000270 a6 37 b8 3d cd b3 3f 3d 2a b0 0a 3e d1 0f 30 3d
       0.08994989 0.04680233 0.13543764 0.042983834
000280 5a 32 3d bd 33 ef 05 bd 1b 8d 8d 3c f5 34 07 3e
       -0.046190597 -0.03269882 0.017279198 0.13203795
000290 97 c9 e6 3d 33 b8 cc 3d 73 9e 3c bd ec 4c 62 bc
       0.11268919 0.09996071 -0.046049546 -0.013812285
0002a0 03 7f 64 bd ad 95 cf 3c a7 d5 3f bd 71 46 20 3d
       -0.05578519 0.025339926 -0.046834614 0.03912968
0002b0 f6 f5 a1 3d be b2 9e 3d ba b2 f8 3c 11 11 96 3d
       0.079082415 0.07748936 0.030358661 0.07327474
0002c0 cb a9 66 3b 2f 53 f6 3d 77 09 b9 bd 49 54 a4 bd
       0.003519642 0.12027585 -0.090350084 -0.080238886
0002d0 02 bb 73 3c 1c 8a 89 3d 34 7b 3f bd ef 60 cb bd
       0.014876129 0.067157954 -0.046748355 -0.09930598
0002e0 eb 89 bf bc e8 52 60 bd ea 35 22 3d 3b 03 94 3d
       -0.023381194 -0.054766566 0.039602198 0.07227179
0002f0 36 84 a2 bd 7f c9 c8 3b 5a 40 f3 bc 83 55 1d bd
       -0.079353735 0.006127536 -0.029693771 -0.03841163
000300 2e 5b 39 3d 01 53 ca 3d fb 14 5f 3d 52 8b f8 3d
       0.04525297 0.09879113 0.054463368 0.12135948
000310 28 52 42 3d 63 48 ee bc 46 86 76 3d 89 01 5f 3e
       0.04744163 -0.029087251 0.060186647 0.2177793
000320 22 ea 1c bd 46 df e1 3d d5 b1 4f 3e 76 c6 70 3b
       -0.038309224 0.11028914 0.20282681 0.0036739386
000330 1d 9b c8 3c ed 2a 85 3c d3 ac 84 bd 09 bc b4 3d
       0.024488026 0.01625582 -0.06478276 0.08824927
000340 d3 24 75 bd 65 7f b8 3d c9 0f 08 3c 2c cc d6 3d
       -0.05984957 0.090086736 0.008304545 0.104881614
000350 46 d2 c7 3d fd 07 0f be d0 a0 ac 3b db 62 10 3d
       0.09756903 -0.13967891 0.005268194 0.035250526
000360 c0 39 ce 3d 33 09 45 bd c5 fd ab bd 33 1a 1f be
       0.10069609 -0.048104476 -0.08398012 -0.15537338
000370 17 ea 30 bd ea 6d 1b 3d 80 62 98 3d d9 25 e2 bc
       -0.043191995 0.03794662 0.074406624 -0.027605938
000380 bd 12 1e be 98 2d 45 bc 30 19 f2 bd 36 9a 3a bc
       -0.15436836 -0.012034796 -0.118212104 -0.011389306
000390 01 48 f2 3d aa a5 bc bd d5 ba e9 bd 25 43 12 bd
       0.1183014 -0.092112854 -0.114125885 -0.035708565
0003a0 c8 1e 25 bd 86 1d 30 bd 32 fc 42 3d 40 3d 0b 3e
       -0.04031256 -0.042996906 0.047603793 0.13597584
0003b0 5c 86 ae 3d fe 35 d9 3d a7 54 52 3d 75 96 98 bc
       0.08521721 0.10606001 0.051350262 -0.018626431
0003c0 85 71 51 3e 06 b1 e6 3c 73 aa 49 be dc 2f 6d bc
       0.2045346 0.028160583 -0.19693927 -0.014476743
0003d0 3c 8c 29 bd 0e 74 0a 3d ee 2b bd bd 8d 18 ab bd
       -0.041393504 0.033802085 -0.092368945 -0.08354292
0003e0 b8 3c 86 bc d6 68 c2 3b 73 c3 89 3d 7f e3 e0 bc
       -0.016386375 0.0059329076 0.06726732 -0.027452229
0003f0 0b 2f 06 be e2 18 86 bb 15 5c 1c 3e 86 eb 64 bc
       -0.13103883 -0.0040923217 0.15269502 -0.013972169

fc4.bias f4 [100]
000000 1e 48 af 3d 77 3c 74 bd e7 0d b0 bd 5b 6c 66 bd
       0.08558677 -0.059627976 -0.08596402 -0.05625568
000010 4e 65 f1 bd b0 38 ea bc 07 06 1c bd ca 2d 8e bc
       -0.117869005 -0.028591484 -0.038091686 -0.017355818
000020 65 fa c4 3d 1b c3 56 3d 09 c9 ab bd dc 40 07 bd
       0.096180715 0.05243216 -0.08387954 -0.03302084
000030 9c 48 05 3e cc b3 07 3e 1f cc 44 3d f1 ce bf 3c
       0.1301598 0.13252181 0.048046228 0.023414107
000040 f4 e0 62 3d f6 cc ac 3d a1 89 42 3d a7 9c 94 3d
       0.055390313 0.08437531 0.047494534 0.072564416
000050 d0 cb 86 bd 37 33 bf 3d b1 4d 50 3d 23 89 64 bb
       -0.06581843 0.0933594 0.050855342 -0.003487178
000060 6f 52 3e bd ae a3 34 3d d9 ec 8e 3c 00 1e ea 3d
       -0.046465334 0.04410141 0.017446922 0.11431503
000070 b3 44 ac 3d 11 63 8e 3d 96 56 57 bc 7b ee 09 3b
       0.08411541 0.06952489 -0.013143202 0.0021046686
000080 40 0b b4 bc 17 54 8b bc 84 71 b8 bd d3 3d b6 bd
       -0.02197802 -0.01700787 -0.090060264 -0.08898511
000090 5f 2d 9f bc d7 60 fd 3d ed 85 79 3c cb bc 8c 3d
       -0.019430814 0.12371986 0.015229684 0.06871947
0000a0 b1 ed d7 bd 05 7f 13 bd e9 82 bd bb 00 86 06 bd
       -0.10543383 -0.036009807 -0.005783428 -0.032842636
0000b0 f4 04 33 3c f9 47 86 bc c4 5f c0 bd d7 39 53 bd
       0.010926474 -0.016391741 -0.09393266 -0.051568832
0000c0 92 c0 c0 3b 74 a3 51 3c 1f 8a d8 bd 96 22 6a bd
       0.005882331 0.012795318 -0.105732195 -0.05716189
0000d0 fd 06 87 3d 76 7e b9 bc 26 31 d0 3d f8 88 2f 3d
       0.0659313 -0.02264331 0.10165624 0.042855233
0000e0 30 ab 8f bd 33 cb ed 3c d8 ea 69 3c 4c 3f b7 3d
       -0.07015073 0.029027557 0.0142771825 0.0894762
0000f0 5e 32 aa bc 35 0a 0d 3e 76 9d d7 ba 84 2a a4 bd
       -0.02077597 0.13773425 -0.0016450125 -0.08015922
000100 21 49 e1 bb e8 1d 99 bc c7 62 8a bd 3d 1f 96 bd
       -0.0068751727 -0.018691018 -0.067571215 -0.07330177
000110 88 c8 1b 3d 85 f8 1c 3d 2e fb aa 3d b6 0e 5f bd
       0.03803304 0.038322944 0.0834869 -0.05445739
000120 5c bd 15 3d a6 56 73 3d 3b d1 68 bc 3c 20 80 3c
       0.03655754 0.059408806 -0.014210041 0.01564037
000130 f2 ce 62 bd 8e 42 26 3c f8 c2 f5 3d 22 df 5f 3d
       -0.05537314 0.010147704 0.12000078 0.054656155
000140 55 3e e9 3d d6 58 b5 3d 93 0c 52 3d 87 ba b3 3c
       0.11388842 0.08854835 0.051281523 0.02193953
000150 61 26 2c 3d 89 d1 ea 3d 4f 54 36 bd 2b 2b ff 3c
       0.04202879 0.11465747 -0.044513997 0.031148514
000160 94 b8 5c 3d 1d 78 6a bd fa c5 8a 3d 4b 92 a0 3d
       0.053886965 -0.057243455 0.06776042 0.07840403
000170 5a 61 5a 3d 34 05 bb 3d ac 61 49 bd 91 52 a0 3d
       0.053315498 0.09131852 -0.049165413 0.07828248
000180 f8 1a 81 3d 8c d8 a0 bd a9 fc cb 3d be 69 0a bd
       0.06303972 -0.07853803 0.099603005 -0.03379225

fc5.weight f4 [100, 100]
000000 78 8b dd bc 90 2d 20 3d 41 fc 9f 3b 4d 96 e4 bd
       -0.027044043 0.03910595 0.004882366 -0.1116148
000010 47 cb 28 be 31 d8 e8 bc fa ff 0d be 7e e5 a4 3d
       -0.16483794 -0.0284234 -0.13867179 0.08051585
000020 a1 0c 30 3e d4 3c 34 bd 5a 6c bb bc 9c 1c 5b 3d
       0.17192318 -0.044003323 -0.022878814 0.05349408
000030 8d a1 da 3c 96 f2 dd 3d 2d c3 44 3d 50 ca 83 bd
       0.026688362 0.10837285 0.048037697 -0.064350724
000040 2f d1 54 3d f0 0f a9 3d ef 3b a3 3d f0 c0 fb 3c
       0.051957306 0.08254993 0.07970416 0.030731648
000050 7d 2c ce 3d 57 6b c6 bc 4b a7 0b 3d 86 ed e3 bd
       0.10067079 -0.024221106 0.03409509 -0.111292884
000060 9e b3 60 3d c9 57 8f 3d e4 e8 c5 3d fe 98 4e 3d
       0.054858796 0.069991656 0.09663561 0.050438873
000070 3c 8e a5 3d ca 75 8b 3c 8f 6f dd 3c de cb 07 3d
       0.0808377 0.01702394 0.027030734 0.033153407
000080 ce f4 e0 3c 2a 5b dc bd 49 22 1e bd 9c 36 e2 bd
       0.027460482 -0.10759576 -0.038606916 -0.11045572
000090 00 3c 12 b9 e4 db cf bd 60 55 59 3d f3 ce 55 bd
       -0.00013945997 -0.10149363 0.053059936 -0.052199315
0000a0 6b 73 a7 bd b8 8c 9b bd 89 92 ee 3d 82 f0 67 bc
       -0.08176311 -0.07595199 0.11649043 -0.014156463
0000b0 1f 51 8b 3d df 9a b4 bd c1 f1 00 be 0a d2 6f 3d
       0.06802582 -0.08818602 -0.12592222 0.05854992
0000c0 83 ce bf 3d 5a 01 24 3e 17 80 b6 bc 19 da b7 3b
       0.09365561 0.1601614 -0.022277875 0.005610716
0000d0 bf 78 71 bd 7e 65 b7 3d 42 3f 75 3d d2 0e 9b bc
       -0.058953043 0.08954905 0.05987478 -0.018927965
0000e0 80 bf 73 3d 16 d3 2c 3d 27 c1 4c bd 64 40 3c bd
       0.0595088 0.042193495 -0.049988892 -0.045959845
0000f0 a7 14 71 3d 0a 2a 10 3d f7 35 3b 3d e6 b3 da bd
       0.058857586 0.03519634 0.04570576 -0.10678844
000100 6b b4 cf bc 51 b0 cf 3c 75 2f 1b 3e 6b c8 4c bd
       -0.025354585 0.025352629 0.15154822 -0.04999582
000110 f7 b0 89 3d 7c 61 9e bc 3b 63 13 bd eb 41 4e 3d
       0.067232065 -0.019333594 -0.035983305 0.050355833
000120 9c 33 e3 3d 17 fb 57 bd de 99 af 3d ec 6f b6 bd
       0.11093828 -0.052729692 0.0857427 -0.08908066
000130 7e 69 6f 3e ba eb 93 be c3 b2 0f be 89 e3 59 bd
       0.23380086 -0.28890783 -0.14033036 -0.05319551
000140 95 56 3c 3d 29 08 a3 3d 5b c5 ab 3d 83 52 2f be
       0.04598101 0.07960541 0.08387252 -0.1712132
000150 0c 0d 35 3d d1 29 f6 3d d1 0b 14 be af 25 40 be
       0.044201896 0.120196946 -0.14457633 -0.18764375
000160 d9 c7 3b be 47 ef b1 bd 88 2c 15 3d 66 22 f6 bc
       -0.18337955 -0.08688217 0.03641942 -0.0300457
000170 9a ac 08 3d ee 06 7a 3d 6a 6e fb 3c db 8c c6 bd
       0.03336773 0.061041765 0.030692298 -0.09694835
000180 7a b3 9b bd b3 ec b3 3d c6 0e c9 3b f0 2c 16 3d
       -0.07602592 0.08785381 0.0061357943 0.03666395
000190 69 b1 58 3d 78 bd 01 bd 07 ca 5d bd 2b 68 60 be
       0.052903567 -0.031674832 -0.054147746 -0.21914737
0001a0 28 11 da 3c d1 65 3d be d1 9e bf 3d 55 2d 51 3e
       0.026619509 -0.18495871 0.09356464 0.20427449
0001b0 23 d3 13 3e c3 1c ed bd ec 41 87 3d b4 45 2d bd
       0.14436011 -0.115777515 0.066043705 -0.042302802
0001c0 28 00 0b 3e ef 75 8e bd 45 ec af 3d 3e f5 d1 3d
       0.13574278 -0.06956088 0.08589987 0.10251854
0001d0 ae b6 ce bb 21 51 22 be 13 06 33 bc 08 54 a9 bc
       -0.006308398 -0.1585126 -0.010926741 -0.020669952
0001e0 af 9d 1b 3e 77 82 78 bd 3a 94 55 ba 1e 35 09 3d
       0.1519687 -0.060671296 -0.00081473927 0.033497922
0001f0 f5 ca cd bd 78 2e 9c bc dd cb 68 3c 75 61 80 bd
       -0.100484766 -0.019065127 0.014208761 -0.062685885
000200 35 d6 c1 3c d7 ae 15 bd d4 41 ef 3c ee 14 84 3d
       0.023661712 -0.036543693 0.029206194 0.064493045
000210 6f 47 47 bd 48 37 05 be 1d e3 91 3d 03 78 e4 3d
       -0.04865211 -0.1300937 0.071233965 0.11155703
000220 b4 3c ec bd 16 d9 0d be 1f 61 f9 bd 9c b7 83 3d
       -0.11535016 -0.13852343 -0.121767275 0.06431505
000230 c0 cc 59 3c 1d 57 2c bc 7c 4c ae 3c 85 bc 84 bd
       0.013293445 -0.010518816 0.021276705 -0.0648127
000240 ef d0 08 3e 59 e0 eb bd c8 1b a9 bd 07 a7 88 be
       0.13360952 -0.115174 -0.08257252 -0.26689932
000250 7c c1 05 be fd b9 3d bd dd fe 22 bd 66 fa e1 bd
       -0.1306209 -0.04631995 -0.039793838 -0.11034088
000260 e1 15 18 bd d4 da 7d bd ac 86 d5 3d b8 97 fb 3d
       -0.03713024 -0.06197627 0.10426077 0.122847974
000270 d6 3f 2e be 35 63 1a 3e 50 55 93 bb dd bd 84 3d
       -0.17016539 0.15076907 -0.004496254 0.06481526
000280 e2 c7 fa 3d 27 ff 34 3d 75 6d 2c 3e 01 3e c1 bd
       0.12245156 0.044188645 0.1683863 -0.094356544
000290 69 b9 af 3d 8e 33 93 bc be 64 e9 3d c2 c6 dd 3d
       0.08580286 -0.01796892 0.11396168 0.10828926
0002a0 ca 85 be 3d db ab 77 3d 62 6b 0d 3d 66 d1 51 3c
       0.09302862 0.06046663 0.034526236 0.012806272
0002b0 8e 5d 2f 3c ee f7 20 bc 5f 3d f5 bc fc ce 8b 3d
       0.0107034575 -0.009824736 -0.02993649 0.068265885
0002c0 05 6f d9 bc c3 8d 5d 3d fe 5e 08 3e 73 18 85 bc
       -0.026542196 0.054090273 0.13317487 -0.01624701
0002d0 2e 3c e2 bb 43 47 83 3d 38 f4 f3 3d e9 73 a6 bc
       -0.0069041466 0.064100765 0.119118154 -0.020318942
0002e0 2a 41 09 be a7 ff a7 3d ba 61 59 3c d5 3b 80 3d
       -0.13403764 0.08203059 0.013267929 0.06261412
0002f0 e0 9d 18 ba c0 d9 ad 3c 41 dc 91 3d a6 39 37 3e
       -0.0005821865 0.021221995 0.07122088 0.17893085
000300 72 4f 32 3d 80 ab ad 3d bf 90 e8 3d 53 56 a4 3c
       0.043532796 0.08479977 0.11355733 0.020060694
000310 7b 54 e3 3b 99 45 2d bd 49 46 b3 3d 00 99 a3 3b
       0.006937561 -0.0423027 0.0875364 0.0049926043
000320 ee 7a 86 bd 8a 70 c4 bd 54 08 cb bd 7d bd 87 3d
       -0.06566416 -0.095917776 -0.09913698 0.06627939
000330 ee 7f ab bd 6e 6f ad 3d 44 04 0d bd 2a d4 c1 3d
       -0.0837401 0.08468519 -0.034427896 0.09464295
000340 fb b9 74 bd 6d 16 e2 bd 68 e3 c8 3c b6 77 3e bd
       -0.059747677 -0.11039434 0.024522498 -0.046500884
000350 9f 63 0d be 5b 93 c4 bd a0 f6 b0 bd 83 d7 7d bd
       -0.13807534 -0.09598418 -0.0864079 -0.061973106
000360 26 18 0c 3d 5d 58 4b bd ac 77 45 3c 50 f5 9b bd
       0.034202717 -0.049644817 0.012052458 -0.07615149
000370 8f 8b 87 bd 28 d1 43 bb d6 dc a9 bc b8 8b 91 bd
       -0.066184156 -0.0029879306 -0.020735186 -0.07106727
000380 a7 2f 88 bd 2a 29 7d 3d 5a 40 88 bd e4 e1 83 3d
       -0.06649714 0.061806835 -0.06652899 0.064395696
000390 fa 76 23 3d cc 0f 13 bd 4e 59 bd 3d ba 0d 0f 3d
       0.039908387 -0.035903737 0.09245549 0.0349252
0003a0 b9 ff 87 3d ab 7c 0c 3d 9e d1 6e 3d a1 ae 20 bd
       0.06640572 0.03429858 0.058305375 -0.03922904
0003b0 fb 12 cf bd 83 e2 d2 bd 51 87 c4 3c 6b bb 9b bd
       -0.10111042 -0.1029711 0.023990305 -0.076041065
0003c0 15 bf bd bd 15 53 8d 3d 5f 20 b8 bd e1 48 07 bc
       -0.09264962 0.06900612 -0.08990549 -0.008257122
0003d0 ff 08 88 bd da 02 4a bd 6d 7e 1d bc 1a 6e 1d bd
       -0.06642341 -0.049319126 -0.009612662 -0.03843508
0003e0 d3 83 6c 3c 69 0e 98 3d d5 04 78 3d cc e2 86 3d
       0.014435726 0.074246235 0.060551483 0.06586227
0003f0 52 9b b2 3d 89 43 df 3c c0 80 ce bd e3 1a 96 3d
       0.08721031 0.027253883 -0.10083151 0.07329347

fc5.bias f4 [100]
000000 2b d0 03 3e 58 71 19 bd bc 06 21 bd ce 5e 2d 3d
       0.12872379 -0.03746161 -0.039313063 0.04232674
000010 f2 6f d3 3c 16 a5 2c 3e 38 a2 f0 3c 51 82 b0 3d
       0.025810216 0.1685985 0.029374227 0.08618606
000020 b4 d6 b8 3c db 7d 42 3d 17 95 34 ba 7b e7 8e bd
       0.022563316 0.047483306 -0.0006888671 -0.06977745
000030 84 aa 97 3d 86 e3 22 bd 5f 89 1a bd b3 13 69 3d
       0.0740557 -0.039767765 -0.037728664 0.056903552
000040 0e 56 cd 3d 0b c8 92 3d 4f d6 11 3e b1 b1 26 bc
       0.10026179 0.071670614 0.14241908 -0.010174201
000050 4d 04 8f 3d 3f 59 69 3d d4 ec 54 bd 68 c4 a5 3b
       0.06983242 0.056969877 -0.05198367 0.005058814
000060 86 c7 6a bd b8 60 ec 3d 73 5e 7a 3d 1f e0 26 3d
       -0.057319187 0.11541885 0.06112523 0.040741082
000070 c2 55 33 3c db 5f ed bb c7 77 2c bd 75 1c 0e 3e
       0.010945739 -0.007244093 -0.042106416 0.13878043
000080 0c 93 ac bd f3 56 4e 3d 65 db 50 3d 6c 69 24 3d
       -0.084264845 0.05037589 0.05099048 0.0401396
000090 8d 11 9b 3d 0a f7 c8 bd 46 1e 35 bd fa ec 28 3d
       0.07571707 -0.09812744 -0.044218324 0.041241623
0000a0 51 d0 e7 bb 2d 27 ea 3c ab f8 00 bd d6 b7 0f bd
       -0.007074394 0.028583134 -0.03148715 -0.03508743
0000b0 e7 dd 06 be cf b0 aa 3d 45 85 7e bd 7b b7 1e 3d
       -0.13170587 0.08334505 -0.062138814 0.0387492
0000c0 35 be bb 3d ed c6 a8 3d 72 16 2f 3d c5 d6 dd 3d
       0.091671385 0.08241067 0.042746015 0.1083198
0000d0 4c 78 a3 bd 76 a8 02 3e 1e cd 06 3c 2f 07 06 bc
       -0.07981929 0.12759575 0.008227615 -0.008180424
0000e0 90 e1 2d 3c 3e 0c 31 3c c5 57 50 3d 12 8d 52 3d
       0.01061286 0.010806141 0.050864954 0.051404066
0000f0 18 dc d8 3c 14 75 80 3d c9 66 db 3c 54 d1 b0 3d
       0.026472136 0.06272331 0.02678241 0.08633676
000100 9d b9 c4 3c 25 15 95 3d ac 6c f7 3c 76 ae 63 3d
       0.024014289 0.072794236 0.030203186 0.0555863
000110 97 ff 07 3e 61 af 91 bd 29 79 97 3d 8e 1d c8 bd
       0.13281094 -0.07113529 0.07396156 -0.09771262
000120 6e 17 ec bd 4b 4d 99 bd f1 80 a6 3c 14 0f b2 bc
       -0.11527906 -0.074854456 0.020325156 -0.021735705
000130 13 92 ed bd 7d 7f 1c 3b a3 bf b1 3d 16 55 47 bd
       -0.11600127 0.00238797 0.0867913 -0.04866513
000140 a0 c2 2b bd 63 57 b0 3d cd 4a 7a 3d dd f3 2d 3d
       -0.041933656 0.08610418 0.06110649 0.042468894
000150 7e e6 d0 3d 0b 4d 1e bd cb 99 8a bb fd d7 d7 3d
       0.10200213 -0.038647693 -0.0042297593 0.10539243
000160 7e 60 25 bd 44 c5 fa bc c9 8b 82 3d 44 a5 88 bd
       -0.040375225 -0.030611642 0.06374318 -0.06672147
000170 58 68 36 bc 5e 08 bb 3c d2 fb 62 bd eb 96 66 3d
       -0.011133276 0.022831138 -0.055415936 0.05629627
000180 5e 27 0c bd c0 bf 8c bc 1a 18 fc bd f4 2a fe 3d
       -0.03421723 -0.017181277 -0.123092845 0.124105364
