resources/pretrained_models/ik_threelink_obs4_dyn/models/weights_650/model.pth (torch_old, 295063 bytes, 18 tensors)

fc1.weight f4 [100, 20]
0	0x3e3a55ef	0.18196844
1	0x3dc6e712	0.09712042
2	0x3d76a4d9	0.060215805
3	0xbdf6995b	-0.12040969
4	0xbdb257c0	-0.08708143
5	0xbe1277a9	-0.14303459
6	0x3c320505	0.010865455
7	0x3de53da0	0.11193395
8	0xbe2f0440	-0.17091465
9	0xbe23f108	-0.16009915
10	0xbd321e54	-0.043485954
11	0x3cf59a50	0.029980808
12	0x3e4b7ffa	0.19873038
13	0xbd68c858	-0.056831688
14	0xbd4a2c7c	-0.04935883
15	0xbe614623	-0.21999411
16	0x3e574169	0.21021046
17	0xbcbb523c	-0.02286636
18	0x3d2f5932	0.042809673
19	0xbd3ce42c	-0.04611604
20	0xbe2085dc	-0.15676063
21	0xbeb42395	-0.35183397
22	0xbe118758	-0.14211786
23	0xbe1259db	-0.1429209
24	0xbdcd6c38	-0.10030407
25	0xbd9e7d84	-0.07738784
26	0x3dedf9f0	0.116199374
27	0xbaddfb80	-0.0016935915
28	0xbdf2053e	-0.11817406
29	0x3c8e3201	0.017357828
30	0xbe2e1b18	-0.17002523
31	0xbdc3e32a	-0.095648125
32	0x3e1efb63	0.15525584
33	0x3d8f4c2d	0.06996951
34	0x3e57af32	0.21062925
35	0x3c482d90	0.012217894
36	0x3cab3aff	0.020902155
37	0xbe29aa55	-0.16568883
38	0x3d3c4352	0.04596264
39	0x3df8c754	0.12147394
40	0xbe84a132	-0.25904232
41	0xbeb78640	-0.35844612
42	0x3e22be0e	0.15892813
43	0x3e0361be	0.12830254
44	0xbd8a950d	-0.067667104
45	0xbd34bad9	-0.044123504
46	0x3c8f18d0	0.017467886
47	0x3dcdb754	0.10044733
48	0x3db12698	0.08649939
49	0x3d9ef567	0.077616505
50	0x3e744b95	0.23856957
51	0x3e57a476	0.2105883
52	0xbc989344	-0.01862491
53	0x3b424efb	0.0029649127
54	0xbd51f3b8	-0.05125782
55	0xbbf0e4c0	-0.007351488
56	0x3cc17234	0.023614027
57	0xbdbd3599	-0.092387386
58	0x3e32b106	0.17450342
59	0x3daa87dc	0.08326694
60	0xbdcf953a	-0.101358846
61	0xbdf56a0c	-0.119831175
62	0x3dfc5479	0.123207994
63	0x3d06f9dd	0.032953132
64	0x3a1e7a9f	0.00060454936
65	0xbdca20a5	-0.09869508
66	0x3e25b57e	0.16182515
67	0xbe1e3ec4	-0.1545363
68	0x3c41ee19	0.011836552
69	0xbe0c4dec	-0.137016
70	0xbcfd7971	-0.030941697
71	0x3e2c5038	0.16827476
72	0xbddee7a4	-0.10884026
73	0xbd97a103	-0.074037574
74	0x3d88a1bb	0.06671473
75	0xbe553ca0	-0.20823908
76	0x3d008c5e	0.031383865
77	0x3def9c53	0.11699738
78	0xbddc7094	-0.1076366
79	0xbe174786	-0.14773378
80	0x3d9768aa	0.0739301
81	0xbda33d8c	-0.079707235
82	0xbe05b4d3	-0.1305726
83	0x3de397c0	0.111129284
84	0x3d9ef059	0.077606864
85	0x3d4637a0	0.048392892
86	0x3e437383	0.19087033
87	0xbd517280	-0.051134586
88	0xbdfebb9a	-0.12438126
89	0xbda580e9	-0.08081228
90	0x3e3f2ceb	0.18669479
91	0xbbcf5020	-0.0063266903
92	0xbe21c242	-0.1579676
93	0x3c897d11	0.01678327
94	0xbce34a1b	-0.027745297
95	0x3e2ab9ba	0.16672412
96	0x3e149c71	0.14512803
97	0xbd0f6f28	-0.035018116
98	0x3e23b2f9	0.15986241
99	0xbd3ada88	-0.045618564
100	0x3dafc6a6	0.08582811
101	0x3ebc2b5a	0.36751825
102	0xbe1a456e	-0.15065548
103	0x3d66ce73	0.05634923
104	0x3d8c0f71	0.06838883
105	0xbe285923	-0.16440253
106	0xbe2f7826	-0.17135677
107	0x3da997fc	0.08280942
108	0x3d9b10e3	0.0757158
109	0xbe010c23	-0.12602286
110	0xbd2b2ca4	-0.04179062
111	0x3bd4d040	0.006494552
112	0x3ba03a6c	0.004889777
113	0xbd5b9669	-0.05361024
114	0xbdfd241d	-0.12360404
115	0x3e112d5a	0.14177456
116	0x3daf9815	0.08573929
117	0xbe26d4c9	-0.16292109
118	0x3da171ca	0.07883032
119	0xbe4de610	-0.20107293
120	0x3e876130	0.26441336
121	0xbe98a6d9	-0.29814795
122	0xbc8e3262	-0.017358009
123	0xbd058007	-0.0325928
124	0xbcb8aa7a	-0.022542227
125	0x3df44afe	0.11928366
126	0xbd882861	-0.06648327
127	0xbe18c225	-0.1491781
128	0xbdabb2c6	-0.08383708
129	0xbdf5a613	-0.11994567
130	0x3dd7b732	0.105329886
131	0xbdf04720	-0.11732316
132	0x3cdccdbf	0.026953576
133	0xbd6b1c51	-0.05740005
134	0x3c4f1b35	0.012640764
135	0xbe0f1ebc	-0.13976568
136	0xbdb81ffd	-0.08990476
137	0x3d2493f4	0.04018016
138	0xbd808526	-0.06275396
139	0xbe350f59	-0.17681636
140	0xbe6ad617	-0.22933231
141	0x3ea2cad7	0.3179538
142	0x3dc64b8d	0.09682379
143	0xbe1f1c63	-0.15538172
144	0xbe0d9aec	-0.1382863
145	0x3cd7fb03	0.026364809
146	0xbd40b776	-0.047049962
147	0xbce49d58	-0.027907059
148	0xbe366e3a	-0.17815486
149	0x3e119b87	0.14219485
150	0xbd69c677	-0.057074036
151	0x3d5a2b20	0.053263783
152	0xbd88fe2e	-0.06689106
153	0x3d0d32af	0.034472164
154	0xbd4123c2	-0.047153242
155	0xbdcfc462	-0.10144879
156	0xbe7ace7c	-0.2449283
157	0xb99130cd	-0.00027692915
158	0x3e84ca7f	0.25935742
159	0xbd8a1ef4	-0.06744185
160	0xbe16fbf0	-0.14744544
161	0x3e79b3b7	0.24384962
162	0xbe60a971	-0.21939637
163	0xbd071325	-0.032977242
164	0x3cd14da1	0.025549712
165	0xbdf6300b	-0.12020882
166	0xbd692e82	-0.05692912
167	0x3acfa300	0.0015841424
168	0x3cdac46a	0.026704986
169	0xbe40849b	-0.18800585
170	0x3de84018	0.1134035
171	0x3c4cedf0	0.012507901
172	0x3dc27407	0.09494787
173	0xbddf7dc3	-0.10912659
174	0x3e58d30c	0.21174258
175	0x3d8445e8	0.06458646
176	0xbe00e697	-0.12587963
177	0x3e104fa0	0.14092875
178	0x3e555930	0.20834804
179	0x3dcac85c	0.09901497
180	0x3d6da879	0.058021996
181	0xbe6c81f9	-0.23096456
182	0xbe507bd5	-0.20359738
183	0xbe0b3544	-0.13594538
184	0x3cf21667	0.029551698
185	0xbd3df87c	-0.04637955
186	0x3e08c611	0.13356806
187	0x3e2fa30c	0.17152041
188	0xbe2dda41	-0.16977789
189	0x3de1a2ed	0.11017404
190	0x3e17ca79	0.14823331
191	0x3e3ba4b2	0.18324545
192	0xbe2e129d	-0.16999288
193	0x3e6c81cb	0.23096387
194	0x3d576110	0.0525828
195	0x3e0c24c0	0.13685894
196	0x3ddc2eca	0.10751112
197	0xbe0b61c4	-0.13611513
198	0x3e2b1eb4	0.16710931
199	0x3e3a2ebe	0.18181893
200	0x3e1936b3	0.14962272
201	0x3e83f9f1	0.25776628
202	0xbe53c99c	-0.20682377
203	0x3d47e2a8	0.04880014
204	0xbdd14732	-0.102186576
205	0xbe36e814	-0.17861968
206	0xbd312687	-0.043249633
207	0xbdeb5ffe	-0.114929184
208	0x3df44834	0.11927834
209	0x3c8ee3e0	0.017442644
210	0xbdc3fae1	-0.09569336
211	0xbdad76a2	-0.08469893
212	0xbd0323d4	-0.03201659
213	0xbd9eff4f	-0.0776354
214	0x3e486918	0.1957134
215	0x3d8d7bc4	0.06908372
216	0x3d5eef95	0.054427702
217	0x3dd5333a	0.10410161
218	0xbdaaa74e	-0.08332692
219	0x3e447786	0.1918622
220	0xbe4cac9d	-0.19987722
221	0x3eb010ec	0.3438791
222	0x3e1e6a1e	0.15470168
223	0x3e458dd0	0.19292378
224	0x3e065a3e	0.13120362
225	0xbdc3db33	-0.09563293
226	0xbdc7e33e	-0.0976014
227	0x3e56203c	0.20910734
228	0xbd4b0670	-0.049566686
229	0x3d61ec9e	0.055157296
230	0x3d56b732	0.052420802
231	0xbdaa6c86	-0.083214805
232	0x3d958675	0.07301036
233	0xbe267de6	-0.16258964
234	0xbd6f0c0a	-0.05836109
235	0x3e4a2d7c	0.19743913
236	0xbe484612	-0.1955798
237	0x3e381913	0.17978315
238	0x3deef106	0.11667065
239	0x3d85b940	0.06529474
240	0xbe133bc4	-0.14378268
241	0x3e8cac2d	0.2747511
242	0xbe540c46	-0.20707807
243	0xbe26a977	-0.16275583
244	0x3d1249de	0.035714976
245	0x3e109cd2	0.14122322
246	0x3de7fce5	0.11327533
247	0xbd8f4b8c	-0.06996831
248	0xbdf567bb	-0.11982676
249	0x3d5f94b0	0.05458516
250	0x3da92c38	0.08260387
251	0xbdd13b4a	-0.102163866
252	0xbe1ecb48	-0.15507233
253	0x3dcbc880	0.09950352
254	0xbe07974c	-0.13241309
255	0x3d4e10c8	0.050308973

fc1.bias f4 [100]
0	0x3e64d3d6	0.22346434
1	0x3df6cedf	0.12051176
2	0xbd6e4fdc	-0.05818163
3	0x3dbc7687	0.09202295
4	0xbd72f869	-0.059318934
5	0xbdc7291f	-0.0972464
6	0xbdbfdbc3	-0.09368088
7	0xbd26ed36	-0.040753566
8	0x3e0ff93e	0.14059922
9	0x3e01036f	0.12598966
10	0x3d62a0d6	0.055329166
11	0x3dfc207b	0.12310883
12	0xbdec5267	-0.115391545
13	0x3e1156f9	0.14193334
14	0xbbfb08a7	-0.0076609435
15	0x3d55c7ba	0.052192427
16	0xbd6c433d	-0.05768131
17	0x3d53b165	0.05168285
18	0x3d741066	0.05958595
19	0x3e643d24	0.22288948
20	0x3e850ea5	0.25987735
21	0x3d9d1acf	0.07671129
22	0x3d323808	0.043510467
23	0x3ba12c4e	0.0049186116
24	0xbdf08656	-0.117443725
25	0x3e36daac	0.17856854
26	0xbda795a2	-0.08182837
27	0x3e6264cf	0.22108768
28	0xbe1cf7ed	-0.15328951
29	0xbcf1c90a	-0.029514808
30	0x3de6ec36	0.112755224
31	0xbe0fdb59	-0.14048518
32	0xbc3a1bce	-0.011359168
33	0x3be238c9	0.006903742
34	0xbdfbfdeb	-0.123042904
35	0x3c3b373d	0.011426744
36	0x3e0ba0f0	0.13635612
37	0x3e065041	0.13116552
38	0xbd50dcc8	-0.050991803
39	0xbe552b9b	-0.20817415
40	0x3e10ac43	0.14128213
41	0x3e0ccd02	0.1375008
42	0x3e57f0e8	0.21087992
43	0xbc883ddc	-0.01663106
44	0xbd8d3709	-0.06895263
45	0xbe2da993	-0.16959219
46	0xbdef142c	-0.11673769
47	0xbd698d8a	-0.057019748
48	0xbd665154	-0.056229904
49	0x3dfe4a8f	0.12416565
50	0x3da9a426	0.08283262
51	0xbe1803cc	-0.14845198
52	0x3d07c191	0.033143584
53	0xbe267210	-0.16254449
54	0xbe12bf7f	-0.14330862
55	0x3d839b22	0.064260736
56	0x3d94e558	0.07270306
57	0xbe3689d2	-0.17826012
58	0x3e7a138a	0.24421516
59	0xbd46b874	-0.048515752
60	0x3e2a6065	0.16638334
61	0x3e6a5854	0.22885257
62	0x3d5aa58c	0.053380534
63	0xbe1eb286	-0.15497789
64	0xbdd13a45	-0.10216192
65	0xbe3c1067	-0.18365632
66	0x3e1643ee	0.1467435
67	0x3e6108ac	0.21975964
68	0x3d502bf9	0.050823186
69	0x3de5f0c0	0.1122756
70	0x3e602eab	0.21892802
71	0x3e710270	0.23536086
72	0xbdd83b7a	-0.10558219
73	0xbe11ca4c	-0.14237326
74	0x3dd85ad9	0.10564203
75	0xbd784b64	-0.060618773
76	0x39177185	0.00014442771
77	0xbdb72d10	-0.08944142
78	0x3e76adeb	0.24089782
79	0xbb701031	-0.0036630745
80	0x3d7b5a28	0.061365277
81	0x3e5c0669	0.2148682
82	0x3dcc8e0b	0.0998803
83	0xbdf75c7f	-0.12078189
84	0xbe13fdde	-0.14452311
85	0x3df3b69f	0.119000666
86	0x3dfdc4e8	0.123910725
87	0xbd7baff6	-0.061447106
88	0x3dcbeb80	0.099570274
89	0x3d730910	0.059334815
90	0xbe3cc672	-0.18435076
91	0x3e823aa8	0.25435376
92	0x3dea0e79	0.11428542
93	0x3e816087	0.25268957
94	0xbdef9548	-0.11698395
95	0x3c09b818	0.008405708
96	0xbd50b002	-0.050949104
97	0x3e7d13c6	0.24714574
98	0x3e8284c1	0.25491908
99	0xbe2a2daa	-0.16618982

fc2.weight f4 [100, 100]
0	0xbd3ee464	-0.04660453
1	0xbd41ab5e	-0.04728257
2	0x3c184cbe	0.0092956405
3	0x3d57205f	0.052521106
4	0x3d350154	0.04419072
5	0x3df91974	0.12163058
6	0xbdc742a1	-0.09729505
7	0x3b1b304b	0.0023679908
8	0x3df64a84	0.120259315
9	0xbd623ae3	-0.05523194
10	0xbc0c6794	-0.008569617
11	0xbdd192f6	-0.10233109
12	0x3d126295	0.035738546
13	0xbd415537	-0.047200408
14	0x3de6dfb4	0.11273137
15	0x3df37bf6	0.11888878
16	0x3e23ec77	0.16008173
17	0xbca5dd36	-0.020247083
18	0x3d893a6a	0.06700595
19	0x3df2e68f	0.11860382
20	0x3e01433d	0.12623306
21	0xbcd3d7cf	-0.025859741
22	0xbd127eab	-0.03576533
23	0xbd1f242b	-0.03885285
24	0x3dad585f	0.08464121
25	0xbd35d000	-0.044387817
26	0x3d76ae43	0.060224783
27	0x3ddc9556	0.10770671
28	0xbc5936c3	-0.013257685
29	0x3d86cce4	0.065820485
30	0xbdab6856	-0.0836951
31	0x3ce2fc41	0.027708175
32	0xbd709995	-0.058740217
33	0xbc0eee94	-0.008723874
34	0xbd906b39	-0.07051701
35	0x38397db6	4.4224515e-05
36	0xbd990bd6	-0.07472961
37	0x3e1bdbbb	0.1522054
38	0xbd3a386e	-0.04546397
39	0x3dc46660	0.09589839
40	0xbd0a729d	-0.03380071
41	0x3def8404	0.11695102
42	0xbd615178	-0.055009335
43	0xbc4c821e	-0.012482194
44	0x3dcb640f	0.09931194
45	0x3dacf409	0.084449835
46	0xbdbde277	-0.0927171
47	0x3e226a11	0.15860774
48	0xbdb4094b	-0.08790835
49	0x3d96a90b	0.07356461
50	0xbcfca03f	-0.03083813
51	0xbda7fd76	-0.08202641
52	0x3d041448	0.032245904
53	0x3cb88908	0.02252628
54	0xbd85f1da	-0.0654027
55	0x3b8fae2a	0.0043847756
56	0xbc90935b	-0.01764839
57	0x3d8c1ea5	0.068417825
58	0x3dafc99d	0.085833766
59	0x3c871697	0.016490264
60	0x3db111bd	0.086459614
61	0x3d9f5f39	0.07781834
62	0x3d5b911d	0.053605188
63	0xbd98306c	-0.07431111
64	0x3dc3ec3a	0.09566541
65	0xbc858f29	-0.016303616
66	0xbd349362	-0.044085868
67	0x3cfa7d85	0.03057743
68	0xbd1184b5	-0.03552695
69	0xbc14ea51	-0.0090890685
70	0x3da73460	0.081642866
71	0x3cc32ddd	0.02382558
72	0xbdf282e7	-0.11841374
73	0x3ce14f54	0.027503647
74	0x3d6d4849	0.057930265
75	0x3d2217d7	0.039573517
76	0x3dbe3b4d	0.092886545
77	0x3db72cf9	0.08944125
78	0x3d1a2978	0.037637204
79	0x3bad6237	0.005291249
80	0xbdb965fe	-0.090526566
81	0x3de1b411	0.11020673
82	0xbd9c9829	-0.0764621
83	0xbc7fa721	-0.0156038115
84	0xbb81ff23	-0.0039671822
85	0xbd32e945	-0.043679494
86	0x3c2b8f09	0.010471114
87	0x3e0c9f68	0.13732684
88	0x3d707db4	0.05871363
89	0x3d9cb343	0.07651379
90	0x3d55fccc	0.05224304
91	0xbd056a63	-0.03257216
92	0x3ca95352	0.020669613
93	0xbbbb83cd	-0.005722499
94	0x3cf5be5c	0.029997997
95	0x3d1ed8e2	0.038781054
96	0x3c98ec33	0.018667316
97	0xbd1f8491	-0.038944785
98	0xbd039cd6	-0.032131992
99	0xbcdd9e94	-0.027053155
100	0xbcb94579	-0.022616135
101	0x3cb928ac	0.022602402
102	0xbd2c011d	-0.04199325
103	0x3d11d846	0.035606645
104	0xbdf8f873	-0.12156763
105	0x3cb11f67	0.02162142
106	0xbd35f9cf	-0.04442769
107	0xbd1282ff	-0.03576946
108	0x3cf64748	0.030063286
109	0xbcb3bd92	-0.02194098
110	0xbd9442ca	-0.072393015
111	0xbcbf11ef	-0.023323981
112	0x3d3eea32	0.046610065
113	0xbc85db73	-0.016339993
114	0xbcb3680e	-0.021900203
115	0xbe05381c	-0.13009685
116	0xbdf72fcc	-0.120696634
117	0x3c3cbf87	0.011520273
118	0xbdae265b	-0.085034095
119	0xbe162393	-0.14662008
120	0xbc13df31	-0.009025381
121	0xbb92f75f	-0.0044850553
122	0xbe3761cb	-0.17908399
123	0x3d065c46	0.032802843
124	0x3c7c9045	0.015415256
125	0xbd8ee423	-0.069771074
126	0xbd676233	-0.056490134
127	0xbd10ce0d	-0.035352755
128	0x3bde27f4	0.006779665
129	0x3d97a76d	0.07404981
130	0x3d0f1225	0.034929413
131	0x3dbecf5e	0.09316896
132	0xbd565b1f	-0.052332994
133	0xbd8e5055	-0.06948916
134	0xbc8ef9d4	-0.017453112
135	0x3d82f2a2	0.06393935
136	0x3d8513f9	0.0649795
137	0xbd63eac2	-0.055643804
138	0xbc8bab1e	-0.017049368
139	0x3c30b037	0.0107842
140	0xbd745339	-0.05964968
141	0x3b91dcb6	0.0044513596
142	0xbd013d1b	-0.031552415
143	0x3cd1a8f1	0.025593253
144	0xbd90a6e8	-0.07063085
145	0x3d294508	0.0413256
146	0x3df47d6c	0.11937985
147	0xbd227fd6	-0.039672695
148	0x3d84ac91	0.06478227
149	0x3d9727ae	0.07380615
150	0xbdefaff3	-0.117034815
151	0xbd3d159c	-0.046163186
152	0x3d578eab	0.052626293
153	0x3ce09f86	0.027419817
154	0xbd97a6db	-0.07404872
155	0xbdba34b8	-0.090920866
156	0x3d77669b	0.060400587
157	0xbd83ae6a	-0.06429751
158	0xbcd06f31	-0.025443645
159	0x3cb8c6a5	0.022555659
160	0x3da50887	0.08058267
161	0xbd2c2a19	-0.042032335
162	0x3d39551e	0.04524719
163	0xbdd2f413	-0.1030046
164	0xbdb65552	-0.08902992
165	0xbd9a15b9	-0.075236745
166	0xbda3cfe3	-0.079986356
167	0x3d92e4dc	0.07172558
168	0xbd9a4d27	-0.07534247
169	0x3d2bd52b	0.04195134
170	0x3de383d7	0.11109131
171	0x3d5f0e55	0.054457027
172	0x3c93db77	0.018048985
173	0x3d0a4deb	0.033765715
174	0xbd874d1b	-0.066065036
175	0xbcee5906	-0.029095184
176	0xbd876751	-0.06611503
177	0xbdee37b9	-0.11631722
178	0xbe1d35d0	-0.15352559
179	0x3ca0aab9	0.019612657
180	0xbd9dbc92	-0.077019826
181	0x3d67354a	0.056447305
182	0x3d020827	0.031746056
183	0x3da54049	0.08068902
184	0x3db04716	0.086073086
185	0x3d267b53	0.040644955
186	0x3dd5ab77	0.10433095
187	0xbc4282fd	-0.01187205
188	0x3cc2dec7	0.02378787
189	0xbd31417d	-0.043275345
190	0xbbae9cda	-0.0053287568
191	0xbcc5a9fd	-0.024128908
192	0xbd38395f	-0.04497659
193	0xbd73d1d1	-0.05952627
194	0xbcc161cc	-0.023606203
195	0x3e0477f5	0.12936385
196	0x3d68b8f3	0.056817006
197	0x3dcac3c0	0.099006176
198	0xbd323cc4	-0.043514982
199	0x3e22c6b4	0.15896112
200	0xbd7c04f5	-0.061528165
201	0x3caa3874	0.020778872
202	0xbd27dffd	-0.040985096
203	0x3dd47f1f	0.10375809
204	0xbc9f19af	-0.019421427
205	0x3d2fe2d7	0.04294094
206	0xbd9a9ac2	-0.07549049
207	0xbd937d6f	-0.07201659
208	0x3de11721	0.109907396
209	0x3d095023	0.03352369
210	0xbd288f0d	-0.04115205
211	0x3db04c06	0.0860825
212	0xbda5d163	-0.08096578
213	0x3e12343a	0.14277735
214	0xbcde9586	-0.027170908
215	0xbc7b90a2	-0.015354307
216	0x3dd0dd10	0.10198414
217	0x3dd8b7e5	0.1058195
218	0xbd83a7e3	-0.06428506
219	0x3e1c22ae	0.15247604
220	0xbd4af337	-0.049548354
221	0x3cd14fef	0.02555081
222	0x39361155	0.00017363329
223	0x3bc4a07a	0.0060005756
224	0xbb0e3065	-0.0021696326
225	0x3cd5caff	0.026097773
226	0x3d9f8f16	0.07790963
227	0x3d8878f3	0.06663694
228	0xbc07cf09	-0.008289107
229	0xbdd41694	-0.10355869
230	0xbd436d3d	-0.0477116
231	0xbcfe3743	-0.03103221
232	0xbd11b82e	-0.035576038
233	0x3d90e729	0.0707534
234	0xbc93928f	-0.01801422
235	0xb74a4952	-1.20572095e-05
236	0xbcc1a564	-0.023638435
237	0xbc0b42a6	-0.008499777
238	0x3c953230	0.018212408
239	0x3c8d7894	0.01726941
240	0x3df32cad	0.118737556
241	0x3ddfdbbc	0.10930583
242	0x3d8f4da2	0.06997229
243	0x3d0e2228	0.034700543
244	0xbdc4a294	-0.09601322
245	0xbd17ea59	-0.037088726
246	0x3db04020	0.08605981
247	0x3d420456	0.047367416
248	0xbd185f69	-0.037200365
249	0x3d00ff92	0.03149373
250	0x3d043d13	0.032284807
251	0x3e1f6349	0.15565218
252	0xbd28713a	-0.041123606
253	0xbb76609b	-0.0037594202
254	0xbb5399ab	-0.0032287638
255	0xbaa04314	-0.0012227022

fc2.bias f4 [100]
0	0x3da84b9c	0.08217546
1	0x3d011cef	0.031521734
2	0x3d6b3882	0.057426937
3	0x3ccf7e20	0.025328696
4	0xbc3f8df2	-0.011691557
5	0xbd919f45	-0.071104564
6	0xbce2d136	-0.02768765
7	0xbd3c6d72	-0.046002813
8	0x3c6cf3c7	0.014462418
9	0x3dce7334	0.10080567
10	0x3d64510f	0.055741366
11	0x3d9bb79c	0.0760338
12	0xbd51aa33	-0.051187705
13	0x3d8f0db5	0.06985036
14	0x3dcebdc3	0.10094788
15	0xbdc32666	-0.09528808
16	0x3c820e77	0.015876038
17	0x3cc9b0c2	0.024620418
18	0x3e11862f	0.14211343
19	0x3ddc425f	0.10754847
20	0x3e112a9f	0.14176415
21	0x3c1e66d0	0.009668067
22	0x3ce452b5	0.027871469
23	0xbd6a0c73	-0.05714078
24	0x3b6cdb2b	0.0036141376
25	0x3dceef42	0.101042286
26	0x3d6c5c4a	0.0577052
27	0xbdb595c1	-0.08866454
28	0x3c732a19	0.01484158
29	0x3c34d730	0.011037633
30	0x3c5cd432	0.013478326
31	0xbd431c4d	-0.04763441
32	0xbdb1a0a1	-0.08673216
33	0x3db3e30d	0.08783541
34	0x3da732ca	0.08163984
35	0x3d365b5c	0.04452072
36	0xbda480a9	-0.080323525
37	0xbd14f8d6	-0.03637012
38	0x3d6ae72c	0.05734937
39	0x3d2a0c0a	0.041515388
40	0x3dfddbb9	0.123954244
41	0x3da78777	0.08180135
42	0x3de2a364	0.110663205
43	0xbd5fd077	-0.054642167
44	0x3d66945f	0.05629384
45	0xbd16e553	-0.036839794
46	0x3d91bd99	0.07116241
47	0x3de0509a	0.109528735
48	0xbd149e27	-0.03628364
49	0xbd2a0933	-0.04151268
50	0xbd135b92	-0.035976
51	0x3d989e66	0.07452087
52	0xbced8cdc	-0.028997831
53	0x3d1cb2b0	0.038256347
54	0x3daf3569	0.08555109
55	0x3d9946ad	0.074841835
56	0xbc2aab1b	-0.010416771
57	0x3dd12749	0.10212571
58	0x3d682e29	0.056684647
59	0x3da6ef35	0.08151094
60	0xbd74a9dd	-0.059732307
61	0xbdb40cfa	-0.087915376
62	0x3b8653b2	0.0040993327
63	0x3d534dba	0.051587798
64	0x3deef53e	0.1166787
65	0x3e0aceb5	0.13555415
66	0x3d26b0d8	0.040695995
67	0xbd7418d6	-0.059593998
68	0x3d6dc22e	0.058046512
69	0x3dc5d6fb	0.09660145
70	0x3dd5d8c8	0.10441738
71	0x3d975d54	0.07390848
72	0xbda6f5d6	-0.08152358
73	0x3b9f3d88	0.00485963
74	0xbd5ca6f4	-0.053870156
75	0xbd7e1f17	-0.06204137
76	0x3c91cc8c	0.01779773
77	0xbdae3735	-0.08506624
78	0x3d06abd7	0.032878723
79	0x3b0c4de2	0.0021408726
80	0x3cb9193e	0.022595044
81	0x3bb625cf	0.0055587064
82	0x3d0816ec	0.033224985
83	0xbc88b3fa	-0.016687382
84	0x3d177829	0.036979828
85	0xbd27e750	-0.04099208
86	0xbdb8930a	-0.090124205
87	0xbd801291	-0.06253541
88	0xbd52a412	-0.051426
89	0x3d80d457	0.062905006
90	0xbda27ee7	-0.07934361
91	0x3cd73628	0.02627094
92	0x3da1b275	0.07895366
93	0x3d8a273f	0.06745767
94	0xbdb7b06f	-0.08969199
95	0xbca0236a	-0.019548137
96	0x3d1996f8	0.03749749
97	0xbd38ce2c	-0.045118496
98	0x3d2c6c36	0.042095385
99	0x3d5afbed	0.05346291

fc3.weight f4 [100, 100]
0	0x3cf57afe	0.029965874
1	0xbc765908	-0.015035875
2	0xbdee0ea6	-0.11623888
3	0xbd2c481d	-0.04206096
4	0xbc5cf481	-0.013486029
5	0xbd7e222a	-0.0620443
6	0xbda5d286	-0.08096795
7	0x3cec21e5	0.028824756
8	0xbca446f3	-0.020053362
9	0x3e0c2403	0.13685612
10	0x3dbeef11	0.09322942
11	0xbd7a0c67	-0.061046984
12	0xbda75089	-0.08169658
13	0x3cd0e406	0.025499355
14	0x3dc70fb9	0.09719796
15	0xbd67baed	-0.05657475
16	0xbdea0211	-0.114261754
17	0x3cc9eaae	0.024648037
18	0xbc9927fe	-0.018695828
19	0x3d6a090f	0.057137545
20	0x3df5a064	0.11993483
21	0x3d90ec97	0.07076376
22	0xbd4dbf3d	-0.050231207
23	0xbdaa500a	-0.083160475
24	0x3d409129	0.047013436
25	0x3d82da33	0.063892744
26	0xbd9822dd	-0.07428525
27	0x3da27645	0.079327144
28	0x3c645a25	0.013937508
29	0x3d3bcbed	0.045848776
30	0xbd0d8316	-0.03454884
31	0x3cb2a25f	0.02180594
32	0xbb130a4b	-0.0022436555
33	0xbcc37738	-0.023860559
34	0xbd28dbbc	-0.04122518
35	0x3d9f5afb	0.07781025
36	0xbd4b335e	-0.049609534
37	0xbbb65f15	-0.005565534
38	0x3cee87b9	0.029117452
39	0x3cb4b0f8	0.022057042
40	0x3d98957e	0.07450388
41	0x3d41bd27	0.04729953
42	0xbb764099	-0.0037575124
43	0xbd9c0c29	-0.07619507
44	0x3d3a601d	0.045501817
45	0x3d15ce96	0.03657397
46	0xbcb4bd1b	-0.022062829
47	0x3dc3ecec	0.09566674
48	0xbcb3b491	-0.021936687
49	0xbd40f850	-0.04711181
50	0x3bd63c51	0.006537952
51	0xbd97c9bf	-0.07411527
52	0xbdb3a98f	-0.08772575
53	0x3d92298e	0.07136832
54	0x3ca37130	0.019951433
55	0x3d8ba869	0.06819231
56	0x3d990690	0.07471955
57	0xbdadd220	-0.08487344
58	0xbb1eb0cd	-0.0024214268
59	0x3d225488	0.039631397
60	0x3cbd365d	0.023097211
61	0x3dbbc27d	0.09167955
62	0xbdc1d2ef	-0.094640605
63	0x3dae8473	0.085213564
64	0x3e06192e	0.13095543
65	0x3d0aab92	0.03385503
66	0xbd81ceea	-0.06338294
67	0xbdcff078	-0.10153288
68	0x3d882fb1	0.066497214
69	0x3df73cda	0.120721534
70	0xbd479e4b	-0.048734944
71	0x3cc27757	0.023738546
72	0xbd4124de	-0.0471543
73	0x3d2072fd	0.03917216
74	0xbd01dcd3	-0.031704735
75	0x3c43e79b	0.0119570745
76	0xbd18eca4	-0.037335053
77	0xbb0a8295	-0.0021134962
78	0xbdccf334	-0.10007325
79	0x3d60d9fe	0.054895394
80	0x3da3ce3f	0.07998323
81	0x3d09fbee	0.033687524
82	0x3d47366b	0.04863588
83	0x3d9a544b	0.07535609
84	0xbc8885c2	-0.016665343
85	0x3c835268	0.016030505
86	0xbd1d7350	-0.03844005
87	0xbb328cb0	-0.00272445
88	0x3de959da	0.11394091
89	0x3d934ea7	0.07192736
90	0xbd467c5c	-0.048458442
91	0xbd943945	-0.07237486
92	0x3dd51db1	0.10406054
93	0xbcd391b5	-0.025826314
94	0xbc5c3b54	-0.013441879
95	0xbc241d09	-0.010016688
96	0x3d3632d5	0.04448207
97	0x3d718c25	0.058971543
98	0x3d18d737	0.03731462
99	0xbd44fba2	-0.04809154
100	0x3c150fdd	0.00909802
101	0x3b6addcf	0.0035837775
102	0xbd380834	-0.044929698
103	0x3d9079ca	0.070544794
104	0xbdcc1962	-0.09965779
105	0xbca8ac36	-0.02058993
106	0xbb9a4760	-0.0047082156
107	0xbd3c8dcf	-0.046033677
108	0xbcb301ef	-0.021851508
109	0x3bb327fa	0.005467412
110	0xbd9ef406	-0.077613875
111	0xbd8c4447	-0.0684896
112	0x3dc62827	0.09675627
113	0x3d1a1141	0.03761411
114	0xba93c6fd	-0.0011274513
115	0x3e33af0b	0.17547242
116	0x3dc75c38	0.09734386
117	0x3de28e15	0.11062256
118	0xbd0fb419	-0.035083864
119	0x3b510a2d	0.0031896934
120	0x3d3c141e	0.045917623
121	0x3d795b10	0.06087786
122	0xbd9fa714	-0.077955395
123	0xbd93e5fe	-0.07221602
124	0xbd2d114b	-0.04225282
125	0x3dbf6bc6	0.09346728
126	0x3c0ebe61	0.008712382
127	0x3dd2861b	0.10279485
128	0x3def4846	0.11683707
129	0x3cb9027b	0.02258419
130	0x3baad7f1	0.0052137305
131	0xbce5d600	-0.028056145
132	0xbd053bb6	-0.032527648
133	0x3c273467	0.010205365
134	0xbd8fd2a0	-0.070225954
135	0xbdd5bf4a	-0.10436876
136	0xbd45daea	-0.048304476
137	0xbde589ba	-0.1120791
138	0xbccabce5	-0.024748275
139	0xbd8566ce	-0.06513749
140	0xbd8cc554	-0.06873575
141	0xbcb7c6aa	-0.022433598
142	0xbd0ec9a9	-0.034860287
143	0x3db12cb0	0.086511016
144	0x3e11e4b9	0.14247407
145	0x3cf12946	0.029438626
146	0x3d9cd971	0.07658661
147	0x3d07ebb8	0.033183783
148	0x3d644996	0.05573424
149	0x3d457ce0	0.048214793
150	0xbc2ad225	-0.010426079
151	0x3dcbce23	0.09951427
152	0xbd77e49f	-0.060520764
153	0x3dbe5065	0.09292678
154	0x3ddfdddc	0.10930988
155	0x3db790b1	0.089631446
156	0x3d7ae23e	0.061250918
157	0x3e100d21	0.14067508
158	0x3dcabafe	0.09898947
159	0xbd3c65d5	-0.045995552
160	0x3dd1fd9c	0.1025345
161	0xbd19975c	-0.037497863
162	0xbcfe2ad6	-0.031026285
163	0x3cb2d555	0.02183024
164	0xbd3e646f	-0.0464825
165	0xbd622bb9	-0.05521748
166	0x3d1f6764	0.03891696
167	0x3db0dcc8	0.08635861
168	0xbc031103	-0.007999661
169	0xbd751419	-0.05983362
170	0x3dafc316	0.085821316
171	0xbc9c1e7a	-0.019057501
172	0xbda56352	-0.080755845
173	0xbda55aff	-0.08073997
174	0x3d7ca50c	0.06168084
175	0x3d802458	0.06256932
176	0xbd5a8116	-0.053345762
177	0x3da54b9a	0.080710605
178	0x3d08e512	0.033421583
179	0x3e03c2ef	0.1286733
180	0x3db60d4f	0.08889257
181	0x3cf4a546	0.029863965
182	0x3d81675c	0.06318542
183	0xbd54ac55	-0.05192216
184	0xbd9644de	-0.07337354
185	0x3df9c1e7	0.12195187
186	0x3dad4e50	0.084622025
187	0x3dc07583	0.093974136
188	0xbde5e5d6	-0.11225478
189	0xbd7ef7d4	-0.062248066
190	0x3d38f488	0.04515508
191	0xbd3d1b04	-0.046168342
192	0x3ccfbe9e	0.025359448
193	0x3db16f64	0.08663824
194	0x3a1c4fd2	0.0005962822
195	0x3d9b268e	0.07575713
196	0x3e31c780	0.1736126
197	0xbd442962	-0.04789103
198	0x3dcc2d9c	0.09969637
199	0x3d00771d	0.031363595
200	0x3dd724c2	0.10505058
201	0xbe039f59	-0.12853755
202	0x3cd3c70e	0.025851753
203	0xbba2c91c	-0.0049678218
204	0xbd9399ab	-0.07207044
205	0x3d8d04c2	0.06885673
206	0xbe3fd025	-0.18731745
207	0xbdf6898a	-0.12037952
208	0x3daa1c84	0.0830622
209	0xbcddcf4e	-0.02707639
210	0x3ccc2523	0.024920052
211	0x3e01cf4b	0.12676732
212	0x3c894abe	0.016759273
213	0x3cf7c9a2	0.030247513
214	0x3ada756c	0.0016667075
215	0xbdc3838b	-0.09546574
216	0xbdb711d9	-0.08938951
217	0xbc21520e	-0.0098462235
218	0xbd35233c	-0.044223055
219	0xbd6b19f0	-0.057397783
220	0x3db34c58	0.08754796
221	0xbcc1aca4	-0.023641892
222	0x3d382d0b	0.04496483
223	0xbd1ec3d8	-0.03876099
224	0x3dc09307	0.09403043
225	0xbd6af937	-0.057366576
226	0xbc6273e5	-0.013821577
227	0x3e040b32	0.12894896
228	0x3d813777	0.06309407
229	0xbbd4a412	-0.0064892853
230	0x3d2dd37f	0.042438027
231	0xbc463df3	-0.012099731
232	0x3ddd3e66	0.10802917
233	0x3df33ab7	0.11876433
234	0xbcb1e224	-0.021714278
235	0x3d399695	0.04530962
236	0xbda29837	-0.07939189
237	0x3d82f949	0.063952036
238	0x3d9bf04b	0.076141916
239	0x3de42af3	0.111410044
240	0x3cb9ca7f	0.022679565
241	0x3cc28efd	0.023749823
242	0x3dbdfc24	0.09276608
243	0xbdb89f10	-0.09014714
244	0xbd9101fc	-0.070804566
245	0xbde893fb	-0.1135635
246	0x3c2cd110	0.010547891
247	0xbc481249	-0.012211391
248	0xbc272ae3	-0.010203096
249	0xbd2c25a3	-0.04202808
250	0x3dfcabc1	0.12337447
251	0xbd71d80d	-0.059043933
252	0x3d5cc367	0.053897288
253	0xbd9f9948	-0.07792908
254	0xbdb08149	-0.08618409
255	0xbc9e83da	-0.019349981

fc3.bias f4 [100]
0	0x3e26c9f0	0.1628797
1	0xbda51afb	-0.08061787
2	0x3db66862	0.08906628
3	0x3debf5b9	0.11521477
4	0xbd22227e	-0.039583676
5	0xbd8ae0e5	-0.067811765
6	0x3d1ced2b	0.03831212
7	0x3db34ab9	0.087544866
8	0x3ccc1f2b	0.024917206
9	0xbc8f1912	-0.01746801
10	0x3dac3faa	0.084105805
11	0x3de8080f	0.11329662
12	0xbc32feab	-0.010924975
13	0x3dc76ecf	0.09737932
14	0xbc9263ad	-0.017869795
15	0x3deacf55	0.11465327
16	0xbd94fa1c	-0.07274267
17	0xbb8b879c	-0.0042581093
18	0xbd491486	-0.04909184
19	0xbcf3a320	-0.02974087
20	0xbd4b4e03	-0.049634945
21	0x3d931db3	0.07183399
22	0x3e096fd7	0.1342157
23	0xbcb1ae77	-0.021689637
24	0xbd7c9022	-0.061660893
25	0xbcfc7b81	-0.03082061
26	0x3d0b8399	0.03406105
27	0x3e00e23b	0.125863
28	0xbd652dab	-0.055951755
29	0x3da38af3	0.07985487
30	0x3d2de5e7	0.04245558
31	0xbd0b9edb	-0.034087043
32	0x3ba3c813	0.004998216
33	0x3d8141fb	0.06311413
34	0x3de49a22	0.11162211
35	0xbd87b1b9	-0.06625695
36	0xbc08adc1	-0.008342207
37	0x3da4794a	0.080309466
38	0x3bf615c4	0.007509919
39	0xbc5a90b5	-0.013340165
40	0x3c898ca3	0.016790694
41	0xbcbea812	-0.023273502
42	0x3d8c4635	0.068493284
43	0xbdfb3d88	-0.122675955
44	0x3c95fb0b	0.018308183
45	0x3d1c20e9	0.038117323
46	0xbc86f15d	-0.016472513
47	0x3c86f173	0.016472554
48	0x3d815ddc	0.063167304
49	0x3d08b1f1	0.033372823
50	0xbd2c759d	-0.042104352
51	0x3dc3e31a	0.095648006
52	0x3dc457ea	0.09587081
53	0x3bdadc2d	0.006679079
54	0x3df19853	0.11796632
55	0x3cf6193f	0.030041335
56	0xbd5ebafb	-0.054377537
57	0x39ead438	0.00044790073
58	0xbd00316a	-0.031297125
59	0x3c83f663	0.016108697
60	0x3db648d1	0.089006074
61	0x3de2921f	0.11063027
62	0x3da2c7f4	0.07948294
63	0xbd35a8dc	-0.04435049
64	0x3d36144a	0.044452943
65	0x3c39afd4	0.011333425
66	0xbd9ff33f	-0.078100674
67	0x3d7d300b	0.061813395
68	0xbdadd6f5	-0.084882654
69	0x3d55db66	0.052211188
70	0xbd13b094	-0.03605707
71	0x3d8e20b0	0.069398284
72	0xbd546b75	-0.05186029
73	0xbc93e881	-0.018055202
74	0x3e07b95b	0.13254301
75	0x3da5b0cb	0.08090361
76	0x3d2382f9	0.039919827
77	0xbd9e257a	-0.07721992
78	0xbd2a91cf	-0.04164296
79	0x3d8382ce	0.064214334
80	0x3d6125ff	0.054967877
81	0xbd75e99b	-0.060037237
82	0xbdbf0baf	-0.093284
83	0x3dad55a1	0.08463598
84	0x3dd180b8	0.10229629
85	0xbd2eaaeb	-0.04264347
86	0x3d971648	0.07377297
87	0x3c7894e5	0.015172218
88	0xba3cbb8a	-0.00071995764
89	0x3ca331de	0.01992124
90	0x3bcba124	0.006214278
91	0x3dff2895	0.12458912
92	0x3da7d594	0.08195034
93	0xbc94c9f5	-0.018162707
94	0x3d538205	0.05163767
95	0x3e00ab58	0.12565362
96	0x3d48ee83	0.049055588
97	0xbd212b52	-0.039347954
98	0xbd32697a	-0.04355762
99	0xbd832bd6	-0.064048454

fc4.weight f4 [100, 100]
0	0xbdeb513e	-0.11490105
1	0x3d64b0bb	0.055832606
2	0xbd9b139c	-0.075720996
3	0xbde1ef08	-0.1103192
4	0xbc99d6d3	-0.018779194
5	0xbda6b885	-0.08140663
6	0x3d8d5351	0.06900657
7	0x3d37c1af	0.044862445
8	0x3ce4dd09	0.027937429
9	0x3d970b76	0.07375233
10	0x3d153740	0.036429644
11	0x3d8af86e	0.067856655
12	0xbc859153	-0.016304648
13	0x3ce2d68a	0.02769019
14	0xbd832e10	-0.0640527
15	0x3daaa0dc	0.08331463
16	0x3d0024e2	0.031285174
17	0x3da6ca99	0.08144111
18	0x3d9b8aef	0.07594859
19	0x3d890289	0.06689937
20	0xbd9a31c1	-0.07529021
21	0xbd22702a	-0.03965775
22	0xbdae4cf5	-0.08510772
23	0xbdb0e2cc	-0.08637008
24	0x3d305512	0.04304988
25	0xbd10ac16	-0.035320364
26	0x3dad1374	0.08450976
27	0xbd9180d4	-0.0710465
28	0x3cbb0fd7	0.022834701
29	0xbd5e603c	-0.054290995
30	0xbc1f0a4a	-0.009707043
31	0xbc9f73e6	-0.019464444
32	0x3d2cdcfa	0.042202927
33	0xbd3ee5be	-0.046605818
34	0xbdd31ef1	-0.10308636
35	0x3d849bc9	0.06475026
36	0x3dc0c901	0.094133385
37	0xbd59455d	-0.053044666
38	0xbdb95e92	-0.09051241
39	0xbcb5a985	-0.02217556
40	0x3dc19ef0	0.09454143
41	0xbc827fe2	-0.01593012
42	0x3cd8e041	0.02647412
43	0x3d6c06b1	0.05762357
44	0xbd193894	-0.037407473
45	0xbccbfa1c	-0.024899535
46	0xbc058ea4	-0.008151684
47	0xbddac410	-0.10681927
48	0x3d5d7e1d	0.05407535
49	0xbd349356	-0.044085823
50	0xbcbc4663	-0.022982782
51	0xbda400fd	-0.08008001
52	0xbc9184ef	-0.017763583
53	0x3d3a053e	0.045415156
54	0xbd8b188c	-0.06791791
55	0x3cc24169	0.02371283
56	0x3ce55ef5	0.02799938
57	0x3d843760	0.064558744
58	0xbd1cd1fe	-0.0382862
59	0xbcd276ec	-0.025691472
60	0xbd9714c4	-0.073770076
61	0xbcf20942	-0.02954543
62	0xbd2ed53f	-0.042683836
63	0xbd176eca	-0.03697089
64	0x3d1a8e49	0.03773335
65	0xbd150750	-0.036383927
66	0x3af4b9f0	0.0018671136
67	0xbd993f0e	-0.0748273
68	0xbd5e3171	-0.05424637
69	0xbdb26d8a	-0.08712299
70	0x3d66db72	0.056361623
71	0xbcdea481	-0.027178051
72	0xbc8619f6	-0.016369801
73	0x3d91ba24	0.07115582
74	0x3c87b31b	0.016564896
75	0xbbbc2d92	-0.005742737
76	0xbdd66dcd	-0.104701616
77	0x3d9efd30	0.077631354
78	0x3c02edfa	0.007991308
79	0xbdba00eb	-0.09082206
80	0xbd94a6f8	-0.07258409
81	0x3c7b9bd8	0.01535698
82	0xbd8fa620	-0.07014108
83	0x3caf03d1	0.021364124
84	0x3d3f8830	0.046760738
85	0xbd93efb2	-0.07223453
86	0xbd86dedc	-0.06585476
87	0x3c1aa2b1	0.009438203
88	0xbda163bf	-0.07880353
89	0xbda2e433	-0.07953682
90	0xbcf72875	-0.030170659
91	0x3d99853e	0.07496117
92	0xbcce9cc8	-0.025221244
93	0x3d94ac52	0.0725943
94	0xbd9d5372	-0.076819316
95	0x3d8bacdc	0.0682008
96	0x3ca03707	0.01955749
97	0xbd9805a0	-0.07422948
98	0x3d3b1e5f	0.04568326
99	0xbd00b6c9	-0.031424318
100	0xbd7c844a	-0.0616496
101	0xbcaf54f5	-0.021402815
102	0xbe417d0d	-0.1889536
103	0xbc7f6f2a	-0.015590468
104	0x3b651f37	0.0034961232
105	0x3de98935	0.11403123
106	0x3e43f821	0.19137622
107	0x3ded4b11	0.115865834
108	0x3d9e1252	0.07718338
109	0xbcb867c4	-0.022510417
110	0xbd2cabc8	-0.04215601
111	0xbdd8a2aa	-0.10577901
112	0x3d4f168d	0.050558615
113	0xbe2380f8	-0.15967166
114	0x3e7ae47d	0.24501224
115	0xbd8ac360	-0.06775546
116	0x3e0fcf7b	0.14043991
117	0xbe5be4eb	-0.21474044
118	0x3d40e462	0.047092803
119	0x3c249e32	0.010047482
120	0xbb6fb9ed	-0.0036579326
121	0x3d201666	0.03908386
122	0x3d067cb5	0.032833774
123	0xbe058b0e	-0.13041326
124	0x3c929f57	0.017898245
125	0x3c805853	0.015667116
126	0x3d401a36	0.046899997
127	0x3cc1cb4d	0.023656512
128	0x3cb180f5	0.021667937
129	0x3d72dce6	0.059292696
130	0xbe3a849d	-0.1821465
131	0xbdfb9402	-0.122840896
132	0xbd4f25ab	-0.050573032
133	0x3d1719d1	0.036889855
134	0x3d3cc07f	0.046082016
135	0x3d78a280	0.060701847
136	0xbd0f3283	-0.03496028
137	0xbccb69a9	-0.024830656
138	0xbda311d8	-0.07962388
139	0xbe051d4e	-0.1299946
140	0x3e616548	0.22011292
141	0x3d962791	0.073317654
142	0xbd8d4590	-0.068980336
143	0x3d9fa95f	0.07795977
144	0xbe9b6ac0	-0.3035488
145	0xbd92f856	-0.071762726
146	0xbd4bbe13	-0.049741816
147	0xbd2f0e91	-0.0427385
148	0x3bb54d43	0.005532892
149	0xbc850a5d	-0.016240293
150	0xbced430b	-0.028962633
151	0x3d1c7968	0.03820172
152	0x3d8c963d	0.06864593
153	0xbd3da122	-0.046296246
154	0xbd076060	-0.033050895
155	0xbb6f1c43	-0.003648535
156	0x3d5e5089	0.054276023
157	0x3dd7929f	0.10526013
158	0xbe2bbedb	-0.16772024
159	0x3d2c23b2	0.04202623
160	0xbe422719	-0.18960227
161	0x3d36e35f	0.04465043
162	0xbcc798d9	-0.024364876
163	0x3cd09f54	0.025466599
164	0xbe41f1bd	-0.18939872
165	0x3e681f06	0.22668085
166	0x3d91c27b	0.07117172
167	0xbb8ae699	-0.004238915
168	0x3d4e4799	0.05036125
169	0xbdc52c63	-0.09627607
170	0xbd2f38ba	-0.042778708
171	0xbd5c080f	-0.053718623
172	0xbdd7323a	-0.10507627
173	0xbca091c8	-0.019600764
174	0xbe1e078e	-0.1543257
175	0xbdb5ada6	-0.088710114
176	0xbccd87e5	-0.025089214
177	0x3bd7e7a0	0.006588891
178	0xbd16d369	-0.03682271
179	0xbb24695f	-0.002508722
180	0x3d73a83e	0.05948662
181	0x3d51e316	0.051241957
182	0x3db660d3	0.089051865
183	0xbe127046	-0.14300641
184	0x3ce6ac2d	0.028158272
185	0xbd3065d8	-0.043065876
186	0x3db9545c	0.090492934
187	0x3db668a7	0.089066796
188	0xbd050b7b	-0.03248165
189	0x3d7bdf0b	0.061492007
190	0xbdd91bbb	-0.10600992
191	0xbe06d177	-0.13165842
192	0x3da0bb8f	0.07848274
193	0xbcf37f04	-0.029723652
194	0x3e42b74c	0.19015235
195	0x3d368cb7	0.04456779
196	0x3d899f81	0.06719876
197	0x3d0ec6b0	0.034857452
198	0x3d8114ec	0.06302819
199	0xbe363841	-0.17794897
200	0xbdadc4eb	-0.08484825
201	0x3c8eb08f	0.017418174
202	0x3d97b896	0.07408254
203	0xbe00732c	-0.12543935
204	0x3dc01587	0.09379106
205	0x3d7cd201	0.061723713
206	0xbdbebd9e	-0.0931351
207	0xbcc11f4c	-0.023574494
208	0xbd99c7f5	-0.07508842
209	0x3ac89b0a	0.0015304994
210	0x3c7456fa	0.014913315
211	0x3d81cbd4	0.06337705
212	0xbd0b948b	-0.03407721
213	0x3c1f8a52	0.009737568
214	0xbe214009	-0.15747084
215	0x3ca4c97a	0.020115603
216	0xbd9ccff7	-0.07656854
217	0x3b6d74e2	0.0036232998
218	0xbe20921e	-0.1568074
219	0xbdc4b6f9	-0.09605212
220	0x3b065bb7	0.0020501444
221	0x3d1153f8	0.03548047
222	0x3d04dfd3	0.032440018
223	0x3aa198a3	0.0012328814
224	0x3d239972	0.03994126
225	0x3c91d19b	0.017800143
226	0xbdc5f470	-0.096657634
227	0x3becab6a	0.0072225826
228	0x3d047581	0.032338623
229	0x3a2d03c0	0.0006599985
230	0x3d3f6e07	0.04673579
231	0xbd39a2e4	-0.04532136
232	0xbd9e7dbb	-0.07738825
233	0xbda80ead	-0.08205924
234	0x3d79462d	0.06085794
235	0x3d0a16bd	0.03371309
236	0x3c44e81a	0.012018228
237	0x3d1272a1	0.03575385
238	0x3db47075	0.08810512
239	0xbea24eee	-0.31700844
240	0xbe0a994c	-0.1353504
241	0x3d83b74e	0.06431447
242	0x3db7d6f2	0.089765444
243	0xbd0df27b	-0.034655076
244	0xbe83d8b9	-0.25751284
245	0x3c1956f6	0.009359112
246	0xbd575443	-0.052570593
247	0x3cb2fd94	0.021849431
248	0x3ba86264	0.005138682
249	0x3c8c4824	0.017124243
250	0xbcfd862c	-0.030947767
251	0x3d921751	0.071333535
252	0xbc600acd	-0.01367445
253	0xbd034495	-0.032047827
254	0x3d818e91	0.063260205
255	0x3dbae0ca	0.09124906

fc4.bias f4 [100]
0	0xbd32fd74	-0.043698743
1	0xbd47193b	-0.048608046
2	0x3d47d081	0.04878283
3	0xbd6bd588	-0.057576686
4	0xbd08b44f	-0.03337508
5	0xbca16e9c	-0.019706063
6	0x3d56acda	0.052410938
7	0x3dbe4d4c	0.09292087
8	0x3dde2aed	0.10848031
9	0xbc23093d	-0.009950933
10	0x3c9d3924	0.019192286
11	0x3d9b5ab9	0.07585663
12	0x3e054ab5	0.1301678
13	0x3e403aa1	0.18772365
14	0x3dcefc41	0.10106707
15	0x3e161e23	0.14659934
16	0x3d15d957	0.036584225
17	0x3e0c58a6	0.13705692
18	0x3ce1c7ff	0.027561186
19	0x3e045c2b	0.12925784
20	0xbacb7829	-0.0015523481
21	0xbd5231ad	-0.051316906
22	0xbd748cb5	-0.0597045
23	0x3d670682	0.05640269
24	0xbd66703d	-0.056259383
25	0x3b2efb25	0.0026699987
26	0x3dbcf44c	0.092262834
27	0x3d47c327	0.048770096
28	0x3c8fd312	0.0175567
29	0xbdbc35d3	-0.09189954
30	0xbdc478b0	-0.09593332
31	0xbd55033d	-0.05200504
32	0xbd97fd85	-0.07421402
33	0xbd3411a9	-0.043962155
34	0x3a1c70c0	0.0005967729
35	0xbdc08140	-0.093996525
36	0xbcae633b	-0.021287551
37	0x3daf1fa7	0.08550959
38	0xbd9fcbf0	-0.0780257
39	0x3d74183d	0.059593428
40	0xbcf29109	-0.029610174
41	0xbd2b5e14	-0.041837767
42	0x3bb0468d	0.005379504
43	0xbb038856	-0.0020070276
44	0x3db71d24	0.08941105
45	0xbca21fd9	-0.019790577
46	0xbd827e71	-0.06371773
47	0x3d80ebaa	0.06294949
48	0x3d68d2e1	0.056841735
49	0x3d38b5f1	0.045095388
50	0x3dc46369	0.095892735
51	0x3db207f2	0.08692922
52	0x3e12ca90	0.14335084
53	0x3ddefeaf	0.10888421
54	0x3d80de3a	0.06292386
55	0x3e0c5dbe	0.13707635
56	0x3dcb89f7	0.09938424
57	0xbdd376f2	-0.103254214
58	0x3e01884b	0.12649648
59	0x3c9ba639	0.01900016
60	0x3dc3138a	0.09525211
61	0xbe03231e	-0.12806365
62	0x3d01fcc7	0.031735208
63	0x3d514311	0.05108935
64	0x3e1d5dfe	0.15367886
65	0x3dcadab5	0.09904996
66	0x3dded1b7	0.10879844
67	0xbdc84a36	-0.097797796
68	0x3da76c76	0.08174984
69	0xbcb1eef8	-0.021720394
70	0xbd0c6dcc	-0.034284398
71	0x3e068dbd	0.13140006
72	0x3d2ba549	0.041905675
73	0x3ddf388b	0.108994566
74	0x3dc3f888	0.09568888
75	0x3dae6504	0.08515361
76	0x3d365399	0.04451332
77	0x3c2b0a98	0.010439537
78	0x3d751021	0.059829835
79	0xbaa7600d	-0.0012769714
80	0xbd8e1ec7	-0.06939464
81	0x3d7a73d7	0.06114563
82	0x3c97cd1e	0.018530425
83	0xbd8f7c69	-0.07006151
84	0xbd93cfda	-0.07217379
85	0x3dcd3b03	0.10021021
86	0xbc928855	-0.017887274
87	0x3dbdd6ba	0.092694715
88	0xbd0d40bc	-0.034485564
89	0xbdbf74b6	-0.09348433
90	0x3d908378	0.07056326
91	0xbdd0d046	-0.10195975
92	0x3d6d9571	0.058003847
93	0x3db1167a	0.08646865
94	0x3dc01fe0	0.0938108
95	0x3debf215	0.11520783
96	0xbe03704b	-0.12835805
97	0xbe1a8939	-0.15091409
98	0x3db5c663	0.0887573
99	0xbd8a95e1	-0.067668684

fc5.weight f4 [100, 100]
0	0xbd47b7eb	-0.048759382
1	0x3d1fb1f3	0.038988065
2	0xbd612554	-0.05496724
3	0x3be11bb7	0.006869759
4	0x3d3085e7	0.04309645
5	0xbd2f5e5e	-0.042814605
6	0x3db8bfd8	0.09020966
7	0x3b2aa641	0.0026039036
8	0xbc003009	-0.0078239525
9	0x3dd22460	0.10260844
10	0xbd7b4885	-0.061348457
11	0xbd4f5781	-0.05062056
12	0x3db6ada6	0.089198396
13	0xbdae6f98	-0.085173786
14	0xbd9c488f	-0.07631027
15	0xbbc02bd1	-0.0058645983
16	0x3c22d102	0.009937527
17	0x3d902f65	0.0704029
18	0xbd3eedf0	-0.046613634
19	0xbc95b97d	-0.018276924
20	0x3d22c023	0.039734017
21	0x3c14871b	0.009065415
22	0x3d76e2f3	0.06027503
23	0x3b71dee0	0.0036906525
24	0x3da94889	0.08265788
25	0xbd050691	-0.032476965
26	0xbc426e6a	-0.011867145
27	0xbdec65dd	-0.115428664
28	0xbd95a0b1	-0.0730604
29	0xbdf80307	-0.121099524
30	0x3cccffec	0.025024377
31	0xbd9f3a65	-0.0777481
32	0xbdacfa7a	-0.08446212
33	0xbe011843	-0.12606911
34	0xbcfccc85	-0.030859241
35	0x3daebb73	0.08531847
36	0xbcb98c55	-0.022649923
37	0xbd3829a1	-0.044961575
38	0xbdb95d44	-0.09050992
39	0x3d30b958	0.043145508
40	0xbd6902ae	-0.05688732
41	0xbd8a2d6f	-0.06746947
42	0xbd90be05	-0.07067493
43	0x3cd02b77	0.02541135
44	0x3bd3bbdd	0.006461604
45	0xbc46da19	-0.0121369595
46	0xbd21cbb3	-0.039500903
47	0xbb9d3b80	-0.0047983527
48	0xbd77c754	-0.06049283
49	0xbcaab41d	-0.020837838
50	0x3cc24120	0.023712695
51	0x3d99f383	0.07517149
52	0xbd118c3f	-0.03553414
53	0x3dbd4ded	0.09243379
54	0x3ded44a3	0.11585357
55	0x3e024431	0.12721325
56	0xbdea5cb5	-0.11443464
57	0xbca79b33	-0.020459747
58	0xbd8db194	-0.06918636
59	0x3d8f89a8	0.07008678
60	0x3dc83511	0.097757466
61	0x3d621b53	0.05520184
62	0xbd4c9e1e	-0.04995548
63	0xb99119aa	-0.00027675676
64	0xbbfc2f8f	-0.007696099
65	0xbc4a0093	-0.0123292385
66	0x3e1b2ad0	0.1515305
67	0xbb90977f	-0.004412591
68	0x3c4abc4d	0.012373996
69	0xbcf870ab	-0.030327162
70	0xbd8ccd57	-0.06875103
71	0x3d5c7219	0.05381975
72	0xbdcec560	-0.1009624
73	0x3da296d5	0.07938925
74	0xbce435f0	-0.02785775
75	0x3c3fbe1f	0.011703043
76	0xbdf78c36	-0.1208729
77	0x3ba930f5	0.005163307
78	0xbd05f880	-0.03270769
79	0xbdaf06bc	-0.08546206
80	0xba2bc800	-0.00065529346
81	0xbd63e689	-0.055639777
82	0xbd03b892	-0.03215844
83	0xbc978268	-0.0184948
84	0x3ddd1104	0.10794261
85	0xbd4e84c4	-0.050419584
86	0xbda2e984	-0.07954696
87	0xbcb380c6	-0.02191199
88	0x3d7829eb	0.06058685
89	0x3dbd1f46	0.092344806
90	0xbd914c1a	-0.07094593
91	0x3d679bbf	0.056545015
92	0x3dfd5d4c	0.123713106
93	0xbbdb0074	-0.0066834036
94	0x3d0434ab	0.03227679
95	0x3d2c08e4	0.042000666
96	0x3d8eb5c3	0.06968262
97	0xbddd7513	-0.10813346
98	0xbd952315	-0.07282082
99	0xbdb5d543	-0.08878567
100	0x3ccaf368	0.024774268
101	0xbcb19f98	-0.021682546
102	0xbd880875	-0.06642238
103	0x3d9072bb	0.07053133
104	0x3dbff521	0.093729265
105	0x3d8084db	0.0627534
106	0xbaac6280	-0.0013151914
107	0xbcd67ce0	-0.026182592
108	0xbd5aca6d	-0.053415705
109	0xbd518d17	-0.051159944
110	0xbd2cca3d	-0.042185057
111	0xbd9d0a3e	-0.07667969
112	0xbd82e23c	-0.06390807
113	0x3cd97f0c	0.026549838
114	0x3c55dad8	0.013052665
115	0xbc890e94	-0.016730584
116	0xbd877315	-0.06613747
117	0x3d552166	0.052033804
118	0xbc109758	-0.008825146
119	0x3d58a7c2	0.05289436
120	0xbdbb979f	-0.09159779
121	0xbd2c91d3	-0.042131256
122	0xbda06d45	-0.078333415
123	0xbdb0fdbd	-0.08642147
124	0x3c9e0440	0.019289136
125	0x3da8ca59	0.0824172
126	0x3d56dd8e	0.052457385
127	0xbd07b120	-0.033127904
128	0x3d61c37a	0.05511806
129	0xbd69f3aa	-0.05711714
130	0xbd878ea6	-0.06619005
131	0x3c5334a8	0.012890972
132	0x3daca1c9	0.084292956
133	0xbd6495c3	-0.055806886
134	0x3b6b2100	0.0035877824
135	0x3d6ac49a	0.0573164
136	0x3c0a61e8	0.008446194
137	0xbcdc46d4	-0.026889242
138	0xbd637b3d	-0.05553745
139	0xbd21cba3	-0.039500844
140	0x3c84b474	0.016199328
141	0x3dcc0eb7	0.09963744
142	0x3d584eaa	0.052809395
143	0xbb40c440	-0.002941385
144	0x3d082172	0.03323502
145	0x3cb43f60	0.022002876
146	0xbda634de	-0.08115552
147	0xba0e2f00	-0.00054238737
148	0xbcc167cc	-0.023609065
149	0x3dba2643	0.09089329
150	0x3d04e096	0.032440744
151	0xbda830e6	-0.08212452
152	0x3ca3db28	0.020001963
153	0xbd0c043c	-0.034183726
154	0xbcb7b800	-0.022426605
155	0x3cd9b1fc	0.026574127
156	0xbcc84e0c	-0.024451278
157	0x3d6a653a	0.057225443
158	0xbd97bc42	-0.07408954
159	0xbda9a91a	-0.08284207
160	0x3cda88b4	0.026676513
161	0xbcb38614	-0.02191452
162	0x3d00f96e	0.031487875
163	0xbd232a23	-0.039835107
164	0xbce5d414	-0.028055228
165	0xbdc25a9b	-0.09489938
166	0xbc031690	-0.008000985
167	0xbd8abbf2	-0.06774129
168	0x3ce8eca4	0.028433152
169	0xbdadf4b7	-0.08493941
170	0x3d4fd6be	0.050741903
171	0x3d0a2652	0.03372795
172	0xbc09b898	-0.008405827
173	0xbcb14888	-0.02164103
174	0x3ca0e778	0.019641623
175	0x3d013292	0.03154237
176	0xbda3c1da	-0.079959586
177	0xbdaef3a0	-0.085425615
178	0xbca06e34	-0.019583799
179	0xbc0d67f0	-0.008630738
180	0x3d3c3322	0.0459472
181	0xbda4e7c8	-0.08052021
182	0x3c95c6e0	0.018283308
183	0x3d29cfb6	0.041457854
184	0x3db98857	0.09059208
185	0xbd857c0e	-0.06517802
186	0xbc8930e8	-0.016746953
187	0xbd4d588a	-0.050133266
188	0xbdcc0020	-0.09960961
189	0x3db6c623	0.0892451
190	0xbcac7a54	-0.021054424
191	0xbce2d428	-0.027689055
192	0xbdc062af	-0.093938224
193	0x3dc1a7c7	0.09455829
194	0xbd3b7910	-0.04576975
195	0xbdb05a97	-0.08611029
196	0xbb79ce40	-0.003811732
197	0x3cfae984	0.030628927
198	0x3d917309	0.07102019
199	0xbdbba973	-0.09163179
200	0x3c9576ca	0.01824512
201	0xbeb39943	-0.35077867
202	0x3b22383e	0.0024752761
203	0x3dfa8027	0.12231474
204	0x3d99bc3f	0.07506608
205	0x3d9156ca	0.07096632
206	0xbd6ad6b0	-0.05733365
207	0x3db0be4d	0.08630047
208	0x3d56efdc	0.05247484
209	0x3e1b7f36	0.15185246
210	0xbcdeac81	-0.027181866
211	0x3de44e1a	0.11147709
212	0xbccc8f10	-0.024970561
213	0xbb84004a	-0.004028355
214	0x3d324f01	0.043532375
215	0xb95f8b49	-0.00021318825
216	0xbc0a2c44	-0.008433405
217	0x3db81adf	0.089895
218	0xbd34b175	-0.04411455
219	0xbcf7f01d	-0.030265862
220	0x3e575d80	0.21031761
221	0x3d9a8655	0.07545153
222	0x3d23c917	0.039986696
223	0xbd50ccdf	-0.05097663
224	0x3b1ec0c0	0.0024223775
225	0x3d5ac2c8	0.053408414
226	0xbdad3811	-0.084579594
227	0xbdf80ff1	-0.121124156
228	0x3e04bae9	0.12961926
229	0xbc32dbd3	-0.010916668
230	0xbd915c3e	-0.07097672
231	0xbd04c96a	-0.032418646
232	0xbca8ff18	-0.02062945
233	0xbdda895d	-0.10670731
234	0xbd035982	-0.032067783
235	0x3d829d42	0.06377651
236	0x3e043e43	0.12914376
237	0xbe8d545a	-0.27603418
238	0x3d90519b	0.07046815
239	0xbe042b8b	-0.12907235
240	0xbe91de41	-0.2848988
241	0xbd839783	-0.06425383
242	0xbd08f3f0	-0.033435762
243	0x3da4bd22	0.08043887
244	0xbe9c4a9e	-0.30525678
245	0x3dcdcc21	0.100487
246	0xbda58800	-0.080825806
247	0xbc2971bf	-0.010342061
248	0x3d7b74f0	0.061390817
249	0xbcc18b57	-0.023626013
250	0x3c64afed	0.01395796
251	0xbd2c1c6d	-0.042019296
252	0xbd7ab0c5	-0.061203737
253	0x3b83020c	0.0039980467
254	0xbd4c7210	-0.049913466
255	0x3c8f7e62	0.017516319

fc5.bias f4 [100]
0	0xbda1d182	-0.079012886
1	0xbdb8279b	-0.08991929
2	0xbcc13d12	-0.02358869
3	0x3cfbb66f	0.03072664
4	0xbdb8dc10	-0.090263486
5	0x3c84bd0c	0.016203426
6	0xbceafa82	-0.028683905
7	0x3e506d4b	0.20354192
8	0x3d9964cd	0.07489929
9	0xbc830255	-0.015992323
10	0xbe049946	-0.12949094
11	0xbbf3ce77	-0.007440384
12	0x3db083a0	0.086188555
13	0x3b87cd05	0.0041443133
14	0x3e19b3bb	0.15009968
15	0x3d987c53	0.07445588
16	0x3ddbf9d7	0.107410125
17	0x3d8befb7	0.06832831
18	0x3b5ea139	0.0033970608
19	0xbda53dde	-0.08068441
20	0x3d6900a7	0.056885388
21	0x3e0cd006	0.1375123
22	0xbd5c95be	-0.053853743
23	0x3c9835c9	0.018580334
24	0x3cfa2a86	0.030537855
25	0x3c92898c	0.017887853
26	0x3e2cd094	0.16876441
27	0x3dd2a024	0.10284451
28	0x3d2a18e0	0.04152763
29	0xbcc57ebc	-0.024108283
30	0x3d471224	0.048601285
31	0x3e35299e	0.17691657
32	0x3db143ea	0.08655532
33	0xbd8c5c3a	-0.06853528
34	0xbd8876a2	-0.066632524
35	0x3cf5ca2d	0.030003631
36	0x3e28d3f5	0.16487105
37	0xbdef6e6b	-0.116909824
38	0xbe087205	-0.13324745
39	0x3dcce530	0.100046515
40	0x3dd55a6a	0.10417636
41	0x3dc01cd9	0.09380502
42	0xbb06d533	-0.0020573854
43	0xbd8cc524	-0.06873539
44	0x3dcf8ea0	0.101346254
45	0x3d516496	0.051121317
46	0x3d0e2e58	0.034712166
47	0xbd51fd1d	-0.05126678
48	0x3c983937	0.01858197
49	0xbbecb718	-0.007223975
50	0x3e327502	0.17427447
51	0xbd31897d	-0.04334401
52	0xbd7136be	-0.058890097
53	0xbbc77130	-0.006086491
54	0xbd59b647	-0.05315235
55	0xbc1487d2	-0.009065585
56	0xbd604b13	-0.054759096
57	0x3e08d01a	0.13360634
58	0x3e2f7979	0.17136182
59	0x3cd12278	0.025529131
60	0x3d1fa1d6	0.0389727
61	0x3dae83b9	0.08521218
62	0x3dd48149	0.10376222
63	0x3d692c04	0.056926742
64	0xbd32afe5	-0.043624777
65	0xbded3e6e	-0.11584173
66	0x3d90091b	0.07032987
67	0x3df0bd17	0.11754816
68	0xbd9fd98c	-0.07805166
69	0xbda481bd	-0.08032558
70	0x3dbb683d	0.09150741
71	0x3d03e124	0.032197133
72	0x3bb5645b	0.005535645
73	0x3de10710	0.10987675
74	0x3ab776ca	0.0013997194
75	0x3d7ad65f	0.061239596
76	0x3e02333a	0.12714854
77	0x3d1e8f2e	0.038710766
78	0x3db39f35	0.08770601
79	0xbba52144	-0.005039366
80	0x3e0bb423	0.13642935
81	0xbc11f668	-0.0089088455
82	0xbd935415	-0.07193772
83	0x3dac6b44	0.08418897
84	0x3d912b4d	0.07088337
85	0x3c993f53	0.018706953
86	0x3ca82b0f	0.020528344
87	0x3de27dc2	0.11059143
88	0x3cb9096e	0.022587504
89	0xbd2670e6	-0.040635012
90	0x3e1421bc	0.14465994
91	0x3d82b509	0.06382186
92	0x3e001cca	0.12510982
93	0xbcee5bd1	-0.029096516
94	0xbde7322d	-0.11288867
95	0x3d897e65	0.06713561
96	0xbdac941e	-0.084266886
97	0x3d0bd721	0.03414071
98	0xbdd74eb1	-0.10513056
99	0x3e245e89	0.16051687
