resources/pretrained_models/ik_threelink_obs4_base/weights_150/model.pth (torch_old, 294847 bytes, 18 tensors)

fc1.weight f4 [100, 20]
-0.25398624 -0.12965862 -0.07085211 0.2502864 0.1344826 -0.0004716048 -0.036096115 0.18782097
-0.08394439 0.057076015 0.021801773 -0.044157315 0.11294861 -0.0319873 -0.19421417 -0.14649892
-0.022370571 -0.11939079 -0.11140291 -0.10993117 -0.26681662 -0.2818636 -0.18608661 0.034938335
0.070007 -0.08111657 0.007787763 0.047464322 0.07734732 0.01714638 0.08365149 0.1616241
0.13690318 -0.08037257 0.05376893 0.23294477 0.014295118 0.036629237 -0.024325006 0.12277194
0.21885397 -0.012983793 -0.12494398 0.16568676 0.048680075 0.20292647 0.15932287 0.124512926
-0.036258902 0.20282829 -0.09206377 -0.21118586 -0.1790556 -0.07329354 -0.21751931 -0.11855674
0.13910253 -0.2116696 -0.07843554 -0.09676114 -0.09522261 -0.030967908 -0.20214221 0.047584716
-0.16487145 -0.1773922 0.12951632 -0.19992797 -0.16032298 -0.19371535 -0.04798873 -0.097827576
0.15081583 0.14752977 0.16586389 -0.044746984 -0.078596935 0.06832521 -0.2054895 -0.06990305
-0.08861202 -0.06083568 0.14342573 0.20584288 0.1562597 0.051439848 0.18391706 0.10935671
0.15259783 0.17381494 -0.04560678 -0.05197229 0.2157744 0.14187409 0.039258923 -0.07211243
0.10861523 0.14261283 -0.20125617 0.04824611 0.1012484 -0.124132276 -0.14015111 0.0448201
0.11900017 -0.12908794 0.09016265 -0.089361906 -0.21110874 -0.013074355 0.11363198 0.058065757
0.16734256 -0.1391489 0.06132041 0.059787568 0.19848482 -0.11154177 -0.15090425 -0.018849649
-0.22371237 0.045412526 -0.21303429 -0.019411819 0.0634367 0.016126528 -0.14144461 -0.013020193
0.117882766 0.08058731 0.17002474 -0.027281787 -0.06574806 0.053721946 -0.076955274 0.17522977
-0.032803558 0.14826241 -0.19502638 -0.18609582 0.23942317 0.01802103 0.17840898 0.23972793
0.112821646 0.19974217 0.13171244 0.07437191 -0.048350103 -0.08390457 -0.16858429 -0.0061339065
0.028760644 0.047517482 0.13420862 0.19607463 0.09772167 0.013315607 -0.029328916 0.1163894
-0.15605637 -0.15924633 0.13553903 0.21025899 -0.06537522 -0.14391698 -0.2246379 -0.22043888
0.009377515 0.121090285 0.027594399 -0.036200512 0.124381356 -0.22894047 0.00093956693 0.023450958
0.109962076 0.055400413 0.025288505 -0.029127518 -0.19209118 -0.033244792 -0.21744323 -0.0812307
0.16804506 -0.09185415 0.07031105 -0.10319065 -0.17199485 0.060953207 -0.16787449 0.20479332
-0.13646346 -0.1961857 -0.21392597 -0.06427648 -0.10944445 0.036744487 -0.07316802 0.075399354
-0.31253174 0.06700344 0.0550645 0.04099506 -0.19405387 -0.21244788 0.029837545 -0.11778642
0.0902844 0.120280296 0.19112644 0.17377362 0.043383397 0.07017528 -0.085447095 0.07888051
-0.16980973 -0.18764569 -0.117041446 0.19141185 -0.0033127929 0.063005865 0.1652398 0.06965726
-0.2184193 0.080565155 -0.059438184 -0.096676886 -0.007981285 -0.21572313 -0.17155787 0.020716518
0.124162644 0.15269 -0.1801309 0.20777208 -0.0616993 0.21161214 0.088596374 -0.19046456
0.10277217 0.19491956 -0.13081153 0.18594013 -0.031798806 0.11541808 0.20039618 -0.17355584
0.14203383 0.23337422 -0.017602678 0.022065094 0.080236465 -0.16453382 0.07911687 -0.06481584
00000000: 7c0a 82be 3bc5 04be e91a 91bd 8a25 803e
00000010: cfb5 093e ba41 f7b9 85d9 13bd 2454 403e
00000020: 09eb abbd 8ac8 693d a299 b23c 4dde 34bd
00000030: 9a51 e73d 1d05 03bd 14e0 46be d003 16be
00000040: 7d42 b7bc 2983 f4bd 3527 e4bd 9823 e1bd
00000050: 309c 88be 6d50 90be 7d8d 3ebe 801b 0f3d
00000060: d45f 8f3d 7220 a6bd 7e30 ff3b f369 423d
00000070: 4668 9e3d 9176 8c3c 7951 ab3d ca80 253e
00000080: 5930 0c3e 609a a4bd cf3c 5c3d 1389 6e3e
00000090: 1236 6a3c 8a08 163d 3c45 c7bc db6f fb3d
000000a0: 411b 603e fab9 54bc a1e2 ffbd caa9 293e
000000b0: c264 473d f5cb 4f3e 8925 233e a200 ff3d
000000c0: 3784 14bd 38b2 4f3e ee8b bcbd 1b41 58be
000000d0: 5a5a 37be ec1a 96bd 62bd 5ebe e0cd f2bd
000000e0: e570 0e3e eabf 58be d0a2 a0bd b42a c6bd
000000f0: 1204 c3bd 69b0 fdbc 5efe 4ebe 31e8 423d
00000100: 10d4 28be 4da6 35be ed9f 043e ebb9 4cbe
00000110: b52b 24be 515d 46be d58f 44bd d359 c8bd
00000120: 776f 1a3e 0b12 173e 39d8 293e 9d48 37bd
00000130: 6ef7 a0bd 16ee 8b3d d76b 52be 5529 8fbd
00000140: 387a b5bd d62e 79bd 32de 123e 7ac8 523e
00000150: 8b02 203e 97b2 523d c154 3c3e 69f6 df3d
00000160: 9b42 1c3e 8bfc 313e 2dce 3abd e5e0 54bd
00000170: f7f3 5c3e 7147 113e f7cd 203d afaf 93bd
00000180: a971 de3d 1909 123e 1916 4ebe b79d 453d
00000190: 525b cf3d 1039 febd c683 0fbe 4895 373d
000001a0: 5cb6 f33d a12f 04be 32a7 b83d 6003 b7bd
000001b0: e42c 58be d235 56bc e2b7 e83d 5cd6 6d3d
000001c0: d95b 2b3e 0d7d 0ebe 1c2b 7b3d cfe3 743d
000001d0: 9b3f 4b3e 0370 e4bd a586 1abe 946a 9abc
000001e0: db14 65be 7c02 3a3d a925 5abe 8905 9fbc
000001f0: 1aeb 813d c81b 843c dbd6 10be a652 55bc
00000200: 856c f13d f60a a53d f71a 2e3e 0e7e dfbc
00000210: eba6 86bd 8b0b 5c3d ba9a 9dbd 6f6f 333e
00000220: 065d 06bd 1ad2 173e ffb4 47be e78f 3ebe
00000230: 592b 753e d7a0 933c d8b0 363e 3d7b 753e
00000240: 090f e73d 3689 4c3e a0df 063e 4d50 983d
00000250: c20a 46bd 29d6 abbd 5ca1 2cbe f0fe c8bb
00000260: 719b eb3c b1a1 423d fc6d 093e cac7 483e
00000270: 4d22 c83d b429 5a3c 3243 f0bc 915d ee3d
00000280: 3ecd 1fbe 7811 23be beca 0a3e 224e 573e
00000290: 71e3 85bd f95e 13be 7a07 66be bbba 61be
000002a0: 26a4 193c 2ffe f73d a60d e23c fd46 14bd
000002b0: a7bb fe3d 5f6f 6abe 454d 763a 391c c03c
000002c0: cc33 e13d 8beb 623d d729 cf3c d59c eebc
000002d0: 8db3 44be b12b 08bd 70a9 5ebe 485c a6bd
000002e0: 0114 2c3e 071e bcbd 3dff 8f3d 9f55 d3bd
000002f0: 6b1f 30be 12aa 793d 4ae7 2bbe 57b5 513e
00000300: 14bd 0bbe e7e4 48be 690f 5bbe 63a3 83bd
00000310: 6924 e0bd 6381 163d 1dd9 95bd fa6a 9a3d
00000320: 2904 a0be 1939 893d 508b 613d 70ea 273d
00000330: 0fb6 46be f08b 59be de6d f43c 023a f1bd
00000340: 07e7 b83d 8455 f63d a6b6 433e b6f1 313e
00000350: cab2 313d 0fb8 8f3d e3fe aebd 1b8c a13d
00000360: 9ae2 2dbe 3126 40be 6db3 efbd 7801 443e
00000370: 711b 59bb 3809 813d 9f34 293e 77a8 8e3d
00000380: 4fa9 5fbe 58ff a43d 7475 73bd 88fe c5bd
00000390: f0c3 02bc 86e6 5cbe deac 2fbe b0b5 a93c
000003a0: fc48 fe3d c45a 1c3e 3c74 38be 34c2 543e
000003b0: 68b8 7cbd dab0 583e 0472 b53d 2409 43be
000003c0: 377a d23d fe98 473e 75f3 05be 1767 3e3e
000003d0: 773f 02bd 5060 ec3d a834 4d3e 9fb8 31be
000003e0: 5171 113e a7f9 6e3e 7e33 90bc dbc1 b43c
000003f0: 0453 a43d 8e7b 28be 0708 a23d 2bbe 84bd

fc1.bias f4 [100]
0.033329505 0.22521172 -0.2615869 -0.1566026 0.12138123 0.08120006 0.051361725 0.017281024
0.17950153 0.19835438 0.017718608 0.02958793 0.1549178 0.15503092 0.15238117 -0.1335809
-0.09847376 0.22785133 0.16659681 -0.12043165 0.08712371 0.12756036 -0.19916563 0.12015544
-0.18476431 0.093211874 0.1995865 -0.08561665 0.084210515 -0.049695358 0.074109524 -0.06644302
-0.14021528 0.2235741 0.0610951 -0.17072804 0.14009282 -0.008992198 -0.038230516 -0.03677838
-0.19745423 0.006291664 -0.07351145 -0.03194879 0.16589136 0.11358711 0.18560769 -0.04688184
0.06603277 0.07679374 -0.25045022 0.18895803 0.11842234 -0.18465197 0.025873596 0.2241167
-0.18653655 0.11020802 0.067490526 0.028389648 0.20979553 0.17867927 -0.055794127 -0.10177333
8.376164e-05 0.07072796 0.22048382 0.11832934 0.26252738 0.12797289 -0.012187679 0.2138182
0.012870365 0.09908679 -0.0914075 -0.2325723 0.1994362 -0.06433376 -0.269686 -0.1316974
-0.14398594 -0.11714217 -0.098200694 0.13618131 -0.13096093 0.18147185 0.17751461 -0.12216114
0.22601423 0.1854564 -0.17437284 -0.16346307 -0.122185774 0.087335825 0.14442177 0.28075126
0.088945545 -0.2142968 -0.022648595 -0.11235312
00000000: 8584 083d e79d 663e b8ee 85be 6f5c 20be
00000010: b996 f83d 384c a63d ac60 523d ef90 8d3c
00000020: 40cf 373e 691d 4b3e 9d26 913c 6362 f23c
00000030: c6a2 1e3e 6dc0 1e3e cf09 1c3e 6ec9 08be
00000040: 9cac c9bd dc51 693e 5b98 2a3e dea4 f6bd
00000050: ea6d b23d 2f9f 023e 13f2 4bbe 0e14 f63d
00000060: db32 3dbe dee5 be3d 6760 4c3e c857 afbd
00000070: 9076 ac3d 5c8d 4bbd bcc6 973d 4713 88bd
00000080: 9894 0fbe 9cf0 643e db3e 7a3d 55d3 2ebe
00000090: 7e74 0f3e 0354 13bc 9a97 1cbd eda4 16bd
000000a0: 7131 4abe 4e2a ce3b 2c8d 96bd bcdc 02bd
000000b0: 6ddf 293e 5ca0 e83d f10f 3e3e 2c07 40bd
000000c0: 303c 873d 0946 9d3d 033b 80be 377e 413e
000000d0: 6987 f23d 6815 3dbe ddf4 d33c d97e 653e
000000e0: 7003 3fbe beb4 e13d 7938 8a3d 6891 e83c
000000f0: a4d4 563e b3f7 363e 6288 64bd 896e d0bd
00000100: 30a9 af38 d2d9 903d 83c6 613e a756 f23d
00000110: fd69 863e 530b 033e d5ae 47bc 29f3 5a3e
00000120: 39de 523c 04ee ca3d db33 bbbd 6f27 6ebe
00000130: 0139 4c3e 6bc1 83bd 4914 8abe afdb 06be
00000140: 0d71 13be 3ce8 efbd 721d c9bd 1d73 0b3e
00000150: 9f1a 06be c2d3 393e 64c6 353e 9f2f fabd
00000160: 4670 673e 48e8 3d3e cb8e 32be dd62 27be
00000170: 893c fabd 20dd b23d 4de3 133e a1be 8f3e
00000180: 1529 b63d 9f70 5bbe 8c89 b9bc 6519 e6bd

fc2.weight f4 [100, 100]
-0.103205465 -0.029611781 0.08438447 -0.03447523 -0.081130646 0.0063834153 -0.05201983 0.05437281
-0.0690584 -0.017718794 0.12483226 0.02546174 -0.07413349 -0.042246353 -0.03262085 0.08028983
0.015451663 -0.07143113 -0.12443732 -0.04132978 -0.053029593 0.037364483 0.05589842 0.07318378
0.006245343 -0.010731484 0.007916115 0.030112512 -0.15311077 0.03137108 0.0881766 0.07301984
0.037375193 0.027461546 -0.078783736 -0.09167591 0.0019747606 0.052899897 -0.101604246 0.061777502
0.06334517 -0.09398687 -0.016959563 -0.08781729 0.07682311 -0.008962786 -0.008075409 -0.07110039
-0.07403055 -0.047025356 0.02322419 -0.047305442 -0.05519849 -0.038804986 -0.04507084 0.02135331
-0.05662599 -0.017371194 0.011332462 0.02002038 -0.019720629 -0.124144964 -0.026346995 -0.08612156
-0.005267441 -0.04935938 0.016722443 0.029941354 0.101306014 -0.020775443 -0.06433009 -0.12673256
0.0778472 0.013937627 -0.056411285 -0.025805129 0.0790467 0.02081716 0.0697169 -0.019808173
-0.13665612 0.0112992525 -0.041699983 -0.018105585 0.05077323 -0.05226071 0.025166929 -0.09397651
-0.0092008505 -0.08053945 0.06686566 0.09311637 0.05098166 0.05350896 0.0052533173 0.0015007991
-0.07428318 0.048945125 9.159744e-05 0.0019762404 -0.0012978709 0.18332343 -0.07607183 0.07416472
0.111338794 -0.053470235 0.14367828 0.04030776 0.10039396 0.12452682 0.13835278 -0.02848214
0.112717174 -0.08501447 0.14170377 -0.06582707 0.043242894 -0.34535462 0.014230322 -0.06814836
-0.09130452 0.018170554 -0.008566641 0.07978434 -0.02925104 0.062025346 -0.1215579 -0.080304906
0.13886577 -0.009068245 0.094571725 -0.040607814 -0.085369125 -0.30617952 -0.086933054 0.03854681
0.004117868 0.065407954 0.016476627 0.09244527 0.077475555 0.17804231 0.019237574 0.01805389
-0.03270306 0.10754993 0.015639551 0.019986523 0.07223851 -0.058361035 0.0055768867 0.12940812
-0.07947665 -0.06406455 0.033929586 0.05118553 -0.03223996 -0.092979066 0.07862121 0.12387118
-0.021135353 0.11105304 0.023490265 0.006164849 -0.50784963 -0.0019679798 0.06438305 -0.07465122
-0.29113525 0.12387088 -0.007719363 0.055747844 -0.09677995 -0.07361568 -0.25118846 -0.07610807
0.101226255 0.08597761 -0.09122799 0.029108372 0.108756125 0.031461485 -0.047228348 -0.0904082
0.051015623 -0.072107404 0.023458734 0.052944705 0.10797088 0.10813812 0.038148288 0.055506535
0.032775067 0.09388114 0.02522877 -0.28941107 -0.3697366 -0.13724457 0.07033063 -0.07984303
0.12102251 0.043735374 -0.037376773 0.1257711 -0.035491165 0.078632355 0.08696461 -0.04217317
-0.0731764 0.074858226 -0.19523567 0.0134788295 -0.050303776 -0.1213527 -0.1104469 0.07775199
0.045004427 -0.22339447 0.031463087 -0.018098358 0.0014284196 0.057171367 -0.0053152447 0.11077624
0.07646703 0.12694289 -0.029116394 -0.0911291 -0.022768315 0.07570131 -0.0070080375 -0.06410035
-0.016726477 -0.21780388 -0.057443343 0.0728757 0.057603575 0.052655764 0.035478152 -0.15772507
0.08697544 -0.116449915 0.10796789 0.043562286 -0.056601066 0.031094993 -0.06720516 -0.04386536
0.1014739 0.11755094 0.048963528 0.13103703 0.042796437 -0.07848219 0.12974541 -0.28946733
00000000: 635d d3bd 6894 f2bc c4d1 ac3d e635 0dbd
00000010: d327 a6bd f82b d13b bf12 55bd 06b6 5e3d
00000020: 7e6e 8dbd 0127 91bc 0ea8 ff3d 2495 d03c
00000030: 4dd3 97bd 830a 2dbd 719d 05bd ff6e a43d
00000040: f928 7d3c 7c4a 92bd fed8 febd 6a49 29bd
00000050: 8f35 59bd 800b 193d bef5 643d 61e1 953d
00000060: bca5 cc3b 1bd3 2fbc 98b2 013c 84ae f63c
00000070: 12c9 1cbe f67e 003d ef95 b43d 6d8b 953d
00000080: bb16 193d 09f7 e03c 5e59 a1bd 94c0 bbbd
00000090: fc6a 013b 90ad 583d e315 d0bd 680a 7d3d
000000a0: 1dbb 813d 307c c0bd c8ee 8abc 8dd9 b3bd
000000b0: 6f55 9d3d a6d8 12bc b84e 04bc 159d 91bd
000000c0: 549d 97bd a99d 40bd a840 be3c 5ac3 41bd
000000d0: d017 62bd faf1 1ebd 339c 38bd 23ed ae3c
000000e0: a7f0 67bd 094e 8ebc caab 393c c801 a43c
000000f0: 288d a1bc b73f febd a7d5 d7bc 8060 b0bd
00000100: 7f9a acbb 102d 4abd 81fd 883c 9247 f53c
00000110: 8779 cf3d 4331 aabc 7fbf 83bd 2ec6 01be
00000120: 5a6e 9f3d a55a 643c 850f 67bd 4765 d3bc
00000130: 3ce3 a13d c088 aa3c bcc7 8e3d c044 a2bc
00000140: 95ef 0bbe 8020 393c 9acd 2abd 2a52 94bc
00000150: 97f7 4f3d 540f 56bd e02a ce3c c276 c0bd
00000160: 2abf 16bc def1 a4bd ddf0 883d ccb3 be3d
00000170: 25d2 503d 362c 5b3d 0524 ac3b 76b6 c43a
00000180: c821 98bd af7a 483d 0018 c038 d083 013b
00000190: 521d aaba 23b9 3b3e 8ccb 9bbd ace3 973d
000001a0: 9805 e43d 9b03 5bbd 6620 133e c019 253d
000001b0: 599b cd3d eb07 ff3d 5aac 0d3e 6053 e9bc
000001c0: 43d8 e63d 111c aebd cb1a 113e 58d0 86bd
000001d0: 761f 313d 52d2 b0be 4c26 693c 5e91 8bbd
000001e0: ddfd babd 6ada 943c 195b 0cbc f965 a33d
000001f0: e19f efbc 4a0e 7e3d 59f3 f8bd e676 a4bd
00000200: d432 0e3e fa92 14bc d2ae c13d 6154 26bd
00000210: 02d6 aebd 90c3 9cbe f509 b2bd 43e3 1d3d
00000220: 2eef 863b 9bf4 853d fef9 863c f253 bd3d
00000230: 81ab 9e3d b950 363e 1e98 9d3c c0e5 933c
00000240: a5f3 05bd 2343 dc3d 841e 803c c7ba a33c
00000250: c9f1 933d fb0b 6fbd 51be b63b 9083 043e
00000260: a7c4 a2bd 4634 83bd c0f9 0a3d eba7 513d
00000270: 0c0e 04bd cf6b bebd 2804 a13d 2cb0 fd3d
00000280: 0c24 adbc c76f e33d a86e c03c 8002 ca3b
00000290: 6f02 02bf 39f9 00bb 43db 833d bde2 98bd
000002a0: ae0f 95be 04b0 fd3d b6f2 fcbb da57 643d
000002b0: 9134 c6bd d1c3 96bd c69b 80be 8cde 9bbd
000002c0: b64f cf3d 0715 b03d bed5 babd ae74 ee3c
000002d0: 88bb de3d c2dd 003d 8372 41bd ef27 b9bd
000002e0: c2f5 503d 0cad 93bd 882c c03c 8cdc 583d
000002f0: d61f dd3d 8577 dd3d 6141 1c3d d25a 633d
00000300: 263f 063d c144 c03d 91ac ce3c b02d 94be
00000310: 1e4e bdbe d789 0cbe 8109 903d be84 a3bd
00000320: a6da f73d dd23 333d 6318 19bd 24ca 003e
00000330: 2f5f 11bd 000a a13d 801a b23d c6bd 2cbd
00000340: 82dd 95bd 454f 993d dceb 47be 4fd6 5c3c
00000350: 550b 4ebd c487 f8bd fc31 e2bd 6f3c 9f3d
00000360: 9056 383d 85c1 64be 70df 003d 0243 94bc
00000370: cf39 bb3a 862c 6a3d 812b aebb a7de e23d
00000380: bf9a 9c3d 51fd 013e 8185 eebc e5a1 babd
00000390: 9e84 babc 4a09 9b3d aea3 e5bb 0b47 83bd
000003a0: f705 89bc fb07 5fbe b649 6bbd db3f 953d
000003b0: baf1 6b3d 92ad 573d 8a51 113d ae82 21be
000003c0: 2e20 b23d 4b7d eebd 451e dd3d 5e6e 323d
000003d0: 85d6 67bd edba fe3c dca2 89bd 2aac 33bd
000003e0: 8cd1 cf3d 8cbe f03d fb8d 483d 922e 063e
000003f0: 514b 2f3d 45bb a0bd fbdb 043e 1035 94be

fc2.bias f4 [100]
-0.01265716 -0.0020284546 0.10530794 -0.097532965 0.04736356 0.08319019 0.06494032 -0.10133105
0.0016582289 -0.010194527 0.015231352 0.07461976 -0.019595908 -0.013765988 0.055780176 0.055319604
0.063953124 0.075797 0.01286362 -0.05233585 0.092385285 -0.08747565 0.07560691 0.08062415
0.08064997 -0.09933575 0.049427144 -0.07904394 -0.04139055 0.035576127 0.059719525 -0.022468098
0.04645485 0.035833262 0.049261786 0.06669611 0.010357552 0.008643151 0.045987185 -0.038690332
-0.038585093 0.043310024 -0.03147997 -0.088510856 -0.0017038205 0.090880446 0.069761366 -0.049446557
-0.08342457 0.06339898 -0.017590223 -0.021131868 -0.023448339 -0.07074845 -0.096685186 0.12438245
0.009304443 0.01981042 -0.044420302 -0.010621525 0.11468134 -0.04464017 -0.02188655 -0.048201166
-0.044942085 -0.019877784 0.06626391 0.0019070973 0.07020651 0.07631216 -0.10474478 0.038951032
0.046661172 -0.10701652 0.022498 -0.05997408 0.0056561106 0.0699593 0.115051985 -0.03444739
0.11891178 -0.04774494 0.02450401 0.05133333 -0.0005885772 0.1218014 0.013028344 0.07022772
-0.07352575 0.078868605 0.036903728 0.12233813 0.03519007 0.10442389 0.039830998 0.076529026
-0.108709335 0.05278936 0.015841186 0.058425598
00000000: fa5f 4fbc d2ef 04bb b0ab d73d 5dbf c7bd
00000010: 4b00 423d 9e5f aa3d 6eff 843d a786 cfbd
00000020: ee58 d93a f206 27bc ec8c 793c 3fd2 983d
00000030: 9987 a0bc bd8a 61bc c179 643d cf96 623d
00000040: dbf9 823d 753b 9b3d efc1 523c 1e5e 56bd
00000050: 7f34 bd3d 6f26 b3bd ccd7 9a3d 461e a53d
00000060: d02b a53d 8b70 cbbd 1e74 4a3d cae1 a1bd
00000070: 2389 29bd 46b8 113d 769c 743d 040f b8bc
00000080: 7147 3e3d e6c5 123d bac6 493d f897 883d
00000090: b9b2 293c 019c 0d3c 0f5d 3c3d c179 1ebd
000000a0: 670b 1ebd da65 313d 24f1 00bd 2e45 b5bd
000000b0: bb52 dfba 871f ba3d 0cdf 8e3d 7988 4abd
000000c0: 80da aabd 53d7 813d 5f19 90bc bd1c adbc
000000d0: bb16 c0bc 90e4 90bd e202 c6bd 3abc fe3d
000000e0: aa71 183c 7649 a23c 10f2 35bd e805 2ebc
000000f0: 0dde ea3d 9cd8 36bd 6c4b b3bc 966e 45bd
00000100: 3115 38bd bcd6 a2bc 5fb5 873d 91f7 f93a
00000110: 6ec8 8f3d 8d49 9c3d 6e84 d6bd 1e8b 1f3d
00000120: c91f 3f3d 7a2b dbbd ba4d b83c 62a7 75bd
00000130: e556 b93b d246 8f3d 60a0 eb3d b518 0dbd
00000140: 0588 f33d 3390 43bd a2bc c83c e642 523d
00000150: bf4a 1aba 0373 f93d d674 553c 8dd3 8f3d
00000160: ab94 96bd dd85 a13d 5d28 173d 6a8c fa3d
00000170: 7623 103d 31dc d53d d425 233d 40bb 9c3d
00000180: 00a3 debd a839 583d 60c5 813c ae4f 6f3d

fc3.weight f4 [100, 100]
-0.052007936 0.11634956 0.010892127 0.023454458 0.0551755 -0.042652693 -0.0037312799 -0.10271598
0.19763501 -0.11545742 0.14908978 -0.13066444 0.08523428 0.1316565 -0.07181188 0.08893159
0.047951378 -0.034770288 -0.047667712 0.038483284 0.112124845 0.023317374 0.059631005 -0.04831036
0.0076428065 -0.024828224 -0.062048018 0.059153818 0.088168226 -0.002021659 0.01749113 0.044005547
0.08395385 0.048542805 0.07334926 0.03966662 0.03616699 0.09075259 0.016653074 0.067971386
0.01426362 -0.019520104 0.088892855 -0.0840433 0.06431122 0.038064204 0.09112624 -0.08317181
0.02108325 0.0033782234 -0.052530915 -0.0898182 -0.009849837 0.026432183 -0.07346519 0.23504369
-0.007738877 0.22882973 0.10964927 0.08055795 0.08796512 0.02076956 -0.04843099 0.13872905
0.012777771 0.035012636 -0.025759691 -0.05929053 0.05617738 0.09843347 0.2147562 0.14786445
0.034865994 0.06499417 -0.016631197 -0.01000676 -0.0027876382 -0.18125276 0.014623689 -0.060394987
0.06676917 -0.048694573 0.13143703 0.05678783 0.05375674 -0.0017191794 -0.10496403 -0.014922322
0.06679526 0.06647071 -0.019758774 0.06956319 -0.02555718 0.0829968 -0.034458846 0.1549754
-0.060259305 0.18181956 0.07043361 -0.016268061 0.09426547 0.08157096 -0.014663622 0.04401005
-0.03459029 0.085956715 0.0011912957 -0.026917674 -0.0866154 -0.092660345 0.067041464 0.04615485
-0.04436716 -0.0387952 -0.07018379 -0.06577126 -0.046070088 0.027974404 -0.08635811 0.007722594
-0.08680618 -0.052729644 0.066549666 -0.03781277 -0.020318046 0.04082147 -0.021299504 -0.01120995
0.0015082508 0.057617433 0.029828347 0.0813979 -0.017380215 0.012998506 -0.03265152 -0.055416834
-0.054728985 -0.047279656 0.053595386 0.015799776 -0.02889458 -0.068196744 0.020038031 0.06610293
-0.0707279 -0.09362122 0.013992384 0.07961967 0.08614781 -0.08302264 0.011224344 0.08229389
0.09701342 0.01736705 -0.009892002 -0.001827322 -0.09143623 0.08801163 -0.08146373 -0.018742725
-0.0134039745 -0.0739366 -0.089513995 -0.03723167 0.07583875 -0.038378667 0.020919524 0.05010385
-0.0037720948 -0.062004007 0.08491007 -0.049192645 -0.06526361 0.028578453 -0.09020325 0.031448536
0.05814407 0.010252193 -0.048257004 0.035907827 0.09636132 0.027822636 -0.08665252 0.059827603
0.097929426 -0.050267577 0.0690841 -0.043568302 -0.052506577 -0.03387977 0.020724714 -0.035284497
0.09452013 -0.06708381 -0.07748859 0.01372838 0.09045165 -0.059969284 -0.07360361 0.030421503
0.016277071 0.08712728 0.07744981 0.0051772064 0.1165764 0.14230363 0.08400654 0.10411595
-0.03624921 -0.06571803 -0.03954857 -0.20710973 -0.2180648 0.015713241 0.050159924 0.07570948
0.08604584 -0.07041161 0.11169749 -0.09601759 0.08894652 0.05493422 -0.0473922 -0.05542181
-0.08102935 0.15813671 0.1102665 -0.068143204 0.11093505 -0.038536433 0.060534336 -0.08296392
0.0026782607 0.046627995 0.019549185 -0.0680284 -0.06228714 -0.052295383 0.045194943 0.13893633
0.122532256 0.096783616 0.0923812 -0.120882586 0.076919675 -0.029360248 -0.09325857 -0.048258528
0.041213505 0.0198515 0.040656906 0.001851833 -0.015074537 -0.062776536 -0.015859053 -0.093025945
00000000: 4606 55bd ae48 ee3d e474 323c 9023 c03c
00000010: b5ff 613d 97b4 2ebd 7d88 74bb c15c d2bd
00000020: d560 4a3e f174 ecbd feaa 183e e6cc 05be
00000030: 4f8f ae3d f6d0 063e 1b12 93bd c421 b63d
00000040: aa68 443d 4a6b 0ebd 383f 43bd a6a0 1d3d
00000050: b6a1 e53d 1404 bf3c a43f 743d 16e1 45bd
00000060: 8270 fa3b 8f64 cbbc 1026 7ebd 464b 723d
00000070: 8b91 b43d cf7d 04bb 8f49 8f3c 293f 343d
00000080: ffef ab3d d2d4 463d 2338 963d 7779 223d
00000090: d623 143d 7edc b93d 076c 883c 9534 8b3d
000000a0: f5b1 693c a0e8 9fbc 750d b63d e51e acbd
000000b0: 9ab5 833d 36e9 1b3d 65a0 ba3d fb55 aabd
000000c0: c8b6 ac3c 2f65 5d3b a82a 57bd 9bf2 b7bd
000000d0: 3661 21bc 4e88 d83c eb74 96bd 4baf 703e
000000e0: 6896 fdbb 5752 6a3e cc8f e03d 91fb a43d
000000f0: 0f27 b43d ed24 aa3c 935f 46bd fd0e 0e3e
00000100: db59 513c 6969 0f3d fd05 d3bc a0da 72bd
00000110: 411a 663d 7d97 c93d 0de9 5b3e c769 173e
00000120: a5cf 0e3d aa1b 853d 263e 88bc 65f3 23bc
00000130: cfb0 36bb 539a 39be 3398 6f3c bc60 77bd
00000140: 46be 883d f673 47bd 6e97 063e 5b9a 683d
00000150: 0730 5c3d 1756 e1ba 62f7 d6bd c17c 74bc
00000160: f4cb 883d cc21 883d 27dd a1bc 2577 8e3d
00000170: 4b5d d1bc 3afa a93d b824 0dbd dfb1 1e3e
00000180: 76d2 76bd e82e 3a3e 7f3f 903d 9944 85bc
00000190: 410e c13d ad0e a73d b03f 70bc e243 343d
000001a0: 8cae 0dbd 130a b03d 4025 9c3a 7482 dcbc
000001b0: 6a63 b1bd b5c4 bdbd 094d 893d de0c 3d3d
000001c0: 57ba 35bd b7e7 1ebd 85bc 8fbd 15b3 86bd
000001d0: fdb3 3cbd 942a e53c 85dc b0bd d00d fd3b
000001e0: 70c7 b1bd 0afb 57bd 314b 883d 90e1 1abd
000001f0: 0872 a6bc 6a34 273d 4c7c aebc f0a9 37bc
00000200: 80b0 c53a 4200 6c3d 945a f43c f1b3 a63d
00000210: f460 8ebc b0f7 543c 9abd 05bd c3fc 62bd
00000220: 802b 60bd 50a8 41bd d686 5b3d 886e 813c
00000230: 54b4 ecbc bcaa 8bbd cc26 a43c f960 873d
00000240: cad9 90bd 7bbc bfbd 5040 653c a30f a33d
00000250: 436e b03d c607 aabd 50e6 373c b389 a83d
00000260: f9ae c63d 5845 8e3c 1012 22bc c082 efba
00000270: eb42 bbbd 713f b43d 75d6 a6bd 588a 99bc
00000280: 589c 5bbc 126c 97bd 1d53 b7bd 3c80 18bd
00000290: 5951 9b3d f332 1dbd 6c5f ab3c b239 4d3d
000002a0: 4035 77bb eaf7 7dbd 55e5 ad3d 3a7e 49bd
000002b0: eda8 85bd 5c1d ea3c 7bbc b8bd 2ed0 003d
000002c0: 7a28 6e3d d0f8 273c 23a9 45bd 1614 133d
000002d0: 1559 c53d 4cec e33c e076 b1bd ca0d 753d
000002e0: 398f c83d 60e5 4dbd f77b 8d3d ad74 32bd
000002f0: 2311 57bd 84c5 0abd e0c6 a93c 7a86 10bd
00000300: c593 c13d 3d63 89bd 56b2 9ebd 00ed 603c
00000310: b73e b93d 5aa2 75bd 7dbd 96bd 8436 f93c
00000320: 7e57 853c ca6f b23d 029e 9e3d 8ea5 a93b
00000330: 9cbf ee3d 0bb8 113e 9f0b ac3d be3a d53d
00000340: 0d7a 14bd 2d97 86bd aefd 21bd 9314 54be
00000350: 614c 5fbe 0eb9 803c 7e74 4d3d 920d 9b3d
00000360: cd38 b03d f633 90bd a7c1 e43d dfa4 c4bd
00000370: 9829 b63d b402 613d 531e 42bd fb01 63bd
00000380: b7f2 a5bd 97ee 213e 67d3 e13d aa8e 8bbd
00000390: ea31 e33d 61d8 1dbd daf2 773d fde8 a9bd
000003a0: c285 2f3b fffc 3e3d 9d25 a03c 7952 8bbd
000003b0: cd20 7fbd af33 56bd 551e 393d 5345 0e3e
000003c0: 31f2 fa3d 7d36 c63d 5b32 bd3d 4a91 f7bd
000003d0: 1088 9d3d e784 f0bc 59fe bebd bcaa 45bd
000003e0: 7ecf 283d 9d9f a23c db87 263d 34b9 f23a
000003f0: 31fb 76bc fc90 80bd d8ea 81bc 6384 bebd

fc3.bias f4 [100]
-0.019461349 -0.07453507 -0.023427559 0.02195633 -0.09598936 -0.004988216 -0.084993176 0.039569296
0.1212536 0.01183374 0.12919098 0.08145513 0.0763703 0.0050983755 0.09445087 0.12904458
-0.0140398815 0.0195161 0.1123662 0.003478575 0.076370314 0.1033952 -0.0007225854 -0.0115881115
-0.029334491 0.029940786 -0.07151791 -0.05451404 0.0024730586 0.03307917 -0.03407111 0.028985376
-0.053997863 0.06404981 0.16486742 0.104603976 -0.00829618 -0.026933726 0.02635302 0.022714468
0.0350556 -0.10006712 0.081666015 0.010440295 0.014715248 0.028911378 -0.095205545 0.0061665694
-0.06624642 0.03405722 -0.037715893 -0.061649434 0.06911771 0.08437142 -0.099743366 0.06794515
-0.099234045 -0.10521864 0.030086208 0.0024730132 -0.06382437 0.027841903 0.013321684 -0.062329736
0.050372876 -0.060392093 0.07719179 0.035391968 0.048947535 0.042912617 -0.08273812 -0.05433216
0.03039795 0.019293152 -0.023479845 0.099624805 0.09163501 0.060244713 -0.06543611 0.08475556
0.056520984 -0.07421016 0.04360636 -0.04864106 -0.052494057 0.11674648 0.08072242 -0.083791874
-0.077202134 0.10753691 0.15028888 -0.041062124 -0.08740389 -0.012629564 0.0047208075 -0.048960987
-0.16110322 0.05670056 0.002192414 0.12006211
00000000: 686d 9fbc d8a5 98bd 27eb bfbc c3dd b33c
00000010: 1296 c4bd 3074 a3bb e710 aebd 6a13 223d
00000020: cf53 f83d 4ee2 413c a44a 043e f2d1 a63d
00000030: 0868 9c3d 4610 a73b 756f c13d 4324 043e
00000040: 8807 66bc 3ae0 9f3c 4020 e63d cef8 633b
00000050: 0a68 9c3d ddc0 d33d e36b 3dba 10dc 3dbc
00000060: e34e f0bc 6146 f53c fb77 92bd 1d4a 5fbd
00000070: 0a13 223b 067e 073d 268e 0bbd bd72 ed3c
00000080: dd2c 5dbd 8c2c 833d 01d3 283e 9c3a d63d
00000090: b3ec 07bc 1ea4 dcbc 4ae2 d73c b113 ba3c
000000a0: 7696 0f3d fdef ccbd 8340 a73d c50d 2b3c
000000b0: 3918 713c 8ed7 ec3c 20fb c2bd ef10 ca3b
000000c0: 34ac 87bd 957f 0b3d fb7b 1abd 1e84 7cbd
000000d0: 968d 8d3d ecca ac3d 4046 ccbd d426 8b3d
000000e0: 383b cbbd df7c d7bd 5a77 f63c 4712 223b
000000f0: 5ab6 82bd b414 e43c 3143 5a3c 774d 7fbd
00000100: ca53 4e3d b35d 77bd bb16 9e3d 2bf7 103d
00000110: 367d 483d 24c5 2f3d 9a72 a9bd 668b 5ebd
00000120: 1f05 f93c ac0c 9e3c ce58 c0bc 1708 cc3d
00000130: 23ab bb3d 29c3 763d 5e03 86bd 5394 ad3d
00000140: 8c82 673d 7ffb 97bd 959c 323d d93b 47bd
00000150: 0204 57bd c718 ef3d cc51 a53d 139b abbd
00000160: 271c 9ebd 503c dc3d 54e5 193e c230 28bd
00000170: d000 b3bd 3bec 4ebc 01b1 9a3b 518b 48bd
00000180: 3ef8 24be d93e 683d 9aae 0f3b 20e3 f53d

fc4.weight f4 [100, 100]
-0.112571225 -0.04330057 -0.110515416 -0.005725912 0.038339697 -0.026030168 -0.043480966 0.0152726155
-0.06285695 -0.082359545 0.060198423 0.025185836 0.07736713 -0.039196264 0.093627445 0.075726405
0.1006123 0.051655557 -0.08848499 0.07274802 0.07571307 0.085116774 0.012420011 0.025411358
0.010162214 -0.03411468 -0.028149383 0.04864423 0.10742291 -0.027662553 0.12232444 -0.07787942
0.007281777 0.058546647 -0.017400222 0.037621453 -0.06934742 0.041598666 -0.07239187 -0.097552314
-0.038638208 -0.08120921 0.072865754 0.10381441 -0.0255642 0.015080318 0.056758616 -0.1288352
0.17690364 -0.11710157 0.00031779803 -0.11188051 -0.28370965 -0.22044604 -0.09278242 0.06752391
0.004384163 -0.07032688 -0.110413045 -0.06906545 0.034306776 0.094102055 0.010452287 0.06505499
0.016095482 0.033435397 0.0053478517 -0.1378344 0.07850974 0.0321395 0.11578791 0.053617436
-0.13559872 0.014091034 -0.03387998 -0.056613162 0.032296885 -0.095761105 0.06734166 0.06295308
-0.21393086 0.00062627177 0.037428327 -0.18830474 -0.15411186 0.069916986 -0.07847664 -0.06658587
-0.15653394 -0.1669858 -0.0466315 -0.042633776 -0.08686805 0.07749715 -0.03420465 0.09780971
-0.1762699 -0.15982935 -0.045271207 -0.048920885 0.085300095 0.09929865 -0.098144256 0.05101064
-0.051987756 -0.04197659 -0.0029178036 -0.07007328 0.09570093 0.18932123 0.06303929 -0.018531589
-0.025396604 0.11983829 0.08766489 -0.0030109207 -0.08405623 -0.06911462 -0.021103438 0.051231623
0.05424814 -0.035348088 0.050481223 0.109403275 0.11171373 -0.061624948 0.16361234 0.080749646
0.044252265 0.08171987 0.04151321 -0.012238057 -0.057166997 -0.026202941 -0.04917352 -0.018716874
0.09331548 0.10378063 0.03896271 0.038956687 -0.052635387 -0.04505263 0.09095791 -0.028586794
-0.017865127 0.118126586 0.07701003 0.040600915 0.21536356 -0.03914943 0.15813415 -0.051081017
0.0038349205 0.021392468 -0.02821131 0.07414128 0.09690684 -0.03881011 -0.07151785 0.0111330645
0.086591914 -0.047691163 0.0331965 -0.09357477 0.020275446 -0.045800783 -0.08498174 0.0065331645
0.0053710784 0.08399722 -0.0032133234 0.13875978 0.2043773 0.07075007 -0.021085871 0.04446592
-0.102289096 0.024702426 0.10064755 -0.008287709 -0.16017458 -0.065485954 0.28989154 0.022899695
0.09875359 -0.01917468 0.083726585 0.084055476 0.14702171 0.09036322 -0.060806863 -0.008742781
-0.047469508 -0.06892122 0.043343626 0.07475601 0.21611741 -0.102937095 -0.031693667 0.12782076
-0.0028262287 0.08497249 0.05063956 -0.04929852 0.04800696 0.06753517 -0.10211157 0.096080355
-0.07737328 0.05677286 0.02321177 0.008994406 -0.05079921 -0.010949306 -0.07311878 -0.047884937
0.08213274 0.026331754 -0.04898799 -0.017099032 0.042110294 0.022556018 0.009729302 0.020082297
-0.01015423 0.008803675 0.077299036 0.05220466 0.08154419 0.0015637197 -0.038285475 -0.035704568
0.0036055867 0.05351047 -0.076835044 -0.072319515 0.0036818737 -0.090943635 -0.059466578 -0.001763021
0.07990561 0.09001029 -0.09272348 -0.07816709 -0.057117358 0.0986775 -0.12622863 -0.12535772
-0.08963715 0.051702768 0.07664919 -0.05714847 -0.15789814 -0.15506092 0.06596665 -0.085360326
00000000: be8b e6bd f05b 31bd e855 e2bd 6ea0 bbbb
00000010: 160a 1d3d 383d d5bc 1919 32bd fe39 7a3c
00000020: 25bb 80bd 1fac a8bd 9f92 763d 8752 ce3c
00000030: a872 9e3d 438c 20bd bfbf bf3d 7216 9b3d
00000040: d20d ce3d c794 533d 9e37 b5bd eafc 943d
00000050: 740f 9b3d b451 ae3d 4d7d 4b3c 7b2b d03c
00000060: 6a7f 263c d6bb 0bbd 8999 e6bc 2c3f 473d
00000070: 8b00 dc3d 949c e2bc 3c85 fa3d 3f7f 9fbd
00000080: f99b ee3b 9cce 6f3d e98a 8ebc f418 1a3d
00000090: 0506 8ebd 5d63 2a3d 3042 94bd 82c9 c7bd
000000a0: 1943 1ebd 0451 a6bd a43a 953d a69c d43d
000000b0: 036c d1bc 7013 773c b97b 683d 60ed 03be
000000c0: 3a26 353e f3d2 efbd 219e a639 9c21 e5bd
000000d0: 6442 91be 9bbc 61be b604 bebd fa49 8a3d
000000e0: 06a9 8f3b 8a07 90bd 3c20 e2bd 3072 8dbd
000000f0: 4385 0c3d 94b8 c03d 1240 2b3c 8d3b 853d
00000100: acda 833c 8ef3 083d 083d af3b 7624 0dbe
00000110: b7c9 a03d b5a4 033d 3622 ed3d f59d 5b3d
00000120: 64da 0abe 15de 663c bcc5 0abd 34e3 67bd
00000130: bd49 043d 661e c4bd 6dea 893d 8bed 803d
00000140: b110 5bbe 632c 243a 724e 193d f5d2 40be
00000150: 80cf 1dbe a330 8f3d 5cb8 a0bd 2c5e 88bd
00000160: 6f4a 20be 53fe 2abe ac00 3fbd c1a0 2ebd
00000170: e0e7 b1bd d3b6 9e3d 2d1a 0cbd 7550 c83d
00000180: 1980 34be 4eaa 23be 4d6e 39bd 4461 48bd
00000190: d1b1 ae3d 175d cb3d dbff c8bd 88f0 503d
000001a0: 1df1 54bd a5ef 2bbd 9f38 3fbb 9482 8fbd
000001b0: d9fe c33d 6ddd 413e be1a 813d 8fcf 97bc
000001c0: 8a0c d0bc c76d f53d a689 b33d de52 45bb
000001d0: ac25 acbd f78b 8dbd 1ee1 acbc 40d8 513d
000001e0: 4c33 5e3d 28c9 10bd 66c5 4e3d d30e e03d
000001f0: 2bca e43d 716a 7cbd fe89 273e 1260 a53d
00000200: dd41 353d bf5c a73d c109 2a3d 2282 48bc
00000210: f127 6abd 8da7 d6bc 2c6a 49bd 2154 99bc
00000220: 301c bf3d f08a d43d 5d97 1f3d 0c91 1f3d
00000230: 3498 57bd 1b89 38bd 2448 ba3d da2e eabc
00000240: e359 92bc 5aec f13d 6fb7 9d3d 254d 263d
00000250: 4488 5c3e 275b 20bd ebed 213e 543a 51bd
00000260: 4a53 7b3b 423f af3c 681b e7bc 62d7 973d
00000270: 1877 c63d 5af7 1ebd f377 92bd 7567 363c
00000280: 1a57 b13d cf57 43bd 0ef9 073d 21a4 bfbd
00000290: b118 a63c 9a99 3bbd e80a aebd 2814 d63b
000002a0: dfff af3b bc06 ac3d 9f96 52bb 0b17 0e3e
000002b0: 4848 513e 6ae5 903d 47bc acbc e621 363d
000002c0: f27c d1bd be5c ca3c 4d20 ce3d 2cc9 07bc
000002d0: ce04 24be 801d 86bd aa6c 943e 2498 bb3c
000002e0: 523f ca3d 3814 9dbc d878 ab3d 4725 ac3d
000002f0: dc8c 163e 5a10 b93d 9e10 79bd e23d 0fbc
00000300: 636f 42bd 9226 8dbd 1689 313d ae19 993d
00000310: e24d 5d3e afd0 d2bd 38d1 01bd 72e3 023e
00000320: 4038 39bb 0f06 ae3d 6d6b 4f3d 3fed 49bd
00000330: f2a2 443d e14f 8a3d df1f d1bd c7c5 c43d
00000340: e275 9ebd a98a 683d 9c26 be3c 465d 133c
00000350: d512 50bd b864 33bc 4dbf 95bd ff22 44bd
00000360: 3635 a83d b1b5 d73c a1a7 48bd 4513 8cbc
00000370: d87b 2c3d 66c7 b83c a667 1f3c a183 a43c
00000380: ed5d 26bc 4a3d 103c f54e 9e3d 8ed4 553d
00000390: a400 a73d baf5 cc3a 3bd1 1cbd f43e 12bd
000003a0: b54b 6c3b cb2d 5b3d b15b 9dbd 411c 94bd
000003b0: 974b 713b a840 babd 3a93 73bd 2b15 e7ba
000003c0: 8da5 a33d 5157 b83d cfe5 bdbd 1116 a0bd
000003d0: e4f3 69bd 6e17 ca3d 1442 01be c65d 00be
000003e0: af93 b7bd 48c6 533d 40fa 9c3d 8414 6abd
000003f0: 0db0 21be 4ac8 1ebe 8619 873d 65d1 aebd

fc4.bias f4 [100]
0.06445078 -0.06227634 0.018731046 0.09094011 -0.03635075 0.027723566 -0.07101363 0.028857011
0.09328114 0.0038490365 -0.015061819 0.17918909 -0.009593544 0.057353117 0.0013786635 0.037143517
-0.03702601 -0.083501145 0.087665744 -0.052895825 0.11947939 0.07546709 0.070977725 -0.063344635
0.09544603 -0.06943024 0.061198078 -0.0729288 0.014574769 0.020621365 0.06857626 -0.09197613
-0.053487 0.06426874 0.11067386 0.05114931 -0.078333266 0.06183183 0.113587834 0.12022809
0.006160929 -0.032364942 0.03524071 -0.04027852 0.031975698 -0.05215632 -0.007843432 -0.106664866
-0.01396581 -0.04037864 0.06208975 -0.030966358 0.076618016 0.009664019 -0.10726538 -0.026782736
0.14628027 0.15292689 0.09439647 -0.05911628 -0.061697166 -0.009927655 0.04129906 0.031423192
0.13619551 0.11610317 0.06848124 -0.03516573 -0.016707355 -0.028855907 0.035158865 -0.025144592
-0.05885432 0.07212061 -0.03413897 -0.025462791 -0.069108106 -0.003146056 0.0794865 -0.047219615
0.004653024 -0.0065599587 -0.027552756 0.03359574 0.044770304 0.10595176 0.12364408 -0.062153563
-0.095454276 -0.0304433 -0.0012242193 -0.07807328 0.039463606 -0.039787795 0.01520583 0.06152548
0.0997463 -0.05599088 -0.026735332 -0.072088964
00000000: c5fe 833d 7a15 7fbd da71 993c cf3e ba3d
00000010: 86e4 14bd 881c e33c 986f 91bd 8a65 ec3c
00000020: 2f0a bf3d 1e40 7c3b d9c5 76bc 587d 373e
00000030: 3d2e 1dbc 1aeb 6a3d 45b4 b43a cd23 183d
00000040: 96a8 17bd a602 abbd 198a b33d 4ba9 58bd
00000050: 9cb1 f43d 7d8e 9a3d c55c 913d d5ba 81bd
00000060: 3579 c33d 7131 8ebd d6aa 7a3d b25b 95bd
00000070: 03cb 6e3c 23ee a83c b671 8c3d fb5d bcbd
00000080: 2f15 5bbd 549f 833d faa8 e23d f081 513d
00000090: 316d a0bd 5f43 7d3d bda0 e83d 253a f63d
000000a0: 9ee1 c93b 1a91 04bd 9058 103d 17fb 24bd
000000b0: f3f8 023d dea1 55bd bd81 00bc 1c73 dabd
000000c0: dad0 64bc 1364 25bd d251 7e3d 29ad fdbc
000000d0: e8e9 9c3d d555 1e3c f4ad dbbd 7867 dbbc
000000e0: 7fca 153e de98 1c3e f052 c13d ea23 72bd
000000f0: 2bb6 7cbd 9aa7 22bc 3429 293d 9bb5 003d
00000100: d676 0b3e 80c7 ed3d e43f 8c3d f109 10bd
00000110: dddd 88bc 3963 ecbc be02 103d 08fc cdbc
00000120: 3a11 71bd f8b3 933d 4ed5 0bbd 5897 d0bc
00000130: 8d88 8dbd 102e 4ebb d1c9 a23d 5b69 41bd
00000140: 6578 983b ecf4 d6bb 51b6 e1bc b09b 093d
00000150: 1161 373d 3dfd d83d 1b39 fd3d bc94 7ebd
00000160: 887d c3bd 3a64 f9bc fc75 a0ba e2e4 9fbd
00000170: 97a4 213d 87f8 22bd e021 793c 2402 7c3d
00000180: ca47 cc3d b156 65bd 0e04 dbbc 61a3 93bd

fc5.weight f4 [100, 100]
0.02852825 -0.002204129 -0.0016855678 -0.05907898 -0.05688861 0.046179537 0.047236014 -0.070065446
-0.097125866 -0.060091984 -0.037463978 -0.036721162 -0.08867301 -0.051235937 0.054339442 -0.0016200502
-0.035747707 -0.0781034 0.02478329 0.03548034 0.07467143 -0.029667877 -0.09008245 0.038373243
0.057904717 -0.067824766 0.012886263 -0.04900731 0.071843855 0.03832619 -0.0014525205 -0.09684978
-0.09169179 -0.048923794 -0.06842591 -0.05839988 0.062445458 0.053994365 0.049649443 -0.10581065
0.007857319 0.015067289 -0.06720109 0.016851053 0.009697804 0.009869331 0.035311006 -0.06323441
-0.07785436 0.016589548 0.08830823 -0.009864779 0.061812237 -0.01849134 0.081188 -0.083829805
0.022807559 0.025155008 -0.09361771 -0.021930255 -0.031166263 -0.02130147 -0.08227785 0.02249231
0.036910057 -0.042140782 0.08019812 0.07369857 0.016213775 0.06333693 0.028171832 0.015209217
0.006055221 -0.08384741 0.028329182 -0.017394796 -0.11387202 0.07483647 -0.10450362 0.019902788
0.05479928 -0.08637331 -0.04489688 -0.006094663 0.07805258 0.06670268 -0.043936346 0.0958363
0.037335224 -0.032563493 -0.055688716 0.021008767 -0.056162227 0.057678133 0.07784363 0.035395376
-0.10092503 0.054577466 -0.028317582 -0.03684934 -0.07127325 0.019240752 -0.038087394 -0.0054980638
0.03959473 -0.03963142 -0.08741196 0.055865753 0.07614631 0.010170883 0.03960707 -0.098809764
0.0032217728 -0.107535765 0.078776784 -0.00664147 -0.08838532 -0.03232739 0.060459055 0.06965571
0.002689438 -0.018015608 -0.03722308 -0.021243436 -0.055175837 -0.06127402 -0.034891732 -0.017218778
-0.0843359 -0.03950644 -0.014240012 0.04471495 -0.059436012 -0.088587716 0.079155944 -0.059107028
0.03941106 0.080653176 -0.10227519 0.071654126 0.08105182 0.041403923 -0.105335526 -0.010253154
0.08020361 0.06535386 -0.0023561737 -0.07450739 -0.06693353 -0.046535917 0.07184268 -0.03136622
-0.009129109 0.01341764 0.08768632 -0.0046418905 0.009197119 0.021563176 0.07199536 -0.06938632
-0.08486709 0.059391014 0.013615554 -0.06970692 -0.10631831 0.055307847 -0.0715361 0.01201956
-0.0888466 -0.081560016 0.04564761 0.0064384593 -0.0939061 -0.06301806 0.03713784 0.04407183
0.06998245 0.081298016 -0.044645704 -0.085059226 0.025002778 0.013191666 -0.084609665 0.0019974182
0.024458572 -0.07638365 0.07497167 -0.05644996 0.09615531 0.04250299 0.0041461587 0.0020698905
-0.06961346 0.030657582 0.04277192 -0.033190407 -0.08431531 -0.093696 -0.02249142 -0.036273554
-0.08272938 0.06455534 -0.013105094 -0.03561216 0.021618653 -0.048163727 0.033009227 0.066907115
0.070302635 0.041815553 -0.06895161 0.0026607271 0.08140697 0.08041555 0.022414166 -0.04426961
0.07760485 0.034624435 -0.059090488 -0.06271471 -0.032639265 -0.1304893 -0.044746608 0.057816356
-0.08549903 -0.0640962 0.057705358 0.09876991 0.07203156 -0.044515762 0.028115997 -0.097149454
0.11157746 -0.052014865 -0.14665154 -0.0133529315 0.03866873 -0.009517023 -0.09484939 0.03280892
-0.024769887 -0.057696447 -0.029911663 0.0016435385 -0.00012370668 0.07391215 -0.10270102 0.02898903
0.016699513 -0.010305113 0.03841929 0.059809048 0.12454436 0.015861953 -0.0006290525 -0.0043944865
00000000: 14b4 e93c 2673 10bb 45ee dcba cdfc 71bd
00000010: 0804 69bd c126 3d3d 8d7a 413d 797e 8fbd
00000020: ede9 c6bd 0323 76bd d473 19bd ee68 16bd
00000030: 329a b5bd c6dc 51bd 0993 5e3d dd57 d4ba
00000040: 306c 12bd adf4 9fbd 5406 cb3c d553 113d
00000050: 56ed 983d 0c0a f3bc 267d b8bd 432d 1d3d
00000060: 7f2d 6d3d b6e7 8abd e820 533c e4bb 48bd
00000070: df22 933d ecfb 1c3d 8062 beba 2d59 c6bd
00000080: e8c8 bbbd 5164 48bd e222 8cbd b634 6fbd
00000090: cfc6 7f3d 3229 5d3d 375d 4b3d 41b3 d8bd
000000a0: fcbb 003c cadc 763c baa0 89bd 380b 8a3c
000000b0: 8ae3 1e3c f9b2 213c 46a2 103d 0b81 81bd
000000c0: 1b72 9fbd cee6 873c f2da b43d e29f 21bc
000000d0: d42e 7d3d 277b 97bc e545 a63d f6ae abbd
000000e0: ebd6 ba3c e011 ce3c a4ba bfbd 14a7 b3bc
000000f0: 6450 ffbc 6c80 aebc 4a81 a8bd cb41 b83c
00000100: 002f 173d d09b 2cbd e93e a43d 47ef 963d
00000110: c0d2 843c cbb6 813d 9dc8 e63c 1430 793c
00000120: e06a c63b 31b8 abbd 9a12 e83c 887f 8ebc
00000130: bc35 e9bd dd43 993d fe05 d6bd 2c0b a33c
00000140: 3675 603d 7de4 b0bd cae5 37bd bdb5 c7bb
00000150: 08da 9f3d 6a9b 883d 99f6 33bd d245 c43d
00000160: d2ec 183d 4c61 05bd da19 64bd 941a ac3c
00000170: 5d0a 66bd e83f 6c3d 7b6c 9f3d befa 103d
00000180: c8b1 cebd 9f8c 5f3d 46fa e7bc 55ef 16bd
00000190: b6f7 91bd c89e 9d3c 8701 1cbd 1a29 b4bb
000001a0: 152e 223d 8e54 22bd 0b05 b3bd 7dd3 643d
000001b0: 99f2 9b3d c6a3 263c 063b 223d c65c cabd
000001c0: 6124 533b b63b dcbd b955 a13d b0a0 d9bb
000001d0: 5d03 b5bd ba69 04bd eaa3 773d a7a7 8e3d
000001e0: 4841 303b 7895 93bc 3a77 18bd b706 aebc
000001f0: 0f00 62bd 77fa 7abd a2ea 0ebd 650e 8dbc
00000200: 4db8 acbd 81d1 21bd f04e 69bc 0627 373d
00000210: 2d73 73bd 7a6d b5bd 831c a23d 361a 72bd
00000220: 7e6d 213d 7e2d a53d a875 d1bd 66bf 923d
00000230: 7ffe a53d 2997 293d 27ba d7bd d8fc 27bc
00000240: ca41 a43d 3fd8 853d 096a 1abb 5597 98bd
00000250: 7214 89bd 729c 3ebd 4122 933d de79 00bd
00000260: 4292 15bc a9d5 5b3c e394 b33d 001b 98bb
00000270: 83af 163c 42a5 b03c 4e72 933d 6a1a 8ebd
00000280: ccce adbd fe43 733d c613 5f3c 80c2 8ebd
00000290: 6abd d9bd 7b8a 623d 8581 92bd b0ed 443c
000002a0: 35f5 b5bd f008 a7bd fdf8 3a3d b6f9 d23b
000002b0: d751 c0bd 9d0f 81bd d91d 183d aa84 343d
000002c0: f552 8f3d 937f a63d 6ade 36bd 8833 aebd
000002d0: a0d2 cc3c dc21 583c d547 adbd 1ee7 023b
000002e0: 585d c83c 086f 9cbd bf8a 993d 1338 67bd
000002f0: 13ed c43d 9e17 2e3d 80dc 873b 00a7 073b
00000300: 8091 8ebd 9c25 fb3c 9c31 2f3d aaf2 07bd
00000310: 81ad acbd b0e3 bfbd ed3f b8bc 9493 14bd
00000320: 056e a9bd 9735 843d c0b6 56bc 0ede 11bd
00000330: 9a19 b13c 5447 45bd af34 073d 9906 893d
00000340: d4fa 8f3d c946 2b3d 8036 8dbd 985f 2e3b
00000350: b3b8 a63d e8b0 a43d ea9d b73c 0d54 35bd
00000360: 4bef 9e3d 5ad2 0d3d de08 72bd 9270 80bd
00000370: c0b0 05bd fd9e 05be 3848 37bd d8d0 6c3d
00000380: 1e1a afbd de44 83bd 745c 6c3d e147 ca3d
00000390: 4885 933d 2956 36bd 8553 e63c 4bf6 c6bd
000003a0: b982 e43d 8a0d 55bd d22b 16be 41c6 5abc
000003b0: 1a63 1e3d 4aed 1bbc 6640 c2bd a562 063d
000003c0: 38ea cabc 1c53 6cbd 4e09 f5bc 006c d73a
000003d0: 42b7 01b9 415f 973d ea54 d2bd 677a ed3c
000003e0: 6bcd 883c c7d6 28bc 8c5d 1d3d 55fa 743d
000003f0: 1d11 ff3d edf0 813c 00e7 24ba a0ff 8fbb

fc5.bias f4 [100]
-0.047975846 -0.08039513 -0.043360315 0.14159013 0.12007034 0.07241535 0.09074813 -0.022878848
0.122575335 0.07873743 -0.021117521 0.092534825 0.0519766 -0.039146837 -0.004063738 0.040030748
0.07145385 0.18211985 -0.07921964 0.083504096 0.09634257 -0.04350441 0.049140364 0.04898233
0.10484723 0.09505227 0.07700494 0.19216856 0.036305558 -0.032929048 0.074634835 0.12461564
-0.05884138 0.07141744 0.09022 -0.18087803 0.0073265685 -0.0784973 0.12063686 0.064602695
0.117848195 0.06311339 0.0362145 0.05255695 -0.06565279 0.040209122 -0.032220323 -0.06260112
0.09878996 -0.05460061 0.09411512 0.045737263 -0.022593854 -0.0365604 0.052316368 -0.022610124
0.02708765 0.064301185 0.018437942 0.12357892 0.018249638 0.11036651 0.18054792 0.037137203
0.11766623 0.17750393 0.01980708 -0.04590199 0.18887371 -0.07184219 -0.06826042 -0.1300902
-0.013771465 0.080885336 -0.01128169 0.043457445 -0.07940426 -0.015538303 0.14453381 0.021729253
-0.1020106 0.06799564 0.14933474 -0.08123574 -0.103046305 0.19875856 0.022341948 0.051068265
0.06868402 0.057117376 0.03376315 0.06266593 -0.053386122 -0.08074671 0.055720594 0.10456603
-0.0030941186 0.06360685 0.07045427 -0.10607312
00000000: 5282 44bd 34a6 a4bd 969a 31bd 01fd 103e
00000010: 70e7 f53d 804e 943d 28da b93d 6c6c bbbc
00000020: c708 fb3d 1741 a13d a7fe acbc e682 bd3d
00000030: 6ae5 543d 6f58 20bd 1b29 85bb 48f7 233d
00000040: 6556 923d a07d 3a3e e83d a2bd 3204 ab3d
00000050: 414f c53d ae31 32bd 6847 493d b2a1 483d
00000060: 25ba d63d c4aa c23d c4b4 9d3d d6c7 443e
00000070: 23b5 143d 9ce0 06bd 26da 983d 7c36 ff3d
00000080: a903 71bd 4f43 923d 43c5 b83d 1738 39be
00000090: b613 f03b 31c3 a0bd 7510 f73d 6b4e 843d
000000a0: 655a f13d 9841 813d a855 143d f545 573d
000000b0: f874 86bd 52b2 243d 75f9 03bd 0435 80bd
000000c0: 6452 ca3d e4a4 5fbd 6ebf c03d ff56 3b3d
000000d0: bf16 b9bc 5cc0 15bd b049 563d de38 b9bc
000000e0: ebe6 dd3c 57b0 833d 2b0b 973c f216 fd3d
000000f0: 4480 953c d607 e23d 8ee1 383e 2e1d 183d
00000100: fefa f03d 97c3 353e 7542 a23c ba03 3cbd
00000110: 1c68 413e 0022 93bd 1ecc 8bbd 5e36 05be
00000120: b6a1 61bc 36a7 a53d d6d6 38bc 6f00 323d
00000130: b39e a2bd 5e94 7ebc ac00 143e 8c01 b23c
00000140: efea d0bd 4c41 8b3d 35eb 183e ec5e a6bd
00000150: f109 d3bd 5d87 4b3e 7606 b73c f52c 513d
00000160: 35aa 8c3d e9f3 693d 3b4b 0a3d ff56 803d
00000170: 68ab 5abd 885e a5bd 473b 643d b726 d63d
00000180: b2c6 4abb 4f44 823d 544a 903d dd3c d9bd

fc6.weight f4 [100, 100]
0.08334323 0.078563325 0.112588815 0.1274691 -0.040518127 -0.32499364 0.17034873 0.007628344
-0.07451947 -0.040936243 0.14837876 -0.061548036 0.10954169 0.13972035 0.14605488 -0.16478321
-0.026900787 -0.036440227 0.036161132 0.0069744624 -0.0770931 -0.27412668 0.1178575 0.1454799
0.046632707 -0.16016978 0.027838456 -0.032550838 0.06082451 0.06849437 0.08935636 0.08970778
0.21043639 -0.14258704 0.0069652707 -0.04177738 -0.04192039 0.012043746 0.14184529 -0.11126774
-0.03387671 -0.1223248 0.046355166 0.066721 0.044991102 -0.024812013 -0.087407306 0.22340302
-0.2941925 0.0791801 0.03225709 0.055803046 0.022424256 -0.090402044 0.15233144 0.11938961
0.055681042 0.074075386 -0.107496105 0.025714558 0.073830254 0.040839504 0.08868584 0.08669664
-0.12850727 -0.059212442 0.03841219 -0.107734576 -0.14159437 0.06668722 -0.3017894 -0.06334977
-0.11499307 0.09580247 0.032849222 -0.06037828 -0.36768338 0.0052773636 0.034826905 0.09506188
0.009535077 0.099780805 0.09816602 -0.028179886 0.1354952 -0.079111814 0.13848403 0.08555326
-0.10330006 0.018913036 0.09869354 0.103683755 0.14549974 0.09412256 -0.15289383 0.010451105
0.07732509 0.0197541 -0.045714818 -0.088777274 0.0130873965 0.08372404 0.035783615 0.19988884
-0.027746288 0.030578764 0.036217116 -0.032552794 0.034045927 -0.045977954 -0.091707416 0.120224014
0.023959914 -0.03419728 -0.23288512 -0.015176325 0.03759432 -0.030920576 0.024602748 -0.0071297907
0.09899416 0.014128304 -0.024126725 0.010822557 0.119187005 -0.035669338 -0.105619505 0.14509405
0.059594736 -0.021102963 -0.0036631175 0.027505156 -0.13387728 -0.061315212 -0.02130414 0.055642214
0.04583278 -0.102336146 0.15330876 0.044371262 0.052354682 0.0659068 0.05008421 0.13430594
-0.18577798 0.0012750718 -0.04793619 0.1555664 0.021233033 0.07113604 0.14790921 -0.033953533
-0.08355446 0.012658718 0.04754448 -0.21034457 -0.14870256 0.19751902 0.020242462 0.00030497884
0.097651646 -0.16604522 0.10900804 -0.0084094815 -0.04192136 0.029850561 -0.20781253 0.07875059
0.021332785 -0.15443268 -0.02970947 -0.14930609 0.13450427 0.077640995 0.06598098 -0.00725843
-0.10505253 0.020009968 0.04623911 -0.10872856 -0.1522026 -0.03889432 0.049213234 -0.31640044
0.02465651 0.09301879 -0.14036198 0.036865484 0.03176098 -0.026013901 0.044058796 -0.22045276
-0.04693287 0.11363818 -0.06262559 -0.01710066 0.13500021 0.08581091 0.1166092 0.07920168
0.018888874 0.011033164 -0.027263595 0.14218666 0.094565526 0.045050863 0.15213218 0.02305609
-0.061200745 0.13274309 -0.045798223 -0.021292208 -0.11541146 0.0050235535 -0.21761665 -0.029795485
0.14227663 0.06080536 -0.009981856 -0.029318212 0.10513063 0.008802498 0.036658466 0.113689296
0.109278016 -0.051455062 -0.05914958 0.07509402 -0.15992282 -0.013851838 0.081582144 0.01660559
0.08831988 -0.028376188 0.096155524 -0.052459568 0.0492484 0.13474041 0.026044484 0.13796495
-0.024544721 -0.0211105 -0.0033153458 -0.06491706 0.065310925 -0.10078163 0.10839462 -0.0647726
0.07810347 0.08955758 0.038931783 -0.068035826 -1.3554576e-05 -0.041401815 0.12671237 -0.048016317
00000000: dbaf aa3d cfe5 a03d f794 e63d 4287 023e
00000010: 56f6 25bd 9165 a6be e66f 2e3e 30f7 f93b
00000020: aa9d 98bd c3ac 27bd 9af0 173e cb19 7cbd
00000030: 6557 e03d da12 0f3e 698f 153e eebc 28be
00000040: 0a5f dcbc 5942 15bd b21d 143d 088a e43b
00000050: fde2 9dbd 555a 8cbe 465f f13d aff8 143e
00000060: f001 3f3d 8c03 24be 790d e43c 0754 05bd
00000070: 1f23 793d c746 8c3d 7800 b73d b6b8 b73d
00000080: a37c 573e 5602 12be ed3c e43b c21e 2bbd
00000090: b7b4 2bbd 2253 453c e43f 113e 57e0 e3bd
000000a0: 4ec2 0abd 6d85 fabd eade 3d3d 05a5 883d
000000b0: 9748 383d 9042 cbbc 9a02 b3bd c3c3 643e
000000c0: 66a0 96be 2d29 a23d 0320 043d bc91 643d
000000d0: 13b3 b73c b524 b9bd c6fc 1b3e 8a82 f43d
000000e0: ce11 643d d6b4 973d eb26 dcbd 56a7 d23c
000000f0: 5134 973d 5347 273d eca0 b53d 028e b13d
00000100: 6997 03be bf88 72bd 1a56 1d3d f2a3 dcbd
00000110: 1dfe 10be 4f93 883d 2484 9abe 86bd 81bd
00000120: 7d81 ebbd 1634 c43d e88c 063d 374f 77bd
00000130: ff40 bcbe bced ac3b a8a6 0e3d ceaf c23d
00000140: 0339 1c3c e159 cc3d 440b c93d 81d9 e6bc
00000150: 41bf 0a3e 6005 a2bd c2ce 0d3e 8c36 af3d
00000160: fb8e d3bd 83ef 9a3c d71f ca3d 2658 d43d
00000170: e2fd 143e 54c3 c03d 3390 1cbe 1d3b 2b3c
00000180: 9e5c 9e3d 5ad3 a13c 763f 3bbd dcd0 b5bd
00000190: 856c 563c 8277 ab3d d791 123d a9af 4c3e
000001a0: 2f4c e3bc 5180 fa3c 6658 143d 1456 05bd
000001b0: be73 0b3d 6153 3cbd 19d1 bbbd 0238 f63d
000001c0: 9547 c43c 7212 0cbd 7079 6ebe 1fa6 78bc
000001d0: 80fc 193d 264d fdbc b48b c93c 05a1 e9bb
000001e0: 73bd ca3d 677a 673c 69a5 c5bc 1851 313c
000001f0: 5118 f43d 031a 12bd 0a4f d8bd 8993 143e
00000200: 9c19 743d 1fe0 acbc ea10 70bb 7e52 e13c
00000210: 2017 09be a925 7bbd 0586 aebc 17e9 633d
00000220: 27bb 3b3d 9d95 d1bd f9fc 1c3e a4be 353d
00000230: dd71 563d 25fa 863d 1a25 4d3d 7f87 093e
00000240: 953c 3ebe 4f20 a73a bd58 44bd cc4c 1f3e
00000250: e6f0 ad3c c6af 913d 8375 173e dc12 0bbd
00000260: 9a1e abbd 8366 4f3c 00be 423d 9164 57be
00000270: 7c45 18be 6d42 4a3e 85d3 a53c 91e5 9f39
00000280: 96fd c73d c207 2abe 9b3f df3d ecc7 09bc
00000290: bbb5 2bbd 2a89 f43c cfcc 54be fd47 a13d
000002a0: 18c2 ae3c 9a23 1ebe 4661 f3bc b2e3 18be
000002b0: 7dbb 093e 3e02 9f3d 0921 873d 20d8 edbb
000002c0: c825 d7bd f2eb a33c 3965 3d3d 14ad debd
000002d0: 00db 1bbe a74f 1fbd d193 493d 3dff a1be
000002e0: 73fc c93c a380 be3d 0dbb 0fbe 4300 173d
000002f0: cd17 023d 1b1b d5bc ff76 343d 5ebe 61be
00000300: ae3c 40bd 22bb e83d d841 80bd af16 8cbc
00000310: 7f3d 0a3e a1bd af3d ced0 ee3d 7e34 a23d
00000320: d7bc 9a3c 72c4 343c e757 dfbc 6199 113e
00000330: 92ab c13d 4187 383d 8ac8 1b3e 20e0 bc3c
00000340: a2ad 7abd ceed 073e eb96 3bbd ff6c aebc
00000350: d85c ecbd 9f9c a43b e6d6 5ebe a915 f4bc
00000360: f7b0 113e 0b0f 793d f08a 23bc bf2c f0bc
00000370: ba4e d73d 5a38 103c 3027 163d efd5 e83d
00000380: 27cd df3d 8bc2 52bd d446 72bd e5ca 993d
00000390: cfc2 23be d2f2 62bc 8a14 a73d 7208 883c
000003a0: 0ee1 b43d 2e75 e8bc 30ed c43d d8df 56bd
000003b0: b1b8 493d 64f9 093e 3e5b d53c af46 0d3e
000003c0: 0312 c9bc edef acbc 4646 59bb 3cf3 84bd
000003d0: bcc1 853d 9966 cebd 00fe dd3d 7fa7 84bd
000003e0: b6f4 9f3d f769 b73d ef76 1f3d 5e56 8bbd
000003f0: 7668 63b7 f394 29bd e3c0 013e c2ac 44bd
