resources/pretrained_models/ik_threelink_obs4_base/weights_200/model.pth (torch_old, 294851 bytes, 18 tensors)

fc1.weight f4 [100, 20]
-0.25746617 -0.14123863 -0.066421956 0.24585868 0.13005416 -0.0049009514 -0.040525682 0.18339364
-0.07951421 0.061505552 0.017372234 -0.048586883 0.11737769 -0.036416866 -0.1986415 -0.15092625
-0.026800439 -0.11496062 -0.11583277 -0.114361204 -0.24987002 -0.29025927 -0.18171526 0.030570442
0.06563923 -0.08548404 0.003419577 0.043096695 0.08171482 0.021515004 0.079283714 0.1572527
0.14127454 -0.08474004 0.049401075 0.22857341 0.009926903 0.04099732 -0.028693456 0.11840364
0.22482346 0.009537835 -0.13668688 0.17742775 0.060425065 0.2146675 0.1710639 0.13625629
-0.048003525 0.1910873 -0.080319196 -0.19944483 -0.19079658 -0.061549075 -0.20577829 -0.10681228
0.15084356 -0.22341058 -0.06669094 -0.08501656 -0.08801365 -0.03445323 -0.21178174 0.057224374
-0.15523197 -0.16775271 0.13915564 -0.19028848 -0.1699626 -0.20335497 -0.03834907 -0.088188924
0.14117621 0.15716925 0.17550337 -0.035107322 -0.06895829 0.058686376 -0.19585001 -0.06026433
-0.08750913 -0.060372263 0.14429726 0.20497136 0.15538819 0.05056835 0.18304555 0.108485304
0.15346934 0.17468645 -0.04647828 -0.052843787 0.21664591 0.14100258 0.038387425 -0.07298384
0.10774382 0.14348434 -0.20212768 0.047374614 0.12242089 -0.104921676 -0.15500142 0.05967057
0.13384984 -0.114236 0.10501422 -0.074510336 -0.22595906 -0.027924625 0.12848224 0.07291678
0.15249224 -0.1242981 0.076171145 0.07463846 0.21333513 -0.12639277 -0.13605395 -0.003999284
-0.17388342 0.05475251 -0.21299571 -0.019447694 0.06340091 0.01609063 -0.14148329 -0.013055909
0.1179189 0.0806229 0.16998605 -0.027317608 -0.0657124 0.05368663 -0.07699083 0.17519109
-0.032838717 0.14830112 -0.19506507 -0.1861345 0.23374388 0.030450858 0.17656092 0.24157599
0.11467326 0.20159024 0.13356051 0.07622352 -0.05020155 -0.08575624 -0.16673622 -0.004282782
0.026909897 0.049368963 0.13605669 0.1979227 0.099573284 0.011464437 -0.027478198 0.11824084
-0.15451318 -0.15925738 0.13619545 0.20960265 -0.066032216 -0.1445733 -0.22529422 -0.2210952
0.010034669 0.12174711 0.026937207 -0.03685771 0.1250382 -0.2295968 0.00028236528 0.022793785
0.109305285 0.056057673 0.024631329 -0.029784635 -0.19745535 -0.051762633 -0.212521 -0.08615464
0.16312282 -0.09677809 0.06538833 -0.10811459 -0.1670726 0.06587687 -0.17279673 0.19987108
-0.13153993 -0.20110793 -0.21884821 -0.06920042 -0.11436829 0.04166701 -0.07809196 0.070475824
-0.26504675 0.07234861 0.07134739 0.024712246 -0.21033369 -0.2287277 0.013554727 -0.1340689
0.10656767 0.13656245 0.17484662 0.1574938 0.05966626 0.053891905 -0.10173033 0.062597275
-0.18608955 -0.17136586 -0.13332474 0.17513204 -0.0033127929 0.063005865 0.1652398 0.06965726
-0.2184193 0.080565155 -0.059438184 -0.096676886 -0.007981285 -0.21572313 -0.17155787 0.020716518
0.124162644 0.15269 -0.1801309 0.20777208 -0.0616993 0.21161214 0.088596374 -0.19046456
0.09401354 0.1981452 -0.14775912 0.20288773 -0.014851858 0.13236494 0.21734367 -0.15660834
0.12508604 0.21642672 -0.0006554214 0.03901177 0.0632884 -0.14758633 0.096065335 -0.04786887
00000000: 9bd2 83be dca0 10be 3c08 88bd 61c2 7b3e
00000010: eb2c 053e 2998 a0bb 42fe 25bd 8bcb 3b3e
00000020: 59d8 a2bd 3fed 7b3d 3750 8e3c 0a03 47bd
00000030: b763 f03d da29 15bd ad68 4bbe 698c 1abe
00000040: 988c dbbc 7970 ebbd bb39 edbd 3536 eabd
00000050: eddd 7fbe dd9c 94be 9113 3abe dd6e fa3c
00000060: dc6d 863d 4212 afbd fb1a 603b 2986 303d
00000070: 195a a73d 3c40 b03c 805f a23d da06 213e
00000080: 46aa 103e 308c adbd c858 4a3d 260f 6a3e
00000090: 73a4 223c ceec 273d 8a0e ebbc 9c7d f23d
000000a0: 1f38 663e 9444 1c3c a5f7 0bbe 9faf 353e
000000b0: 4680 773d ccd1 5b3e 602b 2f3e c586 0b3e
000000c0: 589f 44bd 64ac 433e 647e a4bd 443b 4cbe
000000d0: 2e60 43be e21a 7cbd 8bb7 52be 66c0 dabd
000000e0: bc76 1a3e bec5 64be 4295 88bd 2a1d aebd
000000f0: 8040 b4bd d51e 0dbd 50dd 58be 1b64 6a3d
00000100: 21f5 1ebe 5ec7 2bbe d17e 0e3e fcda 42be
00000110: ad0a 2ebe 493c 50be ea13 1dbd 659c b4bd
00000120: 7f90 103e faf0 203e 28b7 333e b2cc 0fbd
00000130: 013a 8dbd 2061 703d e88c 48be bbd7 76bd
00000140: fd37 b3bd e848 77bd a9c2 133e 03e4 513e
00000150: 151e 1f3e c220 4f3d 4b70 3b3e 8b2d de3d
00000160: 1127 1d3e 01e1 323e 0260 3ebd ba72 58bd
00000170: 6dd8 5d3e fb62 103e 223c 1d3d 8d78 95bd
00000180: cba8 dc3d 8fed 123e 8ffa 4ebe e20b 423d
00000190: ceb7 fa3d 2de1 d6bd b1b8 1ebe 2169 743d
000001a0: ef0f 093e 90f4 e9bd b211 d73d e098 98bd
000001b0: d061 67be 2fc2 e4bc d990 033e 6555 953d
000001c0: ed26 1c3e 0190 febd 9eff 9b3d 0ddc 983d
000001d0: 8674 5a3e 1b6d 01be ba51 0bbe 6d0c 83bb
000001e0: 7f0e 32be 2b44 603d 8c1b 5abe c550 9fbc
000001f0: 56d8 813d 7fd0 833c ffe0 10be 74e8 55bc
00000200: 777f f13d 9e1d a53d d310 2e3e 2dc9 dfbc
00000210: 3994 86bd 83e6 5b3d 5ead 9dbd 4b65 333e
00000220: e481 06bd 40dc 173e 23bf 47be 0b9a 3ebe
00000230: 8e5a 6f3e 1474 f93c 63cc 343e b25f 773e
00000240: d0d9 ea3d ac6d 4e3e 16c4 083e 141b 9c3d
00000250: 24a0 4dbd f8a0 afbd e6bc 2abe 9456 8cbb
00000260: 2572 dc3c 1c37 4a3d 7252 0b3e 40ac 4a3e
00000270: 14ed cb3d 55d5 3b3c f519 e1bc 4128 f23d
00000280: b438 1ebe 5e14 23be d276 0b3e 14a2 563e
00000290: e63b 87bd 060b 14be 87b3 66be c866 62be
000002a0: 7468 243c 8c56 f93d 6bab dc3c 1cf8 16bd
000002b0: 040a 003e 6c1b 6bbe 6d0a 9439 08ba ba3c
000002c0: 73db df3d bb9c 653d a4c7 c93c e8fe f3bc
000002d0: bc31 4abe 0e05 54bd 1b9f 59be d871 b0bd
000002e0: ab09 273e 9733 c6bd 51ea 853d 2f6b ddbd
000002f0: 1415 2bbe 74ea 863d a0f1 30be 01ab 4c3e
00000300: 67b2 06be 3def 4dbe bf19 60be f3b8 8dbd
00000310: ec39 eabd 07ab 2a3d adee 9fbd a155 903d
00000320: 35b4 87be 822b 943d 951e 923d 5671 ca3c
00000330: b761 57be 9837 6abe a514 5e3c 5c49 09be
00000340: 2740 da3d 07d7 0b3e fe0a 333e 0e46 213e
00000350: 9c64 743d c2bd 5c3d fe57 d0bd 0033 803d
00000360: 428e 3ebe 887a 2fbe 4886 08be d055 333e
00000370: 711b 59bb 3809 813d 9f34 293e 77a8 8e3d
00000380: 4fa9 5fbe 58ff a43d 7475 73bd 88fe c5bd
00000390: f0c3 02bc 86e6 5cbe deac 2fbe b0b5 a93c
000003a0: fc48 fe3d c45a 1c3e 3c74 38be 34c2 543e
000003b0: 68b8 7cbd dab0 583e 0472 b53d 2409 43be
000003c0: 2c8a c03d 93e6 4a3e 2b4e 17be cdc1 4f3e
000003d0: 3555 73bc ad8a 073e 578f 5e3e f05d 20be
000003e0: 8e16 003e f79e 5d3e 96d0 2bba ceca 1f3d
000003f0: 599d 813d df20 17be e7bd c43d 2612 44bd

fc1.bias f4 [100]
0.028900402 0.2208404 -0.24984239 -0.14696313 0.120509826 0.09605163 0.051326428 0.019131921
0.17884521 0.19343214 0.0014358648 0.02958793 0.17186533 0.18655306 0.13286015 -0.1335809
-0.102406114 0.23717509 0.16278653 -0.12043165 0.08856323 0.13715802 -0.19916563 0.12074011
-0.17218807 0.09752994 0.18400458 -0.08561665 0.07577743 -0.0466703 0.07314805 -0.01775392
-0.12751882 0.22860421 0.0610951 -0.16195124 0.14550549 -0.0054702624 -0.038950182 -0.034811847
-0.20201103 -0.008927788 -0.07351145 -0.03194879 0.17243195 0.10963973 0.18777108 -0.031489734
0.06559842 0.074634954 -0.25045022 0.19636087 0.112218104 -0.18465197 0.02717047 0.20048645
-0.18653655 0.10864039 0.07862766 0.029124683 0.20979553 0.18726355 -0.040918864 -0.10177333
-0.001508764 0.07244286 0.24316797 0.120397344 0.28810665 0.12724817 -0.0068142083 0.2093645
0.003337026 0.09373219 -0.09563936 -0.2256634 0.19448188 -0.07048875 -0.23183289 -0.08116021
-0.14784472 -0.11714217 -0.098200694 0.14743184 -0.1307474 0.2346187 0.18036185 -0.1171567
0.22677453 0.18174861 -0.17220347 -0.16894388 -0.1260026 0.087335825 0.14848563 0.26666725
0.08491659 -0.20986639 -0.022648595 -0.111509815
00000000: 89c0 ec3c fc23 623e afd6 7fbe 817d 16be
00000010: dbcd f63d b8b6 c43d a93b 523d 8cba 9c3c
00000020: 3323 373e 1313 463e a133 bc3a 6362 f23c
00000030: 77fd 2f3e c407 3f3e 7e0c 083e 6ec9 08be
00000040: 4cba d1bd 07de 723e 83b1 263e dea4 f6bd
00000050: a460 b53d 2773 0c3e 13f2 4bbe 9746 f73d
00000060: 1252 30be c7bd c73d b26b 3c3e c857 afbd
00000070: 3231 9b3d 5b29 3fbd a5ce 953d ab70 91bc
00000080: 4b94 02be 3917 6a3e db3e 7a3d 8cd6 25be
00000090: 64ff 143e e33f b3bb 3a8a 1fbd de96 0ebd
000000a0: fbdb 4ebe db45 12bc 2c8d 96bd bcdc 02bd
000000b0: 0092 303e cb8a e03d 1047 403e 61fb 00bd
000000c0: 7758 863d 36da 983d 033b 80be d312 493e
000000d0: 9bd2 e53d 6815 3dbe 9b94 de3c 524c 4d3e
000000e0: 7003 3fbe da7e de3d 8a07 a13d e396 ee3c
000000f0: a4d4 563e 04c2 3f3e 8a9a 27bd 896e d0bd
00000100: b8c1 c5ba ec5c 943d 0601 793e e292 f63d
00000110: b782 933e 584d 023e b949 dfbb a663 563e
00000120: 02b2 5a3b aaf6 bf3d 92de c3bd 4e14 67be
00000130: 4226 473e 685c 90bd 9a65 6dbe 5337 a6bd
00000140: 9b64 17be 3ce8 efbd 721d c9bd 5ff8 163e
00000150: a5e2 05be e23f 703e c7b0 383e daef efbd
00000160: 9537 683e 4f1c 3a3e 1b56 30be a0ff 2cbe
00000170: d306 01be 20dd b23d 9e0c 183e 9c88 883e
00000180: c0e8 ad3d 37e7 56be 8c89 b9bc 425f e4bd

fc2.weight f4 [100, 100]
-0.09315947 -0.0936565 0.08624111 -0.025296012 -0.081130646 0.010134437 -0.036237 0.058202557
-0.0690584 0.0013697448 0.10558479 0.02546174 -0.082903385 -0.07313395 -0.088843346 0.08028983
0.042820804 -0.10548928 -0.09637538 -0.04132978 -0.046148267 0.041423548 0.05589842 0.10243814
0.009573061 0.013049965 0.007916115 0.030112512 -0.12521903 0.0458045 0.09960794 -0.055557076
0.06162623 0.033523917 -0.078783736 -0.081434354 0.0021187565 0.06565754 -0.079721704 0.050103176
0.0720735 -0.18598936 -0.016959563 -0.08781729 0.07804632 -0.03300363 -0.040741827 -0.0629934
-0.061736945 -0.039850637 0.02322419 -0.038349416 -0.053879187 -0.038804986 -0.035712544 -0.024333611
-0.05662599 -0.010276195 -0.009740345 0.033225037 -0.019720629 -0.10770208 0.0069813333 -0.08612156
-0.0034589877 -0.005095051 0.044841398 -0.013415166 0.029436942 0.011521915 -0.04772083 -0.11459096
0.062605746 0.027025897 -0.07820339 -0.06206486 0.09238444 0.05083419 0.0682334 -0.021767523
-0.0486945 0.0112992525 -0.041699983 -0.010159144 0.052295335 -0.069111675 0.035962593 -0.08951181
0.01043063 -0.06927238 0.07687531 0.12313382 0.050722606 0.05350896 0.019038282 -0.011881257
-0.09809811 0.054797616 9.159744e-05 0.005218499 -0.011989805 0.1244522 -0.0705028 0.06303313
0.11163478 -0.05119051 0.09318108 0.040779866 0.09972161 0.10442256 0.08411778 -0.02848214
0.109545335 -0.05257752 0.123607956 -0.06582707 0.030089237 -0.31079048 0.0030470728 -0.06814836
-0.09556167 0.016108012 -0.008566641 0.06897109 -0.025141278 0.043329313 -0.1844567 -0.080304906
0.13348195 -0.014426333 0.09091408 0.012364213 -0.096535705 -0.2557921 -0.086933054 0.034530267
0.012554316 0.027444331 0.013967647 0.08200998 0.07543978 0.12887906 0.019237574 0.01805389
-0.028723495 0.12100916 0.026654929 0.016018402 0.065872625 -0.0642254 0.0055768867 0.090387486
-0.080207005 -0.06406455 0.024913274 0.02467848 -0.03223996 -0.09826878 0.118623056 0.11667597
-0.021135353 0.09476501 -0.009810163 0.006164849 -0.5065118 -0.013932294 0.04960302 -0.12146735
-0.27921227 0.11227627 -0.010409645 0.04471017 -0.07501139 -0.08089852 -0.22341299 -0.09080315
0.11012075 0.092373215 -0.0932991 0.05437318 0.039873883 0.031461485 -0.047228348 -0.09562834
0.05061027 0.019358732 0.020621553 0.054506842 0.09962095 0.10314062 0.03165826 0.040603846
0.022406647 0.09388114 0.019353293 -0.23982017 -0.3609657 -0.14200768 0.07033063 -0.07840168
0.10230917 0.033034828 -0.034114715 0.12406634 -0.036953613 0.08540488 0.06853463 -0.040689964
-0.07414252 0.06770813 -0.15257291 0.0134788295 -0.05344277 -0.13427888 -0.13223279 0.07775199
0.04291355 -0.224329 0.040073983 -0.018098358 -0.001963929 0.053644348 -0.0053152447 0.106949665
0.076473005 0.12094241 -0.123242326 -0.0911291 -0.040942766 0.08059917 -0.006466654 -0.046428535
-0.022859456 -0.21514946 -0.057443343 0.07342688 0.06597181 0.040055167 0.033475515 -0.16236682
0.09298203 -0.12888104 0.10796789 0.043562286 -0.05087217 0.039296843 -0.07246109 -0.045091964
0.096999004 0.11310315 0.048963528 0.13319589 0.02498406 -0.07848219 0.12197871 -0.255913
00000000: 64ca bebd fbce bfbd 2e9f b03d 9539 cfbc
00000010: d327 a6bd e90a 263c 406d 14bd ce65 6e3d
00000020: 7e6e 8dbd 0289 b33a d73c d83d 2495 d03c
00000030: 40c9 a9bd 41c7 95bd 80f3 b5bd ff6e a43d
00000040: de64 2f3d c30a d8bd 7560 c5bd 6a49 29bd
00000050: f705 3dbd bdab 293d bef5 643d 16cb d13d
00000060: 54d8 1c3c 85cf 553c 98b2 013c 84ae f63c
00000070: 6b39 00be 809d 3b3d 3fff cb3d d18f 63bd
00000080: c96b 7c3d 6050 093d 5e59 a1bd 0ec7 a6bd
00000090: d6da 0a3b 7677 863d 2245 a3bd fd38 4d3d
000000a0: 459b 933d ff73 3ebe c8ee 8abc 8dd9 b3bd
000000b0: c0d6 9f3d d02e 07bd e7e0 26bd af02 81bd
000000c0: e1df 7cbd 6c3a 23bd a840 be3c 4714 1dbd
000000d0: 6cb0 5cbd faf1 1ebd 5147 12bd 4857 c7bc
000000e0: a7f0 67bd 7c5d 28bc f895 1fbc fa16 083d
000000f0: 288d a1bc e892 dcbd abc3 e43b 8060 b0bd
00000100: 2fb0 62bb 63f4 a6bb 9dab 373d 49cb 5bbc
00000110: be25 f13c 6ac6 3c3c eb76 43bd aaae eabd
00000120: 7137 803d 6a65 dd3c 1929 a0bd b937 7ebd
00000130: 0e34 bd3d 8337 503d f4bd 8b3d ce51 b2bc
00000140: e273 47bd 8020 393c 9acd 2abd 8a72 26bc
00000150: a233 563d 6c8a 8dbd 834d 133d f851 b7bd
00000160: 3ce5 2a3c adde 8dbd cd70 9d3d 962d fc3d
00000170: 82c2 4f3d 362c 5b3d 2cf6 9b3c 9ba9 42bc
00000180: a9e7 c8bd 7773 603d 0018 c038 f1ff aa3b
00000190: e370 44bc cce0 fe3d c663 90bd 8317 813d
000001a0: c7a0 e43d 24ad 51bd b9d5 be3d ca08 273d
000001b0: d83a cc3d 7fdb d53d f145 ac3d 6053 e9bc
000001c0: 4e59 e03d 875b 57bd 2b26 fd3d 58d0 86bd
000001d0: b47d f63c ee1f 9fbe 66b1 473b 5e91 8bbd
000001e0: d6b5 c3bd f3f4 833c 195b 0cbc b740 8d3d
000001f0: 15f5 cdbc 147a 313d 38e2 3cbe e676 a4bd
00000200: 7eaf 083e 6d5c 6cbc 2931 ba3d 4593 4a3c
00000210: 83b4 c5bd 2ff7 82be f509 b2bd 9c6f 0d3d
00000220: 9eb0 4d3c efd2 e03c 8fd8 643c d9f4 a73d
00000230: 2c80 9a3d dff8 033e 1e98 9d3c c0e5 933c
00000240: 894d ebbc a7d3 f73d 705b da3c 0639 833c
00000250: 3ae8 863d 9b88 83bd 51be b63b 131d b93d
00000260: 9243 a4bd 4634 83bd ec16 cc3c 862a ca3c
00000270: 0c0e 04bd 2441 c9bd a5f0 f23d d0f3 ee3d
00000280: 0c24 adbc 2814 c23d ceba 20bc 8002 ca3b
00000290: c2aa 01bf 4744 64bc 892c 4b3d e0c3 f8bd
000002a0: e9f4 8ebe 1af1 e53d 378d 2abc 0322 373d
000002b0: 929f 99bd 20ae a5bd 60c6 64be 00f7 b9bd
000002c0: fd86 e13d 2b2e bd3d 9913 bfbd 69b6 5e3d
000002d0: cc52 233d c2dd 003d 8372 41bd cbd8 c3bd
000002e0: b74c 4f3d 3496 9e3c 88ee a83c 9142 5f3d
000002f0: 1206 cc3d 643b d33d 17ac 013d 3850 263d
00000300: 258e b73c c144 c03d cc8a 9e3c 6b93 75be
00000310: 7fd0 b8be 766a 11be 8109 903d 0f91 a0bd
00000320: 7887 d13d 874f 073d dfbb 0bbd 7e16 fe3d
00000330: ac5c 17bd c1e8 ae3d e25b 8c3d 85aa 26bd
00000340: 09d8 97bd 8faa 8a3d 133c 1cbe 4fd6 5c3c
00000350: cee6 5abd 6780 09be 0868 07be 6f3c 9f3d
00000360: 1ec6 2f3d 80b6 65be 9e24 243d 0243 94bc
00000370: 43b5 00bb 2dba 5b3d 812b aebb 6d08 db3d
00000380: e19d 9c3d a7b0 f73d 7966 fcbd e5a1 babd
00000390: 9ab3 27bd 2d11 a53d 3ae6 d3bb d92b 3ebd
000003a0: c143 bbbc 2450 5cbe b649 6bbd d560 963d
000003b0: 3a1c 873d e310 243d 9f1d 093d 7d43 26be
000003c0: 5d6d be3d 64f9 03be 451e dd3d 5e6e 323d
000003d0: 565f 50bd baf5 203d 7b66 94bd 5ab2 38bd
000003e0: 6aa7 c63d a0a2 e73d fb8d 483d 8164 083e
000003f0: 5fab cc3c 45bb a0bd f9cf f93d 0707 83be

fc2.bias f4 [100]
-0.00024550818 -0.008013812 0.10824871 -0.10099649 0.04736356 0.08319019 0.06494032 -0.10133105
0.0053530033 -0.016053317 0.02117846 0.07120164 -0.031158142 -0.016232602 0.05736846 0.048591405
0.063953124 0.075797 0.032096345 -0.05233585 0.09694984 -0.097201884 0.0830081 0.07788432
0.09119227 -0.09118077 0.03948219 -0.07904394 -0.032809757 0.030831879 0.059719525 -0.012506879
0.047990583 0.02869481 0.049300056 0.0657002 0.013483526 0.011256136 0.05136668 -0.033202697
-0.051835615 0.043310024 -0.03147997 -0.08591205 0.010797746 0.089409254 0.069761366 -0.049446557
-0.08342457 0.060928956 -0.0058171027 -0.03414183 -0.023448339 -0.068710186 -0.09986158 0.115716234
0.013108877 0.025247158 -0.05111893 -0.010621525 0.11877223 -0.045088828 -0.017194333 -0.0402153
-0.044422146 -0.023577996 0.058150053 0.002257337 0.07160491 0.07631216 -0.08740483 0.041012213
0.042245578 -0.10701652 0.029389784 -0.051151995 0.011061702 0.06760434 0.11378074 -0.030856458
0.11637804 -0.04774384 0.018220177 0.040800914 -0.0023053663 0.1270228 0.016761832 0.07880727
-0.07994423 0.097662754 0.04133003 0.12567697 0.032840703 0.12003324 0.039830998 0.07924883
-0.108709335 0.0562372 0.0052485736 0.04953162
00000000: 8db7 80b9 5d4c 03bc 80b1 dd3d 3fd7 cebd
00000010: 4b00 423d 9e5f aa3d 6eff 843d a786 cfbd
00000020: 3f68 af3b 3f82 83bc 737e ad3c 2ad2 913d
00000030: 5c3f ffbc 3cfa 84bc 31fb 6a3d c807 473d
00000040: dbf9 823d 753b 9b3d 7577 033d 1e5e 56bd
00000050: a38d c63d c811 c7bd 2700 aa3d d081 9f3d
00000060: 03c3 ba3d fcbc babd 14b8 213d cae1 a1bd
00000070: 8663 06bd 2393 fc3c 769c 743d a7e9 4cbc
00000080: c691 443d 6111 eb3c dbee 493d d48d 863d
00000090: 02ea 5c3c a86b 383c de65 523d 8dff 07bd
000000a0: 9551 54bd da65 313d 24f1 00bd a8f2 afbd
000000b0: 07e9 303c 331c b73d 0cdf 8e3d 7988 4abd
000000c0: 80da aabd a490 793d 659d bebb 4ed8 0bbd
000000d0: bb16 c0bc edb7 8cbd 3a84 ccbd a2fc ec3d
000000e0: 9ec6 563c 21d3 ce3c 1562 51bd e805 2ebc
000000f0: db3e f33d 10af 38bd 21db 8cbc ccb8 24bd
00000100: fff3 35bd a426 c1bc c02e 6e3d d5ef 133b
00000110: 98a5 923d 8d49 9c3d 4e01 b3bd 6cfc 273d
00000120: b309 2d3d 7a2b dbbd d8c2 f03c c184 51bd
00000130: 243c 353c 2574 8a3d e005 e93d afc6 fcbc
00000140: 9c57 ee3d 0b8f 43bd 7b42 953c dc1e 273d
00000150: a115 17bb 4412 023e 1c50 893c b565 a13d
00000160: cdb9 a3bd 6903 c83d ad49 293d 77b1 003e
00000170: f983 063d fdd3 f53d d425 233d 364d a23d
00000180: 00a3 debd fa58 663d 3afc ab3b abe1 4a3d

fc3.weight f4 [100, 100]
-0.050516717 0.0718993 0.008591217 0.024912434 0.0551755 -0.042652693 -0.0037312799 -0.10271598
0.19603325 -0.11317969 0.14109765 -0.15336591 0.057051547 0.13160694 -0.07181188 0.07944699
0.047951378 -0.034770288 -0.049328033 0.038483284 0.11677571 0.023253774 0.06517311 -0.052990526
0.014451048 -0.02456878 -0.07161389 0.059153818 0.08789798 0.0013255115 0.01749113 0.043733653
0.08058869 0.04861305 0.073303014 0.04270982 0.031100009 0.093133345 0.012785398 0.06318246
0.0068047233 -0.019520104 0.088892855 -0.08836283 0.07309539 0.028028857 0.09112624 -0.08317181
0.02108325 0.0027833616 -0.044528212 -0.120635055 -0.009849837 0.025136076 -0.07346519 0.20922457
-0.010740824 0.2428632 0.11067121 0.08055795 0.07980118 0.030255005 -0.052903265 0.12728517
0.008046299 0.034943912 -0.018366426 -0.062114086 0.008532758 0.09843347 0.11597409 0.15987071
0.044392355 0.06499417 -0.017975427 0.018658534 -0.0010807939 -0.19533648 0.011927648 -0.06776282
0.068984255 -0.05819669 0.12378009 0.060312808 0.015861535 -0.018354036 -0.0644717 -0.016200313
0.049383603 0.07040313 -0.022936834 0.07015892 -0.034055192 0.09433492 -0.034458846 0.15459675
-0.060259305 0.15813865 0.062054183 -0.029929694 0.09426547 0.08157096 -0.014663622 0.04401005
-0.03459029 0.085956715 0.0011912957 -0.026917674 -0.0866154 -0.092660345 0.067041464 0.04615485
-0.04436716 -0.0387952 -0.07018379 -0.06577126 -0.046070088 0.027974404 -0.08635811 0.007722594
-0.08680618 -0.052729644 0.066549666 -0.03781277 -0.020318046 0.04082147 -0.021299504 -0.01120995
0.0015082508 0.057617433 0.029828347 0.0813979 -0.017380215 0.012998506 -0.03265152 -0.055416834
-0.054728985 -0.047279656 0.053595386 0.015799776 -0.02889458 -0.068196744 0.020038031 0.06610293
-0.0707279 -0.09362122 0.013992384 0.07961967 0.08614781 -0.08302264 0.011224344 0.08229389
0.09701342 0.01736705 -0.009892002 -0.001827322 -0.09143623 0.08801163 -0.08146373 -0.018742725
-0.0134039745 -0.0739366 -0.089513995 -0.03723167 0.07583875 -0.038378667 0.020919524 0.05010385
-0.0037720948 -0.062004007 0.08491007 -0.049192645 -0.06526361 0.028578453 -0.09020325 0.031448536
0.05814407 0.010252193 -0.048257004 0.035907827 0.09636132 0.027822636 -0.08665252 0.059827603
0.097929426 -0.050267577 0.0690841 -0.043568302 -0.052506577 -0.03387977 0.020724714 -0.035284497
0.09452013 -0.06708381 -0.07748859 0.01372838 0.09045165 -0.059969284 -0.07360361 0.030421503
0.05175853 0.054200865 0.087688595 0.0069174864 0.1165764 0.14230363 0.08400654 0.10411595
-0.016156757 -0.06472083 -0.007988355 -0.117393166 -0.21488546 0.024426742 0.050159924 0.042314883
0.08604584 -0.07041161 0.104403205 -0.09601759 0.10390013 0.0435523 -0.04388474 -0.05412458
-0.052978054 0.15219875 0.09125457 -0.068143204 0.11531108 -0.030050667 0.060534336 -0.07314298
0.0104095 0.050790932 0.019508388 -0.0560251 -0.049743433 -0.048185784 0.05191127 0.12418308
0.10601845 0.096783616 0.0923812 -0.12677313 0.10175434 -0.049411543 -0.09325857 -0.048258528
0.041213505 0.041713357 0.020268949 0.041206162 -0.015074537 -0.059418526 -0.015859053 -0.08772714
00000000: 9eea 4ebd f13f 933d 2dc2 0c3c 2915 cc3c
00000010: b5ff 613d 97b4 2ebd 7d88 74bb c15c d2bd
00000020: f1bc 483e c1ca e7bd e77b 103e f40b 1dbe
00000030: e2ae 693d f8c3 063e 1b12 93bd 1ab5 a23d
00000040: aa68 443d 4a6b 0ebd 310c 4abd a6a0 1d3d
00000050: 1a28 ef3d b37e be3c 7b79 853d 980c 59bd
00000060: 17c4 6c3c 7744 c9bc 4eaa 92bd 464b 723d
00000070: db03 b43d c9bc ad3a 8f49 8f3c 0f22 333d
00000080: af0b a53d 7a1e 473d e41f 963d 7ef0 2e3d
00000090: 72c5 fe3c b2bc be3d d979 513c ce65 813d
000000a0: 28fa de3b a0e8 9fbc 750d b63d 92f7 b4bd
000000b0: 09b3 953d c69c e53c 65a0 ba3d fb55 aabd
000000c0: c8b6 ac3c 0f69 363b 3763 36bd 830f f7bd
000000d0: 3661 21bc 2cea cd3c eb74 96bd f73e 563e
000000e0: 48fa 2fbc 21b1 783e 96a7 e23d 91fb a43d
000000f0: cd6e a33d 58d9 f73c 18b1 58bd 0b57 023e
00000100: a0d4 033c 5921 0f3d 3075 96bc 576b 7ebd
00000110: fbcc 0b3c 7d97 c93d d383 ed3d 26b5 233e
00000120: c2d4 353d aa1b 853d 3441 93bc c8d9 983c
00000130: 6da9 8dba 4906 48be 2f6c 433c 3cc7 8abd
00000140: 9e47 8d3d a75f 6ebd 6a80 fd3d 900a 773d
00000150: 0df0 813c 345b 96bc bd09 84bd 85b6 84bc
00000160: 7646 4a3d 842f 903d 07e6 bbbc 7baf 8f3d
00000170: 757d 0bbd ab32 c13d b824 0dbd 9c4e 1e3e
00000180: 76d2 76bd 19ef 213e 872c 7e3d 1e2f f5bc
00000190: 410e c13d ad0e a73d b03f 70bc e243 343d
000001a0: 8cae 0dbd 130a b03d 4025 9c3a 7482 dcbc
000001b0: 6a63 b1bd b5c4 bdbd 094d 893d de0c 3d3d
000001c0: 57ba 35bd b7e7 1ebd 85bc 8fbd 15b3 86bd
000001d0: fdb3 3cbd 942a e53c 85dc b0bd d00d fd3b
000001e0: 70c7 b1bd 0afb 57bd 314b 883d 90e1 1abd
000001f0: 0872 a6bc 6a34 273d 4c7c aebc f0a9 37bc
00000200: 80b0 c53a 4200 6c3d 945a f43c f1b3 a63d
00000210: f460 8ebc b0f7 543c 9abd 05bd c3fc 62bd
00000220: 802b 60bd 50a8 41bd d686 5b3d 886e 813c
00000230: 54b4 ecbc bcaa 8bbd cc26 a43c f960 873d
00000240: cad9 90bd 7bbc bfbd 5040 653c a30f a33d
00000250: 436e b03d c607 aabd 50e6 373c b389 a83d
00000260: f9ae c63d 5845 8e3c 1012 22bc c082 efba
00000270: eb42 bbbd 713f b43d 75d6 a6bd 588a 99bc
00000280: 589c 5bbc 126c 97bd 1d53 b7bd 3c80 18bd
00000290: 5951 9b3d f332 1dbd 6c5f ab3c b239 4d3d
000002a0: 4035 77bb eaf7 7dbd 55e5 ad3d 3a7e 49bd
000002b0: eda8 85bd 5c1d ea3c 7bbc b8bd 2ed0 003d
000002c0: 7a28 6e3d d0f8 273c 23a9 45bd 1614 133d
000002d0: 1559 c53d 4cec e33c e076 b1bd ca0d 753d
000002e0: 398f c83d 60e5 4dbd f77b 8d3d ad74 32bd
000002f0: 2311 57bd 84c5 0abd e0c6 a93c 7a86 10bd
00000300: c593 c13d 3d63 89bd 56b2 9ebd 00ed 603c
00000310: b73e b93d 5aa2 75bd 7dbd 96bd 8436 f93c
00000320: c100 543d ba01 5e3d 1496 b33d 15ac e23b
00000330: 9cbf ee3d 0bb8 113e 9f0b ac3d be3a d53d
00000340: 2d5b 84bc 5b8c 84bd 97e1 02bc d46b f0bd
00000350: ef0a 5cbe 971a c83c 7e74 4d3d 5f52 2d3d
00000360: cd38 b03d f633 90bd 59d1 d53d dfa4 c4bd
00000370: 97c9 d43d e663 323d 7cc0 33bd bcb1 5dbd
00000380: 84ff 58bd fdd9 1b3e ade3 ba3d aa8e 8bbd
00000390: 3728 ec3d d12c f6bc daf2 773d fdcb 95bd
000003a0: 9c8c 2a3c 270a 503d 0ed0 9f3c 937a 65bd
000003b0: c5bf 4bbd 755e 45bd e9a0 543d b353 fe3d
000003c0: 3320 d93d 7d36 c63d 5b32 bd3d d1d0 01be
000003d0: 9464 d03d c263 4abd 59fe bebd bcaa 45bd
000003e0: 7ecf 283d a0db 2a3d 110b a63c cbc7 283d
000003f0: 31fb 76bc d760 73bd d8ea 81bc 49aa b3bd

fc3.bias f4 [100]
-0.020421006 -0.07453507 -0.018578352 0.020539746 -0.09598936 -0.004988216 -0.075772226 0.061181977
0.12737696 0.01183374 0.12669514 0.08135726 0.072204575 0.012229906 0.09617604 0.12715249
-0.004096956 0.011425186 0.098772466 0.01696478 0.088545 0.10799588 -0.008590371 -0.010350727
-0.038032908 0.026060255 -0.07127899 -0.034219176 0.028261302 0.043562017 -0.03248286 0.011516504
-0.06583637 0.07084646 0.16201192 0.11138 -0.004998179 -0.034094147 0.037922285 0.015596325
0.037064824 -0.10308326 0.08498435 0.016906165 0.022502713 0.010618875 -0.09241246 0.0044338205
-0.05838529 0.035708502 -0.03418311 -0.07001665 0.046110746 0.07836519 -0.099743366 0.07961906
-0.099234045 -0.107482 0.033629756 0.005964123 -0.070596375 0.01967705 0.014809969 -0.062329736
0.04934657 -0.060392093 0.07719179 0.033809144 0.048947535 0.03913353 -0.08273812 -0.08709496
-0.007489306 0.021416446 -0.023893552 0.09588576 0.08344267 0.055195358 -0.06543611 0.093872376
0.09698189 -0.07421016 0.03548099 -0.057980098 -0.055799328 0.11726122 0.062489524 -0.083791874
-0.08008885 0.11895478 0.14685303 -0.049324334 -0.08698559 -0.009454006 0.0047208075 -0.048960987
-0.18659504 0.057931986 0.015230698 0.12057552
00000000: f449 a7bc d8a5 98bd a131 98bc f842 a83c
00000010: 1296 c4bd 3074 a3bb 782e 9bbd f499 7a3d
00000020: 1b6f 023e 4ee2 413c 5fbc 013e a39e a63d
00000030: fedf 933d f25f 483c f2f7 c43d 4334 023e
00000040: c23f 86bb b430 3b3c 3849 ca3d b9f9 8a3c
00000050: 1557 b53d f22c dd3d a1be 0cbc 1896 29bc
00000060: 65c8 1bbd 517c d53c b8fa 91bd 6829 0cbd
00000070: 3f84 e73c 166e 323d bf0c 05bd b8af 3c3c
00000080: 38d5 86bd f317 913d 74e6 253e 331b e43d
00000090: c4c7 a3bb 4ea6 0bbd 6654 1b3d ba87 7f3c
000000a0: 49d1 173d 511d d3bd 460c ae3d cc7e 8a3c
000000b0: 9c57 b83c cafa 2d3c be42 bdbd 9549 913b
000000c0: 6a25 6fbd 1443 123d 9703 0cbd e464 8fbd
000000d0: 9fde 3c3d ee7d a03d 4046 ccbd 510f a33d
000000e0: 383b cbbd 861f dcbd 5bbf 093d b16e c33b
000000f0: d594 90bd c431 a13c 83a5 723c 774d 7fbd
00000100: a11f 4a3d b35d 77bd bb16 9e3d 757b 0a3d
00000110: 367d 483d 7b4a 203d 9a72 a9bd d85e b2bd
00000120: da68 f5bb 8b71 af3c 69bc c3bc c15f c43d
00000130: fee3 aa3d 8714 623d 5e03 86bd 2940 c03d
00000140: 719e c63d 7ffb 97bd 8454 113d 8a7c 6dbd
00000150: d68d 64bd a726 f03d 04f5 7f3d 139b abbd
00000160: 9f05 a4bd 909e f33d a460 163e 5008 4abd
00000170: 8025 b2bd fae4 1abc 01b1 9a3b 518b 48bd
00000180: c512 3fbe 174a 6d3d 2d8a 793c 4cf0 f63d

fc4.weight f4 [100, 100]
-0.15741213 -0.04330057 -0.12110701 -0.017523559 0.038339697 -0.026030168 -0.07363515 -0.0006060634
-0.0830642 -0.082359545 0.07790109 0.04229426 0.07241868 -0.060363404 0.072694354 0.08723757
0.08748873 0.09053094 -0.108416595 0.07274802 0.080892965 0.07907232 -0.12814505 0.0039838837
-0.013022929 -0.06128666 -0.06279233 0.030148445 0.10828171 -0.03187819 0.12232444 -0.045872673
-0.02244266 0.065349564 -0.0049609365 0.04471207 -0.072519585 0.014056652 -0.084547885 -0.10745674
0.02372492 -0.08120921 0.049560983 0.07814165 -0.03684197 -0.031208606 0.02611793 -0.1300093
0.073800564 -0.0957225 -0.06256809 -0.08395868 -0.26282287 -0.22390373 -0.09278242 0.049372535
0.004384163 -0.070429645 -0.08423587 -0.06906545 -0.069245726 0.06365196 0.0021089306 0.06505499
0.0016247182 0.033435397 0.0053478517 -0.18537161 0.07850974 0.032937855 0.11578791 -0.021212213
-0.20949385 0.014091035 -0.03387998 -0.12115663 0.040379327 -0.116183124 0.06734166 0.03607629
-0.2270544 0.00062627177 0.06308092 -0.22733378 -0.18042034 0.06935351 -0.0655641 -0.06658587
-0.13584119 -0.11062439 -0.027293537 -0.06847751 -0.09429618 0.07749715 -0.03420465 0.09780971
-0.16037665 -0.18294843 -0.08029591 -0.060435046 0.075157374 0.09929865 -0.09476266 0.03931552
-0.051987756 -0.04197659 0.011057288 -0.028299127 0.08373091 0.18932123 0.05999369 -0.017648771
0.004760335 0.108174555 0.1133534 -0.007716846 -0.0747421 -0.06916203 -0.024899589 0.025843216
0.065347254 -0.0033810462 0.018562691 0.09565927 0.12850276 -0.07274034 0.13386811 0.1141457
0.03513237 0.07076346 0.04151321 -0.022046437 -0.003580876 -0.0106021855 -0.051590662 -0.010932394
0.09015753 0.16644746 0.015244553 0.04185093 -0.056857258 -0.045065146 0.06888359 0.029124219
-0.030372422 0.12823682 0.081259556 0.030599529 0.18266341 -0.049062964 0.1443806 -0.0020269607
0.012148762 0.015388706 -0.02821131 0.10024418 0.09690684 -0.007202962 -0.08016997 0.0004360216
0.08222473 -0.020683113 0.030916877 -0.09357477 0.006289223 -0.045800783 -0.08498174 0.010559995
0.0053710784 0.085574284 -0.0032133234 0.13584465 0.20927536 0.07075007 -0.029610181 0.068243116
-0.09805916 0.009300369 0.10064755 -0.023166109 -0.15202944 -0.065485954 0.34664488 0.008415314
0.081211515 0.005855108 0.07240772 0.084055476 0.14320952 0.06949748 -0.07122657 -0.014237006
-0.036035508 -0.06891194 0.043343626 0.07475601 0.25956887 -0.10911584 -0.037104275 0.10917149
-0.0028262287 0.08497249 0.05063956 -0.04929852 0.04800696 0.06753517 -0.10211157 0.096080355
-0.07737328 0.05677286 0.02321177 0.008994406 -0.05079921 -0.010949306 -0.07311878 -0.047884937
0.08213274 0.026331754 -0.04898799 -0.017099032 0.042110294 0.022556018 0.009729302 0.020082297
-0.01015423 0.008803675 0.077299036 0.05220466 0.08154419 0.0015637197 -0.038285475 -0.035704568
0.0036055867 0.05351047 -0.076835044 -0.072319515 0.0036818737 -0.090943635 -0.059466578 -0.001763021
0.07990561 0.09001029 -0.09272348 -0.07816709 -0.057117358 0.0986775 -0.12622863 -0.12535772
-0.08963715 0.051702768 0.07664919 -0.05714847 -0.15789814 -0.15506092 0.06596665 -0.085360326
00000000: a530 21be f05b 31bd f406 f8bd 918d 8fbc
00000010: 160a 1d3d 383d d5bc 07ce 96bd 3ae0 1eba
00000020: 901d aabd 1fac a8bd 9b8a 9f3d bf3c 2d3d
00000030: 3f50 943d 9e3f 77bd c7e0 943d 9ca9 b23d
00000040: 4b2d b33d 4968 b93d 8509 debd eafc 943d
00000050: 36ab a53d abf0 a13d 7538 03be 3d8b 823b
00000060: 205e 55bc b907 7bbd 4499 80bd dff9 f63c
00000070: cdc2 dd3d b492 02bd 3c85 fa3d fce4 3bbd
00000080: abd9 b7bc fed5 853d 5a8f a2bb 0124 373d
00000090: 2685 94bd df4d 663c 7127 adbd 4812 dcbd
000000a0: c35a c23c 0451 a6bd 7500 4b3d bb08 a03d
000000b0: 9be7 16bd 31a9 ffbc 45f5 d53c 2821 05be
000000c0: c024 973d 280a c4bd b323 80bd 87f2 abbd
000000d0: b890 86be 0547 65be b604 bebd db3a 4a3d
000000e0: 06a9 8f3b 6b3d 90bd db83 acbd 3072 8dbd
000000f0: b4d0 8dbd f55b 823d fc35 0a3b 8d3b 853d
00000100: 7ff4 d43a 8ef3 083d 083d af3b 0ed2 3dbe
00000110: b7c9 a03d d8e9 063d 3622 ed3d 3cc5 adbc
00000120: 8e85 56be 16de 663c bcc5 0abd f820 f8bd
00000130: cb64 253d 6bf1 edbd 6dea 893d bbc4 133d
00000140: f380 68be 632c 243a 9230 813d 30ca 68be
00000150: 1cc0 38be 3709 8e3d 7946 86bd 2c5e 88bd
00000160: f419 0bbe 0a8f e2bd b296 dfbc f03d 8cbd
00000170: 5b1e c1bd d3b6 9e3d 2d1a 0cbd 7550 c83d
00000180: c739 24be d556 3bbe 2f72 a4bd bd8a 77bd
00000190: 1cec 993d 175d cb3d ed12 c2bd 5009 213d
000001a0: 1df1 54bd a5ef 2bbd a129 353c 92d3 e7bc
000001b0: 1d7b ab3d 6ddd 413e f2bb 753d 2894 90bc
000001c0: 96fc 9b3b 9f8a dd3d d425 e83d 99dd fcbb
000001d0: 6312 99bd d3a4 8dbd 39fa cbbc 27b5 d33c
000001e0: c8d4 853d 8b94 5dbb c910 983c 02e9 c33d
000001f0: 3a96 033e e3f8 94bd b914 093e 39c5 e93d
00000200: f6e6 0f3d 6fec 903d c109 2a3d bb9a b4bc
00000210: 21ad 6abb cab4 2dbc bb50 53bd c91d 33bc
00000220: 83a4 b83d 3471 2a3e 4ac4 793c e16b 2b3d
00000230: 28e3 68bd 3b96 38bd d712 8d3d ea95 ee3c
00000240: 96cf f8bc 8350 033e 696b a63d ddab fa3c
00000250: 1e0c 3b3e 3ff6 48bd 82d8 133e c2d6 04bb
00000260: 9a0b 473c e920 7c3c 681b e7bc d24c cd3d
00000270: 1877 c63d d306 ecbb 2730 a4bd d499 e439
00000280: 7065 a83d a26f a9bc 6445 fd3c 21a4 bfbd
00000290: d415 ce3b 9a99 3bbd e80a aebd d403 2d3c
000002a0: dfff af3b 9241 af3d 9f96 52bb dc1a 0b3e
000002b0: 484c 563e 6ae5 903d 0d91 f2bc 0cc3 8b3d
000002c0: 3ed3 c8bd 9360 183c 4d20 ce3d dac6 bdbc
000002d0: 9bad 1bbe 801d 86bd 707b b13e 63e0 093c
000002e0: 3952 a63d 35dc bf3b 804a 943d 4725 ac3d
000002f0: 84a5 123e b254 8e3d 3cdf 91bd 5542 69bc
00000300: f899 13bd b421 8dbd 1689 313d ae19 993d
00000310: 36e6 843e 2078 dfbd a7fa 17bd 4d95 df3d
00000320: 4038 39bb 0f06 ae3d 6d6b 4f3d 3fed 49bd
00000330: f2a2 443d e14f 8a3d df1f d1bd c7c5 c43d
00000340: e275 9ebd a98a 683d 9c26 be3c 465d 133c
00000350: d512 50bd b864 33bc 4dbf 95bd ff22 44bd
00000360: 3635 a83d b1b5 d73c a1a7 48bd 4513 8cbc
00000370: d87b 2c3d 66c7 b83c a667 1f3c a183 a43c
00000380: ed5d 26bc 4a3d 103c f54e 9e3d 8ed4 553d
00000390: a400 a73d baf5 cc3a 3bd1 1cbd f43e 12bd
000003a0: b54b 6c3b cb2d 5b3d b15b 9dbd 411c 94bd
000003b0: 974b 713b a840 babd 3a93 73bd 2b15 e7ba
000003c0: 8da5 a33d 5157 b83d cfe5 bdbd 1116 a0bd
000003d0: e4f3 69bd 6e17 ca3d 1442 01be c65d 00be
000003e0: af93 b7bd 48c6 533d 40fa 9c3d 8414 6abd
000003f0: 0db0 21be 4ac8 1ebe 8619 873d 65d1 aebd

fc4.bias f4 [100]
0.059312932 -0.07289061 0.018731046 0.09068221 -0.03434643 0.0015108403 -0.0720216 0.025688918
0.09822814 0.0038490365 -0.014756561 0.17165543 -0.01236017 0.056555085 0.010110783 0.037143517
-0.035437733 -0.083501145 0.07622385 -0.061243758 0.1165311 0.09731619 0.07348002 -0.028459111
0.08045544 -0.06943024 0.06396897 -0.089046404 0.031203505 0.023052037 0.06730253 -0.09197613
-0.045846704 0.060857926 0.10807569 0.04254601 -0.078333266 0.059433702 0.104157954 0.11109563
-0.0061090575 -0.03747164 0.039342638 -0.03869023 0.044595804 -0.05215632 -0.018046038 -0.107514605
-0.0029195957 -0.03546661 0.06208975 -0.030966358 0.043358464 0.012366489 -0.10726538 -0.026782736
0.14486103 0.15153076 0.08301827 -0.05911628 -0.061697166 -0.017322311 0.038894646 0.0046523353
0.12090413 0.10915822 0.091509454 -0.067791045 -0.022635614 -0.030070784 0.035158865 -0.027054243
-0.05885432 0.07373058 -0.05102589 -0.025462791 -0.070313595 -0.0013743774 0.08736298 -0.02346678
-0.0036080512 -0.03693243 -0.025210965 0.027737051 0.044770304 0.11222716 0.110895425 -0.062153563
-0.095454276 -0.034979656 0.015066057 -0.07807328 0.040370792 -0.039787795 -0.0064090053 0.05331585
0.09366625 -0.04363089 -0.054955795 -0.072088964
00000000: 1ef2 723d ac47 95bd da71 993c 98b7 b93d
00000010: d8ae 0cbd 6307 c63a 1080 93bd 9171 d23c
00000020: d62b c93d 1e40 7c3b 81c5 71bc 71c6 2f3e
00000030: 4f82 4abc 4ea6 673d b3a7 253c cd23 183d
00000040: 2827 11bd a602 abbd 401b 9c3d bcda 7abd
00000050: dba7 ee3d b64d c73d b17c 963d 1523 e9bc
00000060: d2c5 a43d 7131 8ebd 2a02 833d f65d b6bd
00000070: 7e9e ff3c a0d7 bc3c e9d5 893d fb5d bcbd
00000080: c1c9 3bbd 2946 793d ca56 dd3d ba44 2e3d
00000090: 316d a0bd c170 733d c450 d53d 1b86 e33d
000000a0: 7d2e c8bb dd7b 19bd bf25 213d a679 1ebd
000000b0: 17aa 363d dea1 55bd 49d5 93bc 9e30 dcbd
000000c0: b056 3fbb 7045 11bd d251 7e3d 29ad fdbc
000000d0: a598 313d d09c 4a3c f4ad dbbd 7867 dbbc
000000e0: 7356 143e e12a 1b3e 7c05 aa3d ea23 72bd
000000f0: 2bb6 7cbd 85e7 8dbc fe4f 1f3d 9e72 983b
00000100: 969c f73d 588e df3d 4f69 bb3d 08d6 8abd
00000110: 536e b9bc 0157 f6bc be02 103d dca0 ddbc
00000120: 3a11 71bd 0f00 973d 8600 51bd 5897 d0bc
00000130: 9300 90bd 7424 b4ba 5deb b23d 683d c0bc
00000140: 0e75 6cbb 7646 17bd 3a87 cebc d038 e33c
00000150: 1161 373d 5ad7 e53d 241d e33d bc94 7ebd
00000160: 887d c3bd d446 0fbd a0d7 763c e2e4 9fbd
00000170: d85b 253d 87f8 22bd a202 d2bb b961 5a3d
00000180: 17d4 bf3d 4eb6 32bd 5419 61bd 61a3 93bd

fc5.weight f4 [100, 100]
0.02852825 -0.005371631 -0.0016855678 -0.059069104 -0.05846521 0.04776775 0.04565796 -0.07164337
-0.097125866 -0.060091984 -0.037463978 -0.0382983 -0.090251 -0.051235937 0.052761305 -0.0016200502
-0.035747707 -0.0781034 0.023195516 0.03390254 0.073093444 -0.029667877 -0.09166056 0.03679506
0.056325328 -0.067824766 0.011308212 -0.050585497 0.071843855 0.036748163 -0.0014525205 -0.09684978
-0.09169179 -0.048923794 -0.0700038 -0.05997756 0.062445458 0.052416395 0.048071444 -0.10581065
0.006279299 0.013489236 -0.07037652 0.016851053 0.011285903 0.009869331 0.033733007 -0.06481241
-0.07785436 0.011835468 0.08830823 -0.009864779 0.06498847 -0.020069202 0.081188 -0.083829805
0.021229694 0.023580335 -0.09519564 -0.021930255 -0.031166263 -0.02447784 -0.08227785 0.020914327
0.03533267 -0.043704238 0.08019812 0.07369857 0.017802332 0.06333693 0.028171832 0.01679752
0.006055221 -0.08383757 0.031505305 -0.017394796 -0.11703801 0.07483647 -0.106081516 0.01356144
0.057975646 -0.08637331 -0.04489688 -0.006094663 0.07805258 0.065124705 -0.045514345 0.0958363
0.037335224 -0.030980663 -0.057275712 0.021008767 -0.056162227 0.057678133 0.07626558 0.035395376
-0.10092503 0.05299772 -0.02989445 -0.03684934 -0.07127325 0.02652739 -0.038087394 0.0021347795
0.057840854 -0.041521385 -0.079377815 0.06551487 0.07614631 0.010170883 0.039514504 -0.092116654
0.016646493 -0.06517047 0.089616664 -0.00664147 -0.08838532 -0.03232739 0.078132465 0.09304628
0.012876345 -0.010713857 -0.021447955 -0.013867326 -0.026347838 -0.06127402 -0.02389626 -0.012651417
-0.0827187 -0.030923147 -0.014240012 0.04471495 -0.049049687 -0.037502706 0.08947011 -0.05042496
0.03941106 0.09302097 -0.0919741 0.06967966 0.092973575 0.050338127 -0.09838128 -0.010253154
0.10101786 0.06535386 0.007836789 -0.07254146 -0.05408488 -0.043355666 0.07184268 -0.03136622
-0.006745903 0.03272035 0.08768632 -0.0046418905 0.018216446 0.029067991 0.08299575 -0.06938632
-0.08486709 0.059946056 0.03747163 -0.06352362 -0.08716843 0.06812054 -0.052445497 0.0114916805
-0.054140892 -0.047229353 0.04564761 0.027259188 -0.0939061 -0.052098446 0.046109706 0.04407183
0.07999699 0.081298016 -0.03342667 -0.061024208 0.05183123 0.012942413 -0.07398427 0.0019974182
0.024458572 -0.0666316 0.08705375 -0.05644996 0.09615531 0.05004075 0.01465396 0.0020698905
-0.06961346 0.030657582 0.051513724 -0.035347935 -0.080616616 -0.09145747 -0.0032969345 -0.036273554
-0.08272938 0.06924694 -0.013105094 -0.03561216 0.02787147 -0.048163727 0.0373932 0.06968205
0.070302635 0.041815553 -0.06895161 0.0043998524 0.08516521 0.08578265 0.027759325 -0.04426961
0.07760485 0.034624435 -0.061828725 -0.04819581 -0.024809085 -0.1312251 -0.040387537 0.0619786
-0.081690535 -0.0640962 0.06264184 0.10304851 0.07203156 -0.041499034 0.028115997 -0.097149454
0.122102395 -0.04882292 -0.15484884 -0.014796951 0.03866873 -0.004673196 -0.089744166 0.03280892
-0.012766029 -0.05263745 -0.042489793 0.0016435385 0.008155759 0.07391215 -0.09385024 0.034392904
0.016699513 -0.006348066 0.03841929 0.059809048 0.12454436 0.03966791 -0.0006290525 -0.0043944865
00000000: 14b4 e93c 8204 b0bb 45ee dcba 72f2 71bd
00000010: 3779 6fbd 1ea8 433d d703 3b3d c2b9 92bd
00000020: ede9 c6bd 0323 76bd d473 19bd aede 1cbd
00000030: 84d5 b8bd c6dc 51bd 3d1c 583d dd57 d4ba
00000040: 306c 12bd adf4 9fbd 8604 be3c 64dd 0a3d
00000050: 04b2 953d 0c0a f3bc 88b8 bbbd 6bb6 163d
00000060: 63b5 663d b6e7 8abd 1446 393c bd32 4fbd
00000070: df22 933d 3e85 163d 8062 beba 2d59 c6bd
00000080: e8c8 bbbd 5164 48bd 275e 8fbd 08ab 75bd
00000090: cfc6 7f3d 93b2 563d 90e6 443d 41b3 d8bd
000000a0: 94c2 cd3b f501 5d3c 9121 90bd 380b 8a3c
000000b0: 82e8 383c f9b2 213c 9f2b 0a3d 5ebc 84bd
000000c0: 1b72 9fbd 8de9 413c f2da b43d e29f 21bc
000000d0: ad18 853d 2b68 a4bc e545 a63d f6ae abbd
000000e0: e5e9 ad3c 8c2b c13c eff5 c2bd 14a7 b3bc
000000f0: 6450 ffbc c085 c8bc 4a81 a8bd 8654 ab3c
00000100: fdb8 103d 3703 33bd e93e a43d 47ef 963d
00000110: 32d6 913c cbb6 813d 9dc8 e63c f49a 893c
00000120: e06a c63b 08b3 abbd b50b 013d 887f 8ebc
00000130: a0b1 efbd dd43 993d 4441 d9bd cd30 5e3c
00000140: df77 6d3d 7de4 b0bd cae5 37bd bdb5 c7bb
00000150: 08da 9f3d 1a60 853d 406d 3abd d245 c43d
00000160: d2ec 183d 29cb fdbc f099 6abd 941a ac3c
00000170: 5d0a 66bd e83f 6c3d 2131 9c3d befa 103d
00000180: c8b1 cebd 2314 593d 35e5 f4bc 55ef 16bd
00000190: b6f7 91bd f84f d93c 8701 1cbd a8e7 0b3b
000001a0: 88ea 6c3d 5412 2abd d690 a2bd a92c 863d
000001b0: 99f2 9b3d c6a3 263c f6d9 213d a8a7 bcbd
000001c0: 3a5e 883c 1878 85bd f188 b73d b0a0 d9bb
000001d0: 5d03 b5bd ba69 04bd ea03 a03d 0c8f be3d
000001e0: 4ef7 523c 2c89 2fbc 9fb3 afbc c833 63bc
000001f0: 6cd7 d7bc 77fa 7abd 17c2 c3bc e447 4fbc
00000200: 6c68 a9bd 8a52 fdbc f04e 69bc 0627 373d
00000210: 53e8 48bd 709c 19bd 1b3c b73d 678a 4ebd
00000220: 7e6d 213d c781 be3d eb5c bcbd 36b4 8e3d
00000230: ee68 be3d 5a2f 4e3d 207c c9bd d8fc 27bc
00000240: 74e2 ce3d 3fd8 853d e065 003c 9e90 94bd
00000250: 1b88 5dbd b695 31bd 4122 933d de79 00bd
00000260: bc0c ddbb c605 063d e394 b33d 001b 98bb
00000270: a83a 953c ff1f ee3c adf9 a93d 6a1a 8ebd
00000280: ccce adbd ff89 753d da7b 193d ac18 82bd
00000290: 5d85 b2bd c882 8b3d 17d1 56bd 9a47 3c3c
000002a0: d7c2 5dbd 9173 41bd fdf8 3a3d a94e df3c
000002b0: d751 c0bd 2e65 55bd 88dd 3c3d aa84 343d
000002c0: 76d5 a33d 937f a63d 67ea 08bd 85f4 79bd
000002d0: fc4c 543d 6a0c 543c 1185 97bd 1ee7 023b
000002e0: 585d c83c 2676 88bd 3d49 b23d 1338 67bd
000002f0: 13ed c43d 88f7 4c3d 2a17 703c 00a7 073b
00000300: 8091 8ebd 9c25 fb3c 0e00 533d ffc8 10bd
00000310: 531a a5bd 0e4e bbbd 6211 58bb 9493 14bd
00000320: 056e a9bd 57d1 8d3d c0b6 56bc 0ede 11bd
00000330: b652 e43c 5447 45bd 9d29 193d 76b5 8e3d
00000340: d4fa 8f3d c946 2b3d 8036 8dbd a32c 903b
00000350: 196b ae3d d0ae af3d 8667 e33c 0d54 35bd
00000360: 4bef 9e3d 5ad2 0d3d 1e40 7dbd f868 45bd
00000370: 6c3c cbbc df5f 06be 676d 25bd 46dd 7d3d
00000380: 5e4d a7bd de44 83bd 5d4a 803d 190b d33d
00000390: 4885 933d e4fa 29bd 8553 e63c 4bf6 c6bd
000003a0: d210 fa3d 8bfa 47bd b290 1ebe e96e 72bc
000003b0: 1a63 1e3d 9c21 99bb cacb b7bd a562 063d
000003c0: 9b28 51bc 5e9a 57bd c709 2ebd 006c d73a
000003d0: bc9f 053c 415f 973d 8e34 c0bd 93df 0c3d
000003e0: 6bcd 883c 7003 d0bb 8c5d 1d3d 55fa 743d
000003f0: 1d11 ff3d d27a 223d 00e7 24ba a0ff 8fbb

fc5.bias f4 [100]
-0.04955356 -0.070091 -0.041167323 0.1379067 0.10726267 0.07349667 0.08658484 -0.019702353
0.10599755 0.08481986 -0.017290821 0.10016922 0.039253343 -0.051387146 -0.014289248 0.04428974
0.08279992 0.16962035 -0.0822796 0.06446256 0.08754831 -0.049238104 0.040136382 0.040165517
0.113970675 0.0862791 0.05694008 0.18649647 0.029197412 -0.032741755 0.085199006 0.11933204
-0.040853396 0.05734652 0.08862117 -0.174278 0.008914845 -0.0784686 0.117095746 0.06944802
0.122603774 0.049422335 0.0362145 0.06452605 -0.06573473 0.040209122 -0.039944984 -0.06597987
0.08082596 -0.04681492 0.11581644 0.033390094 -0.03649144 -0.029066019 0.037296865 -0.021152774
-0.016061109 0.06960605 0.021751162 0.12660316 0.04031333 0.10629504 0.18188117 0.037137203
0.10999489 0.17829336 0.00087442005 -0.04590199 0.18539578 -0.084145844 -0.072642036 -0.13906178
-0.043839235 0.08568498 -0.012201673 0.043457445 -0.08515539 -0.010762945 0.14691916 0.054951064
-0.09727236 0.06799564 0.16508804 -0.09093955 -0.11187256 0.19376919 -0.0010577842 0.06296775
0.06424229 0.05470213 0.03890873 0.05059139 -0.045986757 -0.093513876 0.04414128 0.09888677
-0.0063699232 0.054365937 0.08160494 -0.10607312
00000000: acf8 4abd df8b 8fbd 119f 28bd 6a37 0d3e
00000010: 88ac db3d 6c85 963d 6553 b13d d466 a1bc
00000020: 3e15 d93d 09b6 ad3d 7ba5 8dbc 8525 cd3d
00000030: 1dc8 203d 547b 52bd 731d 6abc 2969 353d
00000040: 0193 a93d f5b0 2d3e 3582 a8bd f204 843d
00000050: 874c b33d e5ad 49bd 0c66 243d 9984 243d
00000060: 7569 e93d 19b3 b03d 003a 693d eef8 3e3e
00000070: 692f ef3c 381c 06bd d17c ae3d 5b64 f43d
00000080: e455 27bd 2fe4 6a3d 047f b53d ef75 32be
00000090: 920f 123c 25b4 a0bd e5cf ef3d c33a 8e3d
000000a0: b017 fb3d 136f 4a3d a855 143d 3c26 843d
000000b0: ee9f 86bd 52b2 243d 5a9d 23bd 7420 87bd
000000c0: 1588 a53d 00c1 3fbd 2b31 ed3d 0dc4 083d
000000d0: 0c78 15bd dc1b eebc 99c4 183d 9548 adbc
000000e0: 9692 83bc 9e8d 8e3d 7e2f b23c 42a4 013e
000000f0: 971f 253d 37b1 d93d 0f3f 3a3e 2e1d 183d
00000100: 0045 e13d 8992 363e 5639 653a ba03 3cbd
00000110: 64d8 3d3e a854 acbd 59c5 94bd 3666 0ebe
00000120: c590 33bd 9b7b af3d 87e9 47bc 6f00 323d
00000130: f365 aebd 1057 30bc fa71 163e 5e14 613d
00000140: bb36 c7bd 4c41 8b3d d70c 293e 843e babd
00000150: 711d e5bd 6e6b 463e 59a5 8aba 3cf5 803d
00000160: 7691 833d 570f 603d c35e 1f3d eb38 4f3d
00000170: 9c5c 3cbd 3484 bfbd 7dcd 343d 2685 ca3d
00000180: caba d0bb d1ae 5e3d 7e20 a73d dd3c d9bd

fc6.weight f4 [100, 100]
0.08334323 0.07548771 0.112588815 0.118715614 -0.05018665 -0.31957448 0.16893086 0.007628344
-0.07182369 -0.038724326 0.16162907 -0.05920405 0.13810584 0.14275631 0.13979034 -0.18384735
-0.019052105 -0.035632532 0.036161132 0.00031573267 -0.07600765 -0.2951915 0.123373196 0.1412969
0.038245674 -0.18276365 -0.0061539738 -0.03146978 0.062036112 0.07931046 0.09268502 0.08783404
0.17785203 -0.15621254 -0.029102465 -0.1345206 -0.040361624 0.012043746 0.14793952 -0.117336355
-0.041732218 -0.13825765 0.046355166 0.051881947 0.05136051 -0.024812013 -0.1097041 0.22536989
-0.30516842 0.080329396 0.036695886 0.033537492 0.011531059 -0.06743978 0.14549594 0.10836058
0.051204428 0.0719549 -0.10114186 0.02876596 0.07605427 0.03551171 0.09128534 0.08669664
-0.11714777 -0.05860692 0.019881126 -0.107734576 -0.13469449 0.004998213 -0.29575408 -0.12017275
-0.15160315 0.06380621 0.03868634 -0.06037828 -0.37141317 0.0052773636 0.028782755 0.09696381
-0.06496951 0.099780805 0.09493643 -0.08038809 0.04605935 -0.07458459 0.12243096 0.08461613
-0.1246473 0.01716072 0.1086177 0.10757951 0.14883026 0.07923531 -0.16142465 -0.036055602
0.073618025 0.023765491 -0.0461638 -0.088777274 0.013082433 0.09089008 0.035783615 0.16057052
-0.012029805 0.014705581 -0.005395138 -0.032552794 0.025108762 -0.038868733 -0.12286735 0.101595275
0.15862441 -0.027988177 -0.12296654 0.008782428 0.047433894 -0.013429192 0.024602748 -0.054988574
0.06121288 0.0059628785 0.024869623 -0.023493465 0.09413869 -0.04200119 -0.13903166 0.16621365
-0.04734229 -0.046996415 2.4244242e-05 0.030561777 -0.12252155 -0.08134008 -0.027891222 0.00856552
0.04583278 -0.11006544 0.09347811 0.058484443 0.054511104 0.042703535 0.05008421 0.18887717
-0.11058117 0.0012750718 -0.06799983 0.06859265 0.014311054 0.05116014 0.08688313 -0.044450507
-0.14943048 0.018013317 -0.0024993902 -0.21053359 -0.023113118 0.09160408 0.0013885925 0.012638401
0.07946199 -0.16893013 0.111375146 -0.0084094815 -0.042553965 0.04445998 -0.14609891 0.07875059
0.01068184 -0.16693713 -0.041211363 -0.1842471 0.1317896 0.16220492 0.05018325 -0.00725843
-0.115310825 0.016379494 0.042707223 -0.01085178 -0.0395377 -0.03889432 0.04709016 -0.30884477
-0.009669241 0.10906265 -0.090724036 0.03358991 0.026102759 -0.068797275 0.040760223 -0.063038565
-0.04312321 0.097073674 -0.08351675 -0.023623679 0.18406533 0.09568093 0.07462175 0.07920168
0.017312672 -0.023068568 -0.022613939 0.12106218 0.02400666 0.03935503 0.12315775 0.02305609
-0.06653635 0.101470605 -0.08745259 -0.033287063 -0.08089269 -0.039001785 -0.068670966 -0.052311823
0.13039222 0.052984238 -0.011714137 -0.06825464 0.09367402 0.003298261 0.010234562 0.08588131
0.10566734 -0.057270896 -0.026913421 0.06677576 -0.08887514 -0.017985415 0.09096138 0.0050369883
0.0019221077 -0.032292742 0.08981293 -0.056883406 0.04803217 0.13868026 0.046463985 0.14190558
-0.032142002 -0.0940801 -0.0033153458 -0.13267766 0.10136883 -0.10078163 0.09717235 0.017590826
0.07346354 0.08122956 0.03867364 -0.07291014 0.013437307 -0.03398528 0.08550768 -0.0808214
00000000: dbaf aa3d 4d99 9a3d f794 e63d 2c21 f33d
00000010: 8490 4dbd 449f a3be 36fc 2c3e 30f7 f93b
00000020: 4c18 93bd 669d 1ebd 1782 253e f27f 72bd
00000030: 9e6b 0d3e b62e 123e 3325 0f3e 7b42 3cbe
00000040: 2913 9cbc 6bf3 11bd b21d 143d ec88 a539
00000050: e6a9 9bbd 5723 97be 16ab fc3d 22b0 103e
00000060: 7fa7 1c3d 6526 3bbe 46a7 c9bb 75e6 00bd
00000070: 9419 7e3d 866d a23d a5d1 bd3d 55e2 b33d
00000080: d81e 363e 2ef6 1fbe 4b68 eebc c5bf 09be
00000090: 3b52 25bd 2253 453c 757d 173e 0b4e f0bd
000000a0: 67ef 2abd 6a93 0dbe eade 3d3d 2a82 543d
000000b0: 665f 523d 9042 cbbc 8bac e0bd 5dc7 663e
000000c0: 093f 9cbe bd83 a43d 6d4e 163d 9c5e 093d
000000d0: c4ec 3c3c de1d 8abd e3fc 143e 27ec dd3d
000000e0: bcbb 513d 175d 933d 7723 cfbd 97a6 eb3c
000000f0: 57c2 9b3d ba74 113d cff3 ba3d 028e b13d
00000100: 2ceb efbd cf0d 70bd bedd a23c f2a3 dcbd
00000110: 5aed 09be 0dc8 a33b 146d 97be 211d f6bd
00000120: db3d 1bbe d5ac 823d 9175 1e3d 374f 77bd
00000130: de29 bebe bced ac3b d0c9 eb3c f694 c63d
00000140: bc0e 85bd e159 cc3d 086e c23d 83a2 a4bd
00000150: bba8 3c3d cebf 98bd 15bd fa3d 394b ad3d
00000160: 1547 ffbd a394 8c3c f572 de3d a552 dc3d
00000170: f666 183e 1f46 a23d 814c 25be 0aaf 13bd
00000180: 0cc5 963d d9af c23c 4116 3dbd dcd0 b5bd
00000190: b357 563c 9424 ba3d d791 123d 996c 243e
000001a0: a918 45bc adef 703c b3c9 b0bb 1456 05bd
000001b0: e4b0 cd3c d234 1fbd e1a1 fbbd 2f11 d03d
000001c0: 706e 223e 7647 e5bc e2d5 fbbd 2ce4 0f3c
000001d0: 0b4a 423d 1d06 5cbc b48b c93c b33b 61bd
000001e0: 5bba 7a3d 4064 c33b 61bb cb3c 5e75 c0bc
000001f0: c9cb c03d 7109 2cbd 515e 0ebe e933 2a3e
00000200: fde9 41bd 507f 40bd 1d60 cb37 b15c fa3c
00000210: 94ec fabd a195 a6bd 227c e4bc 6556 0c3c
00000220: 27bb 3b3d fd69 e1bd 7471 bf3d 628d 6f3d
00000230: 0947 5f3d e7e9 2e3d 1a25 4d3d 0469 413e
00000240: 6178 e2bd 4f20 a73a 7f43 8bbd 4e7a 8c3d
00000250: e978 6a3c 4c8d 513d c8ef b13d bc11 36bd
00000260: 4e04 19be aa90 933c cfcc 23bb 1e96 57be
00000270: b957 bdbc eb9a bb3d 6f01 b63a 4c11 4f3c
00000280: f8bc a23d 05fc 2cbe a718 e43d ecc7 09bc
00000290: 114d 2ebd ab1b 363d f49a 15be fd47 a13d
000002a0: e202 2f3c 91f1 2abe 3fcd 28bd 46ab 3cbe
000002b0: daf3 063e 0c19 263e f48c 4d3d 20d8 edbb
000002c0: 1528 ecbd 4a2e 863c c5ed 2e3d aacb 31bc
000002d0: 49f2 21bd a74f 1fbd 9de1 403d e720 9ebe
000002e0: bc6b 1ebc 3d5c df3d 86cd b9bd 9395 093d
000002f0: 74d5 d53c 96e5 8cbd 31f4 263d 5d1a 81bd
00000300: f7a1 30bd 90ce c63d d40a abbd 7286 c1bc
00000310: 9f7b 3c3e 5df4 c33d 4ad3 983d 7e34 a23d
00000320: 4ed3 8d3c 4bfa bcbc de40 b9bc 73ef f73d
00000330: 9da9 c43c bd32 213d 213a fc3d 20e0 bc3c
00000340: 3644 88bd d2cf cf3d 581a b3bd 0458 08bd
00000350: 11ab a5bd 56c0 1fbd 5da3 8cbd ec44 56bd
00000360: 8a85 053e 0006 593d a7ec 3fbc 17c9 8bbd
00000370: 2ad8 bf3d a327 583b ddae 273c 8ae2 af3d
00000380: 1e68 d83d e394 6abd 8979 dcbc bbc1 883d
00000390: 2b04 b6bd 2656 93bc f649 ba3d 520d a53b
000003a0: 3bef fb3a 6545 04bd d7ef b73d 93fe 68bd
000003b0: 61bd 443d 3302 0e3e 0551 3e3d b24f 113e
000003c0: 55a7 03bd 11ad c0bd 4646 59bb a7dc 07be
000003d0: 769a cf3d 9966 cebd 4c02 c73d a31a 903c
000003e0: 0d74 963d af5b a63d 4068 1e3d e951 95bd
000003f0: 2728 5c3c 2634 0bbd a71e af3d b185 a5bd
