resources/pretrained_models/ik_threelink_obs4_dynamic_base/weights_200/model.pth (torch_old, 294855 bytes, 18 tensors)

fc1.weight f4 [100, 20]
0	0xbe7af75a	-0.2450842
1	0xbe027e16	-0.1274341
2	0xbd3f89f7	-0.046762433
3	0x3e67a028	0.22619689
4	0x3dcddc4f	0.10051786
5	0xbd23e2be	-0.04001116
6	0xbd7683b6	-0.060184203
7	0x3e27a934	0.1637314
8	0xbd74629c	-0.059664354
9	0x3d62e25f	0.055391666
10	0xbb15d962	-0.0022865166
11	0xbd8bc47a	-0.06824584
12	0x3dfd34b1	0.12363566
13	0xbce66056	-0.028122108
14	0xbe5f8b04	-0.21830374
15	0xbe2eaec0	-0.1705885
16	0xbce037aa	-0.027370293
17	0xbe1686a8	-0.14699805
18	0xbe0abec9	-0.13549341
19	0xbe093d0a	-0.13402191
20	0xbe6ed950	-0.23325086
21	0xbea45643	-0.32097062
22	0xbe00020a	-0.12500778
23	0xbcd61d6c	-0.026137076
24	0x3c9a6186	0.01884533
25	0xbdc2263c	-0.09479949
26	0xbd5a43f6	-0.05328747
27	0xbc5f0015	-0.013610859
28	0x3e16fdbb	0.14745228
29	0x3d4f5f6f	0.050628122
30	0x3cb8f266	0.022576522
31	0x3dcdeb96	0.100547
32	0x3e4c31cb	0.1994087
33	0xbdb0931a	-0.086218074
34	0xbbef697a	-0.007306275
35	0x3e2ffdad	0.17186613
36	0xbcb5178e	-0.022105958
37	0x3d93b18e	0.072116
38	0xbdaee604	-0.08539966
39	0x3d7cb66e	0.061697416
40	0x3e8ac2c9	0.27101734
41	0xbd19a058	-0.03750643
42	0xbe286c86	-0.16447648
43	0x3e5224c3	0.20521836
44	0x3d1c3e83	0.038145553
45	0x3e1d4406	0.1535798
46	0x3e4ba07e	0.19885442
47	0x3e27fb8a	0.16404548
48	0xbd92db42	-0.07170726
49	0x3df47b9a	0.119376376
50	0xbd572aa6	-0.052530907
51	0xbe2fc626	-0.17165431
52	0xbe09352c	-0.1339919
53	0xbd90fc89	-0.07079417
54	0xbe36426d	-0.17798777
55	0xbda1d712	-0.079023495
56	0x3da7a68c	0.08186063
57	0xbe503609	-0.20333113
58	0xbd1f5868	-0.03890267
59	0xbd6a67fa	-0.057228066
60	0xbde6552f	-0.11246716
61	0xbc960e8c	-0.018317483
62	0xbe393f1b	-0.18090479
63	0x3cd7d347	0.026345862
64	0xbe2c9907	-0.1685525
65	0xbe1420e1	-0.14465667
66	0x3dddc09e	0.108277544
67	0xbe627931	-0.22116543
68	0xbdd50b67	-0.104025654
69	0xbe3e81fb	-0.18604271
70	0xbd8dc70c	-0.06922731
71	0xbdf3d9b5	-0.11906759
72	0x3e272427	0.16322385
73	0x3e0b5e19	0.13610114
74	0x3e1418f3	0.14462642
75	0xbd87234d	-0.0659853
76	0xbda9e4de	-0.08295606
77	0x3ceaedb3	0.028677797
78	0xbe682b1d	-0.22672696
79	0xbdbaa937	-0.091143064
80	0xbe22c610	-0.15895867
81	0xbd91c589	-0.07117755
82	0x3e0a6573	0.13515262
83	0x3e5b4132	0.21411589
84	0x3dd2a6d0	0.10285723
85	0x3d8ee277	0.069767885
86	0x3e44cd83	0.19219021
87	0x3df0e8ef	0.117631786
88	0x3e2f1003	0.17095952
89	0x3e0a2181	0.13489343
90	0xbd18e8d5	-0.03733142
91	0xbd32fb78	-0.04369685
92	0x3e37fc76	0.179674
93	0x3e16800a	0.1469728
94	0x3d42b321	0.047534112
95	0xbd82bca3	-0.06383636
96	0x3dc701e7	0.0971716
97	0x3e13bcf1	0.14427544
98	0xbe459d57	-0.19298302
99	0x3d6782a9	0.05652109
100	0x3e0cb4bc	0.1374082
101	0xbdff2796	-0.12458722
102	0xbe231f15	-0.15929826
103	0x3d8300bd	0.06396625
104	0x3e02d147	0.12775145
105	0xbe1157ea	-0.14193693
106	0x3ddfdd30	0.1093086
107	0xbd8fcd62	-0.070215955
108	0xbe501a06	-0.20322427
109	0xbc40ba33	-0.011763143
110	0x3e07f68b	0.13277642
111	0x3d9e214d	0.07721195
112	0x3e2386cc	0.1596939
113	0xbdb5c22a	-0.088749245
114	0x3da4cb6b	0.080466114
115	0x3da1a7e6	0.07893352
116	0x3e22bd99	0.15892638
117	0xbdf875c9	-0.12131841
118	0xbe06eb5b	-0.13175718
119	0x399b76e3	0.0002965248
120	0xbe322769	-0.17397846
121	0x3d4a571c	0.04939948
122	0xbe425512	-0.18977764
123	0xbd2ec4a6	-0.042668007
124	0x3c5e2537	0.013558677
125	0x3c3a598b	0.011373888
126	0xbe28a779	-0.16470136
127	0xbd14964e	-0.036276154
128	0x3df7361e	0.12070869
129	0x3d954eaa	0.072903946
130	0x3e164a59	0.14676799
131	0xbd4f0125	-0.0505382
132	0xbcfe2290	-0.03102234
133	0x3d5233cc	0.05131893
134	0xbdcd3b74	-0.100211054
135	0x3e1b9ed1	0.15197302
136	0xbc46dd86	-0.012137776
137	0x3e0010be	0.12506387
138	0xbe5f859d	-0.21828313
139	0xbe566085	-0.20935257
140	0x3e790233	0.24317245
141	0x3d6025b1	0.054723445
142	0x3e07fc2b	0.13279788
143	0x3e9218a8	0.28534436
144	0x3dd849f4	0.105609804
145	0x3e34a15d	0.1763968
146	0x3e35944b	0.1773235
147	0x3df5bb3e	0.11998604
148	0xbd1f15e1	-0.038839225
149	0xbdad9af7	-0.08476823
150	0xbdfbd96b	-0.122973286
151	0x3d21b5f1	0.039480153
152	0x3c11bc11	0.008894936
153	0x3cce8d6c	0.02521392
154	0x3e3822a7	0.17981969
155	0x3e777c75	0.2416857
156	0x3da325a0	0.07966161
157	0x3d002f32	0.03129501
158	0x3c8567c2	0.016284827
159	0x3e25e3e9	0.16200222
160	0xbe54a616	-0.20766482
161	0xbe2844b6	-0.16432461
162	0x3e08c5c5	0.13356693
163	0x3e595322	0.21223119
164	0xbd5bbd0d	-0.05364709
165	0xbde18d4d	-0.11013279
166	0xbe640277	-0.22266565
167	0xbe5fb5b8	-0.21846664
168	0x3d2b7cee	0.04186719
169	0x3dba8e08	0.091091216
170	0x3cf23647	0.029566897
171	0xbd0c32cd	-0.034228135
172	0x3e06aa11	0.13150813
173	0xbe3b8546	-0.18312559
174	0x3b3ed849	0.0029120615
175	0x3cd04505	0.025423536
176	0x3dfb8ef1	0.12283123
177	0x3d368cb6	0.044567786
178	0x3cdf5325	0.027261326
179	0xbcde7369	-0.027154641
180	0xbe3feae3	-0.18741946
181	0xbd3f5cbc	-0.046719298
182	0xbe3abda3	-0.18236403
183	0xbdee34da	-0.116311744
184	0x3e1bf9ab	0.1523196
185	0xbda26004	-0.0792847
186	0x3d104ecc	0.035231397
187	0xbe0d9727	-0.13827191
188	0xbe22fd9b	-0.15917055
189	0x3d04a6c1	0.03238559
190	0xbe4fd316	-0.20295367
191	0x3e2dc98b	0.16971414
192	0xbe061ae1	-0.13096191
193	0xbe3f47e0	-0.18679762
194	0xbe7efb3c	-0.24900526
195	0xbdcb7bf8	-0.099357545
196	0xbde723d8	-0.112861335
197	0xb9823e43	-0.0002484192
198	0xbdddb1b2	-0.10824908
199	0x3d2524ee	0.040318422
200	0xbe8d84ab	-0.2764028
201	0x3d5e96a2	0.054342873
202	0x3db9ada3	0.09066322
203	0x3bb0d32c	0.0053962674
204	0xbe2f1cb0	-0.17100787
205	0xbe406070	-0.18786788
206	0xbbbcc51d	-0.0057608024
207	0xbe1d109e	-0.1533837
208	0x3e0e0210	0.13867974
209	0x3df2fd7b	0.11864754
210	0x3e1f43a4	0.15553147
211	0x3e0d7eb4	0.13817865
212	0x3d95fcfa	0.07323642
213	0x3d83ed93	0.06441798
214	0xbdf7e736	-0.12104647
215	0x3d314765	0.043280978
216	0xbe29a274	-0.16565877
217	0xbe20a5db	-0.15688269
218	0xbe1c4d86	-0.15263948
219	0x3e1f8e76	0.15581688
220	0x3c75de9a	0.015006686
221	0x3dd6d1ef	0.104892604
222	0x3e226800	0.15859985
223	0x3d9c4253	0.07629838
224	0xbe73a63e	-0.23793885
225	0x3d6596d6	0.05605205
226	0xbd58428d	-0.052797843
227	0xbdb864ad	-0.090035774
228	0x3d1def35	0.038558204
229	0xbe756ee5	-0.23968084
230	0xbe28e03f	-0.16491793
231	0x3ce01caf	0.027357427
232	0x3e045a63	0.12925105
233	0x3e00868c	0.12551326
234	0xbe31a79d	-0.17349096
235	0x3e5b8ed3	0.21441202
236	0xbd669580	-0.056294918
237	0x3e0cd58f	0.13753341
238	0x3dc30bdf	0.095237486
239	0xbe3c3c85	-0.18382461
240	0x3da1e956	0.079058334
241	0x3e5ad656	0.21370825
242	0xbe161d54	-0.14659625
243	0x3e4e90f6	0.20172486
244	0xbc941684	-0.018077143
245	0x3decf466	0.11570053
246	0x3e5d5e81	0.21618082
247	0xbe218ec6	-0.1577712
248	0x3dcf7b57	0.10130947
249	0x3e3bc3d2	0.18336418
250	0xbaee0d3b	-0.0018161902
251	0x3d1b097e	0.03785085
252	0x3d9570ff	0.07296943
253	0xbdf028c0	-0.117265224
254	0x3dc25d3d	0.0949044
255	0xbd48d28c	-0.04902892

fc1.bias f4 [100]
0	0x3c176986	0.009241467
1	0x3e281281	0.16413309
2	0xbe636288	-0.22205555
3	0xbe361bb6	-0.17784008
4	0x3e04c444	0.12965494
5	0x3dcd8238	0.10034603
6	0x3ce63e3b	0.028105846
7	0x3d80cf0b	0.0628949
8	0x3e39d444	0.18147379
9	0x3e2731a1	0.16327526
10	0xbc9278da	-0.017879892
11	0x3d14643c	0.036228403
12	0x3e2ecc9e	0.17070243
13	0x3e0955da	0.13411656
14	0x3e01dc11	0.12681605
15	0xbda8586d	-0.08219991
16	0xbe09ae29	-0.13445343
17	0x3e7c00aa	0.24609628
18	0x3e28f9e4	0.16501576
19	0xbdf3a25f	-0.11896204
20	0x3df4770c	0.11936769
21	0x3e38be7c	0.18041414
22	0xbe5cad24	-0.21550423
23	0x3da14f28	0.07876426
24	0xbe3ca8f0	-0.1842382
25	0x3d9ac03a	0.075561956
26	0x3e444981	0.19168665
27	0xbd8f0a1d	-0.06984351
28	0x3d8c1960	0.068407774
29	0xbd8b973e	-0.068159565
30	0x3d912f12	0.07089056
31	0xbd116588	-0.03549722
32	0xbdfe6e7a	-0.124234155
33	0x3e7553e8	0.23957789
34	0x3dd532d1	0.10410083
35	0xbe1dcecd	-0.1541092
36	0x3e1d35d4	0.15352565
37	0xbb86cf38	-0.004114058
38	0xbd2c0850	-0.042000115
39	0xbc4f6338	-0.012657933
40	0xbe3a486a	-0.18191686
41	0xbbf61fd1	-0.007511117
42	0xbdb18051	-0.086670525
43	0xbbdb07ef	-0.0066842954
44	0x3e47cc03	0.19511418
45	0x3e047e64	0.12938839
46	0x3e550776	0.20803627
47	0x3abbeb7c	0.0014337148
48	0x3d8000e9	0.062501736
49	0x3da24b3f	0.07924508
50	0xbe8ff02e	-0.2811293
51	0x3e388ccb	0.18022458
52	0x3df7976c	0.12089428
53	0xbdf9b866	-0.12193374
54	0x3cdc1020	0.026863158
55	0x3e51ac71	0.20475937
56	0xbe381daa	-0.17980066
57	0x3e0350b5	0.12823756
58	0x3dc116da	0.09428187
59	0x3d459fb3	0.048248004
60	0x3e881fbf	0.2658672
61	0x3e254c55	0.161424
62	0xbdb3ecd4	-0.08785406
63	0xbd88223a	-0.06647153
64	0x3c8dbd40	0.017302155
65	0x3d8eca7e	0.06972216
66	0x3e4497e5	0.19198568
67	0x3e27069e	0.16311118
68	0x3e93fea8	0.28905225
69	0x3dd6ac4d	0.104820825
70	0x3b2cf466	0.002639079
71	0x3e4ee11e	0.20203063
72	0x3d8363e7	0.06415539
73	0x3deaf43f	0.114723675
74	0xbd5a8a4d	-0.05335455
75	0xbe593fc0	-0.21215725
76	0x3e6a101e	0.2285771
77	0xbdbdecfc	-0.09273717
78	0xbe66416d	-0.22485895
79	0xbe0a65a0	-0.1351533
80	0xbe345d28	-0.17613661
81	0xbdb7d8d5	-0.08976904
82	0xbda305e1	-0.07960106
83	0x3e431164	0.19049603
84	0xbdc35901	-0.095384605
85	0x3e625548	0.22102845
86	0x3e28acd3	0.16472177
87	0xbe0b7103	-0.1361733
88	0x3e59fe74	0.21288472
89	0x3e378b99	0.17924346
90	0xbe19c1c2	-0.15015319
91	0xbe51c064	-0.20483547
92	0xbe099e03	-0.13439183
93	0x3df63578	0.12021917
94	0x3e1c07c8	0.15237343
95	0x3e9c8971	0.3057361
96	0x3de25114	0.11050621
97	0xbe2dce3a	-0.169732
98	0xbd262c7d	-0.04056977
99	0xbd7e7c9e	-0.062130563

fc2.weight f4 [100, 100]
0	0x3a427e47	0.00074193295
1	0x3d139e0f	0.03603941
2	0x3de6c296	0.11267583
3	0xbbc314eb	-0.0059534214
4	0xbd24dca9	-0.0402495
5	0x3d752389	0.059848342
6	0xbd0a1ad9	-0.03371701
7	0x3db36bde	0.087608084
8	0xbd369c1a	-0.044582464
9	0x3cf697b5	0.030101636
10	0x3d07b96d	0.03313582
11	0x3d01acb2	0.031658836
12	0xbdc208c5	-0.09474329
13	0xbd9246ce	-0.07142411
14	0x3d9be7d6	0.076125786
15	0x3da3c811	0.07997144
16	0xbc9a75cf	-0.018855004
17	0x3c2a2cc9	0.010386654
18	0xbd9bcfb0	-0.076079726
19	0x3cdcb751	0.02694288
20	0xbd8d0fca	-0.06887777
21	0x3d48d491	0.049030844
22	0x3da122b1	0.07867945
23	0x3d211ad6	0.039332233
24	0x3cd0f399	0.025506781
25	0xbc8c9d8d	-0.01716497
26	0x3d9f952d	0.07792125
27	0x3c9f7870	0.019466609
28	0xbdbbb9b0	-0.091662765
29	0x3dd34c03	0.103172325
30	0x3dac3e70	0.084103465
31	0x3c8127d3	0.01576606
32	0x3d723482	0.059132107
33	0x3dd8535a	0.10562773
34	0xbcdf5676	-0.027262907
35	0xbd9db581	-0.07700635
36	0x3c5d8ccd	0.013522339
37	0x3c7d37ae	0.01545517
38	0xbdc15a5f	-0.09441065
39	0x3d124b6c	0.03571646
40	0x3d8f920c	0.07010278
41	0xbd17af12	-0.037032194
42	0x3c0b3940	0.008497536
43	0xbdde5dca	-0.108577326
44	0x3dd1a87e	0.102372155
45	0x3bca3d2a	0.006171842
46	0x3bf09148	0.0073415376
47	0xbd77a7b9	-0.060462687
48	0xbdc7ec67	-0.09761887
49	0xbd469373	-0.048480462
50	0xbccc44fd	-0.02493524
51	0xbc7723f0	-0.015084252
52	0xbdba7993	-0.0910522
53	0xbd5a8621	-0.05335057
54	0xbd6bc64f	-0.05756217
55	0xbd613772	-0.054984517
56	0xbd7b0c92	-0.061291285
57	0xbd0bbdd2	-0.034116574
58	0x3d38f57c	0.045155987
59	0x3cf59b16	0.029981177
60	0xbd175554	-0.03694661
61	0xbd7cf020	-0.06175244
62	0xbce7f8ce	-0.028316882
63	0xbe0e55e3	-0.1389995
64	0x3ce2d2cb	0.027688405
65	0xbbf1e181	-0.0073816185
66	0xbdd57d35	-0.10424272
67	0x3c752179	0.014961594
68	0x3cfdc209	0.030976312
69	0xbc4df28d	-0.012570036
70	0xbcaf64cb	-0.021410367
71	0xbd5464dc	-0.051854
72	0x3e084090	0.13305879
73	0x3cf05f43	0.0293423
74	0xbd060a16	-0.032724462
75	0xbd0f0f13	-0.034926485
76	0x3df53346	0.1197267
77	0x3db2a23f	0.08722352
78	0x3d92582b	0.07145723
79	0x3da30b5b	0.0796115
80	0xbd1ba722	-0.038001187
81	0x3d49addc	0.04923807
82	0xbb82b5fd	-0.00398898
83	0x3a8c2054	0.0010690787
84	0x3d5bbeb9	0.053648684
85	0xbd6f95cc	-0.058492467
86	0x3dda9b20	0.10674119
87	0xbd997c4e	-0.07494412
88	0x3af7dba0	0.0018910058
89	0xbcac2a17	-0.021016164
90	0x3dddc1cd	0.1082798
91	0x3dbc5889	0.09196574
92	0x3d0acb5b	0.03388534
93	0x3db3e9bf	0.08784818
94	0x3c52cb04	0.0128657855
95	0x3d0d564f	0.03450614
96	0x3a54a151	0.0008111196
97	0x3da5be47	0.08092933
98	0x3a8d1cd8	0.0010766042
99	0x3cfcf32f	0.030877678
100	0xbcb44222	-0.02200419
101	0x3e148e0d	0.14507313
102	0xbdac8444	-0.08423665
103	0x3d98f315	0.07468239
104	0x3de49c46	0.11162619
105	0xbd78828e	-0.06067138
106	0x3da84041	0.082153805
107	0x3cf8ec46	0.030386101
108	0x3de0d1a9	0.109774895
109	0x3da97d58	0.082758605
110	0x3dd98d8f	0.10622703
111	0xbca03b87	-0.019559635
112	0x3dc4f247	0.09616523
113	0x3c741b98	0.014899157
114	0x3dd962a6	0.10614519
115	0xbd9e65e5	-0.077342786
116	0x3c29631f	0.010338574
117	0xbeb57548	-0.3544104
118	0xbc7f350c	-0.015576612
119	0xbd81bbb6	-0.06334631
120	0xbdfa9a6a	-0.122364834
121	0x3bdea0c9	0.0067940694
122	0xba05dfec	-0.00051069143
123	0x3d7cd13e	0.061722986
124	0xbd1fee19	-0.039045427
125	0x3d893c3c	0.06700942
126	0xbda8124c	-0.08206615
127	0xbdca3f84	-0.09875396
128	0x3e0811bf	0.1328802
129	0xbba41fea	-0.0050086873
130	0x3d96fe82	0.07372762
131	0xbcd25911	-0.025677236
132	0xbdce8672	-0.10084237
133	0xbe8240b1	-0.2543998
134	0xbdd8182c	-0.105514854
135	0x3c742274	0.014900792
136	0xbc437003	-0.011928561
137	0x3ca7c67c	0.020480387
138	0xba9ec422	-0.0012112895
139	0x3d7a353a	0.061085917
140	0x3d95fc51	0.07323516
141	0x3e0fcde5	0.14043386
142	0x3b7ac925	0.0038266864
143	0x3cbfcacf	0.023412136
144	0xbd4bf687	-0.049795654
145	0x3d953945	0.07286314
146	0xbac8b8fb	-0.0015313918
147	0x3bf3ff37	0.0074461955
148	0x3d3af0eb	0.045639914
149	0xbda6204b	-0.08111628
150	0x3b11bfe1	0.0022239613
151	0x3db373ad	0.08762298
152	0xbdb7626b	-0.089543186
153	0xbd411f87	-0.047149207
154	0x3bf35e04	0.007426979
155	0x3db0e575	0.086375155
156	0xbd90c99a	-0.070697024
157	0xbde0f55f	-0.10984301
158	0x3c65ba7f	0.014021515
159	0x3dbc1691	0.09183992
160	0xbd08e469	-0.033420954
161	0x3d8db762	0.06919743
162	0xbc0d7b10	-0.008635297
163	0xbd2d58d8	-0.042321056
164	0xbeffb9e0	-0.499465
165	0xb878a92e	-5.928537e-05
166	0x3d2b872f	0.041876968
167	0xbe112e89	-0.14177908
168	0xbe9a7187	-0.3016474
169	0x3dd36508	0.103220046
170	0xbd3f776f	-0.04674476
171	0x3cbf7d91	0.023375304
172	0xbe1fa54c	-0.155904
173	0xbdb09240	-0.08621645
174	0xbe91add8	-0.28452945
175	0xbdb87742	-0.090071216
176	0x3d45af77	0.04826304
177	0x3dc5897c	0.09645364
178	0xbdf20112	-0.118166104
179	0x3d32c1b9	0.04364178
180	0x3dd0cea8	0.101956666
181	0x3d0e1371	0.03468651
182	0xbd8e63bc	-0.069526166
183	0xbdc65ac6	-0.096852824
184	0x3cbda001	0.023147585
185	0xbd9ab46c	-0.07553944
186	0x3c952de3	0.018210357
187	0x3d795318	0.06087026
188	0x3dc1ce61	0.09463192
189	0x3e01cea9	0.12676491
190	0x3d29f50f	0.04149347
191	0x3cdbd065	0.026832769
192	0x3cc3b13b	0.023888221
193	0x3db3dd81	0.08782483
194	0xb9c63176	-0.00037802354
195	0xbe90e223	-0.2829753
196	0xbeb5ddce	-0.35520786
197	0xbe30706e	-0.17230389
198	0x3d196d96	0.037458025
199	0xbdceb336	-0.100927755
200	0x3e1364cc	0.1439392
201	0x3d511fc4	0.051055685
202	0xbd4a10d4	-0.049332455
203	0x3e053c7b	0.13011353
204	0xbc970070	-0.018432826
205	0x3da990ec	0.08279595
206	0x3d737131	0.05943412
207	0xbd7c3e14	-0.06158264
208	0xbd87e657	-0.06635731
209	0x3da435f5	0.08018104
210	0xbe107a58	-0.1410917
211	0x3bfea891	0.0077715595
212	0xbd8ef8ad	-0.06981025
213	0xbc919750	-0.017772347
214	0xbd99e63d	-0.075146176
215	0x3dcb45b4	0.09925404
216	0x3d4afdd9	0.049558494
217	0xbe0ca578	-0.13734996
218	0x3cf6c55f	0.03012341
219	0x3b8fa2eb	0.004383435
220	0xba943ce7	-0.0011309654
221	0x3d55281c	0.052040204
222	0x3bcb75bb	0.006209103
223	0x3dc3dce7	0.09563618
224	0x3db4747e	0.088112816
225	0x3decbdc6	0.11559634
226	0xbc29f309	-0.0103728855
227	0xbdb277e3	-0.08714273
228	0xbcb44835	-0.022007087
229	0x3dca2d35	0.09871904
230	0xbc4255e3	-0.011861297
231	0x3c3ddd69	0.011588433
232	0xbb909a17	-0.0044129
233	0xbe2289dc	-0.15872902
234	0xbd9671d7	-0.07345932
235	0x3d83766b	0.06419071
236	0x3d5d0858	0.053963035
237	0x3d837d44	0.06420377
238	0x3d0118dc	0.03151785
239	0xbe38c78f	-0.18044876
240	0x3d7530a9	0.05986086
241	0xbd9e1037	-0.077179365
242	0x3de37a2b	0.11107286
243	0x3ddefff3	0.10888662
244	0xbda484e1	-0.08033157
245	0x3d0999bc	0.03359388
246	0xbda3b0ce	-0.07992707
247	0xbd3fc084	-0.046814457
248	0x3dbfd654	0.09367052
249	0x3de14106	0.1099873
250	0x3d0817e7	0.03322592
251	0x3e1377e8	0.1440121
252	0x3d062308	0.032748252
253	0xbcc70d9c	-0.024298482
254	0x3df166de	0.117871985
255	0xbe3a6f3f	-0.182065

fc2.bias f4 [100]
0	0xbc06870b	-0.008210908
1	0xbcaf9b6c	-0.021436416
2	0x3dc4016d	0.095705844
3	0xbddc01cf	-0.107425325
4	0x3d696efa	0.0569906
5	0x3da8222f	0.08209645
6	0x3d9b79de	0.07591604
7	0xbdd546a9	-0.10413868
8	0xbbd234ce	-0.006414986
9	0x3c0d7c8c	0.008635651
10	0xbc61d8d9	-0.013784611
11	0x3dc95412	0.09830488
12	0xbcc9b9aa	-0.024624664
13	0xbd0efe80	-0.03491068
14	0x3dbe798a	0.093005255
15	0x3d737cee	0.059445314
16	0x3d995059	0.07486028
17	0x3de2eb7e	0.11080073
18	0x3bba159d	0.005678846
19	0xbc694903	-0.014238599
20	0x3d8742b0	0.066045165
21	0xbddcc4a1	-0.107796915
22	0x3debcc44	0.1151357
23	0x3dc26461	0.09491802
24	0x3d9a1287	0.07523065
25	0xbdda8922	-0.10670687
26	0x3d432779	0.047645066
27	0xbd7cd199	-0.061723325
28	0xbc98d346	-0.01865543
29	0x3c6db73f	0.014509021
30	0x3d749c76	0.059719525
31	0xbd390d62	-0.04517878
32	0x3ca5f69c	0.020259194
33	0x3d251980	0.04030752
34	0x3da053c1	0.07828475
35	0x3d63948e	0.055561595
36	0x3c70e0ea	0.014702061
37	0x3b494412	0.003071074
38	0x3d8eeac7	0.06978374
39	0xbd28bbba	-0.041194655
40	0xbd4c0382	-0.049808033
41	0x3dbcb8fd	0.09214971
42	0xbc37f2e7	-0.011227346
43	0xbd73d7ea	-0.059532084
44	0xbce4a8c7	-0.02791251
45	0x3d8ae031	0.06781042
46	0x3dfa64fe	0.12226294
47	0xbc931ec2	-0.017959002
48	0xbdc02170	-0.09381378
49	0x3da0ee88	0.07857996
50	0x3d023f3d	0.03179859
51	0xbd1a441b	-0.037662607
52	0xbc6b2f31	-0.014354513
53	0xbd61c44e	-0.05511885
54	0xbdac3297	-0.08408087
55	0x3dee3b48	0.11632401
56	0x3d2768c9	0.040871415
57	0x3bd4508b	0.006479328
58	0xbd9097b2	-0.070601836
59	0x3cc98dde	0.02460378
60	0x3dd8ab72	0.105795756
61	0xbd1a5e6f	-0.037687715
62	0xbc9d6a54	-0.01921574
63	0xbdad57ac	-0.08463988
64	0xbda49c31	-0.08037604
65	0xbd1b0db0	-0.03785485
66	0x3db1b2bc	0.08676669
67	0x3cb14cfc	0.021643154
68	0x3dab3c50	0.08361113
69	0x3db0bcd4	0.08629766
70	0xbdad8a46	-0.08473639
71	0xbaa9c726	-0.0012953028
72	0x3c9a0c33	0.018804645
73	0xbde7d274	-0.113194376
74	0x3d5c15af	0.053731617
75	0xbd8f550d	-0.06998644
76	0xbca7965e	-0.020457443
77	0x3da7ede7	0.08199673
78	0x3d98d7d7	0.07463043
79	0xbc8c4596	-0.017123025
80	0x3dca5498	0.09879416
81	0xbd8ed1f4	-0.06973639
82	0xbc4e86f0	-0.012605414
83	0x3d81cb30	0.06337583
84	0xbb3d65eb	-0.002889986
85	0x3ddf1b2b	0.10893854
86	0x3c8032f6	0.0156493
87	0x3d8c886d	0.06861959
88	0xbdb4bca9	-0.088250466
89	0x3db7d1a4	0.08975533
90	0x3c30cc61	0.010790915
91	0x3decb9fb	0.115589105
92	0x3d8a2804	0.067459136
93	0x3dc3b23d	0.09555481
94	0x3d2325d4	0.039830998
95	0x3d76df22	0.06027139
96	0xbdc11018	-0.09426898
97	0x3ce2a4f5	0.027666548
98	0xbc5ba9d4	-0.013407189
99	0x3d09bd60	0.033627868

fc3.weight f4 [100, 100]
0	0xbd69b3e5	-0.057056326
1	0x3d0ee0a8	0.034882218
2	0xbc85a8f1	-0.01631591
3	0x3d1871e5	0.037217993
4	0x3c7ddd89	0.015494713
5	0xbd314296	-0.043276392
6	0xbcdcc54e	-0.026949551
7	0xbdd8df1a	-0.10589428
8	0x3e25dbe5	0.16197164
9	0xbe1ffff1	-0.15624978
10	0x3dc3c5ee	0.095592365
11	0xbe2f220e	-0.17102835
12	0x3d2696ee	0.04067128
13	0x3dc6c38f	0.097052686
14	0xbdfe3932	-0.12413253
15	0x3ca14aa8	0.01968892
16	0x3ca33fff	0.019927977
17	0xbdb00e35	-0.0859646
18	0xbd855fcc	-0.065124124
19	0x3c2df0dd	0.010616508
20	0x3da6bca3	0.08141448
21	0x3b5f30b8	0.0034056138
22	0x3d44f1f5	0.04808231
23	0xbdcdda7e	-0.1005144
24	0xbc8ca66c	-0.0171692
25	0xbd6b24d0	-0.057408154
26	0xbdb3357e	-0.08750437
27	0x3ccac2b9	0.024751054
28	0x3c34afa9	0.011028209
29	0xbd315f21	-0.043303613
30	0x3c8f498f	0.01749113
31	0x3d585117	0.05281171
32	0x3d6061ad	0.05478065
33	0x3b9fe686	0.0048797755
34	0x3d4ff1af	0.050767597
35	0x3cee2bb5	0.029073576
36	0xbc93bb10	-0.018033534
37	0x3d96d3d7	0.07364624
38	0xbd1788ad	-0.03699558
39	0x3d3a63ab	0.045505207
40	0xbadc3347	-0.001679995
41	0xbe10be23	-0.14135031
42	0x3d7e498a	0.06208185
43	0xbe1d38c2	-0.15353683
44	0x3ced4fb0	0.028968662
45	0x3c60e88a	0.013727317
46	0x3ce58f50	0.028022438
47	0xbe0593af	-0.13044618
48	0x3cd07532	0.025446508
49	0xbd75483f	-0.059883352
50	0xbda50943	-0.08058407
51	0xbd7058a3	-0.05867828
52	0xbd03129f	-0.03200018
53	0x3c0cea48	0.008600779
54	0xbda1c1f6	-0.07898323
55	0x3e3f197f	0.1866207
56	0xbcdcf8d4	-0.02697412
57	0x3e388922	0.18021062
58	0x3d83bce9	0.06432516
59	0x3d52e1ad	0.051484752
60	0x3d275df9	0.040861104
61	0x3c074c04	0.00825787
62	0xbd873da8	-0.06603557
63	0x3d56e65d	0.052465785
64	0xbd1be39e	-0.03805887
65	0xbc8ae417	-0.016954465
66	0xbd6e6824	-0.058204785
67	0xbde88797	-0.11353987
68	0xbd1a9d0e	-0.037747435
69	0x3d74cfb9	0.059768412
70	0x3db80a30	0.08986318
71	0x3e09a7af	0.13442872
72	0x3cd5ba73	0.026089882
73	0x3d31b8fc	0.043389305
74	0xbd15363f	-0.036428686
75	0xbbd4ff30	-0.0065001473
76	0xbd8da7c5	-0.06916765
77	0xbe6af2fc	-0.22944254
78	0xbcf11461	-0.029428663
79	0xbda4ba0f	-0.080433
80	0x3d424b38	0.047435015
81	0xbdaf2fc3	-0.08554032
82	0x3daa36b3	0.08311214
83	0x3c6e7661	0.014554591
84	0x3d09189c	0.033470735
85	0xbd92a209	-0.07159812
86	0xbd729cf2	-0.059231706
87	0xbcff7b63	-0.031186765
88	0x3d2b0b92	0.04175908
89	0x3d82550e	0.06363879
90	0xbd89fc67	-0.06737595
91	0x3c80e8dc	0.015736036
92	0xbd9d8263	-0.07690885
93	0x3d0da1c0	0.034578085
94	0xbd0d24b8	-0.034458846
95	0x3e055ee1	0.13024475
96	0xbdc131b1	-0.09433306
97	0x3df04fa2	0.11733939
98	0x3d684b7f	0.056712624
99	0xbd07a7ba	-0.03311894
100	0x3dc10e41	0.09426547
101	0x3da70ead	0.08157096
102	0xbc703fb0	-0.014663622
103	0x3d3443e2	0.04401005
104	0xbd0dae8c	-0.03459029
105	0x3db00a13	0.085956715
106	0x3a9c2540	0.0011912957
107	0xbcdc8274	-0.026917674
108	0xbdb1636a	-0.0866154
109	0xbdbdc4b5	-0.092660345
110	0x3d894d09	0.067041464
111	0x3d3d0cde	0.04615485
112	0xbd35ba57	-0.04436716
113	0xbd1ee7b7	-0.0387952
114	0xbd8fbc85	-0.07018379
115	0xbd86b315	-0.06577126
116	0xbd3cb3fd	-0.046070088
117	0x3ce52a94	0.027974404
118	0xbdb0dc85	-0.08635811
119	0x3bfd0dd0	0.007722594
120	0xbdb1c770	-0.08680618
121	0xbd57fb0a	-0.052729644
122	0x3d884b31	0.066549666
123	0xbd1ae190	-0.03781277
124	0xbca67208	-0.020318046
125	0x3d27346a	0.04082147
126	0xbcae7c4c	-0.021299504
127	0xbc37a9f0	-0.01120995
128	0x3ac5b080	0.0015082508
129	0x3d6c0042	0.057617433
130	0x3cf45a94	0.029828347
131	0x3da6b3f1	0.0813979
132	0xbc8e60f4	-0.017380215
133	0x3c54f7b0	0.012998506
134	0xbd05bd9a	-0.03265152
135	0xbd62fcc3	-0.055416834
136	0xbd602b80	-0.054728985
137	0xbd41a850	-0.047279656
138	0x3d5b86d6	0.053595386
139	0x3c816e88	0.015799776
140	0xbcecb454	-0.02889458
141	0xbd8baabc	-0.068196744
142	0x3ca426cc	0.020038031
143	0x3d8760f9	0.06610293
144	0xbd90d9ca	-0.0707279
145	0xbdbfbc7b	-0.09362122
146	0x3c654050	0.013992384
147	0x3da30fa3	0.07961967
148	0x3db06e43	0.08614781
149	0xbdaa07c6	-0.08302264
150	0x3c37e650	0.011224344
151	0x3da889b3	0.08229389
152	0x3dc6aef9	0.09701342
153	0x3c8e4558	0.01736705
154	0xbc221210	-0.009892002
155	0xbaef82c0	-0.001827322
156	0xbdbb42eb	-0.09143623
157	0x3db43f71	0.08801163
158	0xbda6d675	-0.08146373
159	0xbc998a58	-0.018742725
160	0xbc5b9c58	-0.0134039745
161	0xbd976c12	-0.0739366
162	0xbdb7531d	-0.089513995
163	0xbd18803c	-0.03723167
164	0x3d9b5159	0.07583875
165	0xbd1d32f3	-0.038378667
166	0x3cab5f6c	0.020919524
167	0x3d4d39b2	0.05010385
168	0xbb773540	-0.0037720948
169	0xbd7df7ea	-0.062004007
170	0x3dade555	0.08491007
171	0xbd497e3a	-0.049192645
172	0xbd85a8ed	-0.06526361
173	0x3cea1d5c	0.028578453
174	0xbdb8bc7b	-0.09020325
175	0x3d00d02e	0.031448536
176	0x3d6e287a	0.05814407
177	0x3c27f8d0	0.010252193
178	0xbd45a923	-0.048257004
179	0x3d131416	0.035907827
180	0x3dc55915	0.09636132
181	0x3ce3ec4c	0.027822636
182	0xbdb176e0	-0.08665252
183	0x3d750dca	0.059827603
184	0x3dc88f39	0.097929426
185	0xbd4de560	-0.050267577
186	0x3d8d7bf7	0.0690841
187	0xbd3274ad	-0.043568302
188	0xbd571123	-0.052506577
189	0xbd0ac584	-0.03387977
190	0x3ca9c6e0	0.020724714
191	0xbd10867a	-0.035284497
192	0x3dc193c5	0.09452013
193	0xbd89633d	-0.06708381
194	0xbd9eb256	-0.07748859
195	0x3c60ed00	0.01372838
196	0x3db93eb7	0.09045165
197	0xbd75a25a	-0.059969284
198	0xbd96bd7d	-0.07360361
199	0x3cf93684	0.030421503
200	0x3c206949	0.009790727
201	0x3d3d0b8e	0.046153598
202	0x3d8d7b8d	0.06908331
203	0x3c5f8563	0.013642642
204	0x3dcf08a2	0.101090685
205	0x3e113c8e	0.14183256
206	0x3d948c02	0.07253267
207	0x3dce612b	0.10077127
208	0xbd204f1a	-0.039137937
209	0xbdb128fb	-0.086503945
210	0xbd80a532	-0.062815085
211	0xbe35d819	-0.17758216
212	0xbe722898	-0.23648298
213	0x3b62e141	0.0034619125
214	0x3cb2bcd1	0.02181855
215	0x3d008320	0.03137505
216	0x3d9578b9	0.07298417
217	0xbdc8c265	-0.09802703
218	0x3dadcf82	0.084868446
219	0xbdd74440	-0.105110645
220	0x3daa9483	0.083291076
221	0x3cd37e41	0.025817038
222	0xbd8444fa	-0.06458469
223	0xbd9ddaec	-0.07707772
224	0xbdb6e252	-0.08929886
225	0x3e07d172	0.13263491
226	0x3d97405c	0.073853225
227	0xbd9a2c22	-0.07527949
228	0x3d8bc89f	0.06825375
229	0xbd4ca0f5	-0.049958188
230	0x3d77f2da	0.060534336
231	0xbd90b2d7	-0.07065361
232	0xbbf23b6d	-0.007392338
233	0x3d117aed	0.03551762
234	0x3be050a5	0.006845551
235	0xbd8ff1d6	-0.070285484
236	0xbd953c5a	-0.07286902
237	0xbd8b50bb	-0.068025075
238	0x3ce26f4f	0.027640967
239	0x3ddb45ad	0.10706649
240	0x3db8f04b	0.09030207
241	0x3d3344b7	0.043766703
242	0x3da9e505	0.08295635
243	0xbe20619c	-0.15662235
244	0x3d983685	0.07432274
245	0xbd637119	-0.05552778
246	0xbe04da24	-0.12973839
247	0xbd85ef6d	-0.065398075
248	0x3d2d5c0b	0.042324107
249	0x3c378e14	0.011203308
250	0x3bd41a0e	0.0064728325
251	0x3cfb26eb	0.030658206
252	0xbcd4b14c	-0.025963448
253	0xbd68a5f4	-0.05679889
254	0xbcc96e40	-0.024588704
255	0xbdbd8048	-0.09252983

fc3.bias f4 [100]
0	0xbd8ee880	-0.069779396
1	0xbd98a5d8	-0.07453507
2	0xbd29218b	-0.041291755
3	0x3ce53142	0.02797759
4	0xbdc49612	-0.09598936
5	0xbc24cb6d	-0.010058266
6	0xbd6e8e19	-0.058240984
7	0x3d3951f6	0.04524418
8	0x3da86594	0.082224995
9	0x3c28f8ea	0.010313252
10	0x3e0319e0	0.1280284
11	0x3d8592f6	0.06522171
12	0x3d1f6710	0.038916647
13	0xbb1fc100	-0.0024376512
14	0x3e0a89ee	0.13529179
15	0x3df7d08c	0.12100324
16	0x3d07ce57	0.033155765
17	0x3c849081	0.016182186
18	0x3da8de11	0.08245481
19	0xbd024924	-0.031808034
20	0x3dda899c	0.10670778
21	0x3df5b7cf	0.11997949
22	0xbbfc9635	-0.0077083358
23	0x3c7c1a93	0.015387195
24	0xbd1c08ef	-0.038094457
25	0x3c5dbe75	0.013534178
26	0xbda55790	-0.08073342
27	0xbd7653bc	-0.06013845
28	0x3ba78d95	0.0051133134
29	0x3c4dfc90	0.012572423
30	0xbceea9df	-0.029133735
31	0xba03e9e8	-0.0005032108
32	0xbd404acb	-0.046946328
33	0x3d820fca	0.06350668
34	0x3e15d0fc	0.14630502
35	0x3dbd4dd7	0.092433624
36	0x3cb131ca	0.021630187
37	0x3b9e94e3	0.004839526
38	0x3ca97dfc	0.020689957
39	0x3c14911d	0.009067801
40	0x3d0c6bbb	0.034282427
41	0xbdc74080	-0.09729099
42	0x3dc20c1e	0.094749674
43	0x3c36e657	0.011163316
44	0x3d73038a	0.059329547
45	0xbcb8a6e0	-0.02254051
46	0xbda7ae06	-0.08187489
47	0xbbae09d6	-0.005311231
48	0xbdbb42fe	-0.09143637
49	0x3c7460b5	0.014915635
50	0xbd9bbb50	-0.076040864
51	0xbd730e43	-0.059339773
52	0x3d6c512c	0.0576946
53	0x3d3bd7c3	0.045860063
54	0xbdcf86f3	-0.101331614
55	0x3de96e5c	0.113980025
56	0xbdd31199	-0.10306091
57	0xbde88db1	-0.113551505
58	0x3d901624	0.07035473
59	0xbba6893d	-0.005082278
60	0xbd470f8b	-0.048598807
61	0x3cb14b2f	0.021642296
62	0x3d756cac	0.05991809
63	0xbd3ba7dc	-0.04581438
64	0x3dd39938	0.103319585
65	0xbd775db3	-0.060392093
66	0x3d96502d	0.07339511
67	0x3c7207a0	0.014772326
68	0x3d487d36	0.048947535
69	0x3d3d4590	0.046208918
70	0xbdb27150	-0.08713019
71	0xbd1acca6	-0.037792824
72	0x3cab8463	0.02093715
73	0x3cbef5dc	0.023310594
74	0xbd0f0f3e	-0.034926645
75	0x3da1faf9	0.07909197
76	0x3d80949c	0.06278345
77	0x3d952eb1	0.07284296
78	0xbd8d5333	-0.069006346
79	0x3de607dc	0.11231968
80	0x3dacab2a	0.084310845
81	0xbd52c791	-0.051459853
82	0x3d6ece30	0.058302104
83	0xbd9b077c	-0.07569787
84	0xbd632014	-0.055450514
85	0x3da7b1bc	0.08188197
86	0x3d2aaaea	0.041666903
87	0xbdab9b13	-0.083791874
88	0xbdb2bc85	-0.087273635
89	0x3dc12ce6	0.09432392
90	0x3e2fab9e	0.1715531
91	0xbd2cc6d4	-0.042181805
92	0xbdddc965	-0.108294286
93	0xbc600637	-0.013673357
94	0x3b9ab101	0.0047208075
95	0xbc1be318	-0.009514593
96	0xbe4b47db	-0.1985163
97	0x3d646118	0.05575666
98	0x3adc2b86	0.0016797639
99	0x3e0d18d0	0.13778996

fc4.weight f4 [100, 100]
0	0xbd968caf	-0.07351052
1	0xbd315bf0	-0.04330057
2	0xbdb1b780	-0.08677578
3	0xbd07dd46	-0.033170007
4	0x3d1d0a16	0.038339697
5	0xbd077dc7	-0.033078935
6	0xbd8ee77b	-0.06977745
7	0x3da00860	0.078140974
8	0xbd84ea08	-0.064899504
9	0xbd846cd1	-0.064660676
10	0x3da71577	0.08158391
11	0x3d6debd2	0.058086224
12	0x3ddb7df1	0.10717381
13	0xbd23db89	-0.040004287
14	0x3d802346	0.06256728
15	0x3d9c3d8c	0.07628927
16	0x3d76a7df	0.060218688
17	0x3d165481	0.036701683
18	0xbd29eb84	-0.04148437
19	0x3d94fcea	0.07274802
20	0x3d87af36	0.06625216
21	0x3d439ccf	0.047756966
22	0xbc824e2b	-0.015906414
23	0xbc8d308e	-0.017235067
24	0xbcc6d10c	-0.024269603
25	0x3a1ab817	0.00059020653
26	0xbdb9501e	-0.09048484
27	0x3d377e10	0.044797957
28	0x3e1e8e5d	0.15483995
29	0x3ba5d498	0.0050607435
30	0x3df66db3	0.12032642
31	0xbd305825	-0.04305281
32	0x3d891743	0.0669389
33	0x3c859d01	0.016310217
34	0x3cffdebe	0.031234141
35	0xbceeab8a	-0.02913453
36	0xbdce9fec	-0.100890964
37	0x3ccb9153	0.02484957
38	0xbdee8857	-0.116470985
39	0xbd8890d0	-0.06668246
40	0x3c574232	0.013138341
41	0xbe2b8e1a	-0.16753426
42	0x3c67c5bd	0.014146266
43	0x3da3aacd	0.07991562
44	0xbd7ec478	-0.062199086
45	0xbccfcd94	-0.025366582
46	0x3cc87f3e	0.024474736
47	0xbd68c5f2	-0.0568294
48	0x3d93ccbf	0.072167866
49	0xbdbf42b4	-0.093388945
50	0xbbd86f2a	-0.0066050487
51	0xbdd6ed3c	-0.104944676
52	0xbe837619	-0.2567604
53	0xbe667819	-0.22506751
54	0xbdc14342	-0.094366565
55	0x3db73c73	0.08947077
56	0x3b8fa906	0.004384163
57	0xbd924758	-0.07142514
58	0xbe0a7d6b	-0.13524406
59	0xbd85cef9	-0.065336175
60	0xbd1eaa06	-0.038736366
61	0x3da626a3	0.08112838
62	0xbd403d23	-0.046933305
63	0x3d1db6f8	0.03850457
64	0xbd37c00e	-0.044860892
65	0x3d08f38e	0.033435397
66	0x3baf3d08	0.0053478517
67	0xbd8caa28	-0.06868392
68	0x3da0c9b7	0.07850974
69	0xbb5ee69e	-0.003401197
70	0x3de4bd80	0.11168957
71	0xbc890ce1	-0.016729774
72	0xbe22a1ee	-0.15882084
73	0x3c9c732d	0.019097889
74	0xbd1e486b	-0.038643282
75	0xbcdb7949	-0.026791232
76	0x3d74310b	0.059617084
77	0xbe1dde5f	-0.15416859
78	0x3d89ea6d	0.06734166
79	0x3ce9d743	0.028545028
80	0xbe596a4f	-0.2123196
81	0x3c26935b	0.010166968
82	0x3c55879e	0.013032822
83	0xbe2f2475	-0.17103751
84	0xbe38a57b	-0.18031876
85	0x3d932ceb	0.07186302
86	0xbd5cac8c	-0.05387549
87	0xbd885e2c	-0.06658587
88	0xbdc2c5a1	-0.09510351
89	0xbe151782	-0.14559749
90	0xbdd06c2c	-0.10176882
91	0xbda67309	-0.0812741
92	0xbda8704b	-0.08224543
93	0x3dc052a0	0.093907595
94	0xbd0c1a2d	-0.03420465
95	0x3d96a04d	0.07354794
96	0xbe05bb83	-0.13059811
97	0xbe1bd356	-0.15217337
98	0xbc113037	-0.008861593
99	0xbe14f116	-0.14545092
100	0x3d5bf5ff	0.053701397
101	0x3dcb5d17	0.09929865
102	0xbdcfa359	-0.10138578
103	0x3c81ea27	0.015858723
104	0xbd54f11d	-0.051987756
105	0xbd0f5a77	-0.034998383
106	0x3956b0a2	0.00020474431
107	0xbdad4b49	-0.08461625
108	0x3d80ae12	0.06283201
109	0x3e3d5d3a	0.18492594
110	0xbc4a6b27	-0.012354649
111	0xbc9999dd	-0.018750126
112	0x3ca50ece	0.020148661
113	0x3dcabfb5	0.098998465
114	0x3e270f80	0.16314507
115	0xbd134e19	-0.03596315
116	0xbdab64c6	-0.083688304
117	0xbdc65aef	-0.09685313
118	0xbd18cef0	-0.037306726
119	0x3c3d0b23	0.0115383
120	0x3e32e5e4	0.17470509
121	0xbc94f66a	-0.018183906
122	0x3bc8d004	0.006128313
123	0x3ddea7cb	0.10871848
124	0x3dbee825	0.09321622
125	0xbda75424	-0.081703454
126	0x3e156f76	0.145933
127	0x3d83ad2e	0.06429516
128	0xbc21e99a	-0.009882355
129	0x3d3b1b86	0.045680545
130	0x3d168742	0.036750086
131	0xbcadc450	-0.021211773
132	0x3a8eb8c3	0.0010888804
133	0xbd1dfce8	-0.03857127
134	0xbda3f32b	-0.08005365
135	0xbaa7080f	-0.001274349
136	0x3d92fbcc	0.07176933
137	0x3e5e55c1	0.217124
138	0x3e004e00	0.12529755
139	0x3d15d7ff	0.036582943
140	0xbdb414e3	-0.08793046
141	0xbbd69008	-0.0065479316
142	0x3d77bdb7	0.06048366
143	0x3c2c0860	0.010500044
144	0xbd2ebc13	-0.04265983
145	0x3d80f725	0.06297139
146	0x3dc4bfb4	0.09606877
147	0x3cd203cc	0.025636576
148	0x3e5206d4	0.20510417
149	0xbd88f609	-0.066875525
150	0x3dddfca7	0.10839205
151	0xbc2b1393	-0.010441679
152	0xbc3cb0b7	-0.0115167415
153	0xbc58b784	-0.013227347
154	0xbcda2c47	-0.026632441
155	0x3dd430c4	0.10360864
156	0x3dc67718	0.09690684
157	0xbcc7fb8a	-0.024411935
158	0xbdd2b8df	-0.102891676
159	0xbb9e8f85	-0.004838886
160	0x3d8344a7	0.06409579
161	0xbc996b7b	-0.018728008
162	0xbc389a6c	-0.011267286
163	0xbe0d72ce	-0.13813326
164	0x3d12f798	0.035880655
165	0xbd3b999a	-0.045800783
166	0xbdac3225	-0.08408002
167	0xbd6b8dba	-0.057508208
168	0x3bafffdf	0.0053710784
169	0x3d7ddda4	0.06197895
170	0xbb238915	-0.0024953533
171	0x3e031918	0.12802541
172	0x3e3f1c25	0.1866308
173	0x3d91d98a	0.071215704
174	0x3d81af42	0.06332256
175	0x3d052647	0.032507207
176	0xbdde7de9	-0.10863859
177	0xbc100d93	-0.008792299
178	0x3dcdfcd5	0.100579895
179	0xbcf4072c	-0.029788576
180	0xbe38510b	-0.17999665
181	0xbda1b974	-0.078967005
182	0x3e40601e	0.18786666
183	0xbbb15472	-0.005411678
184	0x3d8c8607	0.06861501
185	0xbc67e8d4	-0.014154632
186	0x3d7f76da	0.062369205
187	0x3dac2547	0.084055476
188	0x3de9e824	0.114212304
189	0x3d7cd19d	0.06172334
190	0xbdb40817	-0.087906055
191	0xbd1832b9	-0.037157748
192	0xbcf62080	-0.030044794
193	0xbd988861	-0.07447887
194	0x3d318916	0.043343626
195	0x3de12572	0.1099347
196	0x3dd0e3d0	0.10199702
197	0xbdfc935a	-0.123327926
198	0xbd93c0d9	-0.07214517
199	0x3dcbfc45	0.09960226
200	0xbb393840	-0.0028262287
201	0x3dae060f	0.08497249
202	0x3d4f6b6d	0.05063956
203	0xbd49ed3f	-0.04929852
204	0x3d44a2f2	0.04800696
205	0x3d8a4fe1	0.06753517
206	0xbdd11fdf	-0.10211157
207	0x3dc4c5c7	0.096080355
208	0xbd9e75e2	-0.07737328
209	0x3d688aa9	0.05677286
210	0x3cbe269c	0.02321177
211	0x3c135d46	0.008994406
212	0xbd5012d5	-0.05079921
213	0xbc3364b8	-0.010949306
214	0xbd95bf4d	-0.07311878
215	0xbd4422ff	-0.047884937
216	0x3da83536	0.08213274
217	0x3cd7b5b1	0.026331754
218	0xbd48a7a1	-0.04898799
219	0xbc8c1345	-0.017099032
220	0x3d2c7bd8	0.042110294
221	0x3cb8c766	0.022556018
222	0x3c1f67a6	0.009729302
223	0x3ca483a1	0.020082297
224	0xbc265ded	-0.01015423
225	0x3c103d4a	0.008803675
226	0x3d9e4ef5	0.077299036
227	0x3d55d48e	0.05220466
228	0x3da700a4	0.08154419
229	0x3accf5ba	0.0015637197
230	0xbd1cd13b	-0.038285475
231	0xbd123ef4	-0.035704568
232	0x3b6c4bb5	0.0036055867
233	0x3d5b2dcb	0.05351047
234	0xbd9d5bb1	-0.076835044
235	0xbd941c41	-0.072319515
236	0x3b714b97	0.0036818737
237	0xbdba40a8	-0.090943635
238	0xbd73933a	-0.059466578
239	0xbae7152b	-0.001763021
240	0x3da3a58d	0.07990561
241	0x3db85751	0.09001029
242	0xbdbde5cf	-0.09272348
243	0xbda01611	-0.07816709
244	0xbd69f3e4	-0.057117358
245	0x3dca176e	0.0986775
246	0xbe014214	-0.12622863
247	0xbe005dc6	-0.12535772
248	0xbdb793af	-0.08963715
249	0x3d53c648	0.051702768
250	0x3d9cfa40	0.07664919
251	0xbd6a1484	-0.05714847
252	0xbe21b00d	-0.15789814
253	0xbe1ec84a	-0.15506092
254	0x3d871986	0.06596665
255	0xbdaed165	-0.085360326

fc4.bias f4 [100]
0	0x3c3e4b16	0.011614582
1	0xbdbce5b5	-0.09223501
2	0x3c9971da	0.018731046
3	0x3dccf96b	0.1000851
4	0xbd5024b4	-0.050816253
5	0x3ca0fca0	0.019651711
6	0xbdef98a1	-0.116990335
7	0x3d58fa30	0.052972972
8	0x3e1e8c6a	0.15483251
9	0xbae6a635	-0.0017597141
10	0xbc829cc9	-0.015943902
11	0x3e68473e	0.22683427
12	0x3c094835	0.008379032
13	0x3d734d66	0.059399985
14	0x3b869033	0.0041065454
15	0x3d1823cd	0.037143517
16	0xbd21c5a6	-0.039495133
17	0xbdab02a6	-0.083501145
18	0x3d424e13	0.04743774
19	0xbdba3c08	-0.09093481
20	0x3ddfe4e1	0.10932327
21	0x3de09e35	0.109676756
22	0x3d3ee441	0.0466044
23	0xbd674f15	-0.056471903
24	0x3e01f8af	0.12692522
25	0xbd8e3171	-0.06943024
26	0x3d0d92c5	0.0345638
27	0xbd9aa448	-0.075508654
28	0x3ce42e6e	0.02785417
29	0x3c6b0034	0.01434331
30	0x3ddc1edd	0.10748074
31	0xbdbc5dfb	-0.09197613
32	0xbd7a3295	-0.061083395
33	0x3d9f1abc	0.07768771
34	0x3e198d4b	0.14995305
35	0x3dbdec60	0.092736006
36	0xbda06d31	-0.078333266
37	0x3d3edcfc	0.046597466
38	0x3db09ece	0.086240396
39	0x3dee3d24	0.116327554
40	0xbc864755	-0.016391436
41	0xbd8b416b	-0.06799587
42	0x3d5211f4	0.051286653
43	0xbd01981f	-0.031639215
44	0x3ccadcb1	0.024763437
45	0xbd5e79d7	-0.054315414
46	0xbd45d9e0	-0.048303485
47	0xbe0b5732	-0.13607481
48	0x3d1af36a	0.037829794
49	0xbd11a4bb	-0.03555749
50	0x3d7e51d2	0.06208975
51	0xbcfdad29	-0.030966358
52	0x3d1e1e85	0.038603324
53	0x3bc6586e	0.006053022
54	0xbdd9ad05	-0.10628704
55	0xbd0ad560	-0.033894897
56	0x3e32dfaa	0.17468134
57	0x3e4f095b	0.20218413
58	0x3de11ee3	0.10992219
59	0xbd764252	-0.06012184
60	0xbd7cb62b	-0.061697166
61	0xbd2fb33f	-0.04289555
62	0x3c9ccb6a	0.019139964
63	0x3d52074b	0.051276486
64	0x3e0fabb9	0.1403035
65	0x3db7a6d1	0.089673646
66	0x3d0eacc2	0.034832723
67	0xbdb737c8	-0.08946186
68	0xbd1e7f13	-0.038695406
69	0xbb6738a8	-0.0035281572
70	0x3d0b260a	0.033971824
71	0xbd426e43	-0.047468435
72	0xbd71113a	-0.05885432
73	0x3dbe0913	0.092790745
74	0xbd59daf5	-0.05318733
75	0xbce6aa85	-0.028157482
76	0xbd8ab20b	-0.0677224
77	0x3bd1fdd7	0.006408434
78	0x3da2db1c	0.07951948
79	0xbd3086cc	-0.043097302
80	0xbc8fc643	-0.017550593
81	0x3bc15315	0.0058997967
82	0xbcdc2e3d	-0.026877517
83	0x3cdf607c	0.027267687
84	0x3d376111	0.044770304
85	0x3dab919b	0.083773814
86	0x3dc631d1	0.096774705
87	0xbd7e94bc	-0.062153563
88	0xbdc8c177	-0.098025255
89	0xbd639577	-0.055562463
90	0xbc1e1adc	-0.009649958
91	0xbd9fe4e2	-0.07807328
92	0x3da8496a	0.082171276
93	0xbd22f887	-0.039787795
94	0xbc829d83	-0.015944248
95	0x3d861984	0.065478355
96	0x3dc1a0ee	0.09454523
97	0xbcc2e92d	-0.023792828
98	0xbd50b4c3	-0.050953638
99	0xbd93a361	-0.072088964

fc5.weight f4 [100, 100]
0	0x3ce9b414	0.02852825
1	0x3c9fa56b	0.019488057
2	0xbadcee45	-0.0016855678
3	0xbd6625b6	-0.056188308
4	0xbd04b5b4	-0.032399848
5	0x3d6c0669	0.0576233
6	0x3d9cc567	0.07654839
7	0xbcfae70d	-0.030627752
8	0xbdb66778	-0.08906454
9	0xbd5f34bc	-0.05449365
10	0xbd21c5ac	-0.039495155
11	0xbc5ee418	-0.0136041865
12	0xbd4e111f	-0.050309297
13	0xbd463608	-0.048391372
14	0x3c5b7891	0.0133954445
15	0xbad457dd	-0.0016200502
16	0xbd587c71	-0.05285305
17	0xbd9ff4ad	-0.0781034
18	0x3d27a8f7	0.04093262
19	0x3db2e64c	0.08735332
20	0x3df4485a	0.119278625
21	0xbca80b35	-0.020513156
22	0xbd5bf206	-0.05369761
23	0x3d1a8c16	0.037731253
24	0x3d9d30e8	0.07675344
25	0xbd8ae7b6	-0.067824766
26	0x3d44b532	0.048024364
27	0xbcd83977	-0.026394589
28	0x3d843a08	0.06456381
29	0x3d444f77	0.047927346
30	0xbb316163	-0.0027066104
31	0xbdc6592d	-0.09684978
32	0xbdabd5f9	-0.083904214
33	0xbd9ae2fd	-0.07562826
34	0xbd4ee318	-0.050509542
35	0xbd38d89c	-0.04512845
36	0x3d7fc6cf	0.062445458
37	0x3db9f7ba	0.09080453
38	0x3dc848d5	0.097795166
39	0xbdcd3b7d	-0.10021112
40	0x3d5573cd	0.05211239
41	0x3d5d4aef	0.05402654
42	0xbe1da113	-0.15393476
43	0x3d56786c	0.052360937
44	0xbb755b44	-0.0037438432
45	0x3c21b2f9	0.009869331
46	0x3d749b74	0.059718564
47	0xbbdac328	-0.0066760965
48	0xbdb827b1	-0.089919455
49	0x3d41bf7d	0.047301758
50	0x3db4daf2	0.08830823
51	0xbc219fe2	-0.009864779
52	0x3dc334f1	0.09531582
53	0x3d2d4fb2	0.04231233
54	0x3da645e5	0.081188
55	0xbdba15df	-0.09086203
56	0x3d7fd17f	0.06245565
57	0x3ce1468a	0.027499456
58	0xbd57be7a	-0.052671887
59	0xbcbbe3bc	-0.02293574
60	0xbcff5064	-0.031166263
61	0xbcbba4dd	-0.022905761
62	0xbdcaaf9f	-0.09896778
63	0x3d5ccbc8	0.05390528
64	0x3d96dd53	0.07366433
65	0xbcdec94f	-0.0271956
66	0x3da52748	0.08064133
67	0x3dad7d09	0.08471114
68	0x3d4de0e4	0.0502633
69	0x3dad6807	0.08467107
70	0x3d0f2d5f	0.03495538
71	0x3d263ac8	0.040583402
72	0x3bc66ae0	0.006055221
73	0xbd8e327c	-0.06943223
74	0xbbf313c1	-0.0074181263
75	0xbc8e7f88	-0.017394796
76	0xbdc67652	-0.096905366
77	0x3d51e3f8	0.0512428
78	0xbda288b0	-0.07936227
79	0x3d5a39be	0.053277723
80	0x3dc003ea	0.093757465
81	0xbdf617c6	-0.12016253
82	0xbdad59f1	-0.084644206
83	0xbcea9dde	-0.02863973
84	0x3d9fda08	0.07805258
85	0x3de3c10d	0.11120806
86	0x3cba76ba	0.022761691
87	0x3dc445d2	0.0958363
88	0x3d23a578	0.039952725
89	0xbc9962fe	-0.018723961
90	0xbd720917	-0.0590907
91	0x3cac1a94	0.021008767
92	0xbd86b807	-0.06578069
93	0x3d6c3fe8	0.057678133
94	0x3daa0194	0.08301082
95	0x3c7f8b1e	0.015597133
96	0xbdbbad76	-0.091639444
97	0x3dc8f88a	0.0981303
98	0xbca723ec	-0.020402871
99	0xbd16ef55	-0.03684934
100	0xbd91f7b6	-0.07127325
101	0x3c9d9ec8	0.019240752
102	0xbd1c0187	-0.038087394
103	0xbb4e59ff	-0.0031486747
104	0x3d258ccd	0.04041748
105	0xbd2b33e3	-0.04179753
106	0xbdab38af	-0.08360421
107	0x3d6f65c2	0.058446653
108	0x3d9bf299	0.07614631
109	0x3c26a3c6	0.010170883
110	0x3d223b06	0.03960707
111	0xbdc34a6b	-0.095356785
112	0x3bc07ba5	0.0058741146
113	0xbdcd7ccf	-0.10033571
114	0x3da6f61c	0.081524104
115	0xbbd9a0b0	-0.00664147
116	0xbdb5035d	-0.08838532
117	0xbd0469ba	-0.03232739
118	0x3d7ee244	0.062227502
119	0x3d8e0be1	0.069358595
120	0x3b9c9957	0.0047790217
121	0xbc939578	-0.018015608
122	0xbcdea4fe	-0.027178284
123	0xbcadbd99	-0.021208571
124	0xbd21d294	-0.039507464
125	0xbd7afa77	-0.06127402
126	0xbcfce761	-0.030872049
127	0xbc65762f	-0.014005228
128	0xbdacb84d	-0.0843359
129	0xbd18c4a4	-0.037296906
130	0xbc694ef0	-0.014240012
131	0x3d372706	0.04471495
132	0xbda15323	-0.07877185
133	0xbd8a980e	-0.067672834
134	0x3da9d803	0.08293154
135	0xbd622d17	-0.055218782
136	0x3d216d7e	0.03941106
137	0x3da7722a	0.08176072
138	0xbdcc521b	-0.09976598
139	0x3d92080f	0.07130443
140	0x3daa1e5a	0.0830657
141	0x3d306672	0.04306645
142	0xbdd09f8e	-0.10186683
143	0xbc27fcd8	-0.010253154
144	0x3da5ec4a	0.08101709
145	0x3d85d83f	0.06535386
146	0xb960fee6	-0.00021457262
147	0xbdaaaac2	-0.08333351
148	0xbd8d3d5b	-0.06896468
149	0xbd3e9c72	-0.046535917
150	0x3d932241	0.07184268
151	0xbd0079de	-0.03136622
152	0xbc095e2f	-0.0083842715
153	0x3c40e0e4	0.011772368
154	0x3db394e3	0.08768632
155	0xbb981b00	-0.0046418905
156	0x3c4ff514	0.0126927085
157	0x3cdd3bb2	0.027006004
158	0x3d996944	0.07490781
159	0xbd8e1a6a	-0.06938632
160	0xbdadcecc	-0.08486709
161	0x3d88ea20	0.06685281
162	0x3cb457a0	0.02201444
163	0xbd89058d	-0.06690512
164	0xbdce1ebf	-0.10064458
165	0x3d6cffa5	0.05786099
166	0xbd928185	-0.0715361
167	0x3c3a1bef	0.011359199
168	0xbdb50970	-0.08839691
169	0xbda74d5c	-0.08169052
170	0x3d3af8fd	0.04564761
171	0x3bebd655	0.007197181
172	0xbdc051d7	-0.0939061
173	0xbd77aa0f	-0.060464915
174	0x3d1d24b0	0.038365066
175	0x3d3484aa	0.04407183
176	0x3d8c1255	0.06839434
177	0x3da67f93	0.081298016
178	0xbd2d4e72	-0.04231114
179	0xbdae3388	-0.085059226
180	0x3cd360ab	0.02580293
181	0x3c661da8	0.014045157
182	0xbdad47d5	-0.084609665
183	0x3b02e71e	0.0019974182
184	0x3cc85d58	0.024458572
185	0xbd94b02d	-0.07260165
186	0x3d9dd178	0.077059686
187	0xbd673813	-0.05644996
188	0x3dc4ed13	0.09615531
189	0x3d2e179e	0.04250299
190	0x3b87dc80	0.0041461587
191	0x3b07a700	0.0020698905
192	0xbd8e9180	-0.06961346
193	0x3cfb259c	0.030657582
194	0x3d3a4d1e	0.0454837
195	0xbd07f2aa	-0.033190407
196	0xbda89a00	-0.08232498
197	0xbdbfe3b0	-0.093696
198	0xbcace60f	-0.021105794
199	0xbd149394	-0.036273554
200	0xbd72928a	-0.05922178
201	0x3d9f4515	0.07776848
202	0xbc56b6c0	-0.013105094
203	0xbd848c0b	-0.064720236
204	0x3c83b10c	0.016075633
205	0xbd98ce86	-0.07461266
206	0x3d41c4d5	0.047306854
207	0x3d48de0e	0.049039893
208	0x3c6da4b5	0.014504601
209	0x3d17b71e	0.03703987
210	0xbd8a358a	-0.06748493
211	0xbcd7189c	-0.026256852
212	0x3d06c7cd	0.03290539
213	0x3d253655	0.04033502
214	0xbddee8dc	-0.10884258
215	0xbd35540d	-0.04426961
216	0x3cd8aa98	0.026448533
217	0x3d0dd25a	0.034624435
218	0xbd616872	-0.055031247
219	0xbda575af	-0.08079087
220	0xbd23c575	-0.03998323
221	0xbe2e1ba4	-0.17002732
222	0xbd34305d	-0.043991435
223	0x3d6d66d5	0.057959396
224	0xbd69d18d	-0.05708461
225	0xbd8344de	-0.0640962
226	0x3d8c235e	0.06842683
227	0x3dd6e579	0.10492987
228	0x3ccebdaa	0.025236923
229	0xbd70cb56	-0.058787666
230	0x3d36f708	0.04466918
231	0xbdc6f64b	-0.097149454
232	0x3dad6616	0.08466737
233	0xbb8ddb6f	-0.004329137
234	0xbe2e625d	-0.1702971
235	0xbc603253	-0.013683873
236	0x3d1e631a	0.03866873
237	0xbd0b0807	-0.033943202
238	0xbe11ce02	-0.14238742
239	0x3cd4058c	0.025881551
240	0xbd1997eb	-0.037498396
241	0xbd6e109d	-0.058121312
242	0xbbb3665c	-0.0054748487
243	0x3b276e32	0.002554786
244	0xbd4828a4	-0.048866883
245	0x3d975f41	0.07391215
246	0xbdd69aba	-0.104787305
247	0x3d4b475a	0.049628593
248	0xbd38693b	-0.04502223
249	0x3cbe706a	0.023246963
250	0x3d1d5d8c	0.03841929
251	0x3d74fa55	0.059809048
252	0x3defa74d	0.11701832
253	0x3c2064a7	0.009789622
254	0xba24e700	-0.0006290525
255	0xbd08e48c	-0.033421084

fc5.bias f4 [100]
0	0x3c401210	0.011723056
1	0xbd9de0b5	-0.07708875
2	0xbce896ac	-0.028392158
3	0x3e200a35	0.15628894
4	0x3e2e84f8	0.17042911
5	0x3d8968cb	0.06709441
6	0x3df4b137	0.119478635
7	0xbcbfa270	-0.023392886
8	0x3dd9591d	0.106127
9	0x3dd1fa3d	0.10252807
10	0xbcc7be63	-0.024382776
11	0x3e0048f7	0.12527834
12	0x3c8495e7	0.01618476
13	0xbd528ac7	-0.05140188
14	0xbd021687	-0.031759765
15	0x3cfa4329	0.030549603
16	0x3e01d99e	0.1268067
17	0x3e551792	0.20809773
18	0xbda23de8	-0.07921964
19	0x3d748aeb	0.059702795
20	0x3daa5b0e	0.083181486
21	0xbd8d4de2	-0.068996206
22	0x3d89ab60	0.0672214
23	0x3d4f6d0f	0.050641116
24	0x3dca8355	0.09888331
25	0x3dda220d	0.10651026
26	0x3dab988f	0.083787076
27	0x3e4f3122	0.20233586
28	0x3d63330e	0.05546861
29	0xbd2cbad0	-0.042170346
30	0x3de45bca	0.1115032
31	0x3e227e86	0.15868577
32	0xbda89080	-0.08230686
33	0x3d6e3a68	0.05816117
34	0x3daf63b4	0.08563939
35	0xbe565df4	-0.20934278
36	0xbb8241e8	-0.003975142
37	0xbda0401c	-0.07824728
38	0x3e2f111c	0.1709637
39	0x3daee827	0.08540373
40	0x3db1f534	0.08689347
41	0x3c0b4667	0.008500672
42	0x3d08e3a6	0.033420227
43	0x3dd58be7	0.10427075
44	0xbdad27ba	-0.08454843
45	0x3d20d5f8	0.039266557
46	0xbd534aa8	-0.05158487
47	0xbd5956bd	-0.053061236
48	0x3df2fc5e	0.118645415
49	0xbd80f1cb	-0.06296118
50	0x3e014bb6	0.12626538
51	0x3d028e42	0.03187395
52	0xbd49fca5	-0.049313206
53	0xbd0352d9	-0.03206143
54	0x3da27db6	0.07934134
55	0xbc9aebc3	-0.018911248
56	0xbc42bed9	-0.011886322
57	0x3e00cb67	0.12577592
58	0x3b8ffb2d	0.004393956
59	0x3e13d77e	0.14437672
60	0x3cb2b777	0.021815998
61	0x3da3e418	0.0800249
62	0x3e886623	0.26640424
63	0x3d181d2e	0.037137203
64	0x3e29f278	0.165964
65	0x3e53ebe9	0.20695461
66	0x3cd6e25a	0.02623098
67	0xbd3c03ba	-0.04590199
68	0x3e810297	0.25197288
69	0xbddf2e31	-0.10897482
70	0xbdf51a06	-0.11967854
71	0xbe210f8b	-0.15728585
72	0xbc903d6e	-0.017607417
73	0x3dd155d1	0.10221446
74	0xbd2b50e9	-0.04182521
75	0x3d32006f	0.043457445
76	0xbe0bc12b	-0.13647906
77	0xbc4a5cb2	-0.012351202
78	0x3e68f4cf	0.22749637
79	0x3d16bb2c	0.036799595
80	0xbdff1f97	-0.12457197
81	0x3d8b414c	0.06799564
82	0x3e12a7d2	0.14321831
83	0xbe024a8c	-0.1272375
84	0xbdf76291	-0.12079347
85	0x3e7491e2	0.23883775
86	0xbc8842b7	-0.016633375
87	0x3da32be5	0.079673566
88	0x3dbada33	0.091236494
89	0x3d8f2939	0.069902845
90	0x3ca5563f	0.020182727
91	0x3d69b496	0.057056986
92	0xbd88922d	-0.06668506
93	0xbda3afac	-0.07992491
94	0x3d468e78	0.048475713
95	0x3e0d5eb2	0.13805655
96	0xbc691593	-0.014226335
97	0x3e069ad7	0.13145004
98	0x3d85afb3	0.065276526
99	0xbdd93cdd	-0.10607312
