resources/pretrained_models/ik_threelink_base/weights_200/model.pth (torch_old, 294847 bytes, 18 tensors)

fc1.weight f4 [100, 20]
00000000: 8f17 6cbe 7245 09be 90f3 80bd 3137 783e
00000010: b0ce 013e 9028 06bc 4875 33bd 426d 383e
00000020: ac1c 9cbd 64b2 843d 40c4 663c 107a 54bd
00000030: 881f f73d e0a0 22bd f6c6 4ebe b2ea 1dbe
00000040: 887a f6bc ccb4 e4bd 61f5 f3bd f3f1 f0bd
00000050: 3675 66be f9be 94be 4c00 c0bd fc16 6bbd
00000060: 10ab dc3c 5e55 febd 9c84 10bd a0fb 8f3b
00000070: 389d f63d 38a6 763d e838 263d ecca f23d
00000080: ac4b 383e 4ccf fcbd 5049 2f3c c06d 423e
00000090: 70ba ebbc 9039 a33d ae06 8abd 803a a33d
000000a0: 3088 843e 4d77 9e3c 04d6 1cbe 158e 463e
000000b0: 402d 463d 627d 4f3e f6d6 223e 6464 fe3d
000000c0: 704c 13bd ca00 503e d027 bdbd ae8f 58be
000000d0: c80b 37be ceb6 96bd f50b 5fbe d269 f3bd
000000e0: 5222 0e3e 5871 58be b23e a1bd 96c6 c6bd
000000f0: 13fa 8cbd d6d3 a4bc 57ef 46be b7ac 223d
00000100: 934d 2abe d01f 37be 6c26 033e 6e33 4ebe
00000110: 3ab2 22be d6e3 44be 0476 4abd 764d cbbd
00000120: f2e8 1b3e 8898 153e b65e 283e cc2e 3dbd
00000130: 12eb a3bd b4e1 8e3d 5ae5 53be f81c 92bd
00000140: 8717 b4bd 3e98 8dbd 3fec 223e 6dba 423e
00000150: a47b 223e 4097 5c3d dacd 3e3e c0e8 e43d
00000160: 82c9 193e 7283 2f3e 84e9 30bd 3cfc 4abd
00000170: de7a 5a3e 8ac0 133e a0b2 2a3d 58bd 8ebd
00000180: 0064 e33d 0090 0f3e 009d 4bbe 6082 4f3d
00000190: 11cb 033e 3427 e3bd 96b6 15be e360 503d
000001a0: 38eb f03d da94 05be 34dc b53d 5ece b9bd
000001b0: a7c7 56be 00dd 3fbc e4ec e53d 3040 683d
000001c0: 16c1 2c3e 4ae2 0fbe b094 753d 884d 6f3d
000001d0: 5eda 493e 00a5 e1bd e2eb 1bbe 5097 a5bc
000001e0: f97e 1ebe 3d11 143d e50e 40be 0adc 37bd
000001f0: 70b8 553d 8081 9f3b f45e 1cbe 98e4 c6bc
00000200: c23d 043e c819 bc3d de92 223e c4dc 1dbd
00000210: 0830 5fbd 70ee 2d3d 8ea9 b4bd 56e7 273e
00000220: 247a 34bd 345a 233e 183d 53be 0018 4abe
00000230: 9a68 593e dec9 823d 133a 223e 24f9 843e
00000240: dc7f e33d 1ac1 4a3e 8417 053e 20c1 943d
00000250: 78ec 3ebd 0647 a8bd 7869 2ebe c0f8 00bc
00000260: 60d8 f93c 7083 3b3d e0a5 073e aeff 463e
00000270: 2093 c43d c0a2 763c 4080 febc 64ce ea3d
00000280: 7395 3abe a106 38be a313 1e3e 4e05 443e
00000290: 5857 52bd 0a03 05be 8bab 57be cc5e 53be
000002a0: a034 98bb 5846 db3d 6876 2a3d c8ae b5bc
000002b0: d003 e23d 7013 5cbe 4023 753c b07d 193d
000002c0: 94eb fd3d 007c 293d 8004 213d 307b 77bc
000002d0: 2c41 30be be35 28bd 22fb 52be dab8 bdbd
000002e0: 7298 2b3e de15 bdbd e007 8f3d 764d d4bd
000002f0: daa3 2fbe 6899 7b3d d962 2cbe c839 513e
00000300: 6541 0bbe 7660 49be f88a 5bbe 3a9b 84bd
00000310: 401c e1bd 506f 183d f4d0 96bd 2873 993d
00000320: 0495 87be 298e 923d 9861 9e3d e165 993c
00000330: 0578 4abe e64d 5dbe 905a d63c 31bf f8bd
00000340: 686c c03d 7cda fd3d b0f4 3f3e c02f 2e3e
00000350: 80bc 403d bc32 883d 4284 b6bd bc06 9a3d
00000360: 90a4 31be 3864 3cbe ff38 f7bd 823f 403e
00000370: a03b eebc 4317 a73d 2004 113e 7808 bf3d
00000380: 4fa9 5fbe 58ff a43d 7475 73bd 88fe c5bd
00000390: f0c3 02bc 86e6 5cbe deac 2fbe b0b5 a93c
000003a0: fc48 fe3d c45a 1c3e 3c74 38be 34c2 543e
000003b0: 68b8 7cbd dab0 583e 0472 b53d 2409 43be
000003c0: dd21 cc3d 7e5f 323e 2ae0 13be cc53 4c3e
000003d0: 90bf 4dbc 4ee4 093e 0ee9 603e 3904 1ebe
000003e0: e879 fb3d 4445 5b3e 00bf d63a 6030 293d
000003f0: 78d5 793d 28c7 14be 4870 c93d d4ac 3abd
-0.23055862 -0.13405398 -0.06296456 0.24239804 0.12676501 -0.008188382 -0.04381302 0.18010429
-0.07622656 0.06479338 0.014084876 -0.05187422 0.12066561 -0.039704204 -0.20193085 -0.1542156
-0.030087724 -0.11167297 -0.11912037 -0.11764898 -0.2250565 -0.2905195 -0.093750566 -0.057394966
0.026937038 -0.12418626 -0.035282716 0.0043940097 0.12041706 0.060217112 0.040581614 0.118551105
0.17997617 -0.12344226 0.010698631 0.18987179 -0.028775424 0.079699636 -0.06739555 0.07970142
0.25885153 0.019343996 -0.15316015 0.19390137 0.048382998 0.20262673 0.15902314 0.12421492
-0.03596157 0.20312801 -0.09236109 -0.2114856 -0.17875588 -0.07359086 -0.21781905 -0.11885418
0.1388028 -0.21136987 -0.07873286 -0.09705846 -0.06883635 -0.020120542 -0.19427238 0.039715495
-0.16631155 -0.1788323 0.12807626 -0.20136806 -0.158883 -0.19227538 -0.049428955 -0.09926884
0.1522558 0.14608967 0.1644238 -0.046187207 -0.080038205 0.06976643 -0.2069296 -0.071344316
-0.0879355 -0.069138035 0.15910433 0.19016428 0.15867478 0.05385518 0.18633214 0.11177206
0.15018275 0.17139986 -0.043191448 -0.049556956 0.21335933 0.14428917 0.041674256 -0.06969708
0.11103058 0.14019775 -0.1988411 0.050661445 0.12870432 -0.11091462 -0.14620432 0.05087365
0.117636144 -0.13045064 0.08879891 -0.090725645 -0.20974599 -0.011710405 0.11226824 0.05670184
0.16870531 -0.14051166 0.059956253 0.05842355 0.19712207 -0.110177994 -0.15226701 -0.020213753
-0.15478124 0.036149252 -0.18755682 -0.04488758 0.052177846 0.0048677325 -0.15270597 -0.024278924
0.12914184 0.09184605 0.15876338 -0.038540617 -0.054489166 0.04246372 -0.088214025 0.16396841
-0.044061795 0.15952379 -0.20628774 -0.19735718 0.21231309 0.06386159 0.15842466 0.2597133
0.111083716 0.19800225 0.12997252 0.07263398 -0.046612233 -0.08216672 -0.1703242 -0.007871807
0.030498683 0.045779645 0.1324687 0.19433472 0.09598374 0.015053451 -0.031067014 0.11465147
-0.18221073 -0.17971279 0.15437178 0.19142649 -0.05135283 -0.1298944 -0.21061532 -0.20641631
-0.0046449453 0.107067764 0.041616827 -0.022178069 0.110358834 -0.2149179 0.014962018 0.03747338
0.123984486 0.04137802 0.039310932 -0.015105054 -0.17212361 -0.041066878 -0.20603612 -0.09263773
0.16757372 -0.092326865 0.06983924 -0.10366337 -0.17152348 0.061425596 -0.16834582 0.20432198
-0.13599165 -0.19665703 -0.21439731 -0.064749196 -0.109917164 0.03721553 -0.073640734 0.074926674
-0.26480877 0.07156021 0.07733458 0.018725337 -0.19772346 -0.21611747 0.02616623 -0.12145842
0.09395677 0.12395188 0.18745685 0.17010403 0.047054768 0.06650302 -0.08911945 0.07520816
-0.17347932 -0.18397605 -0.12071418 0.18774226 -0.029081166 0.08158734 0.1416173 0.09327787
-0.2184193 0.080565155 -0.059438184 -0.096676886 -0.007981285 -0.21572313 -0.17155787 0.020716518
0.124162644 0.15269 -0.1801309 0.20777208 -0.0616993 0.21161214 0.088596374 -0.19046456
0.099673964 0.1741924 -0.1444098 0.19953841 -0.012557879 0.13465998 0.21963903 -0.15431298
0.12279111 0.21413141 0.0016383827 0.0413059 0.060994595 -0.14529097 0.09835869 -0.045574978

fc1.bias f4 [100]
00000000: 3c6b d03c 8110 083e 35f8 6ebe 756b 28be
00000010: 7c7a d83d d8b1 b23d a60f d43c 59a6 183d
00000020: 6a86 243e 1c6f 3f3e 5f1f 95bb 75f1 593d
00000030: 778f 2c3e 08a8 063e 88a3 503d 6ec9 08be
00000040: 7afb fbbd 13c7 673e d855 393e 82f6 bdbd
00000050: de00 fb3d 0d5f 1d3e 26b9 43be 979a af3d
00000060: c19f 38be 7cf4 8e3d 33ee 653e c857 afbd
00000070: d663 993d 8090 3cbd 25a0 913d f3f1 f8bd
00000080: f760 f4bd b3b2 553e c3c9 a43d 9e4b 18be
00000090: 4546 393e b8ae afbc 2f38 c9bc c9c1 fabc
000000a0: 5744 47be 190e 92bd b278 babd bcdc 02bd
000000b0: d743 373e cf4e e43d 4446 4c3e c09b 69bc
000000c0: f93b b03d 7dd2 c23d d918 73be caf6 283e
000000d0: 15ce e93d 6815 3dbe 6cbf 2a3d 73a4 513e
000000e0: 7003 3fbe 7101 093e aa0d 813d 34df 2f3c
000000f0: a4d4 563e 7445 323e 0ddf aabd 896e d0bd
00000100: eaf7 5bbd b745 883d a3a4 523e 6469 bb3d
00000110: 20c6 853e b082 fe3d 41f7 81bc e7b2 5b3e
00000120: 80ac 56bb 029d 003e 70ea c3bd 897b 49be
00000130: 88ab 423e a2e6 a8bd 284a 5bbe 35b9 efbd
00000140: b32a 27be 3ce8 efbd 2c5a eabd 066c 2f3e
00000150: e9f7 dcbd 7eee 3e3e bc5f 3c3e 1ce1 03be
00000160: 9bd8 5d3e 6564 373e 2a04 32be 0ee0 38be
00000170: ab71 01be 8085 843d 4ede 203e 6b1d 903e
00000180: 5769 973d 48ff 34be 6c6b 69bd 9eb1 d5bd
0.025441758 0.13287546 -0.23336871 -0.16447242 0.10570237 0.08725327 0.025886368 0.037268016
0.160669 0.18694729 -0.004550859 0.053208787 0.16851602 0.13150036 0.050937206 -0.1335809
-0.12303825 0.22634535 0.18099153 -0.09275533 0.12256025 0.1536829 -0.19113597 0.085744075
-0.18029691 0.069802254 0.22454147 -0.08561665 0.07489745 -0.046036243 0.07110623 -0.12155523
-0.11932557 0.2086895 0.080462955 -0.14872596 0.18093212 -0.021445617 -0.024562923 -0.030609982
-0.19459663 -0.07131595 -0.09105052 -0.03194879 0.17896973 0.11147844 0.19948679 -0.014258325
0.08605189 0.09512804 -0.23739947 0.16500393 0.1141626 -0.18465197 0.04168646 0.20472889
-0.18653655 0.13379456 0.06301434 0.010734368 0.20979553 0.17409307 -0.08343325 -0.10177333
-0.053703226 0.06653922 0.20570616 0.09150961 0.2612772 0.124272704 -0.01586497 0.21454965
-0.0032756627 0.12559894 -0.095662 -0.19676031 0.19010746 -0.08247115 -0.21415007 -0.11705247
-0.16324882 -0.11714217 -0.1144298 0.17131051 -0.107894726 0.18645665 0.18395895 -0.12878841
0.2166466 0.17909391 -0.17384401 -0.1805422 -0.12641017 0.064707756 0.15709803 0.28147444
0.07393139 -0.17675507 -0.05698721 -0.104342684

fc2.weight f4 [100, 100]
00000000: f7bb 7cbd 18c8 6ebc ff2a ab3d 7d0f 29bd
00000010: d327 a6bd 50cb 173c 53b4 5cbd c265 603d
00000020: 7e6e 8dbd a8f4 09bc a701 c43d 2495 d03c
00000030: 0b98 c0bd 830a 2dbd 5809 093c ff6e a43d
00000040: 608f 893c 2ab3 c7bd 8026 c9bd 6a49 29bd
00000050: 9360 62bd 36e6 0b3d bef5 643d 130b 933d
00000060: 3047 923b 40a1 c9ba 98b2 013c 84ae f63c
00000070: d0cf c5bd 5e41 233d f1f9 bb3d 26b0 00bd
00000080: d602 4b3d 42bc 033d 5e59 a1bd e356 b5bd
00000090: a037 0f3b feb2 443d e0c8 c5bd bec2 453d
000000a0: 9d7f 8e3d b0c5 b3bd c8ee 8abc 8dd9 b3bd
000000b0: bf00 a13d a877 abbc 48a0 ffbc a3a6 8fbd
000000c0: 02b2 93bd 67d6 50bd a840 be3c 9004 69bc
000000d0: 40d3 93bd faf1 1ebd 93ef 4bbd 4857 c7bc
000000e0: a7f0 67bd 0c7f adbc 183c 29bc 4c82 f23c
000000f0: 288d a1bc c761 b7bd 8786 1abd 8060 b0bd
00000100: 88cf 9e3c 784b 81bc e048 ecbb e8d8 47bc
00000110: ded7 243d 2084 da3b ca09 18bd 009c a3bd
00000120: ffa4 813d 18f2 903c bceb 81bd 2244 85bd
00000130: 9909 c63d 5522 813d 91c0 813d a024 24bb
00000140: 3aab c9bd 8020 393c 9acd 2abd c8ca 9fbc
00000150: a233 563d 476d 37bd 1c94 e33c d788 b6bd
00000160: 00ce edb9 2ec5 92bd d5ac 983d 91d7 b93d
00000170: ba75 023d 362c 5b3d 68aa 473c 00f7 98bb
00000180: 6a39 91bd de81 393d 0018 c038 0098 9c3a
00000190: 8bf0 38bc 7142 0b3e 7d8b 95bd 9a19 743d
000001a0: 175b e43d 3d95 3fbd dc5f b33d a5cf 243d
000001b0: 389b c93d eba1 e83d 3e02 053e 42c0 0bbd
000001c0: 1ae3 dc3d e055 573c efac 273e 58d0 86bd
000001d0: a466 b03c f7ae b9be 2e47 9d3c 2435 a9bd
000001e0: a387 c8bd bca1 5e3c 65df 90bc 7783 843d
000001f0: 3082 7fbc 506b 633d 29ed e3bc e676 a4bd
00000200: ca66 013e 21c7 2bbc 20af b63d 2273 3c3d
00000210: 03f2 d3bd db8f 81be fef6 cbbd ca3d 053d
00000220: f978 733c 944f be3c 5156 8eba 4733 ae3d
00000230: ac46 9e3d 76e5 103e 5b4d 85b9 c0e5 933c
00000240: 1503 d0bc 904e bb3d 67ce 553b 92ec 613c
00000250: 2ac5 7f3d 1155 87bd a6b9 12bb b144 993d
00000260: 8871 cdbd 4634 83bd a9c5 c13c 55ef 083e
00000270: 0c0e 04bd 1986 ccbd 7eda 043c d1b2 f53d
00000280: 0c24 adbc 7ed8 b23d 5aa6 4fbc 8002 ca3b
00000290: 9611 e8be d11e 6abc 192f 3f3d 1d9e 85bd
000002a0: f6fa 96be f3cd ef3d 61c9 153c 8510 133d
000002b0: 7946 88bc d743 aebd c20a 8dbe 1604 ccbd
000002c0: d3e5 023e 6fd9 a53d abdd c3bd 5f51 2b3d
000002d0: e99e c23d c2dd 003d 96d1 93bd 3ec3 c9bd
000002e0: 09fc 103d cd10 69bd 8029 923c 7af3 6e3d
000002f0: 2094 c93d ffa6 d93d 9643 483d 3679 1f3d
00000300: 9f3f 603c ade2 b53d 0e0d 9f3c cd6b 9cbe
00000310: a26d 9ebe 9b3d 13be 4014 ab3c b929 9dbd
00000320: aeb9 093e 6246 023d 7900 30bd 8883 f23d
00000330: 7168 13bd 9b62 a63d 7c92 823d dee5 4cbd
00000340: 30ba c3bd ec93 973d a8c2 16be c8bc 8e3c
00000350: 1583 84bd 883b 98bd 07e4 92bd 6f3c 9f3d
00000360: 5189 0b3d d939 2dbe 42ab 433d 50e0 ffbc
00000370: 9e39 7cbc da7c 263d 9721 b4bb cef4 bd3d
00000380: 8144 9e3d 706c 053e 75bb 693c e5a1 babd
00000390: 8824 69bc 90f5 aa3d c404 8ebc f1b0 813d
000003a0: e306 dabc 31cd 1cbe 8649 8abd 7303 793d
000003b0: 0a91 833d c1ad a13d 8cbe bb3c b7ce 30be
000003c0: 051d b23d e1e0 95bd 571d be3d 5e6e 323d
000003d0: 189a 6bbd d047 2b3d 85a4 98bd 7e30 6ebd
000003e0: 2d60 a43d 1e6a c73d 8880 e33c 61d2 ff3d
000003f0: 63bd 5e3c 45bb a0bd 5772 d63d 56e6 55be
-0.061702695 -0.014574073 0.0835781 -0.041274536 -0.081130646 0.009264782 -0.053882908 0.054784544
-0.0690584 -0.008420147 0.09570628 0.02546174 -0.09404 -0.042246353 0.008364044 0.08028983
0.016792 -0.0975097 -0.098217964 -0.04132978 -0.05526788 0.034155093 0.05589842 0.071798466
0.0044640526 -0.0015383139 0.007916115 0.030112512 -0.09658778 0.03985726 0.09178532 -0.03141799
0.04956325 0.03216196 -0.078783736 -0.08854463 0.0021853223 0.048022263 -0.096574545 0.048281424
0.06957934 -0.0877794 -0.016959563 -0.08781729 0.078614704 -0.02093108 -0.031204358 -0.07014205
-0.07211687 -0.05098572 0.02322419 -0.014222279 -0.07218027 -0.038804986 -0.049789023 -0.024333611
-0.05662599 -0.021178745 -0.010329269 0.029603146 -0.019720629 -0.089541964 -0.03772595 -0.08612156
0.019386068 -0.015783057 -0.007210836 -0.012197711 0.04024493 0.0066685826 -0.03711871 -0.07988739
0.06330299 0.017693564 -0.06343791 -0.06507136 0.09669799 0.063053764 0.06335557 -0.0025046244
-0.09847112 0.0112992525 -0.041699983 -0.019505873 0.052295335 -0.04478195 0.027780585 -0.08912819
-0.00045357645 -0.07166515 0.0745484 0.09074319 0.031850554 0.05350896 0.012186624 -0.0046681166
-0.07091029 0.045289867 9.159744e-05 0.0011947155 -0.011287819 0.13599564 -0.07301996 0.059594728
0.111501865 -0.046773184 0.08758518 0.040237088 0.09844059 0.113590084 0.12989137 -0.0341189
0.10785504 0.013143033 0.16374563 -0.06582707 0.021533318 -0.362663 0.01919898 -0.08262089
-0.09791496 0.013588365 -0.017684648 0.064703874 -0.015595004 0.055522263 -0.027823048 -0.080304906
0.12636867 -0.010484488 0.08920121 0.046008237 -0.103488944 -0.25305066 -0.099592194 0.03252963
0.014860385 0.023231305 -0.0010859465 0.08505874 0.07728323 0.14150032 -0.0002542537 0.01805389
-0.025392095 0.09145844 0.0032624246 0.013789313 0.06244389 -0.06608022 -0.0022388487 0.07483805
-0.1003142 -0.06406455 0.023653822 0.13372548 -0.03223996 -0.099865146 0.008108733 0.11996997
-0.021135353 0.08732699 -0.012673939 0.006164849 -0.45325917 -0.014289574 0.046675775 -0.06524298
-0.29488343 0.117092036 0.009142251 0.035904426 -0.016635166 -0.08509033 -0.2754727 -0.09961717
0.12782983 0.08098113 -0.09563764 0.04182565 0.09502966 0.031461485 -0.0721771 -0.098516926
0.03539661 -0.056900788 0.017842054 0.058337666 0.09842706 0.10627555 0.04889258 0.038933955
0.013687043 0.088811256 0.019415405 -0.30550995 -0.30943018 -0.1437897 0.02088368 -0.076739736
0.13449737 0.031805404 -0.0429692 0.11841494 -0.035988275 0.08124276 0.06375596 -0.050023906
-0.09556997 0.07401261 -0.14722693 0.017424002 -0.064703144 -0.0743323 -0.07172399 0.07775199
0.034066502 -0.16916598 0.047770746 -0.03123489 -0.015394596 0.04064641 -0.0054971683 0.092752084
0.0772791 0.13029647 0.014265885 -0.0911291 -0.014229901 0.083476186 -0.017336257 0.06332577
-0.026614612 -0.1531265 -0.06752305 0.060794305 0.064241484 0.07894469 0.022918008 -0.17266355
0.08696941 -0.07318283 0.0928294 0.043562286 -0.057520002 0.041816533 -0.074532546 -0.058151715
0.080261566 0.09737037 0.02777125 0.124912985 0.013594958 -0.07848219 0.10471027 -0.20888647

fc2.bias f4 [100]
00000000: 301f c5bb 9c6a d9bb 031f ca3d 4e95 abbd
00000010: 289e 543d 9e5f aa3d caa2 a83d d697 c5bd
00000020: ccbd d4bb 3ecf d6bb d1b4 1e3c eff3 983d
00000030: 562a 52bd 669a c9bc 31fb 6a3d 3736 ab3d
00000040: dbf9 823d e5f6 9d3d 2530 963c ea84 3ebd
00000050: 8566 a83d 2d4f a9bd c273 cc3d d50a a83d
00000060: 0465 b53d 4a4f ccbd 92d0 543d cae1 a1bd
00000070: e068 45bd 7a45 b23c 4150 863d d41b 2ebc
00000080: 7030 1b3d e533 e53c cf44 503d 23ed 833d
00000090: b60b 0fbc 9e68 2b3c 260d 3d3d 729e 07bd
000000a0: d462 4cbd 5aa1 3d3d 24f1 00bd acce b0bd
000000b0: c1aa 61bc 88f1 9b3d 99da 9b3d 5c88 41bd
000000c0: 80da aabd a2cd 353d 328e e8bb 0c18 16bd
000000d0: be09 9bbc edb7 8cbd e202 c6bd 5b8d eb3d
000000e0: 8934 a23c 67f3 2c3c bb31 7bbd e805 2ebc
000000f0: f457 ca3d cfa0 bbbc 8d5e 29bd c5b8 6ebd
00000100: 70c1 58bd 05bb 0abd 71f4 813d c012 653b
00000110: 1d48 8b3d 8d49 9c3d fd88 c2bd 3ea7 913c
00000120: 7965 083d b194 d1bd bf01 1a3d 8ad8 48bd
00000130: 4f6b 73bc 40b2 5e3d 256a a73d 3d21 c5bc
00000140: 8207 d53d da1d 66bd a0d3 bbba 29db 033d
00000150: 330c eebc a12a db3d 3d27 ab3c 08b6 933d
00000160: 3ea8 a9bd 73bb c43d 40fb 123d 0e5d e93d
00000170: fa9a 343d f033 e43d 19bd 353d 314d 673d
00000180: a6fa bfbd 3626 313d 77e6 fd3b 8143 763d
-0.0060156807 -0.0066350233 0.09869196 -0.08378087 0.051908642 0.08319019 0.082341745 -0.09648101
-0.006492352 -0.006555467 0.009686665 0.07468402 -0.051309906 -0.024609756 0.05736846 0.0835995
0.063953124 0.07713107 0.018333504 -0.046513475 0.08222679 -0.08267055 0.099830166 0.08205191
0.08857158 -0.09976061 0.05195672 -0.07904394 -0.04819572 0.021761645 0.06558276 -0.010626752
0.03788799 0.027978847 0.05084687 0.064417146 -0.008730819 0.010461954 0.046155117 -0.03311009
-0.049898937 0.046296455 -0.03147997 -0.086331695 -0.013773621 0.07614428 0.076100536 -0.047249183
-0.08342457 0.04438556 -0.007097029 -0.036644027 -0.018925544 -0.068710186 -0.096685186 0.11501571
0.019800441 0.0105560785 -0.061326724 -0.010621525 0.09880057 -0.022903828 -0.041349936 -0.05828168
-0.05291885 -0.033869762 0.063454516 0.0034953803 0.06800864 0.07631216 -0.09498785 0.017779943
0.033299897 -0.10233439 0.03759932 -0.049034633 -0.014857127 0.05436921 0.08174542 -0.0240637
0.104018226 -0.056180812 -0.0014330037 0.03219143 -0.029058551 0.1070149 0.020892734 0.07212454
-0.08284043 0.096060656 0.035884142 0.11394702 0.04409311 0.11142719 0.04436979 0.0564701
-0.09373979 0.04324933 0.007748421 0.06012297

fc3.weight f4 [100, 100]
00000000: d017 3abd 2921 753d 49c1 94bb 5b25 ff3c
00000010: b2f9 6f3d 97b4 2ebd 8472 033c 1773 d1bd
00000020: a8e7 293e 3c27 e6bd 84f2 cf3d 7034 85bd
00000030: 5754 d83d 8282 013e 1b12 93bd 957a 753c
00000040: aa68 443d 4a6b 0ebd 5326 6cbd a6a0 1d3d
00000050: 6d71 d23d cb1b 733c 50d0 583d 6179 43bd
00000060: 68c0 1dbc 1669 29bd 6885 acbd 464b 723d
00000070: 0d08 973d 401d d7ba 77fc 6e3c 2a17 603d
00000080: 14cd 9a3d 2294 ac3d f9fb 923d b1b4 2d3d
00000090: 0259 3c3c 5575 ae3d e7a4 d63c f3c9 663d
000000a0: 6b9e fdbb d471 87bc 750d b63d 8d2d 8dbd
000000b0: b471 723d 1497 963c 4152 af3d 9e2a aabd
000000c0: c8b6 ac3c 3ad0 873b 3adf 3cbd b65d fabc
000000d0: c83d 5abc 2cea cd3c eb74 96bd 3bd7 523e
000000e0: ed88 41bc 3014 393e a71e c43d 91fb a43d
000000f0: 96b0 7d3d 65e1 523c 1e5a a8bd 2a8c 9a3d
00000100: 3e9c c03a b8bf cb3c 4adb acbc 6a59 79bd
00000110: 387c ae3c 7d97 c93d bed6 f63d 3cdf 113e
00000120: 2401 273d 569b 8b3d 37ad acbc 914b dbbb
00000130: f21f 00bd 0be1 2abe e3e4 64bc 3658 84bd
00000140: 955e 853d e86e 4bbd a7ce da3d 9926 683d
00000150: e81e d53c 9932 18bd 4330 68bd 461a cebc
00000160: 5cf6 f43c 1c90 813d 3e8b c9bc fc75 763d
00000170: 67e9 19bd 5e91 5d3d 2ecb 2dbd 80a7 053e
00000180: 0464 89bd 23c0 0b3e b770 293d 819a 41bd
00000190: 410e c13d ad0e a73d b03f 70bc e243 343d
000001a0: 8cae 0dbd 130a b03d 4025 9c3a 7482 dcbc
000001b0: 6a63 b1bd b5c4 bdbd 094d 893d de0c 3d3d
000001c0: 57ba 35bd b7e7 1ebd 85bc 8fbd 15b3 86bd
000001d0: fdb3 3cbd 942a e53c 85dc b0bd d00d fd3b
000001e0: 70c7 b1bd 0afb 57bd 314b 883d 90e1 1abd
000001f0: 0872 a6bc 6a34 273d 4c7c aebc f0a9 37bc
00000200: 80b0 c53a 4200 6c3d 945a f43c f1b3 a63d
00000210: f460 8ebc b0f7 543c 9abd 05bd c3fc 62bd
00000220: 802b 60bd 50a8 41bd d686 5b3d 886e 813c
00000230: 54b4 ecbc bcaa 8bbd cc26 a43c f960 873d
00000240: cad9 90bd 7bbc bfbd 5040 653c a30f a33d
00000250: 436e b03d c607 aabd 50e6 373c b389 a83d
00000260: f9ae c63d 5845 8e3c 1012 22bc c082 efba
00000270: eb42 bbbd 713f b43d 75d6 a6bd 588a 99bc
00000280: 589c 5bbc 126c 97bd 1d53 b7bd 3c80 18bd
00000290: 5951 9b3d f332 1dbd 6c5f ab3c b239 4d3d
000002a0: 4035 77bb eaf7 7dbd 55e5 ad3d 3a7e 49bd
000002b0: eda8 85bd 5c1d ea3c 7bbc b8bd 2ed0 003d
000002c0: 7a28 6e3d d0f8 273c 23a9 45bd 1614 133d
000002d0: 1559 c53d 4cec e33c e076 b1bd ca0d 753d
000002e0: 398f c83d 60e5 4dbd f77b 8d3d ad74 32bd
000002f0: 2311 57bd 84c5 0abd e0c6 a93c 7a86 10bd
00000300: c593 c13d 3d63 89bd 56b2 9ebd 00ed 603c
00000310: b73e b93d 5aa2 75bd 7dbd 96bd 8436 f93c
00000320: d438 ad3c ff6d 1f3d a2b2 413d e7ad 943b
00000330: 3cad f63d 0bb8 113e 959b a93d 6989 d93d
00000340: c248 5ebd 8d69 dfbd b98b 83bd ef70 1fbe
00000350: eca8 07be d0e5 19bc 7e74 4d3d 995e b53d
00000360: cd38 b03d f633 90bd 614a 8a3d dfa4 c4bd
00000370: c3e0 953d 668f 363c b171 abbd 9ead 71bd
00000380: 201d a8bd 6cd9 e93d 5054 fdbb aa8e 8bbd
00000390: 291f be3d e250 7ebd 3359 6d3d 1861 d9bd
000003a0: b247 0fbc 2aac 2f3d 5c31 933c 181b b0bd
000003b0: b9d7 adbd 7051 acbd bd62 de3c aa49 b83d
000003c0: 9fd1 8f3d 3954 cc3d 5b32 bd3d 6a15 21be
000003d0: d010 853d b0fb 5ebd ed3f c6bd bcaa 45bd
000003e0: 7ecf 283d 9e7a 0d3d a0b0 873c b8d3 623d
000003f0: ca77 95bc d760 73bd d8ea 81bc da49 c3bd
-0.045432866 0.059846077 -0.004539643 0.031145742 0.058587737 -0.042652693 0.008022908 -0.1022703
0.16592276 -0.11237952 0.10153678 -0.06504142 0.105629615 0.12647441 -0.07181188 0.014982839
0.047951378 -0.034770288 -0.057653736 0.038483284 0.102755405 0.014838169 0.052933037 -0.047723178
-0.009628393 -0.041359983 -0.08423883 0.059153818 0.073745824 -0.0016411915 0.0145865595 0.05470959
0.07558647 0.084266916 0.07176966 0.04240865 0.0114958305 0.08518473 0.026201678 0.056344938
-0.007739832 -0.01653377 0.088892855 -0.06893454 0.059190467 0.018382587 0.085606106 -0.0830891
0.02108325 0.0041446956 -0.046111323 -0.030562263 -0.013320394 0.025136076 -0.07346519 0.20589916
-0.011812431 0.18074107 0.09576159 0.08055795 0.061935984 0.012871121 -0.082203135 0.075462654
0.0014695001 0.024871692 -0.021100659 -0.060876288 0.021299466 0.09843347 0.120526776 0.14245313
0.040772572 0.06816737 -0.021078689 -0.006692358 -0.031280465 -0.1668741 -0.0139705865 -0.064621374
0.06512181 -0.049666315 0.10683947 0.056677435 0.026015714 -0.03715763 -0.05668665 -0.025159013
0.02990263 0.06326315 -0.024602529 0.060171112 -0.037576105 0.05409371 -0.042430095 0.13052177
-0.067085296 0.13647513 0.04136726 -0.047266487 0.09426547 0.08157096 -0.014663622 0.04401005
-0.03459029 0.085956715 0.0011912957 -0.026917674 -0.0866154 -0.092660345 0.067041464 0.04615485
-0.04436716 -0.0387952 -0.07018379 -0.06577126 -0.046070088 0.027974404 -0.08635811 0.007722594
-0.08680618 -0.052729644 0.066549666 -0.03781277 -0.020318046 0.04082147 -0.021299504 -0.01120995
0.0015082508 0.057617433 0.029828347 0.0813979 -0.017380215 0.012998506 -0.03265152 -0.055416834
-0.054728985 -0.047279656 0.053595386 0.015799776 -0.02889458 -0.068196744 0.020038031 0.06610293
-0.0707279 -0.09362122 0.013992384 0.07961967 0.08614781 -0.08302264 0.011224344 0.08229389
0.09701342 0.01736705 -0.009892002 -0.001827322 -0.09143623 0.08801163 -0.08146373 -0.018742725
-0.0134039745 -0.0739366 -0.089513995 -0.03723167 0.07583875 -0.038378667 0.020919524 0.05010385
-0.0037720948 -0.062004007 0.08491007 -0.049192645 -0.06526361 0.028578453 -0.09020325 0.031448536
0.05814407 0.010252193 -0.048257004 0.035907827 0.09636132 0.027822636 -0.08665252 0.059827603
0.097929426 -0.050267577 0.0690841 -0.043568302 -0.052506577 -0.03387977 0.020724714 -0.035284497
0.09452013 -0.06708381 -0.07748859 0.01372838 0.09045165 -0.059969284 -0.07360361 0.030421503
0.021145262 0.03892326 0.0472895 0.0045373323 0.120447606 0.14230363 0.08281628 0.10621912
-0.054268606 -0.10908804 -0.06423134 -0.15570424 -0.13248032 -0.0093931705 0.050159924 0.08855934
0.08604584 -0.07041161 0.06752468 -0.09601759 0.073182605 0.011142587 -0.08371294 -0.059003465
-0.0820868 0.11418423 -0.007730998 -0.068143204 0.09283287 -0.062088855 0.057946395 -0.10614222
-0.008745121 0.042888798 0.017967872 -0.08598918 -0.084884115 -0.084139705 0.027146691 0.08998425
0.07022404 0.09977002 0.0923812 -0.15730825 0.06497347 -0.054439247 -0.096801616 -0.048258528
0.041213505 0.034540765 0.016563714 0.055377692 -0.018245596 -0.059418526 -0.015859053 -0.095355704

fc3.bias f4 [100]
00000000: 5e89 c6bc d8a5 98bd 446e 5abd 22dd 703c
00000010: 1296 c4bd b5b2 9aba bbfa 8ebd 4c35 6c3d
00000020: 670b e63d 7230 6d3c a0e0 f73d 0c72 913d
00000030: 10b9 bd3d 115c 193c 7f3b cd3d b8de e23d
00000040: 4720 873b 8f29 c5bb 822c ae3d 8c9e 3b3c
00000050: c6f8 c13d ef82 d73d d4e7 21bd d2af d9bb
00000060: 5a91 1bbc 8fe6 973c adff c2bd 66b8 4bbd
00000070: 7e5c 883c f8e1 353d 9405 f6bc b075 8e3c
00000080: d5a8 82bd 5a11 7c3d 6775 0a3e e47a db3d
00000090: d342 a0bc 269f c4bc 90df 2b3d c7ec f23a
000000a0: 58ab e33c fdef ccbd 72d7 bd3d 5044 933c
000000b0: 98b4 c3bb 5a7c 023d d36a babd 4a95 45b9
000000c0: 2b49 8bbd bef7 143d cce5 0ebd 54f9 51bd
000000d0: 975b 603d 1178 8c3d ae05 c8bd d4a1 a53d
000000e0: ec14 ccbd 5896 c8bd 2217 913c df85 09bb
000000f0: 8f17 abbd 1e42 983c 3143 5a3c 774d 7fbd
00000100: 577d 6f3d b35d 77bd bb16 9e3d e0d4 723c
00000110: a2dc 5f3d 9fb9 503d 8d6c 9fbd 3ee5 51bd
00000120: 3650 d23c f515 b83c 0ebd b1bc e71d 9d3d
00000130: 34f0 893d 5df1 3d3d cd48 85bd 2614 e43d
00000140: 1604 a13d 7ffb 97bd b7c3 913d c005 76bd
00000150: e1bd 72bd 4709 e23d 9999 6b3d 139b abbd
00000160: 04c4 b2bd 0df0 e63d a395 073e 95aa 56bd
00000170: f5ec bcbd c2b6 13bc 01b1 9a3b 518b 48bd
00000180: fcd4 0ebe 46d8 293d 04d2 9f3b d84c cd3d
-0.024235424 -0.07453507 -0.053327814 0.01470116 -0.09598936 -0.0011802526 -0.06981417 0.057668015
0.112326436 0.014476882 0.12103391 0.07101831 0.092638135 0.009360329 0.100211136 0.110776365
0.004123721 -0.006016917 0.08504583 0.011451375 0.09471278 0.105230205 -0.03952773 -0.006643274
-0.009495104 0.018542556 -0.095214225 -0.049736403 0.016645666 0.044404954 -0.030031957 0.017390102
-0.063798584 0.061539985 0.13521348 0.10716799 -0.019563114 -0.02400167 0.041961253 0.00185337
0.027791664 -0.10006712 0.092696086 0.01797691 -0.005972456 0.031856872 -0.09102406 -0.00018842999
-0.06801065 0.036369078 -0.03488712 -0.05126317 0.054774847 0.06858838 -0.09766708 0.08087507
-0.09964928 -0.09794301 0.017711226 -0.0020984334 -0.08354103 0.018586215 0.013321684 -0.062329736
0.058469143 -0.060392093 0.07719179 0.014821261 0.05465377 0.050958272 -0.07784376 -0.051244013
0.025673013 0.022471407 -0.021696594 0.07671719 0.06735268 0.04637276 -0.06508026 0.111366555
0.078621075 -0.07421016 0.07117408 -0.060064077 -0.059263114 0.11036926 0.05751953 -0.083791874
-0.08728793 0.11276255 0.13240676 -0.052408773 -0.092248835 -0.009015741 0.0047208075 -0.048960987
-0.13948435 0.04146602 0.0048773307 0.100244224

fc4.weight f4 [100, 100]
00000000: 91c0 8fbd f05b 31bd 1777 6cbd 003f 97ba
00000010: 160a 1d3d 383d d5bc 6239 62bd 4727 c23c
00000020: d491 30bd 5ef1 f7bc ec5b aa3d de5b 823d
00000030: e671 963d 54c3 cebc a314 bf3d 24eb c03d
00000040: 67cd de3d 8f9d 953d 34d1 81bd 88bb 9b3d
00000050: 8f77 723d b596 c33d 5fa2 83bd b646 b53c
00000060: 10fd ab3b ccb3 dc3b 20cf 70bd 2c3f 473d
00000070: 7bb4 ff3d 50bc 2e3c 8951 f33d 1879 c8bc
00000080: fd07 013d 361a a03d c21f eb3b 63f6 5f3d
00000090: 51f6 5fbd b046 3b3d 99ff 66bd daef 97bd
000000a0: a22a 0fbc 0451 a6bd 9467 a23d 9d8c b53d
000000b0: 39bd 90bb 7895 b13b 665f 5d3d 8bca cdbd
000000c0: dba4 a13d 315b adbd 65ea b5bc 2612 9dbd
000000d0: 9bcf 75be a05a 55be 5cc4 b9bd 9878 a13d
000000e0: b95f 4aba 0e67 13bd 3d53 90bd fa56 65bd
000000f0: fabb 283d f35f ae3d 1240 2b3c 8d3b 853d
00000100: 2f88 f83b 8ef3 083d 083d af3b e0f4 94bd
00000110: da4e 9a3d ba77 3d3d a7f7 cf3d 4ccd c13c
00000120: 3200 f9bd 6b80 68bb bcc5 0abd 18f5 a6bc
00000130: a162 4d3d b15e acbd f796 a13d 7c1e 793d
00000140: d57c 4abe 632c 243a d205 6c3d a5b5 2ebe
00000150: 08eb 10be 53b9 aa3d d993 37bd 2c5e 88bd
00000160: 8013 ddbd 093d a8bd 5013 9dbc ddf0 93bc
00000170: 8df5 98bd f818 a13d 2d1a 0cbd 7550 c83d
00000180: ffe8 f8bd cd71 05be 3ae1 05bd a3c3 0ebd
00000190: e9da 7d3d 175d cb3d 3804 c9bd cc42 5b3c
000001a0: 1df1 54bd 16f4 45bd 3d18 42ba 6ea3 4bbd
000001b0: 0faf a03d 17c7 083e 1303 483d 5bf7 02bd
000001c0: de52 66bb c850 c23d b2d2 ba3d 2031 9cbb
000001d0: 85eb b6bd 438b 8dbd 5d43 03bd aeab 38bc
000001e0: 3cd8 883d 60dc 51bc c6d1 093d 4fbc 8e3d
000001f0: 8d8b af3d c60e 96bd f772 bd3d 543a a63d
00000200: 414b 91bc 60db 7a3d 1eb2 fa3c 0d72 76bc
00000210: 7a54 8cbd 56dc 89bc d80f 4ebd 8088 98bc
00000220: 91ce 9d3d d8a1 f23d a8d1 093c 7be9 003d
00000230: 77e3 82bd 1b89 38bd 3994 3f3d 2ed8 3a3c
00000240: 28d5 1fbd 3bec 013e 4c45 8b3d 1074 943c
00000250: a199 273e e005 4cbd d490 f53d d8b2 4ebc
00000260: 0fd6 edbb 97c4 133c c2c0 f7bc 5c1b c33c
00000270: 6fdb ea3d 0df7 bfbd 033e babd d3ea 59bc
00000280: 7098 803c 2886 e7bc 0ef9 073d 21a4 bfbd
00000290: 05cb edbc 9a99 3bbd e80a aebd 31e4 9fbc
000002a0: b5e0 0a3c c577 c03c 766f 3dba a314 b53d
000002b0: 0621 153e 9ee9 b53d 529a b1bc 824e 423d
000002c0: 9877 c8bd 0ca9 b2bb 9d69 c73d 7866 21bd
000002d0: e265 2cbe 801d 86bd 7147 d83d 49f0 85bc
000002e0: 1ce6 7d3d fd55 31bc 3cab 653d 4725 ac3d
000002f0: 9614 e23d 1b70 963d 588c aebd 08c5 22bd
00000300: 6233 8ebc ef93 8fbd 1689 313d ae19 993d
00000310: 0ea9 3c3e ec6f 07be de4d 63bd f014 ba3d
00000320: c5a3 1d3a 0f06 ae3d 3e1b 6c3d 5863 37bd
00000330: f2a2 443d e14f 8a3d c3a4 babd 4f92 da3d
00000340: ad13 97bd 1186 893d b1a6 043d f980 973c
00000350: d695 26bd 8236 a6bb daa9 80bd 5670 1fbd
00000360: 8815 bd3d de84 0b3d 675b 3ebd f450 6cbc
00000370: cb41 563d 73c8 053d a667 1f3c 2c6d f33c
00000380: ed5d 26bc d83c 6e3c f54e 9e3d 8ed4 553d
00000390: ef91 bd3d ac59 193c c81a e8bc 5cd2 cabc
000003a0: fdba 893c 92ac 813d f142 8dbd 19d1 7fbd
000003b0: 3d2b 5b3c d843 a4bd 8bce 49bd 38dc 713b
000003c0: be49 af3d 5157 b83d cddd bebd 9e88 8abd
000003d0: aaaf 5bbd fc0f e03d d1b7 eabd 382f f9bd
000003e0: af93 b7bd 48c6 533d 61c7 b43d 25d6 4dbd
000003f0: cea6 21be 4ac8 1ebe 8619 873d bca0 9abd
-0.07019151 -0.04330057 -0.05773076 -0.0011539161 0.038339697 -0.026030168 -0.055230506 0.02370037
-0.043107823 -0.03026646 0.08318314 0.063651785 0.07345943 -0.025239624 0.09330108 0.094198495
0.10879021 0.073054425 -0.063387305 0.07604128 0.05919605 0.095502295 -0.06427454 0.022128444
0.0052486733 0.0067353006 -0.05879128 0.04864423 0.12485596 0.010665014 0.11880786 -0.024471804
0.03150176 0.07817499 0.0071754167 0.054678332 -0.054678265 0.04572171 -0.0563961 -0.07418795
-0.008738192 -0.08120921 0.07929912 0.088647105 -0.0044170883 0.0054194294 0.054046057 -0.10048398
0.07892772 -0.08464659 -0.022206495 -0.07669477 -0.24004976 -0.20835352 -0.09070656 0.078843296
-0.0007719952 -0.035986952 -0.070471264 -0.05599115 0.041194893 0.085143946 0.010452287 0.06505499
0.0075845937 0.033435397 0.0053478517 -0.07273269 0.07534571 0.04625676 0.10154658 0.023657463
-0.121582404 -0.0035476934 -0.03387998 -0.020380542 0.050142888 -0.084164985 0.078901224 0.060820088
-0.19774182 0.00062627177 0.05762274 -0.1706148 -0.14152157 0.08336129 -0.044818733 -0.06658587
-0.10794735 -0.082147665 -0.019174248 -0.018059189 -0.0746871 0.078660905 -0.03420465 0.09780971
-0.121538155 -0.13031693 -0.032685496 -0.034854542 0.061976347 0.09929865 -0.09815258 0.013382625
-0.051987756 -0.04832848 -0.00074041245 -0.049716406 0.0784589 0.13357197 0.048831057 -0.031974178
-0.0035144608 0.09488064 0.09122218 -0.0047665983 -0.089316405 -0.06911328 -0.032046665 -0.0112714
0.066818684 -0.012808889 0.03364732 0.06969511 0.08571539 -0.073270366 0.092504434 0.08116594
-0.01773608 0.06124437 0.030602511 -0.01504184 -0.0685205 -0.016828697 -0.05030808 -0.018619776
0.07705415 0.118472755 0.008411802 0.031472664 -0.06391042 -0.04505263 0.046772216 0.01140408
-0.03902164 0.12687771 0.06800327 0.01812175 0.16367199 -0.04981029 0.119905144 -0.012615882
-0.007258184 0.009019039 -0.030243281 0.023816757 0.11467635 -0.09373293 -0.09093859 -0.013300615
0.015697688 -0.028262213 0.0331965 -0.09357477 -0.029027471 -0.045800783 -0.08498174 -0.01951799
0.008476426 0.02349461 -0.0007226387 0.08841827 0.14563379 0.088824496 -0.021680031 0.047438152
-0.09788436 -0.005452281 0.09736941 -0.039404362 -0.1683574 -0.065485954 0.10560501 -0.016349928
0.061987028 -0.010823724 0.056071505 0.084055476 0.11039083 0.07345601 -0.08522862 -0.039738685
-0.017358486 -0.07010638 0.043343626 0.07475601 0.18423864 -0.13226289 -0.05549418 0.09086025
0.0006013478 0.08497249 0.057643168 -0.044772476 0.04800696 0.06753517 -0.09113457 0.106724374
-0.073768 0.06715024 0.03238553 0.018494116 -0.04067024 -0.005072416 -0.062823966 -0.03892549
0.092326224 0.03406226 -0.046473887 -0.014423598 0.05230884 0.032661866 0.009729302 0.029715143
-0.01015423 0.0145408735 0.077299036 0.05220466 0.0925635 0.009359758 -0.028333083 -0.02475851
0.016812796 0.06331743 -0.06897534 -0.06245527 0.013377008 -0.08020753 -0.04926924 0.0036904942
0.08558987 0.09001029 -0.09319649 -0.06764339 -0.053634323 0.10940549 -0.114608414 -0.121672094
-0.08963715 0.051702768 0.08827091 -0.050253052 -0.15786287 -0.15506092 0.06596665 -0.07550189

fc4.bias f4 [100]
00000000: 10ae a33d dd3f a7bd cb02 e63c a2a4 983d
00000010: b3fc 90bd 588a a63c 2f36 c4bd c7b3 5a3b
00000020: bd0a dd3d 06c3 d23c d9c5 76bc 899f 0b3e
00000030: 2fd2 a3bc f466 583d 8f5a 01bc cd23 183d
00000040: 0cd3 04bd 15a0 a5bd 60bb a73d ed23 99bd
00000050: d59c cd3d 24ff 923d e600 a03d 119b 4dbd
00000060: 0039 943d 1761 29bd fd1d 913d cd9f b8bd
00000070: 427c 133d 1d2c c43b 5eb4 993d fb5d bcbd
00000080: 2440 24bd 05df 813d 3476 a83d 602c 163d
00000090: bfeb 99bd b498 823d eec1 cf3d 96a2 df3d
000000a0: 9b5a 82bc b35a b7bc 9e23 c53c dc05 12bd
000000b0: a313 d63b 019f 48bd fd39 ecbc 0c52 babd
000000c0: 3772 403c f937 a5bc c6c9 8e3d 29ad fdbc
000000d0: 6143 5d3d aecd 37bc 832c d5bd 7867 dbbc
000000e0: 089a f53d 3f3d ee3d 636f 9a3d ea23 72bd
000000f0: 2bb6 7cbd 3519 50bd 0a1d c63c 842c cf3a
00000100: 8a86 e13d 5540 963d b4f5 aa3d fd06 6ebd
00000110: 6caf 0ebd a49a fdbc 3aa3 193d bde5 25bd
00000120: 3a11 71bd b00a 473d ea28 4bbd 5897 d0bc
00000130: 82c7 5dbd 1249 f6b9 e1d0 6d3d d0f6 f7bc
00000140: 6def 0db8 eed7 adbd d3e9 60bd 9436 4a3d
00000150: 6c43 7e3d ea4a d63d ee9c d13d bc94 7ebd
00000160: 3abd cabd 708a 2dbd 2aa5 3a3d e2e4 9fbd
00000170: d85b 253d 87f8 22bd 5dd0 78bc b067 803d
00000180: f112 d53d 951c 69bd 9f47 44bd d2ad 69bd
0.07992184 -0.08166478 0.028077504 0.07453276 -0.070794486 0.02032964 -0.09580647 0.0033371316
0.10793064 0.02572776 -0.015061819 0.13635077 -0.019997684 0.05283256 -0.007895126 0.037143517
-0.032427832 -0.08087174 0.08190036 -0.074775554 0.10039679 0.071775705 0.07812671 -0.05019671
0.072374344 -0.041352358 0.07085798 -0.090148546 0.036007173 0.005986704 0.075051054 -0.09197613
-0.04010023 0.06341366 0.082256705 0.036663413 -0.07515668 0.06376782 0.10144411 0.10919683
-0.015912345 -0.022382116 0.024064835 -0.03565012 0.0065331026 -0.048979763 -0.028836245 -0.090976804
0.011745981 -0.020168291 0.06972079 -0.030966358 0.054019336 -0.011218471 -0.104088806 -0.026782736
0.1199227 0.116327755 0.075407766 -0.05911628 -0.061697166 -0.05080529 0.024183769 0.0015806113
0.110119894 0.07336489 0.083476454 -0.058112133 -0.034835264 -0.030957527 0.03750918 -0.0405023
-0.05885432 0.048594177 -0.049599566 -0.025462791 -0.054145344 -0.00046975218 0.05806053 -0.030269057
-3.3840002e-05 -0.08488451 -0.054910492 0.049368456 0.062076017 0.104635075 0.1023501 -0.062153563
-0.09899373 -0.042368352 0.04556767 -0.07807328 0.040370792 -0.039787795 -0.015186396 0.06269777
0.104040034 -0.056912024 -0.047919866 -0.057050534

fc5.weight f4 [100, 100]
00000000: 14b4 e93c bf55 7e3a 45ee dcba 0a7a 5ebd
00000010: b580 55bd 1ea8 433d cdfd 543d dfbc 85bd
00000020: ede9 c6bd 0323 76bd d473 19bd dde5 02bd
00000030: a0d8 abbd c6dc 51bd eb15 723d dd57 d4ba
00000040: 306c 12bd adf4 9fbd 5406 cb3c 1ed7 243d
00000050: dbae a23d 0c0a f3bc 9dbb aebd 61b0 303d
00000060: 8657 803d b6e7 8abd f196 903c ce38 35bd
00000070: df22 933d 237f 303d 8062 beba 2d59 c6bd
00000080: e8c8 bbbd 5164 48bd 6161 82bd 99b1 5bbd
00000090: cfc6 7f3d 80ac 703d 86e0 5e3d 41b3 d8bd
000000a0: 29c9 4e3c bc74 a23c 1f60 86bd 380b 8a3c
000000b0: 10ed 523c f9b2 213c 9625 243d db7e 6fbd
000000c0: 1b72 9fbd 50e8 943c f2da b43d e29f 21bc
000000d0: ad18 853d d8e9 60bc e545 a63d f6ae abbd
000000e0: 17dd e13c ae16 f53c 0ef9 b5bd 14a7 b3bc
000000f0: 6450 ffbc 6c80 aebc 4a81 a8bd 3a48 df3c
00000100: 34b2 2a3d 9b18 19bd e93e a43d 47ef 963d
00000110: e5d7 9e3c cbb6 813d 9dc8 e63c 1e9d 963c
00000120: e06a c63b d9f6 a1bd 758c 073d 887f 8ebc
00000130: d6b4 e2bd dd43 993d 6344 ccbd 2c0b a33c
00000140: df77 6d3d 7de4 b0bd cae5 37bd bdb5 c7bb
00000150: 08da 9f3d 035d 923d 4c73 20bd d245 c43d
00000160: d2ec 183d 94cb f0bc da19 64bd 941a ac3c
00000170: 5d0a 66bd e83f 6c3d 0e2e a93d befa 103d
00000180: c8b1 cebd 010e 733d b6f3 c0bc 55ef 16bd
00000190: b6f7 91bd c89e 9d3c 8701 1cbd 5597 8e39
000001a0: f355 383d 73b4 31bd 9a9f a3bd fa62 803d
000001b0: 99f2 9b3d c6a3 263c 063b 223d fb5d bbbd
000001c0: b81f 243c 6482 d1bd 143a af3d b0a0 d9bb
000001d0: 5d03 b5bd ba69 04bd 3d3c 863d 3174 9a3d
000001e0: fee6 0d3c 7895 93bc 8f8b bebc 906a 8abc
000001f0: 595c 0ebd 77fa 7abd 1ae5 dcbc 286d 2dbc
00000200: 4db8 acbd ed21 07bd f04e 69bc 0627 373d
00000210: 2353 a1bd 18dd 93bd d530 b23d cf1d 51bd
00000220: 7e6d 213d 5cda af3d c1b9 c3bd 1d3c 8f3d
00000230: e230 b33d 8629 423d 5b3c cabd d8fc 27bc
00000240: 219e b03d 3fd8 853d eb24 873b 6b02 a4bd
00000250: b38a 8dbd d99f 37bd 4122 933d de79 00bd
00000260: 654e 99bb 0c29 843c e394 b33d 001b 98bb
00000270: 4245 8a3c c3c9 fd3c 3106 a23d 6a1a 8ebd
00000280: ccce adbd 93b1 8c3d a057 b43c 0bb1 80bd
00000290: 587b c5bd 415d 7f3d 8581 92bd 9bb3 3f3c
000002a0: 86ea abbd 8484 adbd 72fb 473d f4f4 3f3c
000002b0: d751 c0bd 4a23 69bd dea4 2f3d aa84 343d
000002c0: 4260 933d 937f a63d acdd 1bbd 8833 aebd
000002d0: 7b5e f53c a81d 663c d547 adbd 1ee7 023b
000002e0: 585d c83c 7144 8cbd 0bd7 a63d 1338 67bd
000002f0: 13ed c43d 9e17 2e3d 80dc 873b 00a7 073b
00000300: 8091 8ebd 9c25 fb3c d942 4b3d aaf2 07bd
00000310: c0ec a8bd e890 b7bd 61c3 89bc 9493 14bd
00000320: c360 a0bd 1279 6e3d c0b6 56bc f46a 3dbd
00000330: 30bb 63bc 6af3 94bd 60b4 213d 9f54 4d3d
00000340: 8331 8f3d 8d23 62bd 8036 8dbd e4c1 123c
00000350: eb96 8d3d bbda 9f3d d58c 1a3b 0d54 35bd
00000360: 4bef 9e3d 5ad2 0d3d 2e51 89bd fd9d a4bd
00000370: be8c 8bbd 2800 3ebc 986a 67bc 4775 833d
00000380: 2484 cbbd de44 83bd faf7 9e3d 5b4f af3d
00000390: 9a70 7f3d 2f2a 8fbd fa29 003d 4bf6 c6bd
000003a0: d9fc c13d 35b6 0fbd c494 aabd 3969 8bba
000003b0: 1a63 1e3d 4e12 cfbb 135a bdbd 3014 723c
000003c0: f6ca 5cbd 32ff 84bd 10d6 05bd 006c d73a
000003d0: 1b41 a2bd 415f 973d e9a5 aebd 4691 513c
000003e0: 20da ea3b c321 763c 125c 103d 55fa 743d
000003f0: ba3f 403d 1750 23bd 00e7 24ba a0ff 8fbb
0.02852825 0.0009702108 -0.0016855678 -0.054315604 -0.052124698 0.04776775 0.051999856 -0.06530165
-0.097125866 -0.060091984 -0.037463978 -0.031957496 -0.08390927 -0.051235937 0.059102934 -0.0016200502
-0.035747707 -0.0781034 0.02478329 0.040244214 0.07943507 -0.029667877 -0.08531878 0.043136958
0.06266694 -0.067824766 0.0176501 -0.044243626 0.071843855 0.043089997 -0.0014525205 -0.09684978
-0.09169179 -0.048923794 -0.0636623 -0.053636167 0.062445458 0.05875826 0.05441334 -0.10581065
0.0126212025 0.019831054 -0.065613024 0.016851053 0.012873903 0.009869331 0.040074907 -0.05847059
-0.07785436 0.018177181 0.08830823 -0.009864779 0.06498847 -0.013727628 0.081188 -0.083829805
0.027571244 0.029918041 -0.08885394 -0.021930255 -0.031166263 -0.02130147 -0.08227785 0.02725612
0.041673854 -0.03737698 0.08019812 0.07369857 0.019390056 0.06333693 0.028171832 0.018385466
0.006055221 -0.079084106 0.033092935 -0.017394796 -0.11069648 0.07483647 -0.09973981 0.019902788
0.057975646 -0.08637331 -0.04489688 -0.006094663 0.07805258 0.07146647 -0.039172456 0.0958363
0.037335224 -0.029393949 -0.055688716 0.021008767 -0.056162227 0.057678133 0.08260737 0.035395376
-0.10092503 0.059339527 -0.02355371 -0.03684934 -0.07127325 0.019240752 -0.038087394 0.00027197102
0.045003843 -0.04338498 -0.07989426 0.06268878 0.07614631 0.010170883 0.03960707 -0.09148785
0.010017328 -0.10229948 0.085559994 -0.00664147 -0.08838532 -0.03232739 0.06554458 0.07541693
0.00866103 -0.018015608 -0.023259906 -0.016896516 -0.03475604 -0.06127402 -0.026964713 -0.010585107
-0.0843359 -0.03299134 -0.014240012 0.04471495 -0.07877185 -0.07219905 0.0870072 -0.05105382
0.03941106 0.085865706 -0.09556914 0.069938876 0.08749558 0.04740288 -0.09874793 -0.010253154
0.08623911 0.06535386 0.004124274 -0.08008274 -0.069112204 -0.044830177 0.07184268 -0.03136622
-0.004678535 0.016132854 0.08768632 -0.0046418905 0.016878728 0.030979997 0.07911337 -0.06938632
-0.08486709 0.06869807 0.02201444 -0.06283768 -0.096426666 0.062344793 -0.0715361 0.011700536
-0.08394341 -0.08472541 0.04882378 0.011716116 -0.0939061 -0.05691842 0.04288184 0.04407183
0.07196094 0.081298016 -0.0380532 -0.085059226 0.029952278 0.014045157 -0.084609665 0.0019974182
0.024458572 -0.06848992 0.08146485 -0.05644996 0.09615531 0.04250299 0.0041461587 0.0020698905
-0.06961346 0.030657582 0.049624298 -0.033190407 -0.082482815 -0.089631855 -0.016816797 -0.036273554
-0.07830956 0.05822093 -0.013105094 -0.046244577 -0.013899609 -0.0727299 0.03947866 0.05012953
0.069918655 -0.055209685 -0.06895161 0.00895736 0.06913551 0.078053914 0.0023582478 -0.04426961
0.07760485 0.034624435 -0.06704937 -0.080379464 -0.06813954 -0.011596717 -0.014124535 0.06418853
-0.09937313 -0.0640962 0.077621415 0.08560058 0.062363245 -0.06990468 0.031290032 -0.097149454
0.09472055 -0.035085876 -0.08329156 -0.0010636217 0.03866873 -0.0063193208 -0.09245696 0.014775321
-0.053904496 -0.06493987 -0.03267485 0.0016435385 -0.07922574 0.07391215 -0.085277386 0.012790984
0.007167116 0.015022698 0.035244055 0.059809048 0.046935774 -0.0398713 -0.0006290525 -0.0043944865

fc5.bias f4 [100]
00000000: 0bff 30bd 1e94 95bd 2405 0ebd 21e9 fe3d
00000010: 1e48 583d c0c0 aa3d 65d0 8b3d d466 a1bc
00000020: c63c aa3d f5aa 803d 6e49 2dbc 0082 a03d
00000030: 094f 8c3d e93e 79bd 201b 20bc 6c63 833b
00000040: 471a 8b3d 935b 123e e83d a2bd 0b67 473d
00000050: b7ea a93d d84b 4fbd 4491 243c c81b ce3c
00000060: 1dc3 c13d 1bb9 9d3d e715 ba3d 2723 1f3e
00000070: b8ca 5d3c 77a8 54bd 9fc3 853d b092 a23d
00000080: 268b 52bd ec35 7e3d 055e 5c3d b8f5 2bbe
00000090: e25d 4f3c 0b5a 95bd 2cbf 013e bb8e e83c
000000a0: 8111 c83d 84b4 1e3c a855 143d f8b7 443d
000000b0: 0c54 a8bd c2a3 3e3d 09e6 88bd f6d5 8fbd
000000c0: bef2 a83d d1b3 91bd 4f55 c83d e9d7 033d
000000d0: 23bc 18bc 5cc0 15bd 0149 923c 9ffe f0bc
000000e0: 707c 033d 8ebb 593d dd0f 963c 3430 e93d
000000f0: 0a65 6a3c df6d cf3d 4ee7 0b3e 91cb 3f3d
00000100: 67e2 c43d 0b1f 1a3e 41bd 233c ba03 3cbd
00000110: 2ff4 1d3e f11d 72bd 5107 66bd bd29 e1bd
00000120: d254 3ebd c288 c43d 2c1a fabc 6f00 323d
00000130: fe8e a5bd 5d80 90bb 915d ff3d e18d 163d
00000140: d3d7 f2bd 4c41 8b3d 67ce 033e 4519 a8bd
00000150: 1f13 ddbd 56a9 1b3e 9d5b 033d 0427 133d
00000160: 7f4c 523d 8259 473d b743 8c3c 6f20 183d
00000170: 68e7 78bd 72d2 a9bd 1197 2f3d 7a4a 8b3d
00000180: 2233 96bd 810b ae3c ae8f 8a3d 99bb d2bd
-0.043211978 -0.07303642 -0.03467287 0.124468096 0.05280315 0.083375454 0.068268575 -0.019702353
0.08312373 0.062826075 -0.010576589 0.078372955 0.06851012 -0.06085101 -0.009772092 0.0040096547
0.067921214 0.14292745 -0.07921964 0.048682254 0.082967214 -0.05060944 0.0100444 0.025159732
0.09461043 0.07701322 0.09086209 0.15540753 0.013537101 -0.051918473 0.065314524 0.07938135
-0.051402234 0.062063143 0.0538006 -0.16792953 0.012656661 -0.07292565 0.12670583 0.028388372
0.097689636 0.009686593 0.0362145 0.04802701 -0.08219156 0.04654289 -0.06684501 -0.07023232
0.082494244 -0.071143754 0.09781896 0.03218833 -0.009322199 -0.0365604 0.017857077 -0.029418288
0.032101095 0.05315738 0.018318111 0.11386147 0.014306316 0.10128378 0.13662454 0.046824995
0.09613495 0.15050904 0.009993852 -0.04590199 0.1542518 -0.059110586 -0.05615932 -0.10994289
-0.04646761 0.09596397 -0.030530058 0.043457445 -0.08083914 -0.0044098333 0.12469018 0.0367564
-0.118575715 0.06799564 0.12871705 -0.08207945 -0.10794663 0.15201315 0.03206979 0.03592588
0.051342484 0.048669346 0.017122133 0.037140306 -0.06076756 -0.082920924 0.042868678 0.06801315
-0.073339716 0.02124572 0.06765686 -0.10289688

fc6.weight f4 [100, 100]
00000000: dbaf aa3d cfe5 a03d 5e82 0a3d 115c f13d
00000010: 349c b5ba e456 9bbe ee34 033e 30f7 f93b
00000020: 1c54 a2bd 2f19 dcbd b9df 2c3e fb6a a9bd
00000030: 8087 123d 7faf d03d 5faa c73d 29b4 a8bd
00000040: c2e2 43bd b652 8abd b21d 143d 4dcf a0bc
00000050: 8739 abbd 621e 76be ed8e d93d c073 9b3d
00000060: 261a 083d d45e 1fbe f896 03bc 6082 27bd
00000070: 75ca dcbc eaff 8b3d 54c1 613d f65a ab3d
00000080: f3a3 6e3e 3826 0cbe 0749 c4bb 924f 71bc
00000090: bbc6 09bd dd6c 6e3d 735a fd3d 4a4b efbd
000000a0: eac2 41bd 6683 95bd eade 3d3d a920 9b3d
000000b0: 42bb 1fbc 9042 cbbc 31c4 9cbd 02d4 4d3e
000000c0: 6c27 85be 6027 9f3d 6b9f 22bc d2d8 613d
000000d0: 8ac7 563d b524 b9bd d241 203e 8aef 0f3e
000000e0: 081f cdbb d219 7f3d 8839 e5bd 7f77 20bc
000000f0: c489 a23d 0733 adbb 2249 b33d cff0 b53d
00000100: 819a 01be 11bc 90bd 798c a2bc f2a3 dcbd
00000110: d3fb 18be 562e 703d 7be2 4ebe 7308 3a39
00000120: 4c00 01be 958d 513d a633 213d 374f 77bd
00000130: 1cab a5be c340 ac3b 35c1 e03c 9d6d 023e
00000140: 107e b53b e159 cc3d b0bc a93d a9c7 943d
00000150: 4da0 2b3e 33f2 e1bd 6723 b73d 7ee1 c83d
00000160: 4ed0 c8bd d815 993c a471 d63d ddc4 603d
00000170: cad5 123e 683a aa3d 2621 1dbe e19c f8bb
00000180: d8fa 313c 6b00 613c c3fd 5cbd ac55 afbd
00000190: f122 563c 7f51 963d ed76 873d e2c9 073e
000001a0: abd4 263d 552e 083c f4ed 1d3d 1456 05bd
000001b0: d941 943c d025 4cbd baee eabd 34df 683d
000001c0: 0caa 423d a9a9 93bd 43e6 88bd 7e82 83bd
000001d0: 3702 12bc 4b3b 4abd b48b c93c 767c 333d
000001e0: c011 bb3d deca 6eb9 4a53 2b3d 7431 a43c
000001f0: 79a7 dd3d 3c29 36bd 72e0 b1bd 78b8 013e
00000200: e304 22bd f424 21bc 74db c53c f789 713c
00000210: 5086 8ebc 2bcc aabd 5ea7 0dbd 687a 123e
00000220: 27bb 3b3d 4eb7 00be eeb0 aa3d 7244 1f3d
00000230: c1cc 7b3d 1a61 783d 1a25 4d3d bd4d c33d
00000240: e121 c3bd 4f20 a73a e545 8dbd e9fb 693d
00000250: fccf 7c3b 44d9 8a3d 869e 833d cbef 4cbd
00000260: dc11 02be 8366 4f3c 98a6 8b3d 1261 e6bd
00000270: 63dc 51bd 368b 973d 6fde 8c3c 6c4c 53bd
00000280: 98ef a33d 3bba afbd f6e4 af3d 0f91 31bc
00000290: 9f71 5bbd 9b76 d4ba cc2f cabd fd47 a13d
000002a0: 1010 00bc bf16 22be 0d0c 3bbd c0c5 91bd
000002b0: 9498 e63d 8e72 9e3d d57f 853d 20d8 edbb
000002c0: 807d f9bd 4a2e 863c 0a1c b73c 11a9 babd
000002d0: 1847 80bd a74f 1fbd 283f 1d3d 95da ecbd
000002e0: 8346 1d3b a1b7 493d a345 0fbe e3aa ef3c
000002f0: 770a 8a3c 4b71 57bd 8429 3c3d cec9 8fbc
00000300: a95f 90bc 28cf f13d 19cf 97bd f990 efbc
00000310: ceaf dc3d a15f 923d 5bb0 ed3d 7e34 a23d
00000320: debd a73c 56d9 7c3b 8b43 6cbd 1b49 033e
00000330: bda4 3abd 4dc9 233d 0289 9d3d 20e0 bc3c
00000340: 0034 8dbd 421c ae3d ee64 a8bd 24b4 d6bc
00000350: 224c c0bd 64f7 28bd 206c 66bd 5e4c 80bd
00000360: b157 ec3d 079a 3f3d f08a 23bc 8d84 c8bd
00000370: 0be0 c03d c839 a33b 8611 b43c cb9a d63d
00000380: 87c8 db3d dd9b 6dbd 960b 44bd 2f51 2a3d
00000390: e474 98bd 41db 85bc 4334 8f3d ffa0 95bb
000003a0: 188a 18bc 3ad2 febc 7c7b b23d 3018 5fbd
000003b0: 3421 333d c52e e93d 0277 ee3c a0cb 0a3e
000003c0: fbda 3ebc ac4d 81bd 4646 59bb 3ad8 b4bd
000003d0: 864b c03d 9966 cebd 33f8 783d 4b1d 82bc
000003e0: b05d 983d 45e4 ba3d 8262 9b3c 480f 94bd
000003f0: 034c 983b f394 29bd 6355 1d3d fbd6 9dbd
0.08334323 0.078563325 0.033815734 0.117851384 -0.0013855756 -0.3033973 0.1281316 0.007628344
-0.07926199 -0.10746991 0.16882218 -0.08272358 0.035773754 0.10189723 0.097492926 -0.08237488
-0.047823675 -0.06754057 0.036161132 -0.019630099 -0.08360582 -0.24035028 0.10622964 0.07590437
0.033228062 -0.15563518 -0.008031599 -0.04089582 -0.026952008 0.06835921 0.055116013 0.08366959
0.23304729 -0.13686454 -0.005990151 -0.014728444 -0.03363679 0.05820929 0.123707674 -0.11684282
-0.047305025 -0.07300453 0.046355166 0.07574589 -0.009749236 -0.024812013 -0.07654608 0.20100406
-0.2600664 0.07771182 -0.0099257035 0.055138417 0.05243639 -0.090402044 0.15650108 0.1405622
-0.0062598027 0.062280484 -0.11192614 -0.009794115 0.07936433 -0.005285624 0.08754183 0.08883821
-0.12656595 -0.07067121 -0.019842373 -0.107734576 -0.14939813 0.05863794 -0.20203583 0.0001774149
-0.1259777 0.051160414 0.039355896 -0.06037828 -0.3235711 0.0052567436 0.027435878 0.12737127
0.0055387095 0.099780805 0.082879424 0.07264645 0.16760369 -0.11032524 0.08942299 0.09808634
-0.09805356 0.018687174 0.10470894 0.054875243 0.14339367 0.08311921 -0.15344676 -0.007587061
0.0108630285 0.01373301 -0.053952944 -0.085612625 0.013069854 0.07339763 0.0661448 0.13260606
0.04073016 0.008311828 0.038557008 -0.032552794 0.018097805 -0.04984075 -0.11471315 0.056853488
0.04752545 -0.072100945 -0.06684544 -0.06421374 -0.008911661 -0.049372952 0.024602748 0.043819867
0.09134245 -0.00022773023 0.041827478 0.020043112 0.108229585 -0.044472918 -0.08685388 0.12668025
-0.03955544 -0.0098354705 0.024152495 0.014742366 -0.01739803 -0.08339723 -0.034583442 0.14304507
0.04583278 -0.12569925 0.08334528 0.038883634 0.061474565 0.06063948 0.05008421 0.09536312
-0.09527946 0.0012750718 -0.06898097 0.057125006 0.0038576117 0.067797214 0.0642672 -0.050033372
-0.12702125 0.012658718 0.068188846 -0.112489834 -0.051235568 0.07399599 0.017195908 -0.051586553
0.08004683 -0.085804425 0.08588593 -0.010837807 -0.053575154 -0.0016209664 -0.09872398 0.07875059
-0.00781633 -0.1582899 -0.04566579 -0.07117796 0.11259571 0.07736693 0.06518523 -0.00725843
-0.1218214 0.016379494 0.022352237 -0.09114278 -0.0626356 -0.03889432 0.03839031 -0.11565129
0.0023998327 0.049247388 -0.13991408 0.02925629 0.016850693 -0.05259828 0.04593803 -0.017552283
-0.01762374 0.1180709 -0.074125476 -0.029243933 0.107757196 0.07147146 0.11605903 0.07920168
0.020476278 0.003858169 -0.0576816 0.12820856 -0.045567263 0.039986897 0.07692148 0.02305609
-0.06894684 0.085014835 -0.08222376 -0.026208945 -0.09389521 -0.041251555 -0.05625546 -0.06264566
0.11540163 0.04677775 -0.009981856 -0.09790907 0.09417733 0.0049812533 0.021981012 0.10478743
0.10731607 -0.05800997 -0.04786261 0.04158133 -0.0744417 -0.0163399 0.0699239 -0.0045663114
-0.009310268 -0.031106103 0.08714959 -0.054466426 0.043732837 0.11385874 0.029109482 0.1355424
-0.011648889 -0.06313643 -0.0033153458 -0.088303044 0.09389405 -0.10078163 0.060783576 -0.015883109
0.074397445 0.0912557 0.01896787 -0.07229477 0.004647733 -0.041401815 0.03841151 -0.0770702
