resources/pretrained_models/ik_threelink_obs1/models/weights_950/model.pth (torch_old, 295063 bytes, 18 tensors)

fc1.weight f4 [100, 20]
000000 70 29 f1 3d e6 21 08 3e 2c 29 e1 3d 93 30 3d be
       0.11775482 0.13294181 0.10994181 -0.18475561
000010 ee a7 21 be 7a 79 56 be 2d f1 d7 bd 30 35 c1 3d
       -0.15786716 -0.20944777 -0.105440475 0.09433973
000020 b4 65 50 3e f4 54 58 be 66 9f 3b be f8 6f e1 bc
       0.20351297 -0.21126157 -0.18322524 -0.027519211
000030 ce 38 ba bd 56 bf 24 3e 5e b2 47 be da e2 2c be
       -0.09092866 0.16088614 -0.19501635 -0.16883412
000040 aa 87 50 3e 88 69 ae 3c cb 2f 0c be c5 88 3f be
       0.20364252 0.021290556 -0.13690107 -0.18704517
000050 e8 d9 8b 3d 5a 9b 52 be 0c 41 2b 3e a8 3b 4f be
       0.06828672 -0.20567074 0.16724032 -0.20237601
000060 40 98 81 bd b4 e4 ac bd 00 18 a6 bb 21 5a ed bd
       -0.063278675 -0.08442059 -0.005068779 -0.11589456
000070 60 d6 42 bd ea 12 0b 3e 44 04 2e be a8 03 ac 3c
       -0.047567725 0.13581434 -0.16993815 0.020997837
000080 1c 2d 3a 3e d0 fe 91 bd 08 b7 58 be 00 7d 74 bc
       0.1818127 -0.0712868 -0.21163571 -0.01492238
000090 54 50 f1 3d 70 85 1d 3d e4 ec 3d 3e f1 ed f2 bd
       0.117828995 0.038457334 0.18547398 -0.1186179
0000a0 ef 65 53 3d 58 21 c6 bd 5a 60 27 be 9c 2d 1d 3e
       0.051610883 -0.096743286 -0.16345349 0.1534943
0000b0 08 92 1c bd ef b6 bd 3d 28 07 15 be 8e 28 b3 3d
       -0.038225204 0.092634074 -0.14553511 0.087479696
0000c0 e8 2c 34 be e8 b3 7e 3d c0 22 6c 3c 00 07 93 3c
       -0.17595255 0.06218329 0.014412582 0.017947674
0000d0 00 eb 02 bb e0 91 b7 3b e4 22 2b bd 74 e0 86 bd
       -0.0019976497 0.0056021065 -0.04178132 -0.0658578
0000e0 1e 4e 14 3e 8c 28 4a 3e f0 b9 da bd 78 ce 17 3e
       0.14482924 0.1974203 -0.10679996 0.14824855
0000f0 83 5d 98 bc ef 8a f6 bc 3c 68 f1 3b 90 2a a7 3d
       -0.018599277 -0.030095546 0.007367162 0.08162415
000100 c8 43 09 3e 37 55 c7 3d 61 ae 29 bd 45 c7 fd bd
       0.13404763 0.0973305 -0.041426066 -0.12391523
000110 d8 e7 b3 3d 08 24 8b bd 3e df 80 bd 78 74 23 3d
       0.08784455 -0.06793982 -0.0629258 0.039905995
000120 79 b2 e2 bd 2c 62 13 3e 5b 89 27 be 82 e1 1a 3e
       -0.11069197 0.14392918 -0.1636099 0.15125087
000130 f1 23 55 be ca 2d 33 3e 2c 2f 2c be 10 31 f6 3d
       -0.20814492 0.17497936 -0.1681487 0.12021077
000140 be ab 25 3e fa 66 d2 bd b8 a7 a3 3c b8 49 74 3e
       0.16178796 -0.102735475 0.019977435 0.23856246
000150 d7 06 6c bd 35 fe 69 3e 44 a3 62 3e 06 8e 73 bd
       -0.05762371 0.22850879 0.22132593 -0.059461616
000160 ec 2e 70 bd 58 34 37 be f7 25 11 be f8 0c 08 3d
       -0.0586385 -0.17891061 -0.14174639 0.033215493
000170 28 7c 51 3e 48 f3 08 3e 50 0e 03 3d 32 ca 63 3e
       0.20457518 0.13374054 0.03199607 0.222451
000180 74 0f 45 bd 04 48 e6 3d ea 5f 19 3e 0e b0 0f 3e
       -0.04811044 0.11244205 0.14977995 0.14032003
000190 3e dd ca bd 7f 92 ab 3d db 39 e8 bd 6b d1 4f 3e
       -0.0990548 0.08377551 -0.1133916 0.2029473
0001a0 bd c4 69 bd 08 49 41 be 41 bc f2 3d e3 d0 1d be
       -0.05707239 -0.18875515 0.11852313 -0.15411715
0001b0 d2 93 49 be c0 8b b4 bb 8e e8 45 3e 0c 11 d2 3d
       -0.19685295 -0.0055098236 0.19326994 0.10257158
0001c0 44 5d 8f 3d 1c ba 5b 3e 80 12 25 3b 79 b2 0d be
       0.07000211 0.21457714 0.0025188029 -0.13837613
0001d0 7b b9 3a be 2e 4f 08 be 34 34 80 3d 30 34 3c 3e
       -0.18234818 -0.13311455 0.06259957 0.18379283
0001e0 36 bb f1 bd 16 ee 21 be 40 93 e5 3d 28 23 62 3e
       -0.11803286 -0.15813479 0.11209726 0.22083724
0001f0 b4 d2 11 be 16 23 36 3e d5 96 07 be 9d bc e1 bd
       -0.14240533 0.17786822 -0.13241132 -0.11022303
000200 80 9c 47 3d 58 27 70 3d f4 a8 dc 3d ac 31 21 be
       0.048733234 0.05863127 0.10774413 -0.15741605
000210 f0 ab 21 bd 80 49 2e bd 20 9c a0 3d e0 68 23 be
       -0.039470613 -0.042550564 0.078422785 -0.15957975
000220 2a 60 14 3e 12 22 96 bd 6a 9b 1c 3e c6 67 37 3e
       0.14489809 -0.07330717 0.15293661 0.1791068
000230 63 46 0d 3d 6b b6 46 3d 09 d6 dc 3d 8c 82 86 3d
       0.034490954 0.04851381 0.107830115 0.065678686
000240 3c 66 04 3e 89 5c cd 3d 8a 21 b3 3c 69 39 88 3d
       0.12929624 0.10027415 0.021866579 0.06651575
000250 f4 66 30 3e 50 50 bd bc 2a 52 8b bd a4 0b 15 be
       0.17226774 -0.023109585 -0.06802781 -0.14555222
000260 80 96 51 3b b0 0f 9b 3c f0 be 2c bc c8 5f a5 bd
       0.0031980574 0.018928379 -0.01054357 -0.080749094
000270 e8 be c8 3d 28 c8 34 bd ed ad e6 bd 00 e1 31 bd
       0.098020375 -0.044136196 -0.112636425 -0.043427467
000280 c4 5f 23 3c 4c ca 8e 3e b2 f6 30 3e e6 c0 de 3d
       0.009971563 0.27888715 0.17281607 0.10876636
000290 6d fa ed 3d d6 70 00 bd 5f 6a 51 be 56 99 55 be
       0.116200306 -0.03135761 -0.20450734 -0.20859274
0002a0 58 e1 fe 3d 54 85 68 bd 54 16 40 be 10 77 25 3c
       0.12445325 -0.056767777 -0.18758518 0.0100991875
0002b0 a8 50 d4 3d 8c 9f 52 3e 24 d1 15 3e 3e 5b 09 3e
       0.103669465 0.20568675 0.14630562 0.13413712
0002c0 94 77 0c 3e 58 a6 d1 3d d8 3e 33 3e 98 c3 00 3e
       0.1371749 0.10236806 0.17504442 0.12574613
0002d0 0e 1b 46 be 08 f4 03 3e e6 bf 42 be 30 e4 f3 3d
       -0.19346258 0.1288606 -0.19018516 0.11908758
0002e0 4a 66 e9 bc e4 d9 00 3d 9c e5 6d 3e 1c f5 eb bc
       -0.028491158 0.031457797 0.2323212 -0.0288034
0002f0 dd 3c 52 be da ea 27 3e 70 66 ad 3d ac 84 61 3e
       -0.2053103 0.16398183 0.08466804 0.22023267
000300 8c c0 17 3e 75 da 59 be c2 37 87 bd 8e 7e 38 be
       0.14819545 -0.21274741 -0.06602432 -0.18017027
000310 c0 4c 3b 3d 96 ff b9 bd 60 c1 9f bd 70 ad 0e 3d
       0.04572749 -0.09081952 -0.07800555 0.03483337
000320 3c 01 ab bd 60 99 cb bb a8 f4 b9 bc 88 c2 25 bd
       -0.08349845 -0.006213352 -0.022699669 -0.040468723
000330 a8 67 47 be 19 5c 3b be 06 d0 19 be 40 2a 09 3b
       -0.19473135 -0.18296851 -0.15020761 0.0020929724
000340 b4 81 b1 3d c6 53 4f 3e 92 fa 24 3e 7e d6 5b be
       0.08667317 0.20246801 0.1611121 -0.21468541
000350 00 f4 52 3d 1b db 01 be 40 aa 86 3d 05 04 21 be
       0.051502228 -0.12681238 0.06575441 -0.1572419
000360 5e a6 25 3e c8 e2 aa bc 56 76 a3 bd a0 a4 7b 3d
       0.16176745 -0.02086009 -0.07981555 0.061436296
000370 90 e5 7d 3c 39 c4 47 be 44 e6 f0 3d 78 c4 b1 bd
       0.0154966265 -0.19508447 0.1176267 -0.086800516
000380 b6 a2 f9 bd fe 53 15 3e 0f e2 60 be 00 66 5b 3e
       -0.12189238 0.14582822 -0.21961235 0.21425629
000390 08 e1 bf 3d 33 70 d0 bd c8 b9 44 bd b0 af 1d 3e
       0.09369093 -0.1017765 -0.048028737 0.1539905
0003a0 48 02 5d 3e 28 06 6c bd fd cd d9 bd d8 f1 4e 3d
       0.21582901 -0.05762306 -0.10634992 0.05052361
0003b0 28 73 5a be 2a 04 55 3e c0 a2 17 3e 00 2e d7 bb
       -0.21332991 0.2080237 0.14808178 -0.006566763
0003c0 8e 37 27 bd c2 e7 f8 bd 6d a3 e5 bd 85 cd 95 bd
       -0.040824465 -0.12153579 -0.112128116 -0.0731459
0003d0 b8 99 d4 3d 91 e2 08 3e 8d 21 e3 3c ae 88 fd 3d
       0.10380882 0.13367678 0.02772596 0.12379585
0003e0 08 ad 90 3d f0 c5 63 3e 60 93 1a 3e fc e0 f7 3d
       0.07064253 0.22243476 0.15095282 0.12103459
0003f0 d3 70 e6 bd 88 f0 97 bd f0 3a 52 bc 6e b9 d7 bd
       -0.11251988 -0.074189246 -0.012831435 -0.10533415

fc1.bias f4 [100]
000000 b0 3e 30 3e 50 c1 a0 3c d7 9a b5 bc 82 54 d2 bd
       0.17211413 0.019623429 -0.02216856 -0.10270025
000010 35 e7 35 be 41 6c 31 be 91 93 3a be 9f f2 2c 3d
       -0.1776398 -0.17326452 -0.18220355 0.04222357
000020 61 71 ab bd a0 b1 19 be 90 c6 4a be d0 d7 9c 3d
       -0.08371235 -0.15009165 -0.19802308 0.076583505
000030 20 6f e3 bc 02 dc 0a 3e de 76 53 3d e8 39 17 bb
       -0.02776295 0.13560489 0.051627032 -0.0023075286
000040 31 6e 51 3e 7c 61 b2 bd 44 a9 13 be a1 ba b1 bc
       0.20452191 -0.0871 -0.14420038 -0.021695437
000050 34 b4 d2 3d f6 da 8e 3d 16 19 59 be 80 ee ab 3d
       0.10288277 0.06975357 -0.21200976 0.083951
000060 9f 15 32 3e a3 66 56 be 11 e3 1e be f9 ac 3c be
       0.1739106 -0.2093759 -0.15516306 -0.18425359
000070 00 bc a5 3d 79 e3 06 3e c0 13 c5 3b e1 cf 13 3d
       0.08092499 0.13172711 0.0060143173 0.03608692
000080 35 d1 30 3e 0b 9e 48 3d a8 c6 cd bd aa 50 2a bb
       0.17267306 0.048978847 -0.10047656 -0.002598802
000090 10 8f 26 3e 3d 6f 18 be 3a 0b 28 3e a5 db 31 be
       0.16265512 -0.14886184 0.16410533 -0.17368944
0000a0 be 0f 50 be b4 92 52 3e e2 42 eb bd ac b7 9d 3d
       -0.20318505 0.20563775 -0.11487366 0.07701048
0000b0 b9 ca 50 be 84 1e 2b 3e eb e7 57 bd 2b 37 fc 3d
       -0.20389833 0.1671086 -0.05271141 0.1231521
0000c0 84 3d 2b 3e f8 e1 42 be d0 f3 21 3d 39 89 1c 3e
       0.16722685 -0.19031513 0.03953916 0.15286721
0000d0 71 dc b6 bd f4 df 11 be 7d 7d 8b 3d 83 de 03 be
       -0.089287646 -0.14245588 0.06811044 -0.1287785
0000e0 46 5c 88 bd 78 a9 ba bd 85 8f 3f be af fb 52 3e
       -0.06658225 -0.09114355 -0.18707092 0.20603822
0000f0 ee c6 9b bd 4c 6b 22 be d9 5e 14 3e bf 5a 98 bd
       -0.07606302 -0.15861243 0.14489307 -0.074391834
000100 1c a6 29 be 67 6c 84 bd 92 a8 0e 3e c0 66 8f 3e
       -0.16567272 -0.064659886 0.13931492 0.2800808
000110 c3 9b 02 3e 1a cf 2f 3c 28 27 86 bc 05 de 51 bc
       0.12754731 0.010730529 -0.016376093 -0.012809281
000120 53 86 1e 3e 5a 39 38 bd 66 bb df bd 03 36 5a 3d
       0.15480928 -0.04497657 -0.10924415 0.053274166
000130 4c 48 97 3d 40 0a c4 bd 85 62 14 3d 68 e7 1b 3d
       0.073868364 -0.095722675 0.036226768 0.038062483
000140 3b fc 06 bd 67 8b 3a be fc 08 d1 3d ec d2 44 bd
       -0.03295539 -0.1821724 0.10206792 -0.048052713
000150 b7 19 bd 3d 9c 45 1f be 92 a4 90 bc 22 17 1d be
       0.0923342 -0.15553898 -0.017656598 -0.15340856
000160 00 fc a2 b9 a3 da 6d 3d 33 5b 1b 3e 61 3e fa bd
       -0.00031086802 0.058069836 0.15171508 -0.12218929
000170 8a c9 6b 3d b1 88 6a 3e 8f c1 11 bb 9b a4 a0 bd
       0.05756525 0.22903706 -0.0022240614 -0.07843896
000180 97 36 dd bd cd 42 46 be 0a 49 6b bd 95 03 cd 3d
       -0.10801428 -0.1936142 -0.057442702 0.10010449

fc2.weight f4 [100, 100]
000000 c2 85 79 3d d0 71 ba bd 99 79 cb 3d 12 7b 4a bd
       0.060918577 -0.09103739 0.09935302 -0.049433775
000010 65 00 a5 3d b9 85 a9 bd 78 62 25 3d 86 0a b5 3d
       0.08056716 -0.08277459 0.04037711 0.08839898
000020 bc 41 a5 3d 6b 9c 99 bd b3 e1 b7 3d 80 0b ad 3c
       0.080691785 -0.075005375 0.089785956 0.021123648
000030 0a b2 c1 3d 0b b2 2e 3c f7 9f b4 3d ba ab b6 bd
       0.094577864 0.010662566 0.088195734 -0.08919473
000040 fe e6 bf 3c 36 07 b2 3d 01 2a 8c bc f4 bd 8b bd
       0.023425575 0.086927816 -0.017109873 -0.0682334
000050 9f e4 bd bd b6 cd 72 3d 87 ef 2d bd 6d 4b 69 3d
       -0.09272122 0.059278212 -0.04246476 0.056956697
000060 46 3c 14 3d 9e f2 97 bd 00 71 d7 3d 3f aa 5d bd
       0.036190294 -0.074193224 0.105196 -0.054117437
000070 3b b9 33 bd 1f 55 09 3d e6 48 0a bd e9 67 ee bd
       -0.04387782 0.033528443 -0.033760928 -0.11640913
000080 e0 74 e7 bd 91 66 d6 bc c7 30 eb 39 73 8b 1c 3d
       -0.11301589 -0.026171954 0.00044859035 0.038218927
000090 ef 3c 07 3e fb 9b 8c 3d cf 0e 32 3d 22 ab 20 3e
       0.13206838 0.068656884 0.043471154 0.15690282
0000a0 4e 77 1c 3c ed 6f 09 3c d6 c0 9e 3d f3 21 35 bc
       0.009549929 0.008388502 0.07751624 -0.011055457
0000b0 a3 d4 9f bd c2 15 85 3c a6 44 5a bd 25 6c 8d 3d
       -0.07804229 0.016245726 -0.053288125 0.069053926
0000c0 02 aa 34 3c 17 9a b6 3d b3 a0 a8 bd 7d 93 be 3c
       0.011026861 0.08916109 -0.08233776 0.023263687
0000d0 e2 be ac 3c 0d 87 9b 3d aa 54 c3 3d 68 b3 db bc
       0.021087114 0.07594118 0.09537633 -0.026818946
0000e0 48 27 3b bd 8a c6 b9 bd a9 b8 ca 3d f1 a2 e2 bc
       -0.04569176 -0.090710714 0.098985024 -0.027665587
0000f0 b1 e5 3f bd 20 40 b6 bd 0b 22 fe 3d b6 82 bd 3d
       -0.04684991 -0.088989496 0.12408837 0.09253447
000100 db c8 ab bd 83 48 09 bc 1d 65 bb 3b 86 e9 25 bc
       -0.083879195 -0.008379105 0.0057188408 -0.010126477
000110 92 d2 31 3d cc 8f 02 3e b0 29 fe 3b b3 5f 29 3c
       0.043413706 0.12750167 0.0077564344 0.010337758
000120 6f 18 a7 3d aa 63 91 3d e9 2b 8d bd 9d f2 1b 3d
       0.08158957 0.070990875 -0.06893141 0.03807317
000130 18 74 4a bc 00 cb 88 39 9a 3f 33 bd 5d b1 fd 3d
       -0.0123567805 0.00026091188 -0.043761827 0.12387345
000140 77 33 e3 3d 24 e2 9b 3c 80 bc e3 3b 3a 5e 05 3e
       0.110938005 0.01902873 0.006949961 0.13024226
000150 4b e7 53 3d ee bc e3 3d c2 ce 20 3d 14 8b 91 3c
       0.05173425 0.1112002 0.03925968 0.017766513
000160 81 c2 a4 3d a3 d3 f6 bd 73 b9 69 3d d2 5b db bc
       0.08044911 -0.12052085 0.057061624 -0.026777182
000170 01 01 8d bd 62 16 77 bd 4d b3 c4 3c 8e 76 00 3b
       -0.06884957 -0.06032408 0.024011279 0.0019601914
000180 28 2e bf bd 89 64 90 3e 3b 48 4d bd cb 17 4c 3b
       -0.093349755 0.28201702 -0.050117712 0.0031142111
000190 54 8a 90 bc 77 b1 55 bd 6d 38 6c bd 0a 5f 6a bd
       -0.017644085 -0.052171197 -0.057671 -0.057219543
0001a0 10 24 3b 3c b0 fd f4 3b 10 2c 74 bc e0 bf 19 bd
       0.011422172 0.007476531 -0.014903083 -0.037536502
0001b0 40 bc 50 bd b0 e9 55 bc 5a c5 0e bd ba 76 48 3d
       -0.05096078 -0.013056204 -0.034856178 0.04894135
0001c0 ce 28 4f 3d 47 ed b1 3d 98 41 72 3c 80 38 c5 bb
       0.050576024 0.08687835 0.014786147 -0.006018698
0001d0 43 d2 40 bd c3 d0 82 3d 89 56 ae 3d 81 d0 80 3d
       -0.04707552 0.063874744 0.08512599 0.06289769
0001e0 18 07 32 3c 93 4c ac 3d a8 83 3e bc 14 ff 8b bd
       0.010865949 0.08413043 -0.011628069 -0.06835762
0001f0 af 1b b6 bd 73 4e c7 3d a2 d7 45 3d ff db c1 bd
       -0.08891999 0.0973176 0.048301347 -0.09465789
000200 c3 3f 24 bd 4c ce a5 3c 82 03 24 3d c0 9a 42 3c
       -0.04009987 0.020239972 0.040042408 0.011877716
000210 62 d3 0b 3d 7a 0d 20 bd 00 3d 73 bd 43 89 aa bd
       0.034137137 -0.039075352 -0.059384346 -0.08326962
000220 e8 68 a7 bc 1c f1 d6 3c 8a da 3a 3d 24 67 0a bd
       -0.020435765 0.026238017 0.04561857 -0.03378977
000230 bd 70 8d 3d 4a 64 61 bd 0d 28 61 bd a2 1b af bd
       0.06906269 -0.055027284 -0.054969836 -0.085501924
000240 80 e5 5b ba 2e f7 97 bd 78 5f b4 bd 31 41 ad 3d
       -0.0008388385 -0.07420193 -0.08807272 0.084597
000250 c0 6e ab bc ec 67 a6 3c 09 9a bf 3d 18 0d 93 bd
       -0.020926833 0.020313226 0.09355552 -0.07180232
000260 34 b2 bc 3c 80 1a e9 ba e8 97 90 bc 9d 9e 2c bd
       0.023034193 -0.0017784387 -0.01765056 -0.042143453
000270 59 d4 81 3d 66 bb 09 3d 30 46 ad bd 77 07 68 bd
       0.0633933 0.033625983 -0.08460653 -0.056647744
000280 82 a9 37 3d c4 a2 f1 3c 38 4f b9 3c 86 e6 9d bd
       0.04483939 0.029496558 0.022620782 -0.077099845
000290 a0 90 85 bb a0 64 d1 3b af 69 91 3d 34 b2 eb 3c
       -0.0040760785 0.0063901693 0.07100236 0.028771497
0002a0 eb 9d 9a 3d a4 04 f0 3c 8a b8 33 3d 40 fb a0 3c
       0.07549652 0.029299088 0.043877162 0.019651055
0002b0 ed 11 62 bd 98 8d 62 bc 38 60 cd bc b8 08 ef bc
       -0.055192877 -0.013827704 -0.025070295 -0.029178962
0002c0 d0 41 53 bc 34 13 e2 bc 13 24 30 bd 07 1e 8b 3d
       -0.012894109 -0.027597047 -0.043003153 0.06792837
0002d0 cc 4d d0 bc 2e 9f ab bd c0 9f 38 bb e6 37 23 3d
       -0.025427721 -0.083799705 -0.002817139 0.03984823
0002e0 77 6d 7d bd 70 2b 41 3c 6b a0 c7 bd a0 f0 5d bb
       -0.061871972 0.011790141 -0.09747394 -0.0033865348
0002f0 44 f6 e0 3c ee 7e 95 bd e7 68 72 bd a7 15 ca 3d
       0.027461179 -0.072996005 -0.059182074 0.09867411
000300 3d ba 95 bd 01 54 b4 3d 23 d8 91 bd 2a 53 7c 3d
       -0.07310913 0.08805085 -0.07121303 0.06160275
000310 2d 9c 97 3d 72 54 c1 bd ba 87 bf bd da ec b5 bd
       0.07402835 -0.09439935 -0.0935206 -0.088830665
000320 7a 34 06 3d 6e 73 6d 3d 39 e8 17 3d 83 b6 7f bd
       0.03276489 0.05797141 0.0370867 -0.062429916
000330 15 07 f3 3b 34 76 44 bd 09 4b 00 bd 56 a1 0d bd
       0.0074166157 -0.04796429 -0.03132156 -0.03457769
000340 87 d1 83 3c a9 e4 de 3d d4 cb ef bc bd 3b 7b bd
       0.016091121 0.10883457 -0.029271998 -0.061336268
000350 bc e5 fc bd 51 10 61 bc c8 79 71 3d 9e 48 46 bb
       -0.12348506 -0.0137368 0.05895403 -0.0030255686
000360 ae d5 bf bd e0 e1 bb 3c fb 7c 24 3d 38 33 c7 bd
       -0.09366928 0.022934854 0.040158253 -0.09726566
000370 d3 d8 c0 bd 0d 14 94 3d 8b 92 58 3d 5f cd e8 bd
       -0.09416356 0.07230387 0.05287413 -0.113672964
000380 68 12 28 3d c0 4c 22 3b 94 94 3e 3c b6 93 31 3d
       0.04103318 0.0024764985 0.0116321035 0.04335376
000390 89 85 ed 3c 98 9b cc 3c c2 11 be bd ba 47 1f bc
       0.028994339 0.024976537 -0.09280731 -0.009721691
0003a0 65 8a 53 3d 10 bc 4d bd cb 35 70 bd 66 8f c7 3d
       0.051645655 -0.05022818 -0.05864505 0.09744148
0003b0 37 83 b7 bd 69 40 0a 3e 45 71 ab bc d7 5e 40 bd
       -0.08960574 0.13501133 -0.020928035 -0.046965446
0003c0 14 26 32 bd b0 54 36 bb 34 50 08 3d 89 6a 65 bc
       -0.043493345 -0.0027821474 0.033279613 -0.014002451
0003d0 50 b7 44 bd 5d 75 49 3c 4c 1b d0 bd 20 00 aa 3d
       -0.048026383 0.012296048 -0.101614565 0.08300805
0003e0 ec 19 a3 bc 97 05 4e bd ad 95 ae bd 4e 5f 94 3c
       -0.019909821 -0.0502983 -0.08524642 0.018111851
0003f0 dd 7c 73 bc c2 8b b1 bd 54 e5 23 3d f9 5b e5 3c
       -0.014861313 -0.08669235 0.040013626 0.027997958

fc2.bias f4 [100]
000000 dc 47 19 bd 12 25 c8 bd 12 6e 03 3d f5 e4 0c bd
       -0.037422046 -0.097726956 0.032087393 -0.034398038
000010 e0 75 a9 bd 11 52 d0 bd c2 93 a8 bd f5 ef 63 bd
       -0.08274436 -0.10171903 -0.082313076 -0.055648763
000020 cb 3b 59 3d f0 08 35 bd aa 0b 4a bd 44 87 18 bc
       0.05303554 -0.044197977 -0.04932753 -0.009309594
000030 ae a6 81 3d 20 27 a1 3d 07 9d 1d 3d 73 9c 31 3d
       0.0633062 0.078687906 0.03847983 0.043362092
000040 28 1f 55 3d 83 f5 67 bc a4 27 b9 3d 26 52 14 bd
       0.052031666 -0.014157656 0.09040764 -0.036211155
000050 c7 b2 ca 3d 52 61 a4 3c cf 29 83 3c 1e d7 8a 3d
       0.0989738 0.020065937 0.016011147 0.067793116
000060 09 f6 11 3c c5 5c 8b 3d d9 25 79 bc 9a 42 8a 3d
       0.008908757 0.06804804 -0.0152067775 0.067509845
000070 52 1f c8 3b f0 e5 c2 bd 68 4e 91 3d 58 68 9b bd
       0.0061072493 -0.09516513 0.07095033 -0.07588261
000080 2b 6a 91 3d 15 0b 9c bd 70 81 46 3c fe d5 6c 3d
       0.07100328 -0.07619301 0.012115821 0.057821266
000090 97 7a 3f 3d 46 7e 53 bd 18 ad d0 bd 3b 0e 4f 3d
       0.04674777 -0.051634096 -0.10189265 0.05055068
0000a0 41 1d ad bc 7a 91 78 3d 11 ab 0e 3d aa 97 18 bd
       -0.021132113 0.060685612 0.03483111 -0.037254013
0000b0 39 41 6b 3b d3 a0 51 bd 79 bb 45 3b 13 a5 ce 3b
       0.003589703 -0.051178765 0.0030171557 0.0063062995
0000c0 77 f0 1d bd fa 58 a1 ba e8 08 4b 3c a6 e8 d3 bd
       -0.038559403 -0.0012309842 0.01239226 -0.103471085
0000d0 36 a6 67 3d 2f e0 02 bd 30 b4 2c 3a 8c ad 54 bc
       0.056554995 -0.03195208 0.00065881293 -0.01298083
0000e0 67 b0 a6 bc 46 00 69 3d 8e 23 8a bd 00 9f 15 bd
       -0.020347787 0.056885026 -0.06745063 -0.036528587
0000f0 75 2d 8b bd e0 d2 88 bd a2 f0 15 bd dd ca e0 3c
       -0.067957796 -0.06680846 -0.03660644 0.027440483
000100 e9 e0 7c bd e4 1b 91 bd 21 d7 75 3d 0a d7 91 bc
       -0.06173793 -0.07085398 0.060019616 -0.017802734
000110 e9 93 17 3d 7b be 2c bb 71 1a 35 3c 8e 9f db bc
       0.037006292 -0.0026358652 0.011053667 -0.02680948
000120 4e 9f d0 3d 00 d0 58 b9 f6 00 8e 3d c3 e4 08 3b
       0.10186635 -0.00020676851 0.06933777 0.0020888306
000130 96 53 8e 3d 88 5a ab bd 0c 5d a9 bd 0d 44 41 bd
       0.069495365 -0.08366877 -0.082697004 -0.04718404
000140 4c d9 87 3b 3c b8 bc 3b f3 98 b1 3d af d5 ca 3d
       0.004145777 0.005759267 0.08671751 0.09904038
000150 82 76 2d 3b a7 93 67 bc 62 78 ae 3c 38 38 3d bd
       0.0026468341 -0.014134324 0.021297637 -0.046196193
000160 f8 1b 4e bc 68 37 98 3d ff ec b7 bd 71 0e 08 3d
       -0.01257991 0.07432443 -0.0898075 0.033216897
000170 14 40 84 bd 10 87 5a bd f2 8d b5 3d 32 d4 3a bd
       -0.064575344 -0.053351462 0.088649645 -0.04561252
000180 be e2 e9 3d 7f d7 ad 3d 5a ac 99 3d e7 d8 7b bd
       0.11420201 0.08488368 0.075035766 -0.06148615

fc3.weight f4 [100, 100]
000000 cb e0 0b be b3 0a 60 bd 96 57 09 bd 62 a5 43 3d
       -0.1365997 -0.054697704 -0.033530794 0.047765143
000010 9f b7 0d 3e a0 cb ca bd 50 99 77 bd b2 de f9 3c
       0.13839577 -0.0990212 -0.060448945 0.030501697
000020 00 1f 98 3e d6 bb fd bc be a0 02 be 64 59 9d 3d
       0.2971115 -0.030973356 -0.12756631 0.076830655
000030 99 9b a0 bd 75 0b 4f 3d 6c c7 57 bc eb c5 f2 3c
       -0.07842178 0.050548036 -0.0131701045 0.02963539
000040 47 ac d9 3d 76 88 9d bd b0 94 d5 bd 10 04 3f 3c
       0.106285624 -0.076920435 -0.104287505 0.011658683
000050 dd 6b c8 3a 7c 53 a5 bd e9 28 9a 3d d4 58 75 39
       0.0015290935 -0.08072564 0.07527334 0.00023398112
000060 f3 c0 9d 3d 92 60 d0 bc 74 02 a8 3d 74 6e 27 3c
       0.07702818 -0.025436673 0.08203593 0.010219205
000070 df 59 89 3d 14 75 05 3e de 8f 1f 3c 9a bc 37 3e
       0.06706595 0.13032943 0.00973889 0.1794304
000080 8b 45 0c 3c 60 9f 05 3c 74 52 9d 3c 7d 1e fd 3d
       0.008561502 0.008155674 0.019204356 0.12359331
000090 b6 81 f0 3b e6 93 42 bd b8 a7 97 bc 85 64 69 3d
       0.0073396815 -0.04750433 -0.018512592 0.05698063
0000a0 65 42 4b 3d f4 c1 c9 3c c1 14 34 3e a5 2b 19 3d
       0.049623866 0.024628617 0.17586042 0.03739514
0000b0 0f b7 6b bb 60 45 45 bb e0 95 b7 bd f9 8e 91 3c
       -0.0035967266 -0.0030101165 -0.08964133 0.01776837
0000c0 9d ba bd 3d 19 8a 9c 3b b1 0d cc 3d 4c e9 b3 3b
       0.09264109 0.0047772047 0.09963549 0.0054904576
0000d0 72 67 ce 3d 29 32 27 3e 6d b1 3b bd c0 64 c2 bd
       0.100783244 0.16327728 -0.045823503 -0.09491873
0000e0 7d 41 8c bd 60 f4 09 bb 84 3e e9 3d c9 79 82 3d
       -0.068484284 -0.00210502 0.11388877 0.06370885
0000f0 1c ae ef 3d a0 8b 4d bb 51 9b 7e bc 5b ca a7 bd
       0.117031306 -0.003136374 -0.01553996 -0.08192893
000100 ad 94 28 bd 29 24 aa bd 13 54 ba 3d 0a e1 d5 3d
       -0.041157413 -0.08307678 0.09098067 0.104433134
000110 e4 7c bc 3d 0f c8 9e 3d 32 e1 4a bd 42 11 c3 3c
       0.092035085 0.07753002 -0.04953117 0.02381194
000120 46 1f cd bb a6 44 20 3d 8d f8 16 bd 30 9c 6e bd
       -0.0062598316 0.03912797 -0.03685813 -0.05825442
000130 84 02 01 3c dc 30 d9 bb f8 2f 97 bd 3a 00 09 bd
       0.007874135 -0.006628139 -0.07382196 -0.03344748
000140 dc 24 9c bd 07 fc 24 bd 60 cf ce 3b fc c1 f6 3d
       -0.07624218 -0.040279415 0.006311342 0.12048718
000150 7b 70 1e bd ab 9f 92 3d e7 a5 c3 bd 19 a6 f6 3c
       -0.03868149 0.071593605 -0.09553128 0.030108498
000160 f7 3c 6b 3d cb 0a d0 3c 52 c8 15 3d 84 3a 3d bd
       0.057431187 0.025395771 0.036567993 -0.046198383
000170 a6 8b 9a bd 69 79 c9 3d 90 2f fa 3d 36 90 e6 bc
       -0.07546167 0.0983761 0.12216103 -0.028144937
000180 f3 a3 ba bd 00 ca 9b 3d e5 94 9f bd 19 69 bf bb
       -0.09113302 0.07606888 -0.07792071 -0.005841386
000190 9b ff cb bd 69 a1 9a 3d b1 d6 8c 3d c8 3b 89 3d
       -0.09960862 0.07550318 0.06876887 0.067008555
0001a0 26 18 c2 bd 1d 2c 14 3b df bd ad 3d 8c 68 37 3a
       -0.09477262 0.0022609301 0.08483481 0.00069964747
0001b0 6f ca 14 3e b1 75 62 3d 50 ac 9e 3d 39 59 57 3b
       0.14530347 0.05528802 0.0774771 0.0032859577
0001c0 93 c3 9b 3d 47 b0 26 3e b2 5a 5b 3d e8 0f 56 3d
       0.07605662 0.16278182 0.05355329 0.052261263
0001d0 b9 b8 e5 bc b1 26 72 bd 73 4b 04 3d 30 0b 49 bc
       -0.028042184 -0.05911893 0.032298516 -0.012270734
0001e0 c8 13 98 3d 71 67 62 3c 3b d7 2b 3d 55 c4 7c bd
       0.07425648 0.013818608 0.041953307 -0.061710674
0001f0 fb 15 2f 3d 80 35 02 be 77 9a 3d 3d a3 a0 3f 3d
       0.04274557 -0.12715721 0.046289887 0.046784054
000200 d4 87 e5 3b 57 bd 99 3d e8 11 22 3b 5f 73 3b 3e
       0.0070047174 0.07506817 0.0024729911 0.1830573
000210 ba 37 31 3c 30 d9 2b 3c 0b d1 ca bd d9 35 6d 3d
       0.010816509 0.010488793 -0.09903153 0.05791268
000220 c2 bd 1f be b7 1f 96 3c 8c c0 4e 3d 4b a9 c5 bd
       -0.1559973 0.01832567 0.050476596 -0.09651431
000230 51 7e 97 3d ee eb 77 3d 4c d5 aa bd 82 0c 4f 3d
       0.0739714 0.060527734 -0.083414644 0.050549038
000240 95 7e 1d 3c 80 32 c9 bd f7 3f 87 bd 39 de e9 bd
       0.009612699 -0.09824085 -0.06603997 -0.11419339
000250 0a 95 60 bc 8e 70 c2 bd 2d ea ab 3d e9 4d de 3d
       -0.013707409 -0.09494124 0.08394275 0.10854704
000260 a1 e4 29 bc 10 be aa 3d 23 24 cd 3c 58 09 8d 3b
       -0.010369451 0.08337033 0.025041645 0.0043040924
000270 44 d8 e5 3d 27 8c 5c bd 29 6a f0 bc 47 f6 4e bd
       0.1122289 -0.053844597 -0.029347496 -0.050527837
000280 e2 9e 12 3d 60 dd d9 3b bf af 02 be f4 37 a5 bd
       0.035796054 0.0066487044 -0.12762354 -0.08067313
000290 8c b8 3e bb bf 4a 88 bd 73 e6 f5 bd 59 00 56 ba
       -0.0029101698 -0.06654882 -0.12006845 -0.0008163504
0002a0 33 8b 07 3e 47 2c 22 3e 78 51 ce bd d2 00 07 bd
       0.13236694 0.15837203 -0.10074133 -0.032959767
0002b0 84 a5 bf bd 00 d7 32 bc 69 26 6b 3d 46 7c 08 3e
       -0.093577415 -0.010915518 0.057409678 0.13328657
0002c0 0f c8 17 3d 03 c8 44 bd c1 10 bd 3d 36 32 18 3c
       0.037056025 -0.04804231 0.09231711 0.009289315
0002d0 d3 5a bc bd bd 0e a6 bb 07 81 9b 3d 4c 59 01 3d
       -0.09197011 -0.005067675 0.075929694 0.0315793
0002e0 ab 28 04 be 58 79 3f 3d 5e 7e 3c bc 52 37 67 3d
       -0.12906139 0.04674658 -0.011504738 0.056449242
0002f0 32 bd f3 3c d5 95 60 3d dc 4a 72 3d c1 68 b0 bd
       0.029753301 0.05483039 0.059153423 -0.0861373
000300 d0 b9 19 bc 06 d7 33 3d 9c c9 65 bd d8 61 21 bc
       -0.00938268 0.043906234 -0.056100473 -0.009849988
000310 da b5 af 3d 36 c4 d8 bc 84 ca 9d bd db 36 c2 3c
       0.08579607 -0.026460748 -0.077046424 0.023707798
000320 a6 2c b3 3c 00 ac fb bc de fb 03 bd 95 29 e0 bd
       0.021871876 -0.030721664 -0.03222262 -0.10945431
000330 c1 6e cd bd 95 a9 cc bd 8a ba 05 3d bf 92 77 bd
       -0.1003089 -0.09993283 0.0326486 -0.060442682
000340 3b 4e fa 3d 05 db dd 3c b8 3d 96 bd 5e aa 89 bc
       0.122219525 0.027081976 -0.07335991 -0.01680487
000350 55 78 78 bd fb ad 09 3e 4f a9 ba 3d 32 77 88 bc
       -0.060661633 0.13445275 0.09114324 -0.0166584
000360 5e 1f 9b bd 46 d7 bb 3d 7c 59 ae 3d fd 79 9d bd
       -0.07574342 0.091719195 0.085131615 -0.07689283
000370 02 6d 52 3e 3e dd 88 bd 8a 44 02 3d d4 b2 6c 3d
       0.20549396 -0.066828236 0.031803645 0.05778773
000380 72 c2 d3 bd 4e 92 ea bd 09 38 54 3c 16 af 99 bc
       -0.10339822 -0.11453687 0.012952813 -0.018760245
000390 de c9 03 be 88 20 93 3d ae 03 70 3c bd 58 78 3d
       -0.12869975 0.07183939 0.014649315 0.060631502
0003a0 e2 d4 43 3e 6d 28 9f bd 68 09 b0 3c c6 2c 11 bd
       0.19124177 -0.077713825 0.02148886 -0.03544309
0003b0 18 84 32 bc c5 15 73 3d 6f 68 76 bd e5 a3 c1 3c
       -0.010895751 0.059346933 -0.06015819 0.023637721
0003c0 94 c4 9d 3d ef af 68 3a a3 38 9d bd 5a 08 27 bd
       0.0770351 0.0008876314 -0.07676818 -0.04077945
0003d0 a4 9b 08 bd c1 d5 81 3d 64 6f e2 bc d0 dd 6c 3d
       -0.033351555 0.063395984 -0.027641006 0.057828724
0003e0 c4 dc 20 be 9e c5 37 3d b4 63 0e bd d1 ab ee bd
       -0.15709215 0.044866197 -0.034763053 -0.11653865
0003f0 40 2f b4 3d 6d 97 bc bd bf 6c 5b bd f7 38 7b bc
       0.08798075 -0.0920857 -0.053570505 -0.015333406

fc3.bias f4 [100]
000000 fb fd 74 3d 6f 54 4c 3d a4 fa c9 bc 30 45 08 3d
       0.059812527 0.04988521 -0.024655648 0.033269107
000010 c2 80 d1 bc 87 ed b8 bc 54 3c d7 3c 6f b4 26 bc
       -0.025574092 -0.0225742 0.026273884 -0.010174855
000020 8f 0e a1 3d 58 28 70 3d 3a 3c 79 3d b3 9a 06 3d
       0.07864105 0.058632225 0.060848452 0.032862376
000030 d7 bf 9c bd 86 30 0d bd ec 4a 5f bd c0 52 66 3d
       -0.07653778 -0.034470104 -0.05451481 0.05623126
000040 a6 9f 34 3d 0b 40 8a 3d fb 5d 67 3d 1c 47 4f 3c
       0.044097565 0.067504965 0.05648611 0.012651231
000050 f7 9d a4 bd ad 0a 2a 3d ad 0a 89 3d b8 44 36 3d
       -0.08037942 0.041514087 0.06691489 0.04449913
000060 e4 14 1f 3e 9b 60 f1 3c 0b 32 98 3d 89 0d 97 bd
       0.15535313 0.02946501 0.0743142 -0.073756285
000070 4b 08 bf bd ca d6 a6 3d fa 5a fc bc 8a 6c fe 3b
       -0.09327754 0.081464365 -0.0308051 0.0077644037
000080 19 13 d5 3c 3c 6e 03 3d 9d b7 5a bd f2 8a c3 bc
       0.026010083 0.03208755 -0.053397764 -0.023869965
000090 12 08 07 bd 75 d9 98 bb 5b 28 da 3d 33 0a 73 bd
       -0.03296668 -0.004664595 0.106522284 -0.0593359
0000a0 11 20 c5 bd 54 bf f5 bc 54 b2 8e 3d 3e 00 25 bd
       -0.09625257 -0.029998459 0.06967607 -0.040283434
0000b0 34 e8 8e 3d e5 94 15 bd b0 d5 bc bd df 64 c4 bc
       0.06977883 -0.03651895 -0.09220445 -0.02397388
0000c0 7b 55 18 3c 0f dc 21 3d 63 07 1d 3b 10 a2 9c 3d
       0.009297724 0.039516505 0.0023960702 0.076480985
0000d0 a1 95 80 3c 5a 39 6d 3d c1 85 b9 3d cf b3 82 3c
       0.015696349 0.057916023 0.09058715 0.01595488
0000e0 32 49 44 bb 7e 0b b8 ba 92 08 44 bc 7a 4d 11 bd
       -0.0029950854 -0.0014041511 -0.011964934 -0.035474278
0000f0 c1 c1 a4 3d 36 f8 c4 bd 07 85 ec 3d 6e 87 47 bd
       0.08044768 -0.09617655 0.115488105 -0.04871314
000100 bf ae 3a 3d b0 d2 56 3d 57 47 2b bd 0c e3 9c 3d
       0.045576807 0.05244702 -0.04181608 0.07660493
000110 5f 9f b9 3d 73 57 04 3c ab 26 da 3c 9b e3 bd bc
       0.09063601 0.00807749 0.026629766 -0.02317982
000120 f1 4f 43 bc d7 48 0e bd 49 90 a6 bd 62 e4 80 3d
       -0.011920915 -0.034737434 -0.08132989 0.062935606
000130 72 42 1c 3d bd be 09 3c fc 4b 6f bd 0d 46 74 bd
       0.038149305 0.008407292 -0.058422074 -0.059637118
000140 5d 81 91 bd f2 91 89 bd 76 f9 44 3d c2 a6 1e 3d
       -0.07104752 -0.0671729 0.048089467 0.03873325
000150 98 f7 c4 3c 58 e8 aa bd 15 67 a4 bd dc b5 13 3d
       0.024043843 -0.08345097 -0.08027474 0.036062106
000160 e9 85 06 3d 9e 6c e9 3d 47 c1 5b 3c b2 42 b1 bd
       0.03284255 0.1139767 0.01341278 -0.08655299
000170 be 3e 42 3d 36 8a 7a 3d 67 0f c6 bd 72 33 8a 3a
       0.047423117 0.061166964 -0.096709065 0.0010543896
000180 d0 f0 77 bd 13 0a b6 bd 74 41 ce 3d c8 03 3c bd
       -0.06053239 -0.0888864 0.10071078 -0.045902044

fc4.weight f4 [100, 100]
000000 21 d8 97 3d 9e 74 f8 3c 98 0c c2 3c 83 f2 1b bd
       0.0741427 0.030329045 0.023687646 -0.038073074
000010 74 c9 86 3d 98 f0 be bc 55 2b 08 bd 07 dd 74 bc
       0.06581393 -0.023308083 -0.03324445 -0.014945275
000020 37 06 f3 3d 9a 89 e1 bd c0 24 7f bd e7 01 2b 3e
       0.1186642 -0.110125735 -0.062290907 0.16699944
000030 e4 44 9b bd 16 7f 71 3d fb ca 3b be f8 82 4d 3d
       -0.07581499 0.05895909 -0.1833915 0.05017373
000040 0d 0a 8d bd ea 88 4f 3d c1 1b c7 3d eb f0 80 bc
       -0.06886683 0.05066768 0.097220905 -0.015739879
000050 ef ef 6c 3c a8 32 ad 3a e3 ca b0 bd 93 b7 ab 3d
       0.0144615015 0.0013213949 -0.086324476 0.083846234
000060 e0 c9 3c 3d dd 68 34 b8 56 7d ac bd 76 b6 1f 3c
       0.04609096 -4.3013006e-05 -0.084223434 0.009748092
000070 6d 05 aa bd 49 9d d6 3c 18 87 99 bc 3e 35 bf 3c
       -0.08301816 0.026198046 -0.018741176 0.023340818
000080 aa 7c fe 3c b5 78 d3 3d 3b 1f ed 3c 4b 72 04 3e
       0.031065304 0.103257574 0.028945556 0.12934224
000090 a3 ed c0 be 76 8d 0c 3e ee f0 9a 3d 22 a5 92 bd
       -0.37681302 0.13725838 0.07565485 -0.07160403
0000a0 f2 5d 34 3d 62 b6 0a 3e a6 ef b5 bd ec d9 a2 3c
       0.044034906 0.13546136 -0.088836 0.019879304
0000b0 3b 8f 2b 3d 15 d8 ee 3c 9b 97 cc 3d 04 70 ac 3c
       0.041884642 0.02915577 0.09989854 0.021049507
0000c0 a8 66 9c 3c 61 9b a9 3d 80 98 91 bd ae 6d fb 3c
       0.019091919 0.08281589 -0.07109165 0.030691948
0000d0 6c 30 87 3d 4e 72 a7 3d 5e 8f 6e bd 70 e1 80 bc
       0.066010326 0.08176099 -0.058242194 -0.015732497
0000e0 e2 c3 1c bc 43 b5 32 3d c5 d0 d4 bc b1 67 84 bd
       -0.0095681865 0.043629896 -0.025978455 -0.0646509
0000f0 15 77 49 3c 61 e0 5a bd 73 f5 be 3d dc 87 bc bd
       0.012296458 -0.05343664 0.093241595 -0.092056006
000100 ab 92 9f 3e 20 9f a1 bc 54 90 30 3d 8d 3f d5 3d
       0.31166586 -0.019729197 0.043106392 0.10412512
000110 c6 00 b0 bd bc 35 26 3d 6e f4 d6 bc 70 d7 8a bd
       -0.085938975 0.04057859 -0.0262396 -0.06779373
000120 79 4a 82 bb 3f 2a ad 3b 4f f4 d8 bc 21 42 ab bd
       -0.003976163 0.005284577 -0.026483683 -0.083622225
000130 a3 81 04 3e bb 30 55 3c d2 4f 69 3d 0e e5 5f be
       0.12940077 0.0130121065 0.05696089 -0.21864721
000140 e9 8b e0 3d d4 31 88 bd 96 dd 10 3d d6 da e9 bc
       0.10964186 -0.06650129 0.03536757 -0.028546732
000150 39 fe 50 bc 31 95 62 bd 7f d1 bc 3d 2f 55 88 bb
       -0.012755924 -0.05531806 0.09219646 -0.0041605453
000160 91 f9 ed bd 6a 8a 3f 3d 31 f4 d6 3d 3f e2 81 3d
       -0.11619867 0.04676286 0.104957946 0.06341981
000170 00 73 a2 3d a0 2f 2f be 58 99 4e bc b6 ea 93 bd
       0.07932091 -0.17108011 -0.012609802 -0.07222502
000180 e1 8c ca 3d fe d3 af 3c 80 2e 0c 3d 1a ce 70 3b
       0.09890152 0.02146339 0.034224033 0.003674394
000190 37 3e 41 3e c4 41 9f bd 3d 87 81 be c5 57 08 3d
       0.1887139 -0.07776216 -0.2529849 0.03328683
0001a0 40 bb 89 3c 98 8e 1d 3c 83 25 92 3e 8a 01 ba 3d
       0.01681292 0.0096165165 0.28544244 0.09082325
0001b0 21 cf 56 bd 5c 18 fd bc fd 9b 5f 3d 82 6e 1c be
       -0.052443627 -0.030895405 0.05459212 -0.1527653
0001c0 a6 95 8b 3c b2 bc ac bd ca b4 92 be 4e b5 4a 3d
       0.017039131 -0.08434428 -0.28653556 0.049489312
0001d0 f4 bd cb bd 59 95 1a 3c c8 1a f0 3c 0c d5 91 3d
       -0.0994834 0.009435021 0.029309645 0.071207136
0001e0 64 f7 f1 bc 90 72 85 bd 18 50 8d 3d 67 6f 7c bc
       -0.02953691 -0.06515992 0.06900042 -0.01540742
0001f0 51 4b 90 bc 33 a4 17 bd 80 c2 22 3e 91 40 5e 3d
       -0.017614039 -0.037021827 0.15894508 0.054260794
000200 cb 57 93 3d 5b 29 d8 bc e3 2c cf bc 0a 15 36 3d
       0.071944796 -0.026386907 -0.025289958 0.04445366
000210 19 bc 0b bd 82 56 a0 3d 90 4a 8f bd 9a 3f b3 3d
       -0.03411493 0.07829 -0.069966435 0.087523654
000220 b5 80 46 bd 17 64 7f be c2 65 77 3d 33 c6 ad 3d
       -0.04846259 -0.24940525 0.06039978 0.08485069
000230 9f 46 99 3d b9 cb 9d bd de 6b e7 3c fe ba 9b 3d
       0.07484173 -0.07704873 0.028249677 0.07604025
000240 f4 7b 43 bd 6d e0 22 bd 02 e2 0b 3d 97 2e 97 3c
       -0.047725633 -0.03976481 0.034151085 0.018454833
000250 03 41 b0 bc 3f 66 68 be 0d ef 5a 3e fe 8a ac 3d
       -0.021515375 -0.22695254 0.21380253 0.08424948
000260 59 ee 22 be 1c fa 11 be 7c 57 09 3d 11 0d 93 bc
       -0.15911235 -0.14255565 0.033530697 -0.017950566
000270 40 00 34 bd de a5 b6 bc 67 9b c1 3d 7c 3f e2 3d
       -0.04394555 -0.022295889 0.09453469 0.11047265
000280 e8 b3 cf 3c 4f 7d 8e 3d 21 bd 95 3c b0 82 b3 bd
       0.02535434 0.069574945 0.01827866 -0.08765161
000290 fe eb 82 be 7b 8d c2 3d b0 c0 89 bd 3e 40 3a bd
       -0.25570673 0.094996415 -0.06726205 -0.045471422
0002a0 e4 b6 0f 3d 4a 88 15 3e 6a 9f 95 bd 03 99 88 bd
       0.035086527 0.14602771 -0.073057964 -0.0666981
0002b0 d7 e3 a0 3d 3e 81 91 3d f0 03 0c 3e 09 95 03 bd
       0.07855957 0.07104729 0.13673377 -0.032124553
0002c0 7f b8 05 3d c3 82 3b be 20 3e c7 3d d4 4a 37 be
       0.032646652 -0.183116 0.09728646 -0.17899638
0002d0 05 d8 df bd 91 be 8f 3d b0 6c 44 3d 16 60 96 3d
       -0.10929874 0.070187695 0.047955215 0.07342546
0002e0 fc 1b e1 bd f8 3c 12 bd 9d 69 91 bd 5d 64 d9 bd
       -0.10991666 -0.035702676 -0.07100222 -0.10614846
0002f0 dc 1f da bc 90 f1 4b 3d a4 c0 69 be 8d ff ad 3d
       -0.02662652 0.04979092 -0.22827393 0.08496008
000300 cb 17 34 3d 92 b8 92 bd e3 06 3b bd f2 f6 83 3c
       0.043968003 -0.0716411 -0.045660865 0.016108964
000310 7d 54 44 3d 79 e6 be 3d 26 bb 1f 3d 66 e7 9c 3d
       0.047932137 0.09321303 0.038996838 0.07661323
000320 79 81 8b bd 97 f9 8c 3d 20 1f 3a bc 50 08 38 bd
       -0.06811804 0.06883543 -0.01135996 -0.044929802
000330 8f b5 49 3d 64 07 4e bd 37 bf 08 bd cc 38 03 3e
       0.049245413 -0.050300017 -0.03338548 0.12814635
000340 f3 6a 4b 3d 96 25 5f bd a9 41 d9 3d ea aa 00 3e
       0.04966254 -0.054479204 0.10608227 0.12565199
000350 ae 9d a7 bd 5f b7 81 3d ce 1b dd bd 94 97 16 3d
       -0.08184372 0.063338034 -0.10796319 0.03676565
000360 65 54 80 3d 75 d7 97 3d 15 b8 9a 3d c0 47 af bc
       0.06266097 0.07414142 0.07554642 -0.021396518
000370 1e 4d 03 3c 4b db f9 3d 01 27 6d bc 63 99 5b 3d
       0.008013992 0.1220003 -0.014474631 0.053613078
000380 56 45 dd 3d e8 55 6f bb 01 95 f8 bd 14 03 1d bd
       0.108042404 -0.003651971 -0.12137795 -0.038333014
000390 e2 5b 14 3d 7b 90 d5 3d e1 b4 4d be ca 93 50 3c
       0.03622044 0.10427948 -0.20088531 0.012730548
0003a0 10 e9 2a 3d b8 09 2b bd 86 9d f5 3d 2e 5c d4 bc
       0.041726172 -0.041757315 0.11992936 -0.025922861
0003b0 6a bf 5a bc 07 96 37 3e 6f f1 dd 3c c5 c8 e2 3d
       -0.013351301 0.17928325 0.027092664 0.1107345
0003c0 f0 70 75 3d 8c ca df 3d 09 05 b5 bb 41 f0 e4 3c
       0.05992216 0.109273046 -0.005524282 0.027946593
0003d0 87 e7 61 3d 97 64 1c bc c2 b4 56 3d 10 98 c3 3c
       0.055152442 -0.009545467 0.052418478 0.02387622
0003e0 f3 66 04 bd ef 8d 49 3d cc 48 59 be 24 3a be bd
       -0.032324743 0.049207624 -0.21219176 -0.09288433
0003f0 e8 7e 87 3d 76 fb 6a bb d0 b1 56 3c 07 67 ce bd
       0.06616002 -0.0035855449 0.013103917 -0.10078245

fc4.bias f4 [100]
000000 50 78 90 bd d7 cc 39 3d db 56 71 bb 66 51 1e 3d
       -0.07054198 0.045361366 -0.0036825452 0.038651846
000010 d5 c5 11 3d 4e 0a e1 3d 62 3f 5d bb e6 92 9e 3d
       0.035589058 0.109882936 -0.0033759703 0.077428624
000020 89 9d af 3c e8 e3 ac 3d 13 10 ad bd 1e bf ac bd
       0.021437423 0.08441907 -0.084503315 -0.0843489
000030 1c ec 97 3d 23 bd 80 3c 0c 15 ef 3c 12 d2 ce 3d
       0.07418081 0.015715187 0.02918484 0.100986615
000040 73 e9 56 bc e4 0c 68 bd 76 0c 77 3d 22 e9 ae bd
       -0.013117182 -0.05665292 0.060314618 -0.0854056
000050 93 ee 9a 3d b2 44 66 3d 74 ec b6 3d 1f 72 bf 3d
       0.07565036 0.056217857 0.089318186 0.09347939
000060 98 28 a6 bd b7 41 a7 bd 00 f2 cd 3a 23 da f3 3d
       -0.081132114 -0.08166831 0.001571238 0.11906841
000070 35 e6 6e bd 0e 9f 04 3e 3d f6 5d 3d 35 ff c7 3d
       -0.05832501 0.129513 0.05418991 0.09765474
000080 66 f0 15 bd a9 47 d1 3d 20 d8 98 bd 3e 36 dd 3d
       -0.036606215 0.10218746 -0.074630976 0.108013615
000090 da 1e 20 bd e5 67 58 bd 0f 84 92 3d 47 02 b4 bd
       -0.039091922 -0.052833457 0.071540944 -0.08789497
0000a0 39 2e 04 bd fb c4 20 bd de 9f 4f 3d 62 2a 00 3c
       -0.032270644 -0.039250355 0.05068957 0.007822605
0000b0 75 e5 ad 3c 20 85 9c 3d 96 31 a1 3c 78 2e 88 3d
       0.021227578 0.07642579 0.019676965 0.06649488
0000c0 fb 7d 66 bd 88 1e e0 bc 87 0f cc 3d b9 c2 f5 3d
       -0.056272488 -0.027358308 0.09963899 0.12000031
0000d0 9a ff d0 3d f7 eb 39 3d 1f 08 a3 bd 4f 1c 65 bd
       0.10205002 0.04539105 -0.07960533 -0.0559352
0000e0 7e 91 c7 3c 14 e4 a2 bc 2d 59 59 bd 3b dc b0 bc
       0.024361368 -0.019884147 -0.05306356 -0.02158939
0000f0 ff 54 b5 3d 09 c8 c1 3d ed 22 0d 3d a2 48 c4 3b
       0.08854102 0.09461982 0.034457136 0.005990104
000100 22 a2 15 3e d5 8a 02 3d 4b 64 9e 3d 82 8b a8 bc
       0.1461263 0.03187068 0.07733973 -0.020574335
000110 e8 1c 1e 3d fa 3e 27 3c 39 b8 ba bd e1 47 98 bd
       0.038601786 0.010207886 -0.09117169 -0.07435585
000120 d6 48 83 3d d0 de 0a 3a 74 85 45 3d c7 fa d7 3d
       0.06410377 0.0005297484 0.048222974 0.10545879
000130 0d 1a 63 bc 44 5e 9d bd 96 b3 9f 3d 46 47 93 3d
       -0.013861191 -0.07683995 0.07797925 0.07191329
000140 d1 35 be bd 31 28 28 bd 92 28 27 bd 5f 22 1f bd
       -0.092876084 -0.041053955 -0.040810175 -0.03885114
000150 52 ae 24 bd 98 6d a7 bd 22 d8 29 3e ad d2 96 bc
       -0.040205307 -0.081752 0.16586354 -0.018411005
000160 dc 8d 72 3d 49 5d 76 3d a2 76 85 3d 2d f3 1f 3e
       0.05921732 0.060147557 0.06516768 0.15620108
000170 90 63 23 3d 57 19 bd bc 5e 63 bb 3d 3c 8c dd 3d
       0.039889872 -0.023083372 0.09149812 0.10817763
000180 ba 83 dc 3d a2 5c 1f bd 60 01 f1 bb 1e 7a 10 3d
       0.10767312 -0.0389067 -0.0073549002 0.03527271

fc5.weight f4 [100, 100]
000000 3e cd 10 3e 23 41 d8 3d 12 50 1b 3d 04 45 69 3b
       0.14140794 0.10559299 0.037918158 0.0035594115
000010 ce 24 7a bc 60 41 c8 3d 36 61 3d be df 32 08 3e
       -0.015267564 0.09778094 -0.18494114 0.13300656
000020 29 2e a8 bd f8 61 77 3d 95 03 86 3e fd b3 80 bd
       -0.08211929 0.060396165 0.26174608 -0.0628433
000030 45 93 5b bd 62 e8 42 be 66 7c 1f 3d cc af 31 3d
       -0.053607244 -0.1903396 0.038936995 0.043380544
000040 3f 78 ec 3d 82 e4 01 3d cf ea 2a 3d 42 50 53 bc
       0.115463726 0.031712063 0.041727837 -0.012897553
000050 2f bf 04 bd 8e c2 8d 3d f2 4b c4 bd c5 5a 8d bc
       -0.03240889 0.06921874 -0.09584798 -0.017255196
000060 9e 81 7a 3d fc 5d e7 bc 64 16 ea 3c d9 17 88 3d
       0.06115877 -0.028243057 0.02857513 0.066451736
000070 30 4d 80 3d 63 8f 64 bd 6a 69 c8 ba c6 e1 e7 3d
       0.06264722 -0.055800807 -0.0015290205 0.1132236
000080 1f c5 00 be 54 8b eb 3d 0d 1c 74 3d 23 ed 92 bc
       -0.12575196 0.11501184 0.059597064 -0.017935341
000090 e3 64 aa 3d 44 97 96 bd 27 4a a6 bd cd ea d3 3c
       0.08320024 -0.073530704 -0.08119612 0.025868798
0000a0 d5 93 ab 3d 7b 5c a2 3d 51 3f 76 bd 87 b3 78 be
       0.08377806 0.079277955 -0.060118977 -0.24287234
0000b0 0a 5a 55 bd 48 b3 b6 bc 48 f5 c2 3d f3 bc 8a bd
       -0.05208782 -0.022302285 0.0951944 -0.067743205
0000c0 b5 41 ce 3b c4 9a 8c bd cc 3e 9d 3d 18 4d b4 bd
       0.006294454 -0.06865457 0.07677993 -0.08803767
0000d0 d7 4d d4 3c 9d be 16 bd 47 3d f2 3d 6b e3 64 3d
       0.025916023 -0.036802877 0.11828094 0.055880945
0000e0 24 c6 59 3c a5 55 cc bc 5d f8 b3 3d 75 83 8a be
       0.013291869 -0.024943182 0.08787606 -0.2705342
0000f0 e1 77 e0 bd 54 45 43 3d 08 35 b6 bd 03 e1 a7 3d
       -0.10960365 0.04767354 -0.08896834 0.081972145
000100 51 0a 15 be 6d 0a 6a 3d 56 99 6a 3d fe 58 87 3e
       -0.14554717 0.05713885 0.05727514 0.26435083
000110 5e 56 0e 3e b4 86 22 3d 3f 7b 5d 3d f9 79 12 be
       0.13900134 0.039679244 0.054072615 -0.14304341
000120 21 10 c2 3c 6b 76 e6 bd 83 98 d6 bd dd 22 44 bd
       0.023689331 -0.11253055 -0.10478308 -0.04788481
000130 11 5a bd bd 52 9b 5f 3e 8c cb 4c 3c c3 da a9 be
       -0.092456944 0.21836594 0.012499701 -0.33174714
000140 34 aa 39 3e 16 48 8d 3b 60 c1 97 bb 99 42 e3 bc
       0.18131334 0.004311572 -0.0046312064 -0.027741717
000150 21 40 97 bd 87 68 d3 3b 2f 57 ae bc 8d ff c2 3d
       -0.073852785 0.0064516696 -0.021281807 0.09521399
000160 3d de cc bd 51 ad 7f bb 95 71 ed 3d ce ea 2c bc
       -0.10003326 -0.0039013217 0.1159393 -0.010554029
000170 a1 58 d1 3c 73 54 64 bd 23 0d 9c bd f7 33 97 bd
       0.025554957 -0.0557446 -0.07619693 -0.073829584
000180 16 d9 78 bd 60 86 85 3e d6 b0 08 3e 2b f6 bc bd
       -0.060753904 0.26079082 0.13348708 -0.0922664
000190 33 91 84 bd 5c 8e 54 bd e7 be 86 bd 47 04 5a 3e
       -0.06473007 -0.051893577 -0.065793805 0.21290694
0001a0 dc 10 97 bd 73 e6 d8 3d cf f4 95 bd 22 cc ad 3d
       -0.073762625 0.1059083 -0.07322084 0.08486201
0001b0 df 30 fe 3d d4 84 a7 bd db 7c 91 be ae 0f 91 bd
       0.12411665 -0.08179632 -0.2841557 -0.07083069
0001c0 0e 39 d5 3c 75 80 28 3d d0 c5 64 bc 63 b5 ab 3d
       0.026028182 0.04113813 -0.013963178 0.08384206
0001d0 f2 0b eb 3b 67 10 88 3d 7f e6 aa bd bc 78 91 3d
       0.007173055 0.066437535 -0.08344745 0.071031064
0001e0 7e 58 d2 ba 6f 20 ea 3d 18 e3 1c 3c ca 12 07 bd
       -0.0016048101 0.114319675 0.009575628 -0.032976903
0001f0 25 93 bb bd 2c 03 73 bc fa b5 55 3d da c8 98 3c
       -0.09158925 -0.014832299 0.0521755 0.018650461
000200 82 4e ae bb 31 58 0d 3e ed aa fb 3b 6b c1 10 3d
       -0.0053194175 0.13803174 0.007680288 0.035340708
000210 44 ad 10 3e fc 47 5e 3d 45 9c c9 bd 4e 72 19 be
       0.14128596 0.05426787 -0.09844259 -0.1498501
000220 b6 95 3f 3d 68 ea 49 3c cd fd 69 bd 4a fd a9 bd
       0.046773635 0.012323953 -0.05712681 -0.08300264
000230 ec ca 7a be 39 b7 93 bd a6 a5 94 3c 92 1d 05 3e
       -0.24491471 -0.07212681 0.018145394 0.12999561
000240 f4 c5 8c bb c6 02 b9 bc ba 13 69 bc 3f 9e f0 3d
       -0.004296059 -0.02258433 -0.014225895 0.11748933
000250 bf f0 a7 bd 3e ad 36 3d 51 76 79 bd 78 db b1 3d
       -0.082002155 0.04459881 -0.06090385 0.086844385
000260 b0 14 63 3d 8a 67 3c 3d b8 91 4c 3b 23 22 3e bd
       0.05543965 0.04599718 0.0031214785 -0.046419274
000270 15 52 dc bc f8 31 49 bd 00 cb a0 bd b8 59 35 be
       -0.026894609 -0.04911992 -0.07851219 -0.17710006
000280 ba 14 e0 3d 05 db 70 bd 79 4b 6c bd 2e 58 81 3d
       0.10941453 -0.058802623 -0.057689164 0.06315647
000290 6d a8 6f bc 97 7e 36 3a 74 ae 5d 3d ed 26 4b be
       -0.014627558 0.00069616124 0.05412145 -0.19839068
0002a0 d2 1a c7 3c 57 2c 72 3d 03 b1 8d 3d 43 45 07 bd
       0.024304781 0.059124317 0.06918528 -0.033025037
0002b0 68 74 0d 3e 9f ce 1d bd e8 e0 b2 3c 89 1e c3 bd
       0.13813937 -0.038527127 0.02183576 -0.095273085
0002c0 3d 1e 87 bd 33 3c 23 be 9c 37 4c 3d c0 28 1a 3e
       -0.06597564 -0.15940933 0.04985772 0.15054607
0002d0 2f f9 60 be d5 ed 0e 3e 17 f0 61 3d 28 15 19 3d
       -0.21970056 0.13957913 0.05516061 0.03737369
0002e0 99 46 2c be a7 95 37 3b 62 c3 65 bc 04 d0 bb bc
       -0.16823806 0.0028012784 -0.014023634 -0.022926338
0002f0 c8 ae 8b 3d bc 9a 93 bd d6 92 35 3d 2a 01 7f 3d
       0.06820446 -0.072072476 0.044329487 0.06225697
000300 04 3a 04 3c 53 93 66 bd cf 31 ad 3d db 1f d1 3d
       0.008070473 -0.056292843 0.08456766 0.10211154
000310 1b 48 8c 3d 9b ca 33 be fc 97 91 bc d9 00 05 3d
       0.068496905 -0.17557757 -0.017772667 0.03247151
000320 e7 c1 2c 3e 6d c2 95 bc 82 5c 98 3c 98 de 0d 3d
       0.16870843 -0.018281186 0.018598799 0.03463611
000330 14 f6 cb 3d ee c2 dc 3d d1 b8 a6 3c b3 3f 62 bd
       0.09959045 0.107793674 0.0203518 -0.05523653
000340 03 35 37 3d 89 35 ad 3d e6 28 6c 3d 0d d9 96 3d
       0.04472829 0.08457477 0.05765619 0.07365618
000350 22 87 7c be f2 46 72 3d 30 94 d5 bb f0 b6 81 bd
       -0.24660924 0.05914969 -0.0065179095 -0.06333721
000360 1e 04 26 bd 85 25 e0 3d a9 19 a8 3d 34 a2 bd bb
       -0.04053127 0.10944656 0.08208019 -0.0057871584
000370 8f cd 03 3d 1b 43 8d 3d 76 48 ec 3a 92 36 f5 3c
       0.032178458 0.06897565 0.0018026966 0.029933248
000380 79 5a bf 3d 99 fc 44 bd 37 0c bb bd 49 20 d2 bd
       0.09343428 -0.04809246 -0.09133189 -0.10260064
000390 d1 9a 7e bc 8a 48 39 bd 81 d6 5c 3d 35 a3 26 3b
       -0.015539841 -0.045235194 0.053915504 0.0025426869
0003a0 ac 03 49 3c 11 e7 fb 3d 23 95 65 3c 83 0b 04 bb
       0.012268942 0.12299932 0.014012608 -0.0020148463
0003b0 72 7e cf bd e9 20 34 3c 5a a7 04 3d 1c 3f c2 bd
       -0.101315394 0.0109941745 0.03238616 -0.094846934
0003c0 eb d8 74 3e a0 f2 59 3d 36 4e 5c bd 7f 87 55 3b
       0.23910873 0.0532099 -0.053785525 0.0032581983
0003d0 86 46 b5 bd d2 fe 20 3d ae 3a 9b bd 1e 9a 41 bd
       -0.08851342 0.039305516 -0.07579552 -0.04726612
0003e0 89 a8 bf bc 88 d7 91 bc 8e 41 94 bd ce 07 75 bc
       -0.023395794 -0.017802969 -0.07239066 -0.014955474
0003f0 b0 28 a4 bd 9f 20 04 3e 45 19 b0 3d e7 6c be 3d
       -0.08015573 0.12903069 0.0859857 0.09298115

fc5.bias f4 [100]
000000 f5 2a cf 3d 41 aa c9 bc 86 f1 90 bd 52 23 69 3d
       0.10115615 -0.024617316 -0.07077317 0.05691845
000010 75 85 0a 3c 17 86 b4 bb 7b cd 33 3d 3d eb 9f bd
       0.00845467 -0.005509149 0.043897133 -0.0780854
000020 f4 14 0b bd bb 84 f2 3d ac 8a f1 bd 38 51 12 3d
       -0.03395553 0.118417226 -0.11794028 0.035721987
000030 f5 cf 91 3d 91 7b dd 3d d0 b4 a2 bd 9b d9 8a 3d
       0.07119743 0.10814584 -0.079446435 0.06779786
000040 31 80 d7 bc f9 0f af 3d 0a 6b cc bc 17 bc 00 3e
       -0.026306244 0.085479684 -0.024953384 0.1257175
000050 da a4 0e bd db 9b 92 3d 73 c4 e4 3c 8c 00 da 3d
       -0.034825183 0.07158633 0.027925706 0.106446356
000060 f2 45 80 bd b7 ab bf bd 77 16 ae 3d 0f 0b 82 3c
       -0.06263341 -0.09358924 0.085003786 0.015874414
000070 ce 8a 6c 3d db 17 a1 bd 8e b5 46 bd bb ef 9c 3d
       0.057749562 -0.07865878 -0.048512988 0.076629125
000080 71 29 53 3d fd cc e7 bd fb e7 18 3d 05 e8 e5 3d
       0.051553193 -0.11318395 0.03733061 0.11225895
000090 8e e0 d2 3d 44 7e 72 3d ce 9c a9 3d 46 23 84 3d
       0.10296737 0.059202448 0.08281861 0.064520404
0000a0 64 2b d3 3d e3 23 0b 3e 5d a1 e2 3d 44 17 27 bd
       0.103110105 0.13587908 0.11065934 -0.040793672
0000b0 0c 69 3f 3c 0a 97 db bc d2 cf b5 bd c3 32 61 bc
       0.01168276 -0.02680542 -0.08877529 -0.013745013
0000c0 f0 2e 19 3e 50 59 99 bd 2b f4 c1 3d 42 75 e6 3c
       0.14959311 -0.07487738 0.094703995 0.028132085
0000d0 5d 0b 86 3d 58 c9 a7 bc c8 72 58 3d f7 de 32 3d
       0.06545136 -0.02048175 0.05284384 0.043669667
0000e0 4a 80 c7 bd 5c 73 a1 3c 5a 81 26 bd 6e ef 84 3d
       -0.09741266 0.019708328 -0.040650703 0.0649098
0000f0 b1 de 12 3e c8 8d 8f 3d 7f 64 bb 3d a7 d7 9a 3d
       0.14342763 0.070094645 0.091500275 0.07560664
000100 7d 7e 16 3e 55 e4 f6 bc b6 18 0d 3d 95 bb 37 bd
       0.14696689 -0.030138174 0.034447394 -0.044856627
000110 7e 95 af 3d ce 4f 85 bc 40 f7 ae bd 41 7c 15 3b
       0.08573435 -0.016273405 -0.08543253 0.0022809657
000120 ba 5b bf 3d 9d 98 d7 3d b7 65 ca bc a4 22 3d 3d
       0.09343667 0.105271555 -0.024706705 0.046175614
000130 5a 60 a5 3d b0 26 15 3e 9c be 57 bd e9 79 91 3d
       0.08075018 0.1456554 -0.052672014 0.07103331
000140 8d 08 e0 3d 25 b8 be 3d d1 ba 26 3e 3a d4 ba 3d
       0.10939131 0.093124665 0.16282202 0.0912251
000150 92 f5 0d 3e 29 c8 80 3c 01 ad 66 bc 5e 5b be bc
       0.13863209 0.015720444 -0.014079333 -0.023236927
000160 be 3e 0e bc 1e 87 92 3d 33 0b ef 3d 77 49 a7 3d
       -0.008681951 0.07154678 0.11672058 0.08168309
000170 8d d7 75 bd cf 0b 67 3d c0 a8 f3 3c 8e 84 ee 3d
       -0.06002002 0.056407746 0.029743552 0.116463766
000180 59 f5 e6 3d 83 bf ce bc bd d6 22 bc a1 da 55 3d
       0.11277265 -0.025237804 -0.009938893 0.052210454
