resources/pretrained_models/ik_threelink_obs1_base/weights_100/model.pth (torch_old, 294847 bytes, 18 tensors)

fc1.weight f4 [100, 20]
000000 9a 7c 80 be ca d6 0f be 6e 95 63 bd e1 a2 70 3e
       -0.25095063 -0.1404678 -0.05556243 0.23499633
000010 95 1b f4 3d 27 1d 81 bc 88 79 52 bd 0b ac 30 3e
       0.11919323 -0.015760971 -0.051385432 0.17253129
000020 ac 1c 9c bd 64 b2 84 3d 40 c4 66 3c 10 7a 54 bd
       -0.07622656 0.06479338 0.014084876 -0.05187422
000030 88 1f f7 3d e0 a0 22 bd f6 c6 4e be b2 ea 1d be
       0.12066561 -0.039704204 -0.20193085 -0.1542156
000040 88 7a f6 bc cc b4 e4 bd 61 f5 f3 bd f3 f1 f0 bd
       -0.030087724 -0.11167297 -0.11912037 -0.11764898
000050 06 fc 4f be 11 54 a1 be 69 54 1e be 9c 97 63 3b
       -0.20310983 -0.3150945 -0.15461887 0.0034727817
000060 ec dd 1d 3d 4a 91 e6 bd 29 f8 c1 bc 16 10 83 3c
       0.03854172 -0.112581804 -0.023677902 0.015998881
000070 38 9d f6 3d 38 a6 76 3d e8 38 26 3d ec ca f2 3d
       0.12041706 0.060217112 0.040581614 0.118551105
000080 ac 4b 38 3e 4c cf fc bd 50 49 2f 3c c0 6d 42 3e
       0.17997617 -0.12344226 0.010698631 0.18987179
000090 70 ba eb bc 90 39 a3 3d ae 06 8a bd 80 3a a3 3d
       -0.028775424 0.079699636 -0.06739555 0.07970142
0000a0 30 09 61 3e 2e 6e 31 bc 4f e7 ee bd 97 2b 21 3e
       0.21976161 -0.010829492 -0.11665212 0.15739284
0000b0 fc 6e 25 3d c1 4d 47 3e 55 a7 1a 3e 52 05 ee 3d
       0.040389046 0.19463255 0.15102895 0.116221085
0000c0 70 4c 13 bd ca 00 50 3e d0 27 bd bd ae 8f 58 be
       -0.03596157 0.20312801 -0.09236109 -0.2114856
0000d0 c8 0b 37 be ce b6 96 bd f5 0b 5f be d2 69 f3 bd
       -0.17875588 -0.07359086 -0.21781905 -0.11885418
0000e0 52 22 0e 3e 58 71 58 be b2 3e a1 bd 96 c6 c6 bd
       0.1388028 -0.21136987 -0.07873286 -0.09705846
0000f0 5b 6b ae bd f2 84 f1 bb 40 84 4a be 7e fe 30 3d
       -0.0851657 -0.0073705846 -0.19777012 0.043211453
000100 2e 4e 2d be 6b 20 3a be b3 25 00 3e 09 34 51 be
       -0.16924354 -0.18176429 0.12514381 -0.20430006
000110 3a b2 22 be d6 e3 44 be 04 76 4a bd 76 4d cb bd
       -0.158883 -0.19227538 -0.049428955 -0.09926884
000120 f2 e8 1b 3e 88 98 15 3e b6 5e 28 3e cc 2e 3d bd
       0.1522558 0.14608967 0.1644238 -0.046187207
000130 12 eb a3 bd b4 e1 8e 3d 5a e5 53 be f8 1c 92 bd
       -0.080038205 0.06976643 -0.2069296 -0.071344316
000140 e6 a1 b1 bd 95 06 81 bd 1e 03 0c 3e 8e a3 59 3e
       -0.08673458 -0.063000835 0.13673064 0.21253797
000150 9f dd 26 3e 47 1f 6e 3d d5 2f 43 3e a0 ac ed 3d
       0.16295479 0.058135297 0.19061215 0.11605191
000160 82 c9 19 3e 72 83 2f 3e 84 e9 30 bd 3c fc 4a bd
       0.15018275 0.17139986 -0.043191448 -0.049556956
000170 de 7a 5a 3e 8a c0 13 3e a0 b2 2a 3d 58 bd 8e bd
       0.21335933 0.14428917 0.041674256 -0.06969708
000180 00 64 e3 3d 00 90 0f 3e 00 9d 4b be 60 82 4f 3d
       0.11103058 0.14019775 -0.1988411 0.050661445
000190 c3 e3 d9 3d a8 82 fc bd 2a 96 0b be 7c de 27 3d
       0.10639145 -0.12329608 -0.13631502 0.040983662
0001a0 b9 da eb 3d 2b 1d 08 be b5 cb b0 3d dd de be bd
       0.115163274 -0.13292377 0.08632604 -0.093198515
0001b0 a7 c7 56 be 00 dd 3f bc e4 ec e5 3d 30 40 68 3d
       -0.20974599 -0.011710405 0.11226824 0.05670184
0001c0 16 c1 2c 3e 4a e2 0f be b0 94 75 3d 88 4d 6f 3d
       0.16870531 -0.14051166 0.059956253 0.05842355
0001d0 5e da 49 3e 00 a5 e1 bd e2 eb 1b be 50 97 a5 bc
       0.19712207 -0.110177994 -0.15226701 -0.020213753
0001e0 57 e4 23 be bd 83 51 3d db 12 48 be 58 cb 17 bd
       -0.16005073 0.051151026 -0.19538443 -0.037059158
0001f0 ac 8d 3b 3d 84 56 c7 ba af e9 22 be 31 3a fb bc
       0.045789406 -0.0015208279 -0.15909456 -0.030667396
000200 c2 3d 04 3e c8 19 bc 3d de 92 22 3e c4 dc 1d bd
       0.12914184 0.09184605 0.15876338 -0.038540617
000210 08 30 5f bd 70 ee 2d 3d 8e a9 b4 bd 56 e7 27 3e
       -0.054489166 0.04246372 -0.088214025 0.16396841
000220 24 7a 34 bd 34 5a 23 3e 18 3d 53 be 00 18 4a be
       -0.044061795 0.15952379 -0.20628774 -0.19735718
000230 85 1b 6b 3e 6b b5 20 3d 2d 4c 32 3e fb df 79 3e
       0.22959717 0.039235514 0.17411871 0.24401848
000240 6c d9 ef 3d e0 ed 50 3e 4a 44 0b 3e b0 1a a1 3d
       0.11711392 0.20403242 0.13600269 0.07866418
000250 78 ec 3e bd 06 47 a8 bd 78 69 2e be c0 f8 00 bc
       -0.046612233 -0.08216672 -0.1703242 -0.007871807
000260 60 d8 f9 3c 70 83 3b 3d e0 a5 07 3e ae ff 46 3e
       0.030498683 0.045779645 0.1324687 0.19433472
000270 20 93 c4 3d c0 a2 76 3c 40 80 fe bc 64 ce ea 3d
       0.09598374 0.015053451 -0.031067014 0.11465147
000280 35 d8 0b be 65 4c 45 be 77 e7 c9 3d 17 25 7d 3e
       -0.13656695 -0.19267423 0.098586015 0.2472118
000290 48 d6 e8 bc f1 0f db bd 7e 30 40 be bf e3 3b be
       -0.02842249 -0.106964 -0.18768498 -0.18348597
0002a0 a0 34 98 bb 58 46 db 3d 68 76 2a 3d c8 ae b5 bc
       -0.0046449453 0.107067764 0.041616827 -0.022178069
0002b0 d0 03 e2 3d 70 13 5c be 40 23 75 3c b0 7d 19 3d
       0.110358834 -0.2149179 0.014962018 0.03747338
0002c0 94 eb fd 3d 00 7c 29 3d 80 04 21 3d 30 7b 77 bc
       0.123984486 0.04137802 0.039310932 -0.015105054
0002d0 d4 e7 3f be 55 a7 26 bd 0a a4 50 be 2e 68 c2 bd
       -0.18740779 -0.040686924 -0.20375076 -0.09492527
0002e0 9b 0e 1e 3e f8 29 d8 bd 30 e7 67 3d 90 61 ef bd
       0.15435259 -0.1055488 0.056616962 -0.116885304
0002f0 da a3 2f be 68 99 7b 3d d9 62 2c be c8 39 51 3e
       -0.17152348 0.061425596 -0.16834582 0.20432198
000300 65 41 0b be 76 60 49 be f8 8a 5b be 3a 9b 84 bd
       -0.13599165 -0.19665703 -0.21439731 -0.064749196
000310 40 1c e1 bd 50 6f 18 3d f4 d0 96 bd 28 73 99 3d
       -0.109917164 0.03721553 -0.073640734 0.074926674
000320 d5 6d 80 be 37 f7 a0 3d da 46 a0 3d e0 cf 91 3c
       -0.25083795 0.078596525 0.07826014 0.017799318
000330 0d 76 5e be ee 4b 71 be dd a4 d9 3b a0 5d 10 be
       -0.2172472 -0.23564121 0.0066419677 -0.14098215
000340 68 6c c0 3d 7c da fd 3d b0 f4 3f 3e c0 2f 2e 3e
       0.09395677 0.12395188 0.18745685 0.17010403
000350 80 bc 40 3d bc 32 88 3d 42 84 b6 bd bc 06 9a 3d
       0.047054768 0.06650302 -0.08911945 0.07520816
000360 90 a4 31 be 38 64 3c be ff 38 f7 bd 82 3f 40 3e
       -0.17347932 -0.18397605 -0.12071418 0.18774226
000370 71 1b 59 bb 38 09 81 3d 9f 34 29 3e 77 a8 8e 3d
       -0.0033127929 0.063005865 0.1652398 0.06965726
000380 4f a9 5f be 58 ff a4 3d 74 75 73 bd 88 fe c5 bd
       -0.2184193 0.080565155 -0.059438184 -0.096676886
000390 f0 c3 02 bc 86 e6 5c be de ac 2f be b0 b5 a9 3c
       -0.007981285 -0.21572313 -0.17155787 0.020716518
0003a0 fc 48 fe 3d c4 5a 1c 3e 3c 74 38 be 34 c2 54 3e
       0.124162644 0.15269 -0.1801309 0.20777208
0003b0 68 b8 7c bd da b0 58 3e 04 72 b5 3d 24 09 43 be
       -0.0616993 0.21161214 0.088596374 -0.19046456
0003c0 41 bd c8 3d e7 9a 47 3e 52 25 19 be f4 98 51 3e
       0.09801722 0.19492684 -0.14955643 0.20468503
0003d0 c1 e8 55 bc b7 61 09 3e 80 66 60 3e c7 86 1e be
       -0.013055981 0.13416182 0.219141 -0.15481101
0003e0 e8 79 fb 3d 44 45 5b 3e 00 bf d6 3a 60 30 29 3d
       0.12279111 0.21413141 0.0016383827 0.0413059
0003f0 78 d5 79 3d 28 c7 14 be 48 70 c9 3d d4 ac 3a bd
       0.060994595 -0.14529097 0.09835869 -0.045574978

fc1.bias f4 [100]
000000 3a c9 93 3c d3 64 46 3e 85 2d 8a be 8d d6 24 be
       0.018040288 0.19374399 -0.26987854 -0.1609747
000010 88 26 03 3e b9 70 9e 3d e2 18 0a 3d c1 ba b0 3c
       0.12807667 0.07736344 0.033715136 0.021573426
000020 3c a6 5d 3e 03 18 3d 3e 90 77 b3 bb 63 62 f2 3c
       0.21645445 0.18466191 -0.0054768994 0.02958793
000030 a0 d4 31 3e cb ab 1f 3e 7b 7f 0b 3e 6e c9 08 be
       0.17366266 0.15592878 0.13622849 -0.1335809
000040 27 0b c8 bd cb fa 60 3e bf 12 28 3e 58 cc f7 bd
       -0.09767752 0.2197067 0.16413401 -0.12099522
000050 ba c7 ce 3d 8c dc 11 3e 6c ac 3f be 90 d7 d6 3d
       0.100966886 0.14244288 -0.18718117 0.10490334
000060 c1 9f 38 be f7 87 c5 3d 88 b6 4b 3e c8 57 af bd
       -0.18029691 0.09645074 0.19893849 -0.08561665
000070 6a b9 9e 3d 48 f4 40 bd e4 62 9d 3d 39 45 5c bd
       0.07750209 -0.047107965 0.076848775 -0.053776953
000080 ec c7 06 be 38 52 5d 3e 98 a4 86 3d 41 7c 28 be
       -0.13162202 0.21613395 0.065743625 -0.16453649
000090 a5 e3 17 3e f2 ec 72 3c 21 0f 16 bd 3a 23 33 bd
       0.14832933 0.014827 -0.03663552 -0.043734767
0000a0 db a3 49 be 20 60 09 bd 3b 17 9a bd bc dc 02 bd
       -0.19691412 -0.033538938 -0.07523962 -0.03194879
0000b0 42 6b 21 3e 6b 75 ff 3d fd ba 3d 3e 80 b3 09 bd
       0.15763572 0.124735676 0.18528362 -0.03361845
0000c0 d7 c1 9a 3d 67 90 a4 3d 84 f7 82 be 82 76 48 3e
       0.07556503 0.08035355 -0.25579464 0.19576457
0000d0 ec 04 d8 3d 68 15 3d be b8 fd 1a 3d 59 7d 4c 3e
       0.10547814 -0.18465197 0.03783962 0.19969691
0000e0 70 03 3f be c8 03 eb 3d e3 f3 84 3d 69 fe f1 3c
       -0.18653655 0.114753306 0.0649183 0.029540258
0000f0 a4 d4 56 3e 1f e0 2c 3e 33 c4 8e bd 89 6e d0 bd
       0.20979553 0.1688237 -0.06971016 -0.10177333
000100 18 ae b8 bb e1 2d 91 3d c5 8c 5b 3e fd 3f 01 3e
       -0.005635988 0.07088829 0.21440418 0.12622066
000110 7b 62 8f 3e 3f 11 02 3e b8 85 3b bc 75 1e 58 3e
       0.28004822 0.12701891 -0.011445455 0.21105368
000120 30 b7 0e bb d5 00 c6 3d 20 11 bf bd 54 2b 5a be
       -0.0021776669 0.096681274 -0.09329438 -0.21305591
000130 d6 43 39 3e ac f3 92 bd a5 cd 73 be 03 aa ea bd
       0.18092284 -0.07175383 -0.23808916 -0.114582084
000140 5c 3d 2a be 3c e8 ef bd f0 76 d0 bd 15 58 19 3e
       -0.16624969 -0.11714217 -0.101789355 0.14975007
000150 51 f4 ee bd 7e ee 3e 3e e0 74 38 3e 84 35 e5 bd
       -0.116676934 0.18645665 0.18013334 -0.11191848
000160 38 07 67 3e 2c b4 39 3e 2a 04 32 be 03 32 34 be
       0.22561347 0.18135136 -0.17384401 -0.17597203
000170 6c 24 f3 bd 5d fe d8 3d 70 86 1b 3e 9c 97 8c 3e
       -0.11872181 0.10595391 0.15188003 0.2745942
000180 06 8d a1 3d 6c c9 4a be 70 46 4d bc 9f d3 e7 bd
       0.07888226 -0.19803399 -0.012529001 -0.113196604

fc2.weight f4 [100, 100]
000000 f7 bb 7c bd 18 c8 6e bc ff 2a ab 3d 7d 0f 29 bd
       -0.061702695 -0.014574073 0.0835781 -0.041274536
000010 d3 27 a6 bd 50 cb 17 3c 53 b4 5c bd c2 65 60 3d
       -0.081130646 0.009264782 -0.053882908 0.054784544
000020 7e 6e 8d bd a8 f4 09 bc a7 01 c4 3d 24 95 d0 3c
       -0.0690584 -0.008420147 0.09570628 0.02546174
000030 0b 98 c0 bd 83 0a 2d bd 58 09 09 3c ff 6e a4 3d
       -0.09404 -0.042246353 0.008364044 0.08028983
000040 60 8f 89 3c 2a b3 c7 bd 80 26 c9 bd 6a 49 29 bd
       0.016792 -0.0975097 -0.098217964 -0.04132978
000050 93 60 62 bd 36 e6 0b 3d be f5 64 3d 13 0b 93 3d
       -0.05526788 0.034155093 0.05589842 0.071798466
000060 30 47 92 3b 40 a1 c9 ba 98 b2 01 3c 84 ae f6 3c
       0.0044640526 -0.0015383139 0.007916115 0.030112512
000070 d0 cf c5 bd 5e 41 23 3d f1 f9 bb 3d 26 b0 00 bd
       -0.09658778 0.03985726 0.09178532 -0.03141799
000080 d6 02 4b 3d 42 bc 03 3d 5e 59 a1 bd e3 56 b5 bd
       0.04956325 0.03216196 -0.078783736 -0.08854463
000090 a0 37 0f 3b fe b2 44 3d e0 c8 c5 bd be c2 45 3d
       0.0021853223 0.048022263 -0.096574545 0.048281424
0000a0 9d 7f 8e 3d b0 c5 b3 bd c8 ee 8a bc 8d d9 b3 bd
       0.06957934 -0.0877794 -0.016959563 -0.08781729
0000b0 bf 00 a1 3d a8 77 ab bc 48 a0 ff bc a3 a6 8f bd
       0.078614704 -0.02093108 -0.031204358 -0.07014205
0000c0 02 b2 93 bd 67 d6 50 bd a8 40 be 3c 90 04 69 bc
       -0.07211687 -0.05098572 0.02322419 -0.014222279
0000d0 40 d3 93 bd fa f1 1e bd 93 ef 4b bd 48 57 c7 bc
       -0.07218027 -0.038804986 -0.049789023 -0.024333611
0000e0 a7 f0 67 bd 0c 7f ad bc 18 3c 29 bc 4c 82 f2 3c
       -0.05662599 -0.021178745 -0.010329269 0.029603146
0000f0 28 8d a1 bc c7 61 b7 bd 87 86 1a bd 80 60 b0 bd
       -0.019720629 -0.089541964 -0.03772595 -0.08612156
000100 88 cf 9e 3c 78 4b 81 bc e0 48 ec bb e8 d8 47 bc
       0.019386068 -0.015783057 -0.007210836 -0.012197711
000110 de d7 24 3d 20 84 da 3b ca 09 18 bd 00 9c a3 bd
       0.04024493 0.0066685826 -0.03711871 -0.07988739
000120 ff a4 81 3d 18 f2 90 3c bc eb 81 bd 22 44 85 bd
       0.06330299 0.017693564 -0.06343791 -0.06507136
000130 99 09 c6 3d 55 22 81 3d 91 c0 81 3d a0 24 24 bb
       0.09669799 0.063053764 0.06335557 -0.0025046244
000140 3a ab c9 bd 80 20 39 3c 9a cd 2a bd c8 ca 9f bc
       -0.09847112 0.0112992525 -0.041699983 -0.019505873
000150 a2 33 56 3d 47 6d 37 bd 1c 94 e3 3c d7 88 b6 bd
       0.052295335 -0.04478195 0.027780585 -0.08912819
000160 00 ce ed b9 2e c5 92 bd d5 ac 98 3d 91 d7 b9 3d
       -0.00045357645 -0.07166515 0.0745484 0.09074319
000170 ba 75 02 3d 36 2c 5b 3d 68 aa 47 3c 00 f7 98 bb
       0.031850554 0.05350896 0.012186624 -0.0046681166
000180 6a 39 91 bd de 81 39 3d 00 18 c0 38 00 98 9c 3a
       -0.07091029 0.045289867 9.159744e-05 0.0011947155
000190 3d 82 df bb 1e 62 09 3e 7e 50 5f bd 53 1b 03 3e
       -0.0068209455 0.13416335 -0.054520123 0.12803392
0001a0 9e 78 ec 3d 39 85 00 bd 36 56 ce 3d 8d 99 73 3d
       0.115464434 -0.03137705 0.10075037 0.05947261
0001b0 6e bb be 3d a1 5a f9 3d 36 a4 00 3e 60 53 e9 bc
       0.09313093 0.12175489 0.12562642 -0.02848214
0001c0 ac 3f 01 3e c1 1a 04 bd d7 fa e5 3d 58 d0 86 bd
       0.12621945 -0.032252077 0.112294845 -0.06582707
0001d0 a4 8f 2c 3d 7b 0b af be 3b f8 94 3c 7f 30 87 bd
       0.042129174 -0.34188446 0.018184772 -0.06601047
0001e0 d5 c1 a4 bd 61 8a fe 3c 68 69 b7 3a 70 f5 a6 3d
       -0.08044783 0.031071844 0.0013993206 0.08152282
0001f0 30 82 7f bc 9a 5e 6c 3d dd 35 0b bd e6 76 a4 bd
       -0.015595004 0.057707407 -0.033986915 -0.080304906
000200 f4 bc f8 3d e8 9d 99 3b f8 27 da 3d 58 f4 9c 3c
       0.12145415 0.0046880133 0.10652155 0.01915948
000210 43 1e ad bd 95 7d 90 be ad e9 a9 bd 5e 7a 50 3d
       -0.084530376 -0.2822081 -0.08296523 0.05089795
000220 fb b3 f0 3c 3f b3 0b 3d 1c 00 8c 3c ce df c7 3d
       0.029382696 0.03410649 0.017089896 0.09759484
000230 29 6d c0 3d 58 b1 ef 3d e4 ac 91 3c c0 e5 93 3c
       0.09395821 0.117037475 0.017782636 0.01805389
000240 85 f9 0e bc 8d 15 de 3d a0 8d bb 3c 33 5a 00 3d
       -0.008726482 0.10843954 0.02289468 0.03133602
000250 e8 7b a2 3d a4 e0 4a bd f4 72 04 3c 57 c1 b0 3d
       0.079337895 -0.04953064 0.008084048 0.08630627
000260 02 42 aa bd 46 34 83 bd c8 61 32 3d 64 1e c8 3d
       -0.08313371 -0.06406455 0.043550283 0.097714216
000270 0c 0e 04 bd 2c 87 ab bd 40 e4 c1 3c e1 fe 01 3e
       -0.03223996 -0.08375391 0.023668408 0.12694885
000280 0c 24 ad bc ad ad c6 3d 9e db 41 3b 80 02 ca 3b
       -0.021135353 0.09701095 0.0029580365 0.006164849
000290 23 1d 00 bf 8d eb 02 3b 3b 9a 7c 3d dc fd 08 be
       -0.5004446 0.0019976825 0.061670523 -0.1337809
0002a0 04 ac 9b be dc 9c 06 3e a3 be 87 3b a1 c6 2c 3d
       -0.30404675 0.13145775 0.0041425987 0.042181615
0002b0 3c 90 db bd a0 e5 89 bd 29 d4 85 be f7 89 a9 bd
       -0.1072087 -0.067332506 -0.26138428 -0.08278268
0002c0 1a d2 c4 3d a0 ae b2 3d 62 fb a3 bd e3 2d 64 3d
       0.09610386 0.08724713 -0.08006932 0.055707823
0002d0 c0 b5 d2 3d c2 dd 00 3d e9 9f 35 bd e1 0f a7 bd
       0.10288572 0.031461485 -0.044341955 -0.081573255
0002e0 2d d1 53 3d cd 10 69 bd 4d ed 13 3d d2 84 a8 3d
       0.051713157 -0.056900788 0.03611498 0.082284585
0002f0 bb 40 ed 3d 96 3b fb 3d 96 43 48 3d 08 5c 60 3d
       0.11584612 0.122672245 0.04889258 0.054775268
000300 bb 74 04 3d c1 44 c0 3d bb e4 17 3d 0c 35 8b be
       0.032337885 0.09388114 0.03708337 -0.2718891
000310 9c 68 b1 be a5 a4 02 be 2e 9f 98 3d 87 cc 7f bd
       -0.34650123 -0.1275812 0.07452236 -0.06245091
000320 96 38 00 3e df 0a a0 3d 80 37 18 bd 93 1e b4 3d
       0.12521586 0.078145735 -0.037162304 0.08794894
000330 98 7f 29 bd ac 66 a9 3d d7 1e 9f 3d 17 41 2e bd
       -0.04138145 0.08271536 0.07769554 -0.042542543
000340 90 72 8d bd fc 81 9a 3d 68 07 20 be 4f d6 5c 3c
       -0.06906617 0.07544324 -0.15627825 0.0134788295
000350 bd 79 61 bd 2b ac 74 bd 0c 7f 97 bd 6f 3c 9f 3d
       -0.05504774 -0.059734505 -0.07397279 0.07775199
000360 12 0e 2c 3d db c2 25 be c2 9e 6b 3d 42 2e ab bc
       0.042005606 -0.16187613 0.05752445 -0.02089608
000370 7b 69 77 bb ca 7d 54 3d d2 db 76 bb 5a de e4 3d
       -0.003775208 0.051877774 -0.0037667644 0.11175223
000380 81 44 9e 3d 5a 31 16 3e e7 04 2e bd e5 a1 ba bd
       0.0772791 0.14667264 -0.042485144 -0.0911291
000390 c0 c1 3b bb c2 e4 a5 3d 4d 63 f9 bb 10 4b af 3c
       -0.002864942 0.08100273 -0.0076107145 0.021398097
0003a0 6a f0 97 bc 6f 1e 26 be 19 0e 79 bd 2a cc 93 3d
       -0.018547256 -0.16222547 -0.06080446 0.072166756
0003b0 da fd 7b 3d 78 ce 6a 3d 6b ac 11 3d ff db 27 be
       0.06152139 0.05732581 0.03556482 -0.16392516
0003c0 f8 7d b9 3d 60 fe 56 bd 1c 8d da 3d 5e 6e 32 3d
       0.0905723 -0.052488685 0.10671446 0.043562286
0003d0 ee d3 59 bd 11 4c 38 3d 35 96 8a bd 7b 98 3d bd
       -0.053180628 0.044994418 -0.06766931 -0.046287995
0003e0 97 5d c5 3d b1 c6 e4 3d a9 bf 46 3d a5 33 27 3e
       0.096369915 0.1117071 0.048522625 0.16328295
0003f0 e1 76 e6 3c 45 bb a0 bd 4e 4f 07 3e 5e 92 63 be
       0.028132858 -0.07848219 0.13213846 -0.22223803

fc2.bias f4 [100]
000000 30 1f c5 bb 84 7b 33 3c cb 6d da 3d 9a 30 c8 bd
       -0.0060156807 0.010954741 0.106654726 -0.09774895
000010 4b 00 42 3d e9 1e a7 3d 6e ff 84 3d b3 f6 9e bd
       0.04736356 0.081601925 0.06494032 -0.07761898
000020 d2 ca 85 3b cc 43 8e bc 80 95 d1 3b 5b 81 99 3d
       0.004083016 -0.017366312 0.0063959956 0.07495376
000030 70 6e 21 bd b8 95 8f bc 31 fb 6a 3d 9c 69 17 3d
       -0.039411962 -0.017527446 0.05736846 0.03696595
000040 db f9 82 3d 75 3b 9b 3d 3b 4e ca 3c 1e 5e 56 bd
       0.063953124 0.075797 0.024695506 -0.05233585
000050 86 98 bc 3d 6b 96 c2 bd 71 c3 b3 3d 4e a1 96 3d
       0.09208779 -0.09501346 0.08777512 0.07354985
000060 d6 ca cf 3d d1 0c bf bd f9 42 38 3d ca e1 a1 bd
       0.1014611 -0.093286164 0.044985745 -0.07904394
000070 e0 68 45 bd 80 1a 01 3d 06 1b 6e 3d 7e b8 75 bc
       -0.04819572 0.031519413 0.05813124 -0.0149976
000080 d0 13 47 3d 9a 99 19 3d cf 44 50 3d 8f fa 83 3d
       0.04860288 0.0375 0.05084687 0.06444275
000090 75 da 64 3c 94 db 16 3c d8 77 5c 3d b1 08 17 bd
       0.0139681 0.009207625 0.05382523 -0.036873523
0000a0 bc 62 4c bd da 65 31 3d 24 f1 00 bd 17 01 ab bd
       -0.049898848 0.043310024 -0.03147997 -0.08349817
0000b0 a5 2b 08 3b b3 89 c3 3d 0c df 8e 3d 79 88 4a bd
       0.0020777967 0.095477484 0.069761366 -0.049446557
0000c0 80 da aa bd a1 f0 78 3d da 0e 5d bc ec 31 13 bd
       -0.08342457 0.060776357 -0.01349231 -0.03593628
0000d0 bb 16 c0 bc ed b7 8c bd e2 02 c6 bd 80 6a e9 3d
       -0.023448339 -0.068710186 -0.096685186 0.113972664
0000e0 65 c2 7b 3c 76 11 e1 3c 84 ff 55 bd e8 05 2e bc
       0.0153661715 0.027474146 -0.05224563 -0.010621525
0000f0 79 49 fd 3d cc ae 2f bd 2b 98 b6 bc 19 3b 44 bd
       0.123675294 -0.04289131 -0.022289356 -0.047907922
000100 3b 9f 32 bd 01 f6 ee bc ff 40 7e 3d c0 12 65 3b
       -0.043608885 -0.029170038 0.062073704 0.0034953803
000110 73 f0 8f 3d dd 22 a2 3d 26 a0 c5 bd 82 6d 1d 3d
       0.07028284 0.07916806 -0.096496865 0.038434513
000120 f5 f0 2a 3d 7a 2b db bd 2c 0e fd 3c b1 2a 6f bd
       0.0417337 -0.10701652 0.030890547 -0.058390323
000130 6f b5 68 bb 1a 08 88 3d 7e 35 ca 3d ad 1a f7 bc
       -0.0035508533 0.0664217 0.09873484 -0.030164087
000140 77 3b eb 3d d0 c0 42 bd ea a7 aa 3c cd 1e 2a 3d
       0.114859514 -0.04754716 0.02083202 0.04153328
000150 01 95 c6 ba 64 56 ea 3d f6 32 80 3c 7a f7 9d 3d
       -0.0015150608 0.11442259 0.0156493 0.07713218
000160 2d 7c b7 bd 82 d6 c4 3d b5 93 49 3d 6f cf f6 3d
       -0.089592315 0.096112266 0.04921313 0.120512836
000170 bd 8c 0e 3d a2 7e f3 3d d4 25 23 3d 01 da 99 3d
       0.034802187 0.11889388 0.039830998 0.07512284
000180 00 a3 de bd 2a c6 68 3d f7 9c c8 3b aa a6 29 3d
       -0.108709335 0.05682961 0.0061222273 0.04141871

fc3.weight f4 [100, 100]
000000 d0 17 3a bd a2 7c a3 3d 93 78 fb 3b c1 8f c4 3c
       -0.045432866 0.07982756 0.0076742857 0.023994328
000010 b5 ff 61 3d a7 34 28 bd 7d 88 74 bb ad c6 b6 bd
       0.0551755 -0.04106584 -0.0037312799 -0.08924613
000020 cd 72 40 3e eb 60 e8 bd 28 e8 e6 3d 4b 8c f2 bd
       0.18793793 -0.11346611 0.11274749 -0.11843165
000030 39 74 aa 3d 33 fb 04 3e 1b 12 93 bd d9 62 e5 3d
       0.08322949 0.1298645 -0.07181188 0.11200494
000040 aa 68 44 3d 4a 6b 0e bd e6 68 60 bd a6 a0 1d 3d
       0.047951378 -0.034770288 -0.05478754 0.038483284
000050 41 4d f0 3d f0 5e 83 3c de 2a 79 3d ff c7 4f bd
       0.11733485 0.01603648 0.060831897 -0.05072784
000060 7c fa 1c 3c c7 e9 e1 bc 22 2d 91 bd 46 4b 72 3d
       0.0095812045 -0.027577294 -0.070886865 0.059153818
000070 0d 08 97 3d 56 ca fd ba 92 4d 82 3c 7e 2a 17 3d
       0.073745824 -0.0019362669 0.015906129 0.036905758
000080 27 3b a2 3d 41 89 5d 3d f9 fb 92 3d 22 40 2d 3d
       0.07921439 0.054085974 0.07176966 0.04229749
000090 37 e6 0d 3d 27 f6 b5 3d bf e6 80 3c b9 21 80 3d
       0.034643378 0.088848405 0.015735028 0.06256432
0000a0 70 cf a5 3b a0 e8 9f bc 75 0d b6 3d 4b 66 b6 bd
       0.005060129 -0.019520104 0.088892855 -0.089062296
0000b0 5e 5e 85 3d 7f 88 f7 3c 65 a0 ba 3d fb 55 aa bd
       0.0651214 0.030216454 0.09112624 -0.08317181
0000c0 c8 b6 ac 3c 8e da 02 bb 93 37 31 bd 14 71 e3 bd
       0.02108325 -0.0019966695 -0.04326589 -0.11105552
0000d0 36 61 21 bc 2c ea cd 3c eb 74 96 bd 4d 7e 53 3e
       -0.009849837 0.025136076 -0.07346519 0.20653649
0000e0 4d 49 4d bc 87 55 54 3e e0 e4 be 3d 91 fb a4 3d
       -0.012529683 0.20735751 0.09320998 0.08055795
0000f0 49 ea a4 3d 11 00 0b 3d 9f 1e 52 bd 10 a3 ab 3d
       0.08052499 0.03393561 -0.051298734 0.08380711
000100 32 35 ad 3b ab ef db 3c 5c 3f a5 bc 6a 59 79 bd
       0.0052858824 0.026847681 -0.020171814 -0.060876288
000110 a0 15 e8 3c 1a 74 8a 3d 24 54 13 3e e9 01 22 3e
       0.028330624 0.06760426 0.14387566 0.15821041
000120 c8 27 11 3d aa 1b 85 3d 3f d8 b6 bc af e1 3d bc
       0.03543833 0.06499417 -0.022319911 -0.011589452
000130 6e f8 28 bd bf b1 3f be 02 62 51 bb ce 50 87 bd
       -0.041252546 -0.18720149 -0.0031949286 -0.06607209
000140 fe 21 86 3d 1c 04 7c bd 8f 17 02 3e 02 c4 67 3d
       0.06549452 -0.061527357 0.127043 0.056583412
000150 9f 26 61 3d 1e e6 d5 bc f2 9c 72 bd f1 41 a0 bc
       0.054968473 -0.026110705 -0.059231706 -0.019562693
000160 ac 87 3a 3d f6 f1 8e 3d f4 e8 b7 bc 85 63 87 3d
       0.045539543 0.06979744 -0.022449948 0.06610779
000170 82 4b 20 bd 2a 78 85 3d b8 24 0d bd 1a 62 1a 3e
       -0.03913451 0.0651706 -0.034458846 0.15076485
000180 76 d2 76 bd 01 8e 19 3e a9 bc 7f 3d 5b 16 1a bd
       -0.060259305 0.14995576 0.06243578 -0.037618976
000190 41 0e c1 3d ad 0e a7 3d b0 3f 70 bc e2 43 34 3d
       0.09426547 0.08157096 -0.014663622 0.04401005
0001a0 8c ae 0d bd 13 0a b0 3d 40 25 9c 3a 74 82 dc bc
       -0.03459029 0.085956715 0.0011912957 -0.026917674
0001b0 6a 63 b1 bd b5 c4 bd bd 09 4d 89 3d de 0c 3d 3d
       -0.0866154 -0.092660345 0.067041464 0.04615485
0001c0 57 ba 35 bd b7 e7 1e bd 85 bc 8f bd 15 b3 86 bd
       -0.04436716 -0.0387952 -0.07018379 -0.06577126
0001d0 fd b3 3c bd 94 2a e5 3c 85 dc b0 bd d0 0d fd 3b
       -0.046070088 0.027974404 -0.08635811 0.007722594
0001e0 70 c7 b1 bd 0a fb 57 bd 31 4b 88 3d 90 e1 1a bd
       -0.08680618 -0.052729644 0.066549666 -0.03781277
0001f0 08 72 a6 bc 6a 34 27 3d 4c 7c ae bc f0 a9 37 bc
       -0.020318046 0.04082147 -0.021299504 -0.01120995
000200 80 b0 c5 3a 42 00 6c 3d 94 5a f4 3c f1 b3 a6 3d
       0.0015082508 0.057617433 0.029828347 0.0813979
000210 f4 60 8e bc b0 f7 54 3c 9a bd 05 bd c3 fc 62 bd
       -0.017380215 0.012998506 -0.03265152 -0.055416834
000220 80 2b 60 bd 50 a8 41 bd d6 86 5b 3d 88 6e 81 3c
       -0.054728985 -0.047279656 0.053595386 0.015799776
000230 54 b4 ec bc bc aa 8b bd cc 26 a4 3c f9 60 87 3d
       -0.02889458 -0.068196744 0.020038031 0.06610293
000240 ca d9 90 bd 7b bc bf bd 50 40 65 3c a3 0f a3 3d
       -0.0707279 -0.09362122 0.013992384 0.07961967
000250 43 6e b0 3d c6 07 aa bd 50 e6 37 3c b3 89 a8 3d
       0.08614781 -0.08302264 0.011224344 0.08229389
000260 f9 ae c6 3d 58 45 8e 3c 10 12 22 bc c0 82 ef ba
       0.09701342 0.01736705 -0.009892002 -0.001827322
000270 eb 42 bb bd 71 3f b4 3d 75 d6 a6 bd 58 8a 99 bc
       -0.09143623 0.08801163 -0.08146373 -0.018742725
000280 58 9c 5b bc 12 6c 97 bd 1d 53 b7 bd 3c 80 18 bd
       -0.0134039745 -0.0739366 -0.089513995 -0.03723167
000290 59 51 9b 3d f3 32 1d bd 6c 5f ab 3c b2 39 4d 3d
       0.07583875 -0.038378667 0.020919524 0.05010385
0002a0 40 35 77 bb ea f7 7d bd 55 e5 ad 3d 3a 7e 49 bd
       -0.0037720948 -0.062004007 0.08491007 -0.049192645
0002b0 ed a8 85 bd 5c 1d ea 3c 7b bc b8 bd 2e d0 00 3d
       -0.06526361 0.028578453 -0.09020325 0.031448536
0002c0 7a 28 6e 3d d0 f8 27 3c 23 a9 45 bd 16 14 13 3d
       0.05814407 0.010252193 -0.048257004 0.035907827
0002d0 15 59 c5 3d 4c ec e3 3c e0 76 b1 bd ca 0d 75 3d
       0.09636132 0.027822636 -0.08665252 0.059827603
0002e0 39 8f c8 3d 60 e5 4d bd f7 7b 8d 3d ad 74 32 bd
       0.097929426 -0.050267577 0.0690841 -0.043568302
0002f0 23 11 57 bd 84 c5 0a bd e0 c6 a9 3c 7a 86 10 bd
       -0.052506577 -0.03387977 0.020724714 -0.035284497
000300 c5 93 c1 3d 3d 63 89 bd 56 b2 9e bd 00 ed 60 3c
       0.09452013 -0.06708381 -0.07748859 0.01372838
000310 b7 3e b9 3d 5a a2 75 bd 7d bd 96 bd 84 36 f9 3c
       0.09045165 -0.059969284 -0.07360361 0.030421503
000320 d4 38 ad 3c 85 14 8b 3d c9 21 ae 3d b8 cc aa 3b
       0.021145262 0.06791023 0.08502538 0.0052123927
000330 9c bf ee 3d 3c 58 13 3e 9f 0b ac 3d 02 f5 e2 3d
       0.1165764 0.14389127 0.08400654 0.11081888
000340 c6 5d 02 bd 3c 3e 89 bd 07 3e 21 bd 51 de 37 be
       -0.03182771 -0.067013234 -0.039365795 -0.179559
000350 94 27 58 be 3d f3 a1 3c 7e 74 4d 3d ce 25 94 3d
       -0.21108848 0.019769305 0.050159924 0.07233773
000360 cd 38 b0 3d f6 33 90 bd 23 7c cf 3d df a4 c4 bd
       0.08604584 -0.07041161 0.10131099 -0.09601759
000370 ee 9b c6 3d d2 3f 33 3d 82 76 47 bd d6 eb 62 bd
       0.0969771 0.043762036 -0.048697002 -0.055400692
000380 f5 07 94 bd 57 f8 18 3e 54 3d bc 3d aa 8e 8b bd
       -0.0722808 0.14938484 0.09191385 -0.068143204
000390 29 1f be 3d 79 dd 11 bd be 73 7e 3d c0 b7 9b bd
       0.09283287 -0.035611603 0.0621221 -0.07603407
0003a0 18 5d 1f 3c 86 17 4e 3d 5c 31 93 3c dc 8e 7c bd
       0.009726785 0.050315402 0.017967872 -0.06165968
0003b0 2c d2 5f bd 51 34 4e bd 2b f9 44 3d d5 9c fc 3d
       -0.054643795 -0.05034286 0.048089188 0.12334601
0003c0 cb 0a e2 3d 7d 36 c6 3d 5b 32 bd 3d c4 6b 08 be
       0.11037215 0.096783616 0.0923812 -0.1332236
0003d0 44 94 a5 3d 52 87 32 bd 59 fe be bd bc aa 45 bd
       0.0808492 -0.043586083 -0.09325857 -0.048258528
0003e0 7e cf 28 3d 87 e3 55 3d 89 d7 9a 3c 0f 91 46 3d
       0.041213505 0.05221894 0.018901603 0.048478182
0003f0 31 fb 76 bc d7 60 73 bd d8 ea 81 bc 20 b5 9e bd
       -0.015074537 -0.059418526 -0.015859053 -0.077493906

fc3.bias f4 [100]
000000 4d 03 9c bc d8 a5 98 bd 3d 22 b0 bc fc 90 93 3c
       -0.019044543 -0.07453507 -0.021500701 0.01801347
000010 12 96 c4 bd 30 74 a3 bb 3e 0c 90 bd 1b 2c 4c 3d
       -0.09598936 -0.004988216 -0.07033585 0.04984675
000020 2b a6 fa 3d 4e e2 41 3c 33 7b fe 3d 01 71 9d 3d
       0.12238725 0.01183374 0.12425842 0.076875694
000030 4d bd b8 3d b5 1e 38 3c d7 02 ce 3d 28 29 05 3e
       0.09020481 0.01123779 0.100591354 0.13003981
000040 34 5b 8b 3b 98 9c aa 3c 94 82 ce 3d 5e bd 09 bb
       0.0042528156 0.020826623 0.100834996 -0.0021017413
000050 23 66 c9 3d 45 6d d7 3d 26 7a 2a bd b1 33 4d bc
       0.09833934 0.105188884 -0.041620396 -0.012524531
000060 28 9e 04 bd f8 19 eb 3c 67 6a 8b bd 13 bb 58 bd
       -0.032377392 0.028698906 -0.06807404 -0.052912783
000070 3a ad 28 3c c6 f0 42 3d e1 7c 09 bd 18 6a 59 3c
       0.010295207 0.0475929 -0.03356636 0.013269924
000080 ea d6 5c bd d9 b0 8a 3d 18 6a 23 3e 84 63 df 3d
       -0.053915896 0.06772012 0.1595844 0.10907653
000090 7e 72 cc bb a1 9f ea bc 0f 1f 23 3d aa f3 82 3c
       -0.0062392345 -0.02864057 0.03982454 0.015985329
0000a0 57 98 23 3d fd ef cc bd c1 45 b6 3d bb 7a 64 3c
       0.039940204 -0.10006712 0.08900023 0.013945277
0000b0 32 e8 fa 3c b0 00 6f 3c ae 8f b8 bd 0d 69 ce 3b
       0.030628297 0.014587566 -0.0901178 0.006299144
0000c0 fc c0 84 bd c2 b7 19 3d 1a 2d f3 bc ec ac 64 bd
       -0.06482121 0.03752876 -0.029684592 -0.055828974
0000d0 f0 fb 99 3d 56 23 a6 3d 40 46 cc bd dd bd a2 3d
       0.075187564 0.081122085 -0.099743366 0.0794637
0000e0 38 3b cb bd 98 b5 c6 bd 6b 7a ff 3c fb be bf 3b
       -0.099234045 -0.09702605 0.031186303 0.005851624
0000f0 04 b3 77 bd 02 45 be 3c 31 43 5a 3c 77 4d 7f bd
       -0.060473457 0.023226265 0.013321684 -0.062329736
000100 79 cc 6d 3d b3 5d 77 bd 1b 95 b1 3d 75 5d 08 3d
       0.05805633 -0.060392093 0.08671018 0.033292253
000110 36 7d 48 3d 3c 7f 32 3d 9a 72 a9 bd 8b 15 96 bd
       0.048947535 0.04357837 -0.08273812 -0.07328328
000120 06 db 14 3c 8b 71 af 3c e7 bf be bc 94 22 bd 3d
       0.009085422 0.021416446 -0.023284866 0.09235111
000130 50 e6 a9 3d 2e e7 58 3d 54 19 89 bd 67 0a c2 3d
       0.08295882 0.052954845 -0.06694284 0.0947464
000140 77 a5 c7 3d 7f fb 97 bd 7d fe 64 3d b9 d8 42 bd
       0.09748357 -0.07421016 0.05590676 -0.047569964
000150 09 6e 45 bd a5 c3 e3 3d 1b 60 8c 3d 13 9b ab bd
       -0.04820064 0.111213006 0.06854268 -0.083791874
000160 46 c2 a2 bd 40 03 e7 3d 89 93 17 3e ef 55 1b bd
       -0.07947211 0.11279917 0.14802374 -0.03792375
000170 af 69 c8 bd fa e4 1a bc 01 b1 9a 3b 51 8b 48 bd
       -0.097857825 -0.009454006 0.0047208075 -0.048960987
000180 3b 7c 2a be 53 b7 72 3d 82 29 6e 3c cc 02 ea 3d
       -0.16648953 0.059256863 0.014536263 0.11426315

fc4.weight f4 [100, 100]
000000 d0 08 99 bd f0 5b 31 bd 6a 0d cd bd 1b 28 d1 bc
       -0.07472384 -0.04330057 -0.10012324 -0.02553182
000010 16 0a 1d 3d 38 3d d5 bc 91 5d 99 bd a7 8d d4 3c
       0.038339697 -0.026030168 -0.074885495 0.025946451
000020 25 bb 80 bd 1f ac a8 bd c6 6d 9b 3d b0 27 28 3d
       -0.06285695 -0.082359545 0.07589297 0.041053474
000030 8a 9f ab 3d 43 8c 20 bd e8 d8 8e 3d f1 08 af 3d
       0.08380039 -0.039196264 0.06974965 0.08546627
000040 73 d0 b0 3d 70 d3 55 3d c3 f4 92 bd ea fc 94 3d
       0.086335085 0.052203596 -0.07175591 0.07274802
000050 60 3f 5a 3d 81 0e a2 3d 5f a2 83 bd 26 46 cb bb
       0.053283095 0.07912923 -0.06427454 -0.0062034307
000060 20 5e 55 bc d7 d6 fe 3a a9 06 96 bd 2c 3f 47 3d
       -0.013022929 0.0019442689 -0.07325489 0.04864423
000070 8f 15 d3 3d a7 71 dd bc 3c 85 fa 3d 21 91 58 bd
       0.10306846 -0.027031733 0.12232444 -0.05287278
000080 41 a8 4b 3c 97 f3 96 3d 81 2a ee bb 0d af 34 3d
       0.012430252 0.0737068 -0.0072682505 0.044112254
000090 ff bc 98 bd 91 ef eb 3c 12 3b 81 bd 34 07 c4 bd
       -0.07457923 0.028800758 -0.06310095 -0.095716864
0000a0 e0 8a b4 bc 04 51 a6 bd 92 fc 28 3d 7c bd 9d 3d
       -0.022038877 -0.08120921 0.041256495 0.07702157
0000b0 44 93 40 bd e9 20 dc bc cd 55 ac 3c bb c5 f1 bd
       -0.047015443 -0.026871162 0.021037007 -0.11805292
0000c0 b8 d9 83 3d fc 86 d6 bd e4 89 47 bd ba 86 c1 bd
       0.06438011 -0.10474965 -0.048715487 -0.09449525
0000d0 0a e3 82 be 05 47 65 be b6 04 be bd 17 ac ba 3d
       -0.25563842 -0.22390373 -0.09278242 0.09114855
0000e0 06 a9 8f 3b b0 83 9b bd ff cc af bd 30 72 8d bd
       0.004384163 -0.07593477 -0.08584022 -0.06906545
0000f0 30 94 9f bc 1e 64 80 3d 12 40 2b 3c 8d 3b 85 3d
       -0.019479841 0.06269096 0.010452287 0.06505499
000100 8c c6 54 bc 8e f3 08 3d 08 3d af 3b 87 c1 12 be
       -0.01298679 0.033435397 0.0053478517 -0.14331637
000110 b7 c9 a0 3d 47 69 14 3d 36 22 ed 3d 4a a5 f9 3a
       0.07850974 0.036233213 0.11578791 0.0019046452
000120 17 fc 25 be 16 de 66 3c bc c5 0a bd 6e 56 05 bd
       -0.16209446 0.014091035 -0.03387998 -0.03255313
000130 ea 40 21 3d 02 e9 e6 bd 6d ea 89 3d 2c a0 fa 3c
       0.039368547 -0.112749115 0.06734166 0.030593954
000140 c1 3b 58 be 63 2c 24 3a 78 65 18 3d a3 93 61 be
       -0.21116544 0.00062627177 0.037206143 -0.22028975
000150 73 9a 3c be 87 b1 97 3d a7 e4 9f bd 2c 5e 88 bd
       -0.18418293 0.074069075 -0.07807284 -0.06658587
000160 b2 2e 1b be c6 c1 a7 bd ef 05 28 bd b4 dc 79 bd
       -0.15154532 -0.08191256 -0.041021284 -0.061001495
000170 50 7e 87 bd d3 b6 9e 3d 2d 1a 0c bd 75 50 c8 3d
       -0.06615889 0.07749715 -0.03420465 0.09780971
000180 5d 71 27 be f8 a2 1a be b2 d2 18 bd 72 90 98 bd
       -0.16351838 -0.1510123 -0.03731031 -0.07449426
000190 e6 65 4f 3d 17 5d cb 3d 8c 40 dd bd 5a 47 24 3d
       0.050634287 0.09929865 -0.10803327 0.04010711
0001a0 1d f1 54 bd a5 ef 2b bd 0c a1 c7 3c 17 ce e6 bd
       -0.051987756 -0.04197659 0.024368785 -0.11269777
0001b0 04 cf 61 3d 6d dd 41 3e 7a d2 8b 3d eb 58 11 bd
       0.055129066 0.18932123 0.068272546 -0.03548519
0001c0 20 1a b1 bc 62 44 a1 3d 88 8c ec 3d 0a 33 85 bc
       -0.021618903 0.07874371 0.11550242 -0.016259689
0001d0 44 33 7f bd f7 2c a5 bd 14 d4 2a bd 5d 01 29 ba
       -0.06230475 -0.08065217 -0.04170616 -0.00064470415
0001e0 f3 56 c0 3c 8b 10 73 3c c7 ff 22 bc 64 db eb 3d
       0.02347896 0.014835487 -0.009948677 0.11516455
0001f0 54 9c a5 3d 05 b0 c9 bd 04 de 0d 3e ce c7 9f 3d
       0.08086458 -0.09848026 0.13854223 0.078017816
000200 ae 76 71 3d e7 e5 63 3d c1 09 2a 3d ee 8f 60 bc
       0.058951072 0.055639174 0.04151321 -0.0137061905
000210 7c 20 cc bc d0 1c 56 bc 23 78 76 bd 27 ef 59 bb
       -0.024917834 -0.013068393 -0.060173165 -0.0033254118
000220 da c3 bc 3d 2f 5b 21 3e e5 8e 86 bc d8 95 d0 3c
       0.09217043 0.1575744 -0.01642556 0.025462076
000230 59 a7 89 bd 1b 89 38 bd 6f 45 87 3d 84 b2 e5 3c
       -0.06721372 -0.04505263 0.0660504 0.028039224
000240 71 f2 a5 bc 51 9e f4 3d c4 8f c6 3d 8d 3e a5 3c
       -0.020257207 0.11944259 0.0969539 0.020171428
000250 62 c9 3c 3e ff bd 93 bd 14 58 18 3e 14 1e 9e ba
       0.18436196 -0.07213973 0.14877349 -0.0012063407
000260 09 f4 ac bc 29 61 71 bc 68 1b e7 bc 0d 64 1c 3d
       -0.021112459 -0.014732637 -0.02821131 0.038181353
000270 18 77 c6 3d 84 1f 21 bd 09 85 b6 bd 21 02 e2 bc
       0.09690684 -0.039336696 -0.08912093 -0.027588906
000280 e5 30 80 3d bf 08 01 bc 0e f9 07 3d 21 a4 bf bd
       0.06259326 -0.00787562 0.0331965 -0.09357477
000290 f0 dd 10 3b 9a 99 3b bd e8 0a ae bd d1 02 98 ba
       0.0022104941 -0.045800783 -0.08498174 -0.0011597519
0002a0 df ff af 3b f8 f5 a5 3d 9f 96 52 bb 11 a7 eb 3d
       0.0053710784 0.081035554 -0.0032133234 0.11506475
0002b0 2d de 37 3e 6a e5 90 3d f6 b0 a4 bc 9c 0c 54 3d
       0.17955847 0.07075007 -0.020103913 0.051769838
0002c0 c8 8c d5 bd 39 49 2d 3b 4d 20 ce 3d 13 24 42 bc
       -0.104272425 0.002644135 0.10064755 -0.011849421
0002d0 dc e3 3b be 80 1d 86 bd 76 a0 72 3e f1 84 77 ba
       -0.1834864 -0.065485954 0.23694023 -0.0009442112
0002e0 32 09 99 3d 12 f2 6a 3c ae 26 6a 3d 47 25 ac 3d
       0.07472457 0.014339941 0.057165794 0.084055476
0002f0 25 a5 f8 3d df 30 64 3d 63 e6 9b bd 34 1b ef bc
       0.12140874 0.05571067 -0.07612302 -0.029187776
000300 7c db a2 bc b4 21 8d bd 16 89 31 3d ae 19 99 3d
       -0.019880049 -0.06891194 0.043343626 0.07475601
000310 79 7e 63 3e 14 be 09 be fe c2 08 bd e1 38 d5 3d
       0.22216214 -0.13451415 -0.033389084 0.104112394
000320 40 38 39 bb 0f 06 ae 3d 6d 6b 4f 3d 3f ed 49 bd
       -0.0028262287 0.08497249 0.05063956 -0.04929852
000330 f2 a2 44 3d e1 4f 8a 3d df 1f d1 bd c7 c5 c4 3d
       0.04800696 0.06753517 -0.10211157 0.096080355
000340 e2 75 9e bd a9 8a 68 3d 9c 26 be 3c 46 5d 13 3c
       -0.07737328 0.05677286 0.02321177 0.008994406
000350 d5 12 50 bd b8 64 33 bc 4d bf 95 bd ff 22 44 bd
       -0.05079921 -0.010949306 -0.07311878 -0.047884937
000360 36 35 a8 3d b1 b5 d7 3c a1 a7 48 bd 45 13 8c bc
       0.08213274 0.026331754 -0.04898799 -0.017099032
000370 d8 7b 2c 3d 66 c7 b8 3c a6 67 1f 3c a1 83 a4 3c
       0.042110294 0.022556018 0.009729302 0.020082297
000380 ed 5d 26 bc 4a 3d 10 3c f5 4e 9e 3d 8e d4 55 3d
       -0.01015423 0.008803675 0.077299036 0.05220466
000390 a4 00 a7 3d ba f5 cc 3a 3b d1 1c bd f4 3e 12 bd
       0.08154419 0.0015637197 -0.038285475 -0.035704568
0003a0 b5 4b 6c 3b cb 2d 5b 3d b1 5b 9d bd 41 1c 94 bd
       0.0036055867 0.05351047 -0.076835044 -0.072319515
0003b0 97 4b 71 3b a8 40 ba bd 3a 93 73 bd 2b 15 e7 ba
       0.0036818737 -0.090943635 -0.059466578 -0.001763021
0003c0 8d a5 a3 3d 51 57 b8 3d cf e5 bd bd 11 16 a0 bd
       0.07990561 0.09001029 -0.09272348 -0.07816709
0003d0 e4 f3 69 bd 6e 17 ca 3d 14 42 01 be c6 5d 00 be
       -0.057117358 0.0986775 -0.12622863 -0.12535772
0003e0 af 93 b7 bd 48 c6 53 3d 40 fa 9c 3d 84 14 6a bd
       -0.08963715 0.051702768 0.07664919 -0.05714847
0003f0 0d b0 21 be 4a c8 1e be 86 19 87 3d 65 d1 ae bd
       -0.15789814 -0.15506092 0.06596665 -0.085360326

fc4.bias f4 [100]
000000 45 e8 63 3d 3f a7 8d bd da 71 99 3c 3a bd d5 3d
       0.05564143 -0.06916665 0.018731046 0.10436483
000010 e6 73 13 bd 8e e4 81 3c 6d 9d 88 bd f5 24 b4 3c
       -0.0359992 0.015856054 -0.066706516 0.021990279
000020 64 f1 ca 3d 1e 40 7c 3b d9 c5 76 bc 06 5d 2f 3e
       0.09909323 0.0038490365 -0.015061819 0.1712533
000030 2e 27 35 bc 4e 70 67 3d 9b 41 d9 3b cd 23 18 3d
       -0.011056704 0.056503586 0.0066301352 0.037143517
000040 28 27 11 bd a6 02 ab bd 70 99 87 3d 31 62 83 bd
       -0.035437733 -0.083501145 0.06621063 -0.06415213
000050 da 53 ea 3d ee f2 a6 3d 03 71 9c 3d f9 f1 0d bd
       0.11441775 0.08151804 0.07638743 -0.03465459
000060 98 9d a1 3d 71 31 8e bd 2b 86 90 3d ec 3d 9a bd
       0.07891387 -0.06943024 0.070568405 -0.07531342
000070 69 c4 42 3c cc 21 cf 3c b6 71 8c 3d fb 5d bc bd
       0.011887648 0.02528467 0.06857626 -0.09197613
000080 76 4b 20 bd b7 a4 6f 3d 33 62 d9 3d 50 c4 34 3d
       -0.039134465 0.058506694 0.10614433 0.04413253
000090 31 6d a0 bd 77 48 85 3d 12 b9 de 3d 71 8a e2 3d
       -0.078333266 0.06507962 0.10875143 0.11061562
0000a0 60 0f 83 bb f2 61 10 bd 53 83 13 3d 16 fb 24 bd
       -0.0039996356 -0.035249658 0.036013912 -0.040278517
0000b0 15 45 d1 3c de a1 55 bd 54 78 84 bc 07 74 da bd
       0.025545636 -0.05215632 -0.016170658 -0.10666662
0000c0 01 c3 fd bb 8c a0 f9 bc d2 51 7e 3d 29 ad fd bc
       -0.0077441935 -0.030472063 0.06208975 -0.030966358
0000d0 89 06 6c 3d cf 97 5a 3c f4 ad db bd 78 67 db bc
       0.05762342 0.013341858 -0.10726538 -0.026782736
0000e0 99 d6 12 3e b1 4d 17 3e f1 5d a9 3d ea 23 72 bd
       0.14339675 0.1477573 0.08269871 -0.05911628
0000f0 2b b6 7c bd af 9f 86 bc fc 4f 2c 3d d0 9f bb 3b
       -0.061697166 -0.016433565 0.042068467 0.0057258382
000100 ce 39 fa 3d 3a cc d4 3d 73 b9 8a 3d 61 58 34 bd
       0.122180566 0.103905156 0.06773653 -0.044029597
000110 55 ca e0 bc f3 68 38 bd be 02 10 3d 2e 35 f6 bc
       -0.02744023 -0.045021962 0.035158865 -0.030054655
000120 3a 11 71 bd 21 ee a9 3d 7d 58 01 bd 58 97 d0 bc
       -0.05885432 0.082973726 -0.03157853 -0.025462791
000130 ce 9d 81 bd 12 49 f6 b9 f2 a2 b6 3d 5b 78 32 bd
       -0.06328927 -0.00046975218 0.08917798 -0.04357181
000140 85 20 a8 bb 26 25 07 bd 83 55 bc bc 12 45 37 3d
       -0.0051308298 -0.032994412 -0.022989994 0.044743605
000150 11 61 37 3d 19 9b e8 3d 4b 18 e8 3d bc 94 7e bd
       0.044770304 0.113577075 0.113327585 -0.062153563
000160 88 7d c3 bd f6 99 f8 bc 4c 36 31 3c e2 e4 9f bd
       -0.095454276 -0.030346852 0.010816168 -0.07807328
000170 d8 5b 25 3d 87 f8 22 bd 0c 83 23 bc f7 de 65 3d
       0.040370792 -0.039787795 -0.0099799745 0.05612084
000180 aa f9 e0 3d db f4 47 bd 6c 94 24 bd 61 a3 93 bd
       0.1098512 -0.048817497 -0.04018061 -0.072088964

fc5.weight f4 [100, 100]
000000 14 b4 e9 3c 28 c3 b3 3c 45 ee dc ba 8b 98 87 bd
       0.02852825 0.021943644 -0.0016855678 -0.06620892
000010 2f a6 1c bd 9f 50 24 3d a1 46 73 3d aa e2 6e bd
       -0.038244423 0.04011595 0.05939353 -0.058321632
000020 ed e9 c6 bd 03 23 76 bd d4 73 19 bd 58 e4 42 bd
       -0.097125866 -0.060091984 -0.037463978 -0.047581047
000030 65 0b 9c bd 46 c6 4f bd a9 c2 6b 3d dd 57 d4 ba
       -0.07619361 -0.050726198 0.05755869 -0.0016200502
000040 30 6c 12 bd ad f4 9f bd 54 06 cb 3c a9 01 50 3d
       -0.035747707 -0.0781034 0.02478329 0.050782833
000050 79 84 95 3d 0c 0a f3 bc f4 13 9e bd 2f d2 5a 3d
       0.07300658 -0.029667877 -0.077186495 0.053423103
000060 0b 6d 9f 3d b6 e7 8a bd 79 2e d4 3c 86 68 13 bd
       0.0778447 -0.067824766 0.025901066 -0.035988353
000070 df 22 93 3d 9c 94 48 3d 80 62 be ba 2d 59 c6 bd
       0.071843855 0.04896985 -0.0014525205 -0.09684978
000080 e8 c8 bb bd 9b d1 5c bd f3 fd 77 bd 75 a2 3d bd
       -0.09169179 -0.053910833 -0.06054492 -0.04629751
000090 cf c6 7f 3d ac 92 8b 3d ae 9a 7e 3d 41 b3 d8 bd
       0.062445458 0.06815085 0.062159233 -0.10581065
0000a0 56 0a a3 3c a7 00 fe 3c cf 5a ef bd 88 0b 97 3c
       0.01990239 0.03100617 -0.11687242 0.018438116
0000b0 6c a5 02 3d f9 b2 21 3c 06 67 4b 3d 0d 73 44 bd
       0.03189604 0.009869331 0.049658798 -0.047961283
0000c0 1b 72 9f bd 9b bf cd 3c f2 da b4 3d e2 9f 21 bc
       -0.07785436 0.025115779 0.08830823 -0.009864779
0000d0 79 44 c0 3d 0a 3d 70 bb e5 45 a6 3d f6 ae ab bd
       0.0938806 -0.0036657476 0.081188 -0.083829805
0000e0 9a fa 03 3d 46 8e e4 3c 55 35 a7 bd 14 a7 b3 bc
       0.032221414 0.027899873 -0.08164469 -0.021930255
0000f0 64 50 ff bc 6c 80 ae bc fb a2 94 bd f1 41 0c 3d
       -0.031166263 -0.02130147 -0.072576486 0.034242574
000100 a9 5b 66 3d d9 4a bc bc e9 3e a4 3d 6b e5 84 3d
       0.056239758 -0.022984909 0.08019812 0.064890705
000110 07 b3 02 3d cb b6 81 3d 9d c8 e6 3c 9d 36 09 3d
       0.031909015 0.06333693 0.028171832 0.03349935
000120 e0 6a c6 3b 42 ca aa bd e5 de 55 3d 88 7f 8e bc
       0.006055221 -0.08339359 0.052214522 -0.017394796
000130 42 41 cd bd dd 43 99 3d 0a 82 be bd d3 78 2f 3c
       -0.100222126 0.07483647 -0.09302147 0.010709959
000140 c9 af a0 3d 23 62 fd bc 2a de 45 bd bd b5 c7 bb
       0.07846028 -0.030930584 -0.048307575 -0.006094663
000150 08 da 9f 3d 8e c1 a2 3d b8 99 03 bd d2 45 c4 3d
       0.07805258 0.07947074 -0.03212902 0.0958363
000160 d2 ec 18 3d 81 1f 94 3c da 19 64 bd 94 1a ac 3c
       0.037335224 0.018081428 -0.055688716 0.021008767
000170 5d 0a 66 bd e8 3f 6c 3d 42 21 b7 3d dc 07 97 3d
       -0.056162227 0.057678133 0.0894189 0.07374546
000180 25 c4 b3 bd 3c 55 92 3d 37 63 08 bc 55 ef 16 bd
       -0.08777646 0.071451634 -0.008324436 -0.03684934
000190 b6 f7 91 bd c8 9e 9d 3c 87 01 1c bd 82 68 c8 ba
       -0.07127325 0.019240752 -0.038087394 -0.0015289935
0001a0 18 d8 2b 3d 73 b4 31 bd 99 83 a8 bd 55 a2 75 3d
       0.04195413 -0.04338498 -0.08228225 0.059969265
0001b0 99 f2 9b 3d c6 a3 26 3c 06 3b 22 3d 15 0c c0 bd
       0.07614631 0.010170883 0.03960707 -0.093773045
0001c0 ea 33 f1 3b cf 7c cd bd c4 36 aa 3d b0 a0 d9 bb
       0.007360925 -0.10033571 0.08311227 -0.00664147
0001d0 5d 03 b5 bd ba 69 04 bd 44 e2 7e 3d c3 24 91 3d
       -0.08838532 -0.03232739 0.062227502 0.0708709
0001e0 8f bb d1 3b 78 95 93 bc 4f 6a d3 bc ef 03 a1 bc
       0.0064005326 -0.018015608 -0.025807528 -0.019655196
0001f0 92 bc 1d bd 77 fa 7a bd ee a2 f1 bc 39 9c 4c bc
       -0.038509913 -0.06127402 -0.029496636 -0.012488418
000200 4d b8 ac bd 65 82 12 bd f0 4e 69 bc 06 27 37 3d
       -0.0843359 -0.035768885 -0.014240012 0.04471495
000210 23 53 a1 bd 0e 98 8a bd 57 fc ac 3d 14 08 5c bd
       -0.07877185 -0.067672834 0.084465675 -0.05371864
000220 7e 6d 21 3d 1d 67 aa 3d 4f 59 c9 bd 0f 08 92 3d
       0.03941106 0.083204485 -0.098314874 0.07130443
000230 0e 38 ad 3d 8f cd 36 3d 53 52 cd bd d8 fc 27 bc
       0.08457957 0.04462963 -0.10025468 -0.010253154
000240 4c 26 a9 3d 3f d8 85 3d 0b 22 a6 3a c2 aa aa bd
       0.08259258 0.06535386 0.001267494 -0.08333351
000250 5b 3d 8d bd 72 9c 3e bd 41 22 93 3d de 79 00 bd
       -0.06896468 -0.046535917 0.07184268 -0.03136622
000260 bc 0c dd bb e6 39 5a 3c e3 94 b3 3d 00 1b 98 bb
       -0.006745903 0.013319468 0.08768632 -0.0046418905
000270 ab 42 69 3c 7a f7 e9 3c 4b 71 9c 3d 6a 1a 8e bd
       0.014237086 0.028560389 0.076387964 -0.06938632
000280 cc ce ad bd 20 ea 88 3d a0 57 b4 3c 3e 12 86 bd
       -0.08486709 0.06685281 0.02201444 -0.06546448
000290 1e 1a cb bd 30 41 73 3d 85 81 92 bd ef 20 54 3c
       -0.09917091 0.05938834 -0.0715361 0.012947305
0002a0 99 c0 b1 bd 5c 4d a7 bd fd f8 3a 3d 73 1b 10 3c
       -0.08679313 -0.08169052 0.04564761 0.008795607
0002b0 d7 51 c0 bd f3 27 71 bd 14 31 23 3d aa 84 34 3d
       -0.0939061 -0.05887599 0.039841726 0.04407183
0002c0 f5 52 8f 3d 93 7f a6 3d 8a 18 27 bd 88 33 ae bd
       0.06998245 0.081298016 -0.040794887 -0.085059226
0002d0 7a 88 e0 3c a8 1d 66 3c d5 47 ad bd 1e e7 02 3b
       0.027408827 0.014045157 -0.084609665 0.0019974182
0002e0 58 5d c8 3c 1e c0 91 bd 4f f4 a0 3d 13 38 67 bd
       0.024458572 -0.071167216 0.07859098 -0.05644996
0002f0 13 ed c4 3d 9e 17 2e 3d 80 dc 87 3b 00 a7 07 3b
       0.09615531 0.04250299 0.0041461587 0.0020698905
000300 80 91 8e bd 9c 25 fb 3c 1b 2b 40 3d aa f2 07 bd
       -0.06961346 0.030657582 0.04691611 -0.033190407
000310 6e 37 a8 bd b0 e3 bf bd 14 b4 a0 bc 94 93 14 bd
       -0.082136974 -0.093696 -0.019617118 -0.036273554
000320 05 6e a9 bd 97 35 84 3d c0 b6 56 bc 0e de 11 bd
       -0.08272938 0.06455534 -0.013105094 -0.03561216
000330 9a 19 b1 3c 54 47 45 bd af 34 07 3d 99 06 89 3d
       0.021618653 -0.048163727 0.033009227 0.066907115
000340 d4 fa 8f 3d c9 46 2b 3d 80 36 8d bd 98 5f 2e 3b
       0.070302635 0.041815553 -0.06895161 0.0026607271
000350 b3 b8 a6 3d e8 b0 a4 3d ea 9d b7 3c 0d 54 35 bd
       0.08140697 0.08041555 0.022414166 -0.04426961
000360 4b ef 9e 3d 5a d2 0d 3d de 08 72 bd 92 70 80 bd
       0.07760485 0.034624435 -0.059090488 -0.06271471
000370 c0 b0 05 bd fd 9e 05 be 38 48 37 bd d8 d0 6c 3d
       -0.032639265 -0.1304893 -0.044746608 0.057816356
000380 1e 1a af bd de 44 83 bd 74 5c 6c 3d e1 47 ca 3d
       -0.08549903 -0.0640962 0.057705358 0.09876991
000390 48 85 93 3d 29 56 36 bd 85 53 e6 3c 4b f6 c6 bd
       0.07203156 -0.044515762 0.028115997 -0.097149454
0003a0 b9 82 e4 3d 8a 0d 55 bd d2 2b 16 be 41 c6 5a bc
       0.11157746 -0.052014865 -0.14665154 -0.0133529315
0003b0 1a 63 1e 3d 4a ed 1b bc 66 40 c2 bd a5 62 06 3d
       0.03866873 -0.009517023 -0.09484939 0.03280892
0003c0 38 ea ca bc 1c 53 6c bd 4e 09 f5 bc 00 6c d7 3a
       -0.024769887 -0.057696447 -0.029911663 0.0016435385
0003d0 42 b7 01 b9 41 5f 97 3d ea 54 d2 bd 67 7a ed 3c
       -0.00012370668 0.07391215 -0.10270102 0.02898903
0003e0 6b cd 88 3c c7 d6 28 bc 8c 5d 1d 3d 55 fa 74 3d
       0.016699513 -0.010305113 0.03841929 0.059809048
0003f0 1d 11 ff 3d ed f0 81 3c 00 e7 24 ba a0 ff 8f bb
       0.12454436 0.015861953 -0.0006290525 -0.0043944865

fc5.bias f4 [100]
000000 6c ef 0b bd 50 ae 9a bd 96 9a 31 bd 76 2e 1f 3e
       -0.034163877 -0.07552779 -0.043360315 0.15545067
000010 4f 15 d4 3d 49 52 b1 3d ec 55 bf 3d d4 66 a1 bc
       0.10355627 0.08658273 0.0934256 -0.019702353
000020 42 83 ce 3d ff 56 b1 3d 6a 1b 80 bc e6 f2 f6 3d
       0.10083629 0.08659171 -0.015638072 0.12058048
000030 7e 07 7e 3d 68 1f 6c bd a0 5e 68 bb 76 61 0a 3d
       0.062018864 -0.05764714 -0.0035456792 0.033784352
000040 59 bb a7 3d 46 c8 25 3e 99 7e a5 bd 86 ec 97 3d
       0.081900306 0.1618968 -0.08080787 0.0741816
000050 7a 2d ca 3d 6d 63 2e bd e5 f1 fa 3c 86 fd 17 3d
       0.09871955 -0.04257529 0.030632922 0.037107013
000060 67 a7 d2 3d 34 41 aa 3d e4 e2 b5 3d bd ac 42 3e
       0.10285836 0.08313218 0.088811666 0.19011207
000070 3a b8 ef 3c 97 a3 fe bc 82 72 a9 3d 26 c7 e9 3d
       0.02926265 -0.031083865 0.08273794 0.11414938
000080 a0 2d 2d bd af 93 84 3d 3a 72 a5 3d 83 be 38 be
       -0.04227984 0.06473481 0.080784276 -0.18041424
000090 92 0f 12 3c 25 b4 a0 bd 3c a1 fb 3d f0 6b 63 3d
       0.008914845 -0.0784686 0.122866124 0.05552286
0000a0 6a 2c f7 3d 77 63 3c 3d a8 55 14 3d 76 d9 88 3d
       0.12069018 0.045993295 0.0362145 0.066821024
0000b0 ad 7a 7b bd 52 b2 24 3d 77 00 23 bd 77 3c 85 bd
       -0.06139629 0.040209122 -0.039795365 -0.065056734
0000c0 0f 9f a0 3d fa 21 52 bd 14 31 e0 3d 7d 7e 01 3d
       0.07842838 -0.051301934 0.10946861 0.03161477
0000d0 66 14 5c 3b 5c c0 15 bd a6 55 e8 3c 1a 2a d5 bc
       0.0033581494 -0.0365604 0.028361153 -0.026021052
0000e0 ae 35 00 3d b5 56 80 3d ff 79 ab 3c f3 d8 fd 3d
       0.031301193 0.06266538 0.020932196 0.123948954
0000f0 75 1f f9 3c fe 9f c7 3d f3 f2 37 3e 2e 1d 18 3d
       0.030410508 0.09747313 0.17963772 0.037137203
000100 4c 94 e3 3d 48 d8 33 3e 50 99 ca 3c ba 03 3c bd
       0.1111227 0.17562973 0.024731308 -0.04590199
000110 90 de 41 3e a9 10 a7 bd ed e8 86 bd 10 0f 08 be
       0.18932557 -0.081574745 -0.06587396 -0.13286996
000120 66 97 36 bd f1 cc c3 3d cf 76 69 bc 6f 00 32 3d
       -0.04457798 0.09560574 -0.014249518 0.043457445
000130 d9 9b a5 bd 10 57 30 bc 63 4f 1e 3e b3 f2 dc 3c
       -0.08086366 -0.010762945 0.15459971 0.026971197
000140 71 60 f0 bd 4c 41 8b 3d 89 cd 21 3e 26 07 aa bd
       -0.11737145 0.06799564 0.15801062 -0.08302145
000150 7b 7a cb bd 3f ae 3e 3e d6 24 94 3c c0 61 68 3d
       -0.09935471 0.18621157 0.018083971 0.056733847
000160 f7 9b 80 3d 47 4f 89 3d 33 58 08 3d 74 39 35 3d
       0.06279748 0.06704574 0.03328724 0.044244245
000170 1e 52 34 bd 4a c1 a4 bd ed b3 59 3d 47 c1 c8 3d
       -0.044023626 -0.080446795 0.053150106 0.0980249
000180 34 04 88 bc 9b 10 47 3d 06 c4 a9 3d dd 3c d9 bd
       -0.016603567 0.04859982 0.08289342 -0.10607312
