resources/pretrained_models/ik_threelink_obs1_base/weights_100/model.pth (torch_old, 294859 bytes, 18 tensors)

fc1.weight f4 [100, 20]
-0.23831683 -0.13666654 -0.03968275 0.21911517 0.10331263 -0.03164049 -0.067265 0.15665007
-0.07622656 0.06479338 0.014084876 -0.05187422 0.12066561 -0.039704204 -0.20193085 -0.1542156
-0.030087724 -0.11167297 -0.11912037 -0.11764898 -0.18050088 -0.33015525 -0.17297463 0.021828875
0.056898378 -0.09422557 -0.0053217025 0.03435498 0.12041706 0.060217112 0.040581614 0.118551105
0.17997617 -0.12344226 0.010698631 0.18987179 -0.028775424 0.079699636 -0.06739555 0.07970142
0.22858413 0.050495323 -0.14283922 0.18358046 0.06657481 0.22082004 0.17721644 0.14240812
-0.03596157 0.20312801 -0.09236109 -0.2114856 -0.17875588 -0.07359086 -0.21781905 -0.11885418
0.1388028 -0.21136987 -0.07873286 -0.09705846 -0.055286996 -4.0508443e-05 -0.18567991 0.031121643
-0.18133377 -0.19385451 0.113053694 -0.21639028 -0.158883 -0.19227538 -0.049428955 -0.09926884
0.1522558 0.14608967 0.1644238 -0.046187207 -0.080038205 0.06976643 -0.2069296 -0.071344316
-0.071669705 -0.11843339 0.14010409 0.20916453 0.15958136 0.054760803 0.18723872 0.11267845
0.15018275 0.17139986 -0.043191448 -0.049556956 0.21335933 0.14428917 0.041674256 -0.06969708
0.11103058 0.14019775 -0.1988411 0.050661445 0.1241394 -0.07528156 -0.15217462 0.056844316
0.13102323 -0.117062785 0.10218748 -0.07733708 -0.20974599 -0.011710405 0.11226824 0.05670184
0.16870531 -0.14051166 0.059956253 0.05842355 0.19712207 -0.110177994 -0.15226701 -0.020213753
-0.14262883 0.050096154 -0.16531812 -0.06712497 0.015723556 -0.031586666 -0.18916091 -0.060733385
0.12914184 0.09184605 0.15876338 -0.038540617 -0.054489166 0.04246372 -0.088214025 0.16396841
-0.044061795 0.15952379 -0.20628774 -0.19735718 0.24062765 0.08521061 0.15545058 0.2626875
0.13578315 0.22270061 0.15467088 0.09733307 -0.046612233 -0.08216672 -0.1703242 -0.007871807
0.030498683 0.045779645 0.1324687 0.19433472 0.09598374 0.015053451 -0.031067014 0.11465147
-0.1580638 -0.21283904 0.1057309 0.24006668 -0.035567578 -0.114109926 -0.19483034 -0.19063133
-0.0046449453 0.107067764 0.041616827 -0.022178069 0.110358834 -0.2149179 0.014962018 0.03747338
0.123984486 0.04137802 0.039310932 -0.015105054 -0.17951943 -0.04321559 -0.18874988 -0.10992363
0.13935171 -0.120547764 0.0416186 -0.13188478 -0.17152348 0.061425596 -0.16834582 0.20432198
-0.13599165 -0.19665703 -0.21439731 -0.064749196 -0.109917164 0.03721553 -0.073640734 0.074926674
-0.2439502 0.06893927 0.083388284 0.012670906 -0.22237568 -0.24076968 0.0015135447 -0.1461105
0.09395677 0.12395188 0.18745685 0.17010403 0.047054768 0.06650302 -0.08911945 0.07520816
-0.17347932 -0.18397605 -0.12071418 0.18774226 -0.0033127929 0.063005865 0.1652398 0.06965726
-0.2184193 0.080565155 -0.059438184 -0.096676886 -0.007981285 -0.21572313 -0.17155787 0.020716518
0.124162644 0.15269 -0.1801309 0.20777208 -0.0616993 0.21161214 0.088596374 -0.19046456
0.094676435 0.21467154 -0.119717196 0.17484601 -0.042894255 0.104323305 0.1893019 -0.18465012
0.12279111 0.21413141 0.0016383827 0.0413059 0.060994595 -0.14529097 0.09835869 -0.045574978
00000000: 5409 74be 50f2 0bbe 618a 22bd ba5f 603e
00000010: 9295 d33d 7599 01bd 3bc2 89bd e068 203e
00000020: ac1c 9cbd 64b2 843d 40c4 663c 107a 54bd
00000030: 881f f73d e0a0 22bd f6c6 4ebe b2ea 1dbe
00000040: 887a f6bc ccb4 e4bd 61f5 f3bd f3f1 f0bd
00000050: 39d5 38be 1c0a a9be 4320 31be 78d2 b23c
00000060: 460e 693d 56f9 c0bd ad61 aebb cfb7 0c3d
00000070: 389d f63d 38a6 763d e838 263d ecca f23d
00000080: ac4b 383e 4ccf fcbd 5049 2f3c c06d 423e
00000090: 70ba ebbc 9039 a33d ae06 8abd 803a a33d
000000a0: f511 6a3e 2fd4 4e3d 7244 12be 84fc 3b3e
000000b0: 6058 883d a61e 623e 3a78 353e 6fd3 113e
000000c0: 704c 13bd ca00 503e d027 bdbd ae8f 58be
000000d0: c80b 37be ceb6 96bd f50b 5fbe d269 f3bd
000000e0: 5222 0e3e 5871 58be b23e a1bd 96c6 c6bd
000000f0: 9e74 62bd 9ce7 29b8 e022 3ebe d1f2 fe3c
00000100: 8faf 39be cc81 46be b288 e73d 6a95 5dbe
00000110: 3ab2 22be d6e3 44be 0476 4abd 764d cbbd
00000120: f2e8 1b3e 8898 153e b65e 283e cc2e 3dbd
00000130: 12eb a3bd b4e1 8e3d 5ae5 53be f81c 92bd
00000140: 91c7 92bd 358d f2bd 7277 0f3e 3a2f 563e
00000150: 4c69 233e dd4c 603d 82bb 3f3e f6c3 e63d
00000160: 82c9 193e 7283 2f3e 84e9 30bd 3cfc 4abd
00000170: de7a 5a3e 8ac0 133e a0b2 2a3d 58bd 8ebd
00000180: 0064 e33d 0090 0f3e 009d 4bbe 6082 4f3d
00000190: cc3c fe3d 382d 9abd aad3 1bbe 96d5 683d
000001a0: f42a 063e 9dbe efbd ab47 d13d e762 9ebd
000001b0: a7c7 56be 00dd 3fbc e4ec e53d 3040 683d
000001c0: 16c1 2c3e 4ae2 0fbe b094 753d 884d 6f3d
000001d0: 5eda 493e 00a5 e1bd e2eb 1bbe 5097 a5bc
000001e0: 4b0d 12be a031 4d3d 2749 29be d178 89bd
000001f0: b0ce 803c 0561 01bd 66b3 41be 92c3 78bd
00000200: c23d 043e c819 bc3d de92 223e c4dc 1dbd
00000210: 0830 5fbd 70ee 2d3d 8ea9 b4bd 56e7 273e
00000220: 247a 34bd 345a 233e 183d 53be 0018 4abe
00000230: 1867 763e e682 ae3d 702e 1f3e fa7e 863e
00000240: bd0a 0b3e a10b 643e 0b62 1e3e 9056 c73d
00000250: 78ec 3ebd 0647 a8bd 7869 2ebe c0f8 00bc
00000260: 60d8 f93c 7083 3b3d e0a5 073e aeff 463e
00000270: 2093 c43d c0a2 763c 4080 febc 64ce ea3d
00000280: 7adb 21be 7af2 59be 7189 d83d 0ad4 753e
00000290: 4faf 11bd 77b2 e9bd 9b81 47be dc34 43be
000002a0: a034 98bb 5846 db3d 6876 2a3d c8ae b5bc
000002b0: d003 e23d 7013 5cbe 4023 753c b07d 193d
000002c0: 94eb fd3d 007c 293d 8004 213d 307b 77bc
000002d0: f1d3 37be d502 31bd a647 41be a41f e1bd
000002e0: 37b2 0e3e bfe1 f6bd 4478 2a3d ce0c 07be
000002f0: daa3 2fbe 6899 7b3d d962 2cbe c839 513e
00000300: 6541 0bbe 7660 49be f88a 5bbe 3a9b 84bd
00000310: 401c e1bd 506f 183d f4d0 96bd 2873 993d
00000320: 15ce 79be 0830 8d3d 7ac7 aa3d a299 4f3c
00000330: 73b6 63be 548c 76be 2262 c63a fe9d 15be
00000340: 686c c03d 7cda fd3d b0f4 3f3e c02f 2e3e
00000350: 80bc 403d bc32 883d 4284 b6bd bc06 9a3d
00000360: 90a4 31be 3864 3cbe ff38 f7bd 823f 403e
00000370: 711b 59bb 3809 813d 9f34 293e 77a8 8e3d
00000380: 4fa9 5fbe 58ff a43d 7475 73bd 88fe c5bd
00000390: f0c3 02bc 86e6 5cbe deac 2fbe b0b5 a93c
000003a0: fc48 fe3d c45a 1c3e 3c74 38be 34c2 543e
000003b0: 68b8 7cbd dab0 583e 0472 b53d 2409 43be
000003c0: b8e5 c13d dbd2 5b3e 4a2e f5bd d50a 333e
000003d0: e3b1 2fbd 75a7 d53d 5bd8 413e ec14 3dbe
000003e0: e879 fb3d 4445 5b3e 00bf d63a 6030 293d
000003f0: 78d5 793d 28c7 14be 4870 c93d d4ac 3abd

fc1.bias f4 [100]
0.0021603839 0.21209966 -0.24368943 -0.17306492 0.12470357 0.09322488 0.003649276 0.040241938
0.20930909 0.16966094 -0.010605329 0.02958793 0.14382356 0.12043157 0.14838652 -0.1335809
-0.107847445 0.22753878 0.18000117 -0.09296204 0.107882425 0.14774226 -0.21592347 0.09991616
-0.18029691 0.102313526 0.24917266 -0.08561665 0.083465435 -0.061843008 0.065380126 -0.02452385
-0.11616071 0.21106957 0.10650626 -0.16463082 0.16948184 0.0037815212 -0.04385864 -0.036261555
-0.1737898 -0.017283155 -0.09494965 -0.03194879 0.19073327 0.13490939 0.2256611 -0.022037694
0.07711865 0.0947984 -0.271634 0.20437294 0.1094756 -0.18465197 0.05444461 0.21492992
-0.18653655 0.14249018 0.09264822 0.021940779 0.20979553 0.15922919 -0.112576514 -0.10177333
0.02125919 0.059131835 0.2032566 0.13432504 0.25648376 0.098412395 -0.01583594 0.23529066
0.011238978 0.112372845 -0.07172633 -0.18997121 0.18445218 -0.078657165 -0.23139563 -0.13177738
-0.15037541 -0.11714217 -0.08467678 0.18243714 -0.09904087 0.18645665 0.16279262 -0.12578446
0.19658008 0.15792297 -0.17384401 -0.20357022 -0.10467611 0.11106184 0.1484462 0.28338465
0.083506554 -0.18385464 -0.040084712 -0.100692116
00000000: 3a95 0d3b a730 593e b989 79be ee37 31be
00000010: 9664 ff3d b0ec be3d b128 6f3b bbd4 243d
00000020: 1f55 563e 99bb 2d3e f9c1 2dbc 6362 f23c
00000030: 7c46 133e d4a4 f63d a3f2 173e 6ec9 08be
00000040: 1fdf dcbd edff 683e 3a52 383e e262 bebd
00000050: 76f1 dc3d bf49 173e 0b1b 5dbe d8a0 cc3d
00000060: c19f 38be c189 d13d 1e27 7f3e c857 afbd
00000070: edef aa3d 184f 7dbd 04e6 853d 3ee6 c8bc
00000080: abe5 edbd 9f22 583e f41f da3d fb94 28be
00000090: a68c 2d3e 66d3 773b 1ea5 33bd ff86 14bd
000000a0: f4f5 31be 6795 8dbc f674 c2bd bcdc 02bd
000000b0: 954f 433e b025 0a3e b413 673e 6588 b4bc
000000c0: 62f0 9d3d aa25 c23d 9d13 8bbe 2447 513e
000000d0: be34 e03d 6815 3dbe 5001 5f3d 9716 5c3e
000000e0: 7003 3fbe f2e8 113e 5abe bd3d 26bd b33c
000000f0: a4d4 563e fa0c 233e 848e e6bd 896e d0bd
00000100: c127 ae3c 3934 723d 8022 503e 818c 093e
00000110: d751 833e 708c c93d 60ba 81bc 09f0 703e
00000120: b123 383c bc23 e63d 41e5 92bd d087 42be
00000130: 08e1 3c3e 0217 a1bd faf2 6cbe a6f0 06be
00000140: 03fc 19be 3ce8 efbd 056b adbd cdd0 3a3e
00000150: f1d5 cabd 7eee 3e3e 1cb3 263e a4cd 00be
00000160: 4a4c 493e 8fb6 213e 2a04 32be b674 50be
00000170: 6e60 d6bd 6474 e33d 4802 183e cb17 913e
00000180: 7c05 ab3d 6444 3cbe de2f 24bd ab37 cebd

fc2.weight f4 [100, 100]
-0.061702695 -0.014574073 0.0835781 -0.041274536 -0.081130646 0.009264782 -0.053882908 0.054784544
-0.0690584 -0.008420147 0.09570628 0.02546174 -0.09404 -0.042246353 0.008364044 0.08028983
0.016792 -0.0975097 -0.098217964 -0.04132978 -0.05526788 0.034155093 0.05589842 0.071798466
0.0044640526 -0.0015383139 0.007916115 0.030112512 -0.09658778 0.03985726 0.09178532 -0.03141799
0.04956325 0.03216196 -0.078783736 -0.08854463 0.0021853223 0.048022263 -0.096574545 0.048281424
0.06957934 -0.0877794 -0.016959563 -0.08781729 0.078614704 -0.02093108 -0.031204358 -0.07014205
-0.07211687 -0.05098572 0.02322419 -0.014222279 -0.07218027 -0.038804986 -0.049789023 -0.024333611
-0.05662599 -0.021178745 -0.010329269 0.029603146 -0.019720629 -0.089541964 -0.03772595 -0.08612156
0.019386068 -0.015783057 -0.007210836 -0.012197711 0.04024493 0.0066685826 -0.03711871 -0.07988739
0.06330299 0.017693564 -0.06343791 -0.06507136 0.09669799 0.063053764 0.06335557 -0.0025046244
-0.09847112 0.0112992525 -0.041699983 -0.019505873 0.052295335 -0.04478195 0.027780585 -0.08912819
-0.00045357645 -0.07166515 0.0745484 0.09074319 0.031850554 0.05350896 0.012186624 -0.0046681166
-0.07091029 0.045289867 9.159744e-05 0.0011947155 -0.04293904 0.12670673 -0.093478434 0.061951682
0.07475896 -0.0636127 0.056841493 0.020371923 0.089756854 0.084709495 0.12197751 -0.02848214
0.08368866 -0.17618378 0.1219485 -0.06582707 -0.009264153 -0.34797254 -0.010120687 -0.119254984
-0.12396104 -0.015234942 -0.024512867 0.032111492 -0.015595004 0.020451613 -0.09263346 -0.080304906
0.09609987 -0.031957686 0.064261526 0.004721556 -0.13521421 -0.27800795 -0.10759747 0.007957708
-0.006626013 -0.014695939 -0.026874427 0.051502157 0.05497927 0.11813431 -0.031821292 0.01805389
-0.042656004 0.09537209 -0.016920023 -0.014162704 0.030553427 -0.099838905 -0.012589559 0.059672274
-0.13528213 -0.06406455 0.0032332363 0.08438187 -0.03223996 -0.13429564 -0.009506118 0.14075652
-0.021135353 0.06590834 -0.041088343 0.006164849 -0.5290502 -0.042915154 0.015413781 -0.16556162
-0.29092467 0.09135979 -0.02787521 0.032399442 -0.109270446 -0.12039137 -0.27168176 -0.127776
0.11886827 0.06423491 -0.121596895 0.038830027 0.038463704 0.031461485 -0.08064331 -0.12619218
0.0065498427 -0.056900788 -0.0057515204 0.07147209 0.07148674 0.08526847 0.04889258 0.009961378
-0.017545048 0.09388114 -0.0053704367 -0.2679847 -0.33615673 -0.17039302 0.013556061 -0.101833254
0.11280651 0.04705001 -0.055626772 0.12018442 -0.061628208 0.06832311 0.059477072 -0.05962504
-0.12618674 0.0636359 -0.13445358 0.0134788295 -0.074363016 -0.0274415 -0.13676037 0.07775199
0.021838065 -0.16292809 0.043537542 -0.03212235 -0.016718747 0.040922493 -0.015607827 0.08993357
0.0772791 0.12519637 0.017841479 -0.0911291 -0.022345738 0.060783133 -0.02590025 -0.03639457
-0.039611567 -0.17230226 -0.06143722 0.057628468 0.046702094 0.05053342 0.021907318 -0.15901172
0.07203482 -0.06837996 0.091954485 0.043562286 -0.0685537 0.038282797 -0.08283988 -0.057536095
0.08666294 0.101156145 0.03601795 0.13475466 0.013372632 -0.07848219 0.1043271 -0.2512454
00000000: f7bb 7cbd 18c8 6ebc ff2a ab3d 7d0f 29bd
00000010: d327 a6bd 50cb 173c 53b4 5cbd c265 603d
00000020: 7e6e 8dbd a8f4 09bc a701 c43d 2495 d03c
00000030: 0b98 c0bd 830a 2dbd 5809 093c ff6e a43d
00000040: 608f 893c 2ab3 c7bd 8026 c9bd 6a49 29bd
00000050: 9360 62bd 36e6 0b3d bef5 643d 130b 933d
00000060: 3047 923b 40a1 c9ba 98b2 013c 84ae f63c
00000070: d0cf c5bd 5e41 233d f1f9 bb3d 26b0 00bd
00000080: d602 4b3d 42bc 033d 5e59 a1bd e356 b5bd
00000090: a037 0f3b feb2 443d e0c8 c5bd bec2 453d
000000a0: 9d7f 8e3d b0c5 b3bd c8ee 8abc 8dd9 b3bd
000000b0: bf00 a13d a877 abbc 48a0 ffbc a3a6 8fbd
000000c0: 02b2 93bd 67d6 50bd a840 be3c 9004 69bc
000000d0: 40d3 93bd faf1 1ebd 93ef 4bbd 4857 c7bc
000000e0: a7f0 67bd 0c7f adbc 183c 29bc 4c82 f23c
000000f0: 288d a1bc c761 b7bd 8786 1abd 8060 b0bd
00000100: 88cf 9e3c 784b 81bc e048 ecbb e8d8 47bc
00000110: ded7 243d 2084 da3b ca09 18bd 009c a3bd
00000120: ffa4 813d 18f2 903c bceb 81bd 2244 85bd
00000130: 9909 c63d 5522 813d 91c0 813d a024 24bb
00000140: 3aab c9bd 8020 393c 9acd 2abd c8ca 9fbc
00000150: a233 563d 476d 37bd 1c94 e33c d788 b6bd
00000160: 00ce edb9 2ec5 92bd d5ac 983d 91d7 b93d
00000170: ba75 023d 362c 5b3d 68aa 473c 00f7 98bb
00000180: 6a39 91bd de81 393d 0018 c038 0098 9c3a
00000190: d9e0 2fbd 69bf 013e 9f71 bfbd 0cc1 7d3d
000001a0: 3a1b 993d 6047 82bd a0d2 683d 05e3 a63c
000001b0: 71d2 b73d 2c7c ad3d 58cf f93d 6053 e9bc
000001c0: f664 ab3d 8569 34be 23c0 f93d 58d0 86bd
000001d0: adc8 17bc 7529 b2be 3dd1 25bc f53b f4bd
000001e0: 49df fdbd fa9b 79bc 35cf c8bc 5787 033d
000001f0: 3082 7fbc 248a a73c 9db6 bdbd e676 a4bd
00000200: 02d0 c43d 10e6 02bd 8c9b 833d 48b7 9a3b
00000210: 9875 0abe 0f57 8ebe 105c dcbd 0c61 023c
00000220: 071f d9bb 3cc7 70bc c227 dcbc edf3 523d
00000230: f131 613d 67f0 f13d 0b57 02bd c0e5 933c
00000240: 10b8 2ebd 7152 c33d dc9b 8abc b00a 68bc
00000250: 2e4b fa3c 5778 ccbd 7044 4ebc ea6a 743d
00000260: 6687 0abe 4634 83bd b4e4 533b 67d0 ac3d
00000270: 0c0e 04bd cc84 09be 8cbf 1bbc 7a22 103e
00000280: 0c24 adbc f4fa 863d 404c 28bd 8002 ca3b
00000290: d56f 07bf cdc7 2fbd 158a 7c3c fc88 29be
000002a0: 14f4 94be d71a bb3d 8d5a e4bc 47b5 043d
000002b0: 2fc9 dfbd c08f f6bd df19 8bbe b6d7 02be
000002c0: 3571 f33d 988d 833d cb07 f9bd 3c0c 1f3d
000002d0: 1e8c 1d3d c2dd 003d 5228 a5bd 8638 01be
000002e0: 10a0 d63b cd10 69bd 4077 bcbb f65f 923d
000002f0: a467 923d 3ca1 ae3d 9643 483d 0c35 233c
00000300: a2ba 8fbc c144 c03d 7dfa afbb 4a35 89be
00000310: bc1c acbe 827b 2ebe 3e1a 5e3c f48d d0bd
00000320: 1907 e73d 83b7 403d e6d8 63bd 4023 f63d
00000330: dc6d 7cbd fdec 8b3d 3b9e 733d 6339 74bd
00000340: 1937 01be 8a53 823d 33ae 09be 4fd6 5c3c
00000350: a34b 98bd ffcc e0bc e90a 0cbe 6f3c 9f3d
00000360: bee5 b23c 9fd6 26be 6c54 323d ba92 03bd
00000370: c1f5 88bc 589e 273d f9b7 7fbc 172f b83d
00000380: 8144 9e3d 7a33 003e 4b28 923c e5a1 babd
00000390: 690e b7bc bcf7 783d c32c d4bc 7912 15bd
000003a0: bd3f 22bd 0170 30be 98a5 7bbd d40b 6c3d
000003b0: b24a 3f3d 22fc 4e3d fa76 b33c f8d3 22be
000003c0: fe86 933d cb0a 8cbd a252 bc3d 5e6e 323d
000003d0: e265 8cbd 6cce 1c3d f4a7 a9bd f8aa 6bbd
000003e0: 577c b13d f42a cf3d 8f87 133d 20fd 093e
000003f0: e218 5b3c 45bb a0bd 72a9 d53d 3da3 80be

fc2.bias f4 [100]
-0.0060156807 -0.030549787 0.086459585 -0.09802627 0.04736356 0.08319019 0.06494032 -0.10344294
-0.01864335 -0.0073867883 0.023326676 0.06550006 0.0024345994 -0.045481946 0.05736846 0.08016596
0.063953124 0.075797 0.032637574 -0.05233585 0.05654388 -0.07983558 0.11682236 0.09242673
0.091147855 -0.10812771 0.013608233 -0.07904394 -0.04819572 0.0061183968 0.059719525 -0.009480195
0.03933674 0.044478364 0.05084687 0.04393961 0.024004575 0.0044008377 0.06178987 -0.043124724
-0.05767853 0.043310024 -0.03147997 -0.07270739 -0.004771539 0.08688994 0.069761366 -0.049446557
-0.08342457 0.069306985 -0.013645658 0.003791062 -0.023448339 -0.068710186 -0.09986176 0.1362695
0.023462817 0.036696006 -0.046820916 -0.010621525 0.117549546 -0.06413157 -0.02913945 -0.069261745
-0.068222106 -0.020534217 0.08255867 0.0034953803 0.08454073 0.0839284 -0.07996931 0.009459663
0.033226836 -0.10701652 0.052773844 -0.058390323 -0.02540075 0.096174166 0.08081952 -0.016330067
0.09252853 -0.06198028 0.016403137 0.024861082 -0.018414987 0.08942293 0.012472722 0.06332952
-0.07534192 0.08169181 0.01361233 0.09720211 0.049271677 0.086356595 0.039830998 0.06155089
-0.108709335 0.022352004 -0.0005305729 0.043903206
00000000: 301f c5bb 8c43 fabc b911 b13d ffc1 c8bd
00000010: 4b00 423d 9e5f aa3d 6eff 843d e4d9 d3bd
00000020: f0b9 98bc df0c f2bb 9617 bf3c e524 863d
00000030: cd8d 1f3b 474b 3abd 31fb 6a3d 0d2e a43d
00000040: dbf9 823d 753b 9b3d faae 053d 1e5e 56bd
00000050: 8e9a 673d d680 a3bd 9040 ef3d 3a4a bd3d
00000060: baab ba3d 1072 ddbd 11f5 5e3c cae1 a1bd
00000070: e068 45bd d57c c83b 769c 743d d252 1bbc
00000080: 901f 213d f22e 363d cf44 503d 05fa 333d
00000090: 3ea5 c43c e734 903b 6017 7d3d 8da3 30bd
000000a0: 5340 6cbd da65 313d 24f1 00bd 9de7 94bd
000000b0: 925a 9cbb 5af3 b13d 0cdf 8e3d 7988 4abd
000000c0: 80da aabd d2f0 8d3d 0a92 5fbc 7773 783b
000000d0: bb16 c0bc edb7 8cbd 5384 ccbd 3b8a 0b3e
000000e0: 1835 c03c 8d4e 163d 4ac7 3fbd e805 2ebc
000000f0: d1bd f03d 6a57 83bd dbb5 eebc 1ad9 8dbd
00000100: 08b8 8bbd 6037 a8bc 8514 a93d c012 653b
00000110: b123 ad3d a7e2 ab3d f3c6 a3bd b4fc 1a3c
00000120: dd18 083d 7a2b dbbd 6329 583d b12a 6fbd
00000130: 3c15 d0bc f6f6 c43d b484 a53d a2c6 85bc
00000140: 997f bd3d 09df 7dbd df5f 863c 78a9 cb3c
00000150: 07db 96bc 5e23 b73d 635a 4c3c e8b2 813d
00000160: dd4c 9abd 094e a73d 4006 5f3c e611 c73d
00000170: 19d1 493d badb b03d d425 233d c91c 7c3d
00000180: 00a3 debd 8d1b b73c 2516 0bba d9d3 333d

fc3.weight f4 [100, 100]
-0.045432866 0.047255147 -0.0010744518 0.024420055 0.0551755 -0.042652693 -0.0037312799 -0.10412194
0.20008592 -0.13387522 0.13848858 -0.12542589 0.07428004 0.12323072 -0.07181188 0.05323906
0.047951378 -0.034770288 -0.089864664 0.038483284 0.094391026 -0.029866606 -0.00034373484 -0.07039588
0.0073577357 -0.047710873 -0.077984765 0.059153818 0.073745824 -0.00021534314 0.01749113 0.03500456
0.059544053 0.046555635 0.07176966 0.048554786 0.0120432265 0.06897234 0.00022407077 0.005797273
-0.011016364 -0.019520104 0.088892855 -0.11453609 0.05541892 -0.0021437493 0.09112624 -0.08317181
0.02108325 0.004120205 -0.042366493 -0.085755914 -0.009849837 0.025136076 -0.07663882 0.21594483
-0.03882196 0.24503747 0.109675534 0.08055795 0.05945555 0.017901758 -0.10246012 0.07694658
0.008467735 0.0341068 -0.034656964 -0.060876288 0.0021384577 0.09198992 0.13182643 0.14536706
0.03675842 0.06499417 -0.08627096 -0.011589452 -0.036290962 -0.18780658 -0.009367564 -0.10225343
0.047626868 -0.12134981 0.1255764 0.058188375 0.04394654 -0.028464785 -0.059231706 -0.069760315
0.012647869 0.05325859 -0.026508376 0.0762533 -0.057612278 0.07307396 -0.034458846 0.14011325
-0.060259305 0.1254109 0.061630543 -0.05496138 0.09426547 0.08157096 -0.014663622 0.04401005
-0.03459029 0.085956715 0.0011912957 -0.026917674 -0.0866154 -0.092660345 0.067041464 0.04615485
-0.04436716 -0.0387952 -0.07018379 -0.06577126 -0.046070088 0.027974404 -0.08635811 0.007722594
-0.08680618 -0.052729644 0.066549666 -0.03781277 -0.020318046 0.04082147 -0.021299504 -0.01120995
0.0015082508 0.057617433 0.029828347 0.0813979 -0.017380215 0.012998506 -0.03265152 -0.055416834
-0.054728985 -0.047279656 0.053595386 0.015799776 -0.02889458 -0.068196744 0.020038031 0.06610293
-0.0707279 -0.09362122 0.013992384 0.07961967 0.08614781 -0.08302264 0.011224344 0.08229389
0.09701342 0.01736705 -0.009892002 -0.001827322 -0.09143623 0.08801163 -0.08146373 -0.018742725
-0.0134039745 -0.0739366 -0.089513995 -0.03723167 0.07583875 -0.038378667 0.020919524 0.05010385
-0.0037720948 -0.062004007 0.08491007 -0.049192645 -0.06526361 0.028578453 -0.09020325 0.031448536
0.05814407 0.010252193 -0.048257004 0.035907827 0.09636132 0.027822636 -0.08665252 0.059827603
0.097929426 -0.050267577 0.0690841 -0.043568302 -0.052506577 -0.03387977 0.020724714 -0.035284497
0.09452013 -0.06708381 -0.07748859 0.01372838 0.09045165 -0.059969284 -0.07360361 0.030421503
0.021145262 0.050535083 0.059291765 0.0057302853 0.1165764 0.14230363 0.08400654 0.1021165
-0.035023846 -0.09479812 -0.014395219 -0.16888756 -0.25506952 -0.0074565043 0.050159924 0.053940404
0.08604584 -0.07041161 0.06679313 -0.09601759 0.0767062 0.010824343 -0.08598222 -0.093546435
-0.10310241 0.12819676 0.08483332 -0.068143204 0.09283287 -0.06635449 0.060534336 -0.11629535
-0.012614361 0.010867771 0.017967872 -0.08970862 -0.07996836 -0.0859059 0.019339817 0.098342225
0.108541496 0.096783616 0.0923812 -0.14496313 0.05194119 -0.08202848 -0.09325857 -0.048258528
0.041213505 -0.00012367986 0.01907917 -0.018539142 -0.015074537 -0.059418526 -0.015859053 -0.08905204
00000000: d017 3abd 9d8e 413d 9fd4 8cba 910c c83c
00000010: b5ff 613d 97b4 2ebd 7d88 74bb e23d d5bd
00000020: 53e3 4c3e 9616 09be f3cf 0d3e a56f 00be
00000030: 2220 983d 6360 fc3d 1b12 93bd 3311 5a3d
00000040: aa68 443d 4a6b 0ebd f70a b8bd a6a0 1d3d
00000050: 1550 c13d d0aa f4bc 4f37 b4b9 b72b 90bd
00000060: 2919 f13b 7a6c 43bd 7ab6 9fbd 464b 723d
00000070: 0d08 973d bccd 61b9 8f49 8f3c f160 0f3d
00000080: 77e4 733d 1fb1 3e3d f9fb 923d 62e1 463d
00000090: f450 453c 5f41 8d3d 8af4 6a39 0df7 bd3b
000000a0: fb7d 34bc a0e8 9fbc 750d b63d e691 eabd
000000b0: f3fe 623d 257e 0cbb 65a0 ba3d fb55 aabd
000000c0: c8b6 ac3c c902 873b 7d88 2dbd cca0 afbd
000000d0: 3661 21bc 2cea cd3c d0f4 9cbd a420 5d3e
000000e0: c703 1fbd 1aeb 7a3e 919d e03d 91fb a43d
000000f0: aa87 733d b5a6 923c 9dd6 d1bd 2b96 9d3d
00000100: 41bc 0a3c 92b3 0b3d 76f4 0dbd 6a59 79bd
00000110: 5e25 0c3b 3665 bc3d 82fd 063e 1adb 143e
00000120: ff8f 163d aa1b 853d d4ae b0bd afe1 3dbc
00000130: d5a5 14bd 5e50 40be 697a 19bc 3f6a d1bd
00000140: 6414 433d 4086 f8bd 1a97 003e ef56 6e3d
00000150: 4a01 343d fb2e e9bc f29c 72bd 7fde 8ebd
00000160: 0239 4f3c ae25 5a3d 1828 d9bc b12a 9c3d
00000170: dafa 6bbd cda7 953d b824 0dbd d979 0f3e
00000180: 76d2 76bd b76b 003e 4f70 7c3d 2f1f 61bd
00000190: 410e c13d ad0e a73d b03f 70bc e243 343d
000001a0: 8cae 0dbd 130a b03d 4025 9c3a 7482 dcbc
000001b0: 6a63 b1bd b5c4 bdbd 094d 893d de0c 3d3d
000001c0: 57ba 35bd b7e7 1ebd 85bc 8fbd 15b3 86bd
000001d0: fdb3 3cbd 942a e53c 85dc b0bd d00d fd3b
000001e0: 70c7 b1bd 0afb 57bd 314b 883d 90e1 1abd
000001f0: 0872 a6bc 6a34 273d 4c7c aebc f0a9 37bc
00000200: 80b0 c53a 4200 6c3d 945a f43c f1b3 a63d
00000210: f460 8ebc b0f7 543c 9abd 05bd c3fc 62bd
00000220: 802b 60bd 50a8 41bd d686 5b3d 886e 813c
00000230: 54b4 ecbc bcaa 8bbd cc26 a43c f960 873d
00000240: cad9 90bd 7bbc bfbd 5040 653c a30f a33d
00000250: 436e b03d c607 aabd 50e6 373c b389 a83d
00000260: f9ae c63d 5845 8e3c 1012 22bc c082 efba
00000270: eb42 bbbd 713f b43d 75d6 a6bd 588a 99bc
00000280: 589c 5bbc 126c 97bd 1d53 b7bd 3c80 18bd
00000290: 5951 9b3d f332 1dbd 6c5f ab3c b239 4d3d
000002a0: 4035 77bb eaf7 7dbd 55e5 ad3d 3a7e 49bd
000002b0: eda8 85bd 5c1d ea3c 7bbc b8bd 2ed0 003d
000002c0: 7a28 6e3d d0f8 273c 23a9 45bd 1614 133d
000002d0: 1559 c53d 4cec e33c e076 b1bd ca0d 753d
000002e0: 398f c83d 60e5 4dbd f77b 8d3d ad74 32bd
000002f0: 2311 57bd 84c5 0abd e0c6 a93c 7a86 10bd
00000300: c593 c13d 3d63 89bd 56b2 9ebd 00ed 603c
00000310: b73e b93d 5aa2 75bd 7dbd 96bd 8436 f93c
00000320: d438 ad3c e0fd 4e3d ecdb 723d 1ec5 bb3b
00000330: 9cbf ee3d 0bb8 113e 9f0b ac3d 7522 d13d
00000340: 2a75 0fbd 8425 c2bd edd9 6bbc dcf0 2cbe
00000350: 7998 82be b155 f4bb 7e74 4d3d 9df0 5c3d
00000360: cd38 b03d f633 90bd d6ca 883d dfa4 c4bd
00000370: 2418 9d3d 9658 313c 7217 b0bd 4695 bfbd
00000380: 5b27 d3bd 0346 033e 17bd ad3d aa8e 8bbd
00000390: 291f be3d dde4 87bd daf2 773d 422c eebd
000003a0: 77ac 4ebc bc0e 323c 5c31 933c 27b9 b7bd
000003b0: 74c6 a3bd 6fef afbd 896e 9e3c a667 c93d
000003c0: 014b de3d 7d36 c63d 5b32 bd3d 3771 14be
000003d0: 49c0 543d 8cfe a7bd 59fe bebd bcaa 45bd
000003e0: 7ecf 283d 0fb0 01b9 eb4b 9c3c 66df 97bc
000003f0: 31fb 76bc d760 73bd d8ea 81bc ea60 b6bd

fc3.bias f4 [100]
-0.03643697 -0.07453507 -0.05177733 0.02363673 -0.09598936 -0.004988216 -0.048199642 0.032899186
0.11181323 0.0021183253 0.114979975 0.07333745 0.06374246 0.0071199257 0.10501479 0.11614271
0.016384294 0.0096237995 0.0824222 0.015419014 0.07899485 0.115954526 0.00052655383 -0.0049191643
-0.013758112 0.016596762 -0.04781722 -0.052912783 0.009118805 0.051442005 -0.029422777 0.015690682
-0.06422636 0.06754739 0.14433579 0.105670296 -0.008743599 -0.038651127 0.018846639 0.009219446
0.032560047 -0.11769908 0.103594355 0.033371724 0.04905114 0.02426043 -0.08248738 -0.010727115
-0.058283877 0.004504749 -0.028050378 -0.07921898 0.05173769 0.087620124 -0.099743366 0.07337417
-0.08067447 -0.11168992 0.029629393 -0.005513057 -0.0754848 0.037751276 0.013321684 -0.040364187
0.07131128 -0.060392093 0.07719179 -0.00056556275 0.045697454 0.039211098 -0.0542838 -0.065599166
0.04446024 0.034501765 -0.024592021 0.08395161 0.07062087 0.04995457 -0.065709 0.1074038
0.07776735 -0.08359082 0.08124383 -0.05168861 -0.027167495 0.11721367 0.06919515 -0.083791874
-0.07773297 0.10887867 0.14159876 -0.019070096 -0.08659518 -0.009454006 0.0047208075 -0.048960987
-0.1259799 0.025877304 0.007327796 0.12591292
00000000: ef3e 15bd d8a5 98bd 7714 54bd d1a1 c13c
00000010: 1296 c4bd 3074 a3bb fd6c 45bd 4cc1 063d
00000020: 56fe e43d 9ad3 0a3b 9f7a eb3d f231 963d
00000030: 688b 823d 444e e93b ff11 d73d 3bdc ed3d
00000040: 5b38 863c 24ad 1d3c f8cc a83d 08a0 7c3c
00000050: 0dc8 a13d 9179 ed3d 6e08 0a3a f130 a1bb
00000060: b469 61bc eff5 873c fddb 43bd 13bb 58bd
00000070: 0a67 153c dab4 523d 0908 f1bc bf89 803c
00000080: 1c89 83bd 4956 8a3d c3cc 133e ab69 d83d
00000090: 5041 0fbc a550 1ebd 4464 9a3c 290d 173c
000000a0: af5d 053d 370c f1bd 4729 d43d cab0 083d
000000b0: d9e9 483d cfbd c63c 25ef a8bd c8c0 2fbc
000000c0: 13bb 6ebd 939c 933b e8c9 e5bc 903d a2bd
000000d0: e6ea 533d 2e72 b33d 4046 ccbd 3245 963d
000000e0: a838 a5bd afbd e4bd 57b9 f23c e0a6 b4bb
000000f0: c697 9abd 15a1 1a3d 3143 5a3c eb54 25bd
00000100: a60b 923d b35d 77bd bb16 9e3d 4642 14ba
00000110: 412d 3b3d d19b 203d b158 5ebd db58 86bd
00000120: f11b 363d b951 0d3d 3575 c9bc d2ee ab3d
00000130: ada1 903d 2a9d 4c3d 7192 86bd 86f6 db3d
00000140: 7d44 9f3d aa31 abbd 2a63 a63d 70b7 53bd
00000150: 5e8e debc b80d f03d 30b6 8d3d 139b abbd
00000160: 7732 9fbd c8fb de3d 44ff 103e e438 9cbc
00000170: d058 b1bd fae4 1abc 01b1 9a3b 518b 48bd
00000180: e000 01be a4fc d33c 021e f03b 51ef 003e

fc4.weight f4 [100, 100]
-0.14165887 -0.04330057 -0.13178656 0.0015055875 0.038339697 -0.026030168 -0.036944777 -0.02325943
-0.12263861 -0.11805318 0.057716727 -0.0005753627 0.08124985 -0.12584637 0.09925772 0.076015815
0.1058002 0.05809303 -0.13174273 0.018159576 0.060711067 0.07917253 -0.099172205 0.03292232
-0.02722461 -0.11149913 -0.023564007 0.04864423 0.110883534 -0.0045538954 0.07835836 -0.06655013
-0.0053228107 0.057860095 -0.020063616 0.04587176 -0.058807448 -0.020695202 -0.049825244 -0.16064611
-0.056527745 -0.07394548 0.08005615 0.10888167 -0.030505106 0.02380499 0.06947898 -0.16750704
-0.0026872226 -0.124677606 0.07896421 -0.12767872 -0.2596465 -0.19091599 -0.09278242 0.073047064
-0.0338024 -0.11451867 -0.083316475 -0.10559877 0.031241488 0.09887465 0.010452287 0.065770805
0.01833482 0.033435397 0.0053478517 -0.17832083 0.06590814 0.01159203 0.10173533 -0.099207394
-0.117691346 0.016079158 -0.03387998 -0.14570807 0.02316904 -0.08965624 -0.018673873 0.07081686
-0.19910604 -0.04634328 0.016499065 -0.18381278 -0.14143072 0.07363202 -0.10950424 -0.06658587
-0.15107629 -0.085145324 -0.048865784 -0.03162676 -0.093098395 0.07749715 -0.03420465 0.09780971
-0.14802685 -0.16852745 -0.17575836 -0.038847633 0.044251163 0.09929865 -0.13738863 0.05429951
-0.051987756 -0.04197659 0.046591576 -0.013524336 0.064118385 0.19061355 0.013732724 -0.065832265
-0.004776457 0.089319155 0.13337992 -0.049062118 -0.049897525 -0.09781649 -0.07737554 0.0044550668
0.08481726 -0.005901996 0.09016757 0.1393964 0.11561796 -0.09378605 0.16211586 0.078017816
0.039982516 0.08107726 0.04947969 -0.01235365 -0.023923619 -0.028701805 -0.08554124 -0.017430551
0.10989649 0.19224903 0.034408003 -0.0022248423 -0.10846562 -0.04591182 0.08424367 0.024433613
0.0030393905 0.16884404 0.12622325 0.0228747 0.21108747 -0.05622884 0.20367923 -0.031308945
-0.029307535 -0.007349028 -0.02821131 0.071618535 0.095809236 -0.009376851 -0.077083305 -0.018895146
0.09169565 0.013260122 0.0331965 -0.11593056 0.026812203 -0.045800783 -0.08498174 0.020753685
-0.011051439 0.07519901 -0.014760833 0.17115054 0.20781903 0.0616761 -0.018785508 0.04287607
-0.13867031 0.024844011 0.099185444 0.01180383 -0.17114997 -0.06822032 0.2438837 0.013870543
0.0938532 -0.0017713476 0.07136717 0.084055476 0.12962736 0.072771706 -0.0732729 -0.008629912
-0.047984887 -0.06891194 0.043343626 0.07475601 0.19537404 -0.12185566 -0.054967865 0.12668863
0.00035016428 0.08497249 0.05063956 -0.05392384 0.04800696 0.06753517 -0.102148 0.09566018
-0.07144684 0.05314339 0.02729567 0.011926379 -0.05079921 -0.0028287605 -0.072974324 -0.045731153
0.08282817 0.027632011 -0.043251205 -0.008469823 0.042110294 0.023720544 0.009729302 0.01596856
-0.01015423 0.013810343 0.078362085 0.05220466 0.0811605 0.008623643 -0.036066446 -0.037946474
0.0038413343 0.054861505 -0.07586632 -0.071151316 0.004191981 -0.09649111 -0.06021392 0.00066239934
0.08228871 0.09001029 -0.08654177 -0.07932659 -0.052600235 0.093348116 -0.12720917 -0.11679404
-0.082239926 0.051702768 0.07494543 -0.056957554 -0.15789814 -0.14816661 0.06596665 -0.08617109
00000000: 060f 11be f05b 31bd 0ef3 06be 2257 c53a
00000010: 160a 1d3d 383d d5bc 6853 17bd 8f8a bebc
00000020: f429 fbbd dec5 f1bd 6068 6c3d f0d3 16ba
00000030: 5266 a63d dfdd 00be a247 cb3d 2eae 9b3d
00000040: c6ad d83d f5f2 6d3d 91e7 06be 64c3 943c
00000050: 2bac 783d 3525 a23d cc1a cbbd 8ed9 063d
00000060: 2506 dfbc a859 e4bd 4e09 c1bc 2c3f 473d
00000070: e816 e33d d838 95bb 597a a03d 6f4b 88bd
00000080: f96a aebb b5fe 6c3d 745c a4bc 07e4 3b3d
00000090: 14e0 70bd fc88 a9bc 8e15 4cbd 6a80 24be
000000a0: a389 67bd ba70 97bd 7bf4 a33d 5afd de3d
000000b0: d8e5 f9bc af02 c33c ff4a 8e3d f786 2bbe
000000c0: 1d1c 30bb f956 ffbd fdb7 a13d 36be 02be
000000d0: 63f0 84be 7b7f 43be b604 bebd b399 953d
000000e0: 6374 0abd c488 eabd d4a1 aabd 2b44 d8bd
000000f0: 26ee ff3c cb7e ca3d 1240 2b3c d8b2 863d
00000100: e832 963c 8ef3 083d 083d af3b bc99 36be
00000110: d9fa 863d 7fec 3d3c 9d5a d03d 3f2d cbbd
00000120: 2908 f1bd 70b8 833c bcc5 0abd 7f34 15be
00000130: 00cd bd3c b19d b7bd f3f9 98bc 6e08 913d
00000140: 74e2 4bbe 73d2 3dbd 0c29 873c 6b39 3cbe
00000150: 37d3 10be 62cc 963d c243 e0bd 2c5e 88bd
00000160: beb3 1abe ac60 aebd 7d27 48bd 108b 01bd
00000170: 5faa bebd d3b6 9e3d 2d1a 0cbd 7550 c83d
00000180: 5a94 17be 7692 2cbe 00fa 33be b21e 1fbd
00000190: b540 353d 175d cb3d 9baf 0cbe 2a69 5e3d
000001a0: 1df1 54bd a5ef 2bbd cfd6 3e3d 2d95 5dbc
000001b0: 8050 833d 3330 433e 38ff 603c 11d3 86bd
000001c0: d383 9cbb f6ec b63d bf94 083e 5cf5 48bd
000001d0: 5961 4cbd 0354 c8bd 1177 9ebd cffb 913b
000001e0: acb4 ad3d 8865 c1bb c6a9 b83d eebd 0e3e
000001f0: 1cc9 ec3d e712 c0bd b301 263e cec7 9f3d
00000200: b5c4 233d d60b a63d 37ab 4a3d f766 4abc
00000210: 77fb c3bc 0c20 ebbc 3f30 afbd 84ca 8ebc
00000220: 6911 e13d eedc 443e 68ef 0c3d a9ce 11bb
00000230: 3923 debd 080e 3cbd f287 ac3d 0029 c83c
00000240: 8330 473b 74e5 2c3e ab40 013e b963 bb3c
00000250: 5027 583e 3650 66bd 4a91 503e cf3d 00bd
00000260: 5b16 f0bc 1dd0 f0bb 681b e7bc bdac 923d
00000270: a237 c43d 5da1 19bc dadd 9dbd fec9 9abc
00000280: eeca bb3d fc40 593c 0ef9 073d 006d edbd
00000290: 44a5 db3c 9a99 3bbd e80a aebd a203 aa3c
000002a0: 1811 35bc f001 9a3d 6cd7 71bc 1642 2f3e
000002b0: 83ce 543e 14a0 7c3d 11e4 99bc d19e 2f3d
000002c0: 97ff 0dbe ab85 cb3c bd21 cb3d da64 413c
000002d0: f041 2fbe 18b7 8bbd a6bc 793e 4641 633c
000002e0: 1b36 c03d 902c e8ba f328 923d 4725 ac3d
000002f0: 09bd 043e 5509 953d 1a10 96bd 7964 0dbc
00000300: cd8b 44bd b421 8dbd 1689 313d ae19 993d
00000310: 2210 483e 768f f9bd fc25 61bd aaba 013e
00000320: 4196 b739 0f06 ae3d 6d6b 4f3d 3fdf 5cbd
00000330: f2a2 443d e14f 8a3d f832 d1bd 7ce9 c33d
00000340: b952 92bd e2ac 593d 2b9b df3c dc66 433c
00000350: d512 50bd ba62 39bb 9073 95bd 9750 3bbd
00000360: d1a1 a93d 875c e23c 2d28 31bd 03c5 0abc
00000370: d87b 2c3d 9651 c23c a667 1f3c 7fd0 823c
00000380: ed5d 26bc c744 623c 4d7c a03d 8ed4 553d
00000390: 7a37 a63d 2e4a 0d3c 69ba 13bd c36d 1bbd
000003a0: e5be 7b3b 75b6 603d cd5f 9bbd c8b7 91bd
000003b0: e35c 893b 229d c5bd dfa2 76bd dea4 2d3a
000003c0: fc86 a83d 5157 b83d d03c b1bd fb75 a2bd
000003d0: 5873 57bd 4c2d bf3d 1f43 02be b731 efbd
000003e0: 686d a8bd 48c6 533d fd7c 993d 534c 69bd
000003f0: 0db0 21be fdb8 17be 8619 873d 787a b0bd

fc4.bias f4 [100]
0.07248079 -0.0626796 0.020683754 0.09984313 -0.07732044 -0.02485705 -0.07665513 0.02995541
0.07706012 -0.00023950844 -0.005358241 0.18090923 0.005674485 0.06003872 0.011519512 0.037143517
-0.038541365 -0.083501145 0.089104615 -0.072012365 0.13739555 0.09580817 0.08897239 0.015903847
0.09032189 -0.06943024 0.06927245 -0.058630038 0.021458898 0.023543064 0.068142496 -0.09197613
-0.035337616 0.066951714 0.10227582 0.076704845 -0.081429504 0.07020598 0.103785105 0.12060045
0.0039429995 -0.002838961 0.035729747 -0.035311155 0.034637492 -0.053807296 -0.038321167 -0.08544441
0.0139938025 -0.041834958 0.06208975 -0.030966358 0.061514974 0.038979672 -0.10726538 -0.026782736
0.15306611 0.16455594 0.099422835 -0.05981201 -0.06805033 -0.013479213 0.046015967 0.017468395
0.10858459 0.089585066 0.074882105 -0.013658347 -0.04266923 -0.024420658 0.016140683 -0.06537093
-0.05885432 0.08017292 -0.05450233 -0.02863934 -0.07431878 0.029572194 0.08644242 -0.043198384
-0.009784644 -0.018169183 -0.022259407 0.035250783 0.04282537 0.10722028 0.13413012 -0.062153563
-0.11905965 -0.040421974 -0.0027319556 -0.07807328 0.037194263 -0.039787795 -0.030263295 0.077600524
0.11604413 -0.040571038 -0.056112066 -0.072088964
00000000: cf70 943d 2a5e 80bd fa70 a93c 8e7a cc3d
00000010: 2e5a 9ebd 03a1 cbbc 5dfd 9cbd 0c65 f53c
00000020: b2d1 9d3d 8f24 7bb9 2f94 afbb 4540 393e
00000030: 08f1 b93b 29eb 753d 56bc 3c3c cd23 183d
00000040: 8ddd 1dbd a602 abbd 7b7c b63d 387b 93bd
00000050: 6bb1 0c3e 1337 c43d 2837 b63d c948 823c
00000060: affa b83d 7131 8ebd b7de 8d3d 0d26 70bd
00000070: 92ca af3c 62dd c03c 4b8e 8b3d fb5d bcbd
00000080: 2dbe 10bd fb1d 893d fc75 d13d 6e17 9d3d
00000090: 83c4 a6bd 27c8 8f3d 498d d43d 5efd f63d
000000a0: 4734 813b dd0d 3abb 5b59 123d 6ea2 10bd
000000b0: 0be0 0d3d 0a65 5cbd a8f6 1cbd 7bfd aebd
000000c0: 4346 653c 225b 2bbd d251 7e3d 29ad fdbc
000000d0: 20f7 7b3d 26a9 1f3d f4ad dbbd 7867 dbbc
000000e0: 5dbd 1c3e 5a81 283e 339e cb3d 70fd 74bd
000000f0: f95d 8bbd ebd7 5cbc 3d7b 3c3d e119 8f3c
00000100: 9961 de3d 6078 b73d ca5b 993d 42c7 5fbc
00000110: eec5 2ebd d50d c8bc 7739 843c 32e1 85bd
00000120: 3a11 71bd b331 a43d d63d 5fbd 0d9d eabc
00000130: 7234 98bd 6341 f23c b908 b13d caf0 30bd
00000140: c54f 20bc 8ad7 94bc 5c59 b6bc 2063 103d
00000150: a869 2f3d 4e96 db3d 6859 093e bc94 7ebd
00000160: 8cd5 f3bd 8391 25bd 9c0a 33bb e2e4 9fbd
00000170: 0359 183d 87f8 22bd bbea f7bc 06ed 9e3d
00000180: 8ba8 ed3d d12d 26bd c4d5 65bd 61a3 93bd

fc5.weight f4 [100, 100]
0.02852825 -0.0040099365 -0.0016855678 -0.054315604 -0.057104558 0.04776775 0.047019735 -0.07028177
-0.097125866 -0.060091984 -0.037463978 -0.031957496 -0.0888894 -0.051235937 0.059102934 -0.0016200502
-0.035747707 -0.0781034 0.02478329 0.040244214 0.07625851 -0.029667877 -0.09029891 0.03815686
0.060863376 -0.067824766 0.012669952 -0.049223747 0.071843855 0.04128644 -0.0014525205 -0.09684978
-0.09169179 -0.048923794 -0.06864208 -0.05861616 0.062445458 0.053778138 0.04943322 -0.10581065
0.0076410617 0.014850912 -0.065613024 0.016851053 0.012873903 0.009869331 0.03509479 -0.063450724
-0.07785436 0.013197045 0.08830823 -0.009864779 0.06498847 -0.016904172 0.081188 -0.083829805
0.022591377 0.02811449 -0.093834065 -0.021930255 -0.031166263 -0.024477974 -0.08227785 0.022275988
0.039870307 -0.039180502 0.08019812 0.07369857 0.019390056 0.06333693 0.028171832 0.018385466
0.006055221 -0.079084106 0.031289414 -0.017394796 -0.115676604 0.071659945 -0.10471986 0.019902788
0.057975646 -0.08637331 -0.04489688 -0.006094663 0.07805258 0.06648634 -0.044152558 0.0958363
0.037335224 -0.03257046 -0.055688716 0.021008767 -0.056162227 0.057678133 0.07762731 0.032218833
-0.10092503 0.05435942 -0.028533783 -0.03684934 -0.07127325 0.019240752 -0.038087394 -0.0015289935
0.04195413 -0.04338498 -0.08228225 0.059969265 0.07614631 0.010170883 0.03960707 -0.093773045
0.007360925 -0.10033571 0.08311227 -0.00664147 -0.08838532 -0.03232739 0.062227502 0.0708709
0.0064005326 -0.018015608 -0.025807528 -0.019655196 -0.038509913 -0.06127402 -0.029496636 -0.012488418
-0.0843359 -0.035768885 -0.014240012 0.04471495 -0.07877185 -0.067672834 0.084465675 -0.05371864
0.03941106 0.083204485 -0.098314874 0.07130443 0.08457957 0.04462963 -0.10025468 -0.010253154
0.08259258 0.06535386 0.001267494 -0.08333351 -0.06896468 -0.046535917 0.07184268 -0.03136622
-0.006745903 0.013319468 0.08768632 -0.0046418905 0.014237086 0.028560389 0.076387964 -0.06938632
-0.08486709 0.06685281 0.02201444 -0.06546448 -0.09917091 0.05938834 -0.0715361 0.012947305
-0.08679313 -0.08169052 0.04564761 0.008795607 -0.0939061 -0.05887599 0.039841726 0.04407183
0.06998245 0.081298016 -0.040794887 -0.085059226 0.027408827 0.014045157 -0.084609665 0.0019974182
0.024458572 -0.071167216 0.07859098 -0.05644996 0.09615531 0.04250299 0.0041461587 0.0020698905
-0.06961346 0.030657582 0.04691611 -0.033190407 -0.082136974 -0.093696 -0.019617118 -0.036273554
-0.06718138 0.04708821 -0.015733887 -0.047507 0.10308365 -0.043383297 0.003631986 -0.08967669
0.07470815 0.06847368 -0.08489018 -0.012591184 0.07747506 0.098133415 0.005698693 -0.04426961
0.08723378 0.034624435 -0.066784404 0.025395378 -0.0155162895 -0.12829185 -0.09903674 -0.11654712
-0.10719838 -0.0640962 0.01755385 0.06513129 0.074789256 -0.056367118 0.028115997 -0.097149454
0.21554776 -0.062782004 -0.16670907 -0.25767 0.044639282 -0.042612266 -0.09618977 0.034964263
0.041144826 -0.09666714 -0.032681163 0.05725484 -0.010304899 0.08445541 -0.06569941 0.013550621
0.047098223 -0.033129502 0.03841929 0.059809048 0.123457596 0.05231878 -0.0006290525 -0.0043944865
00000000: 14b4 e93c c965 83bb 45ee dcba 0a7a 5ebd
00000010: 78e6 69bd 1ea8 433d c497 403d e3ef 8fbd
00000020: ede9 c6bd 0323 76bd d473 19bd dde5 02bd
00000030: a50b b6bd c6dc 51bd eb15 723d dd57 d4ba
00000040: 306c 12bd adf4 9fbd 5406 cb3c 1ed7 243d
00000050: 6c2d 9c3d 0c0a f3bc a3ee b8bd 5e4a 1c3d
00000060: e04b 793d b6e7 8abd a195 4f3c d79e 49bd
00000070: df22 933d f81b 293d 8062 beba 2d59 c6bd
00000080: e8c8 bbbd 5164 48bd 3894 8cbd 8017 70bd
00000090: cfc6 7f3d 7746 5c3d 7d7a 4a3d 41b3 d8bd
000000a0: df61 fa3b 3d51 733c 1f60 86bd 380b 8a3c
000000b0: 10ed 523c f9b2 213c 8ebf 0f3d 74f2 81bd
000000c0: 1b72 9fbd 6b38 583c f2da b43d e29f 21bc
000000d0: ad18 853d 9e7a 8abc e545 a63d f6ae abbd
000000e0: 8d11 b93c 5c50 e63c 132c c0bd 14a7 b3bc
000000f0: 6450 ffbc 0886 c8bc 4a81 a8bd 227c b63c
00000100: 0c4f 233d bc7b 20bd e93e a43d 47ef 963d
00000110: e5d7 9e3c cbb6 813d 9dc8 e63c 1e9d 963c
00000120: e06a c63b d9f6 a1bd 5429 003d 887f 8ebc
00000130: dbe7 ecbd 73c2 923d 5e77 d6bd 2c0b a33c
00000140: df77 6d3d 7de4 b0bd cae5 37bd bdb5 c7bb
00000150: 08da 9f3d fd29 883d 50d9 34bd d245 c43d
00000160: d2ec 183d 9a68 05bd da19 64bd 941a ac3c
00000170: 5d0a 66bd e83f 6c3d 11fb 9e3d e5f7 033d
00000180: c8b1 cebd fca7 5e3d aebf e9bc 55ef 16bd
00000190: b6f7 91bd c89e 9d3c 8701 1cbd 8268 c8ba
000001a0: 18d8 2b3d 73b4 31bd 9983 a8bd 55a2 753d
000001b0: 99f2 9b3d c6a3 263c 063b 223d 150c c0bd
000001c0: ea33 f13b cf7c cdbd c436 aa3d b0a0 d9bb
000001d0: 5d03 b5bd ba69 04bd 44e2 7e3d c324 913d
000001e0: 8fbb d13b 7895 93bc 4f6a d3bc ef03 a1bc
000001f0: 92bc 1dbd 77fa 7abd eea2 f1bc 399c 4cbc
00000200: 4db8 acbd 6582 12bd f04e 69bc 0627 373d
00000210: 2353 a1bd 0e98 8abd 57fc ac3d 1408 5cbd
00000220: 7e6d 213d 1d67 aa3d 4f59 c9bd 0f08 923d
00000230: 0e38 ad3d 8fcd 363d 5352 cdbd d8fc 27bc
00000240: 4c26 a93d 3fd8 853d 0b22 a63a c2aa aabd
00000250: 5b3d 8dbd 729c 3ebd 4122 933d de79 00bd
00000260: bc0c ddbb e639 5a3c e394 b33d 001b 98bb
00000270: ab42 693c 7af7 e93c 4b71 9c3d 6a1a 8ebd
00000280: ccce adbd 20ea 883d a057 b43c 3e12 86bd
00000290: 1e1a cbbd 3041 733d 8581 92bd ef20 543c
000002a0: 99c0 b1bd 5c4d a7bd fdf8 3a3d 731b 103c
000002b0: d751 c0bd f327 71bd 1431 233d aa84 343d
000002c0: f552 8f3d 937f a63d 8a18 27bd 8833 aebd
000002d0: 7a88 e03c a81d 663c d547 adbd 1ee7 023b
000002e0: 585d c83c 1ec0 91bd 4ff4 a03d 1338 67bd
000002f0: 13ed c43d 9e17 2e3d 80dc 873b 00a7 073b
00000300: 8091 8ebd 9c25 fb3c 1b2b 403d aaf2 07bd
00000310: 6e37 a8bd b0e3 bfbd 14b4 a0bc 9493 14bd
00000320: 6496 89bd 91df 403d 5ae4 80bc b396 42bd
00000330: 851d d33d afb2 31bd 9d06 6e3b 6aa8 b7bd
00000340: 9600 993d ee3b 8c3d e7da adbd 414b 4ebc
00000350: 3fab 9e3d 2cfa c83d 1abc ba3b 0d54 35bd
00000360: a0a7 b23d 5ad2 0d3d 43c6 88bd f809 d03c
00000370: 0938 7ebc f05e 03be c6d3 cabd 42b0 eebd
00000380: d38a dbbd de44 83bd 17cd 8f3c 8e63 853d
00000390: 1c2b 993d 35e1 66bd 8553 e63c 4bf6 c6bd
000003a0: 8db8 5c3e da93 80bd c8b5 2abe 52ed 83be
000003b0: aed7 363d 338a 2ebd 24ff c4bd b036 0f3d
000003c0: 7a87 283d 6cf9 c5bd afdc 05bd 0d84 6a3d
000003d0: e1d5 28bc f5f6 ac3d 6a8d 86bd 6d03 5e3c
000003e0: 11ea 403d cdb2 07bd 8c5d 1d3d 55fa 743d
000003f0: 56d7 fc3d 384c 563d 00e7 24ba a0ff 8fbb

fc5.bias f4 [100]
-0.048192084 -0.07552779 -0.1043 0.14323185 0.08674533 0.088466056 0.09362115 0.0107331965
0.12984446 0.068935595 0.008643842 0.111429825 0.081384115 -0.06624988 -0.035936188 0.029516991
0.11663704 0.19283874 -0.07921964 0.0578227 0.109547816 -0.03831636 0.019397084 0.040484402
0.1059638 0.104879834 0.0504482 0.19515869 0.028889494 -0.032632653 0.08667574 0.10974577
-0.0013022297 0.06584898 0.10326741 -0.14199218 0.007622169 -0.061907772 0.14665194 0.09351944
0.0963378 0.034055464 0.0362145 0.06855686 -0.07204573 0.040209122 -0.075582914 -0.07537713
0.087775454 -0.05820352 0.09477847 0.029795805 -0.030144375 -0.038730692 0.036795948 -0.057870016
0.03186801 0.0751085 0.025069382 0.12954453 0.014792781 0.11122063 0.19488248 0.037137203
0.13233168 0.18226945 0.045933027 -0.023889553 0.2009786 -0.073070586 -0.073131196 -0.10747257
-0.07265091 0.07211323 -0.01372139 0.043457445 -0.07961738 -0.013939523 0.1555541 0.059874363
-0.063837916 0.06799564 0.20084992 -0.07972931 -0.08355115 0.18835543 -0.0149438055 0.065012656
0.08442327 0.1191499 0.019970302 0.05031337 -0.084867805 -0.0654554 0.046147127 0.1308587
-0.022771442 0.08374815 0.06901215 -0.11160408
00000000: 1065 45bd 50ae 9abd 3d9b d5bd 5fab 123e
00000010: 89a7 b13d b12d b53d 72bc bf3d 4ada 2f3c
00000020: f2f5 043e 1b2e 8d3d e79e 0d3c 5235 e43d
00000030: b7ac a63d 04ae 87bd d331 13bd 9ecd f13c
00000040: 67df ee3d 8577 453e e83d a2bd 7fd7 6c3d
00000050: 9b5a e03d 9ef1 1cbd a2e6 9e3c f9d2 253d
00000060: 8c03 d93d 3dcb d63d c6a2 4e3d aed7 473e
00000070: a9a9 ec3c d1a9 05bd 0d83 b13d 64c2 e03d
00000080: 94af aaba d4db 863d dd7d d33d 6666 11be
00000090: 63c3 f93b 0193 7dbd ed2b 163e 1f87 bf3d
000000a0: c14c c53d be7d 0b3d a855 143d 8a67 8c3d
000000b0: b68c 93bd 52b2 243d 37cb 9abd 535f 9abd
000000c0: 9ec3 b33d d066 6ebd 371b c23d 5516 f43c
000000d0: 56f1 f6bc 13a4 1ebd 59b7 163d 1c09 6dbd
000000e0: 0888 023d 7cd2 993d 4e5e cd3c 52a7 043e
000000f0: 6c5d 723c a4c7 e33d 468f 473e 2e1d 183d
00000100: f581 073e d8a4 3a3e 4524 3c3d 06b4 c3bc
00000110: 56cd 4d3e 08a6 95bd cfc5 95bd 941a dcbd
00000120: 00ca 94bd 1ab0 933d aecf 60bc 6f00 323d
00000130: 700e a3bd 9962 64bc 9349 1f3e d23e 753d
00000140: 74bd 82bd 4c41 8b3d 9aab 4d3e 1f49 a3bd
00000150: de1c abbd 3fe0 403e ddd6 74bc 5b25 853d
00000160: 1be6 ac3d dd04 f43d c298 a33c 6415 4e3d
00000170: 2ccf adbd 7b0d 86bd c504 3d3d d3ff 053e
00000180: 2d8b babc 2684 ab3d 3e56 8d3d ae90 e4bd

fc6.weight f4 [100, 100]
0.08334323 0.078563325 0.14889205 0.08622687 -0.038714822 -0.28843388 0.1530216 0.025409652
-0.11704376 -0.06424086 0.22553065 -0.10139019 0.040130634 0.13275674 0.120768934 -0.08132924
-0.060689893 -0.05376374 0.036161132 -0.0061277747 -0.02846196 -0.27334407 0.076935075 0.12173346
0.07510563 -0.15660977 0.0024136698 -0.065118685 0.03811549 0.12884861 0.0552268 0.046759706
0.1932784 -0.10531799 0.03538631 -0.027382428 -0.04282282 0.005662285 0.11199848 -0.11862019
-0.08426509 -0.12550941 0.046355166 -0.00982027 0.008013087 -0.024812013 -0.15466556 0.20017283
-0.30729368 0.118197486 -0.004567265 0.07648656 0.0873892 -0.097939774 0.14037834 0.14764513
-0.021301461 0.042263355 -0.13107972 0.021314697 0.11603114 0.025898563 0.05833247 0.08669664
-0.14860946 -0.08642955 -0.041268367 -0.16910286 -0.1834428 0.049802855 -0.30863875 -0.023293456
-0.10083301 0.014529369 0.008467804 -0.06037828 -0.37204877 0.0021009056 0.012324767 0.16473757
0.019058593 0.099780805 0.063429005 0.026831018 0.20667501 -0.10627293 0.020399652 0.13665873
-0.08855196 0.02442332 0.14567071 0.06527646 0.1571268 0.07994556 -0.09586193 -0.023166243
0.07170257 -0.010803258 -0.026336616 -0.08336296 0.013069854 0.08061828 0.18731987 0.16253832
0.0052225296 0.027780645 0.035504106 -0.052880872 0.046579536 -0.025353907 -0.057188988 0.10743827
-0.07334298 -0.019076597 -0.22951832 0.027135743 0.048291583 -0.008360113 0.024602748 -0.028671965
0.08459959 0.0107307015 -0.01364121 -0.0037386445 0.10794273 -0.030652467 -0.1303721 0.18583593
-0.05542853 -0.05051858 -0.0008807211 0.024040364 -0.094938636 -0.069884814 -0.0071484526 0.007933189
0.052670915 -0.015253381 0.0879679 0.062880926 0.027941467 0.08334783 0.05008421 0.08360555
-0.18107504 0.0012750718 -0.122876115 0.046007805 0.023934895 0.06412397 0.10754672 -0.030404871
-0.07330812 0.020199047 0.009852719 -0.21466835 -0.20124193 0.13296393 -0.008471655 0.014165652
0.029715309 -0.15389763 0.12813415 -0.0084094815 -0.029460702 0.05340025 -0.21461686 -0.036736812
0.037517734 -0.14272146 -0.032514565 -0.16001463 0.13223393 -0.05306008 0.04771538 -0.00725843
-0.10757424 0.019555816 0.059989154 -0.009823339 -0.19663407 -0.03889432 0.031641148 -0.30086768
0.024345892 0.11901677 -0.30602384 0.046206236 0.041399755 -0.033551455 0.05954171 -0.120086156
-0.072213694 0.08211644 -0.0731059 -0.0038939118 0.17560917 0.10448268 0.14239877 0.0787557
0.015496805 0.007355368 -0.11344087 0.14101192 -0.01909891 0.04955448 0.11855743 -0.007332856
-0.044326182 0.12888807 -0.088753924 -0.012684604 -0.046144176 -0.037298623 -0.013413016 -0.10533741
0.17618957 0.06392041 -0.009981856 -0.07441913 0.09295477 0.018588366 0.05210154 0.09914423
0.10132559 -0.038913522 -0.028156895 0.07171673 -0.12211064 -0.013729242 0.06441171 0.00016276738
0.017057143 -0.02341307 0.06116988 -0.0391387 0.04313583 0.17086329 0.05884416 0.1586042
0.014124196 -0.13256495 -0.0033153458 -0.008354814 0.11451198 -0.10078163 0.13831143 0.055442233
0.0939886 0.070799835 0.01355434 -0.061275408 -0.0018013604 -0.032182515 0.13441697 -0.11121181
00000000: dbaf aa3d cfe5 a03d 2877 183e b797 b03d
00000010: 6f93 1ebd 9bad 93be b2b1 1c3e e727 d03c
00000020: a4b4 efbd b690 83bd 82f1 663e a9a5 cfbd
00000030: 0560 243d 62f1 073e b455 f73d f28f a6bd
00000040: f795 78bd 5e37 5cbd b21d 143d 80cb c8bb
00000050: 0e29 e9bc c1f3 8bbe 2390 9d3d 644f f93d
00000060: fbd0 993d 505e 20be a92e 1e3b f25c 85bd
00000070: fd1e 1c3d e4f0 033e 7f35 623d 1b87 3f3d
00000080: c6ea 453e f5b0 d7bd 3cf1 103d 1d51 e0bc
00000090: fb66 2fbd b08a b93b 765f e53d 24ef f2bd
000000a0: 2d93 acbd 8a85 00be eade 3d3d 33e5 20bc
000000b0: 5349 033c 9042 cbbc a660 1ebe 1bfa 4c3e
000000c0: 9955 9dbe 8611 f23d ffa8 95bb fca4 9c3d
000000d0: 1cf9 b23d a694 c8bd 57bf 0f3e 4930 173e
000000e0: 6780 aebc 571c 2d3d c339 06be 299c ae3c
000000f0: bca1 ed3d 3929 d43c 07ee 6e3d 028e b13d
00000100: 142d 18be fa01 b1bd 0509 29bd 4d29 2dbe
00000110: 6ed8 3bbe 14fe 4b3d e605 9ebe ebd1 bebc
00000120: 8a81 cebd 970c 6e3c 8bbc 0a3c 374f 77bd
00000130: 2d7d bebe 59af 093b d2ed 493c f7b0 283e
00000140: c420 9c3c e159 cc3d 11e7 813d b9cc db3c
00000150: 9da2 533e 9fa5 d9bd 2c1d a73c 44f0 0b3e
00000160: bb5a b5bd 6a13 c83c b42a 153e aaaf 853d
00000170: d9e5 203e 7fba a33d 4253 c4bd 22c7 bdbc
00000180: ccd8 923d 2600 31bc e3bf d7bc 33ba aabd
00000190: f122 563c 321b a53d c8d0 3f3e 7270 263e
000001a0: c121 ab3b 3c94 e33c c16c 113d 9d99 58bd
000001b0: 2fca 3e3d ffb2 cfbc 003f 6abd 9808 dc3d
000001c0: d834 96bd 8646 9cbc da06 6bbe c74b de3c
000001d0: 65cd 453d dbf8 08bc b48b c93c 78e1 eabc
000001e0: 8d42 ad3d d3cf 2f3c 627f 5fbc 0c04 75bb
000001f0: 1411 dd3d e21a fbbc 4480 05be c64b 3e3e
00000200: 0709 63bd 92ec 4ebd 31e0 66ba 4cf0 c43c
00000210: 306f c2bd c51f 8fbd 913d eabb 35fa 013c
00000220: 75bd 573d 51e9 79bc 8428 b43d b7c7 803d
00000230: 81e5 e43c 44b2 aa3d 1a25 4d3d 6339 ab3d
00000240: bc6b 39be 4f20 a73a 79a6 fbbd ae72 3c3d
00000250: 1d13 c43c 6e53 833d 7441 dc3d a313 f9bc
00000260: 9122 96bd 7978 a53c 4c6d 213c 05d2 5bbe
00000270: 5d12 4ebe b227 083e b2cc 0abc 0d17 683c
00000280: 856d f33c 5797 1dbe 9935 033e ecc7 09bc
00000290: 9257 f1bc 38ba 5a3d 86c4 5bbe 5779 16bd
000002a0: 32ac 193d 9325 12be fe2d 05bd e0da 23be
000002b0: 5568 073e 8755 59bd 3471 433d 20d8 edbb
000002c0: e24f dcbd 8533 a03c 30b7 753d 12f2 20bc
000002d0: 715a 49be a74f 1fbd 269a 013d 540b 9abe
000002e0: 0971 c73c 10bf f33d 28af 9cbe c042 3d3d
000002f0: ca92 293d 406d 09bd 02e2 733d bbef f5bd
00000300: c6e4 93bd aa2c a83d 8cb8 95bd 0031 7fbb
00000310: e4d2 333e 04fb d53d fcd0 113e ab4a a13d
00000320: 50e6 7d3c 4d05 f13b b053 e8bd 6e65 103e
00000330: 5175 9cbc a3f9 4a3d 3dce f23d 7448 f0bb
00000340: 5f8f 35bd 3cfb 033e 9ec4 b5bd 16d3 4fbc
00000350: ad01 3dbd 71c6 18bd 44c2 5bbc 24bb d7bd
00000360: 0a6b 343e b4e8 823d f08a 23bc 0f69 98bd
00000370: 125f be3d a146 983c 6d68 553d 210c cb3d
00000380: ca83 cf3d c963 1fbd 4aa9 e6bc 39e0 923d
00000390: 2515 fabd 9df0 60bc 49ea 833d 89ac 2a39
000003a0: 6cbb 8b3c c4cc bfbc 458d 7a3d e74f 20bd
000003b0: 32af 303d c9f6 2e3e 9306 713d 2469 223e
000003c0: 2c69 673c 1bbf 07be 4646 59bb a1e2 08bc
000003d0: 4285 ea3d 9966 cebd 83a1 0d3e 6517 633d
000003e0: 187d c03d 81ff 903d 0613 5e3c ecfb 7abd
000003f0: a01b ecba d0d1 03bd 9aa4 093e 04c3 e3bd
