resources/pretrained_models/ik_threelink_joint_limits_base/weights_100/model.pth (torch_old, 294851 bytes, 18 tensors)

fc1.weight f4 [100, 20]
00000000: af9e 7bbe e1eb 03be d54c 81bd 1964 783e
00000010: b0ce 013e 9028 06bc 4875 33bd 426d 383e
00000020: ac1c 9cbd 64b2 843d 40c4 663c 107a 54bd
00000030: 881f f73d e0a0 22bd f6c6 4ebe b2ea 1dbe
00000040: 887a f6bc ccb4 e4bd 61f5 f3bd f3f1 f0bd
00000050: 52c3 5dbe f629 9abe 2b72 12be 3c3c 05bc
00000060: 10ab dc3c 5e55 febd 9c84 10bd a0fb 8f3b
00000070: 389d f63d 38a6 763d e838 263d ecca f23d
00000080: ac4b 383e 4ccf fcbd 5049 2f3c c06d 423e
00000090: 70ba ebbc 9039 a33d ae06 8abd 803a a33d
000000a0: ed85 633e 7618 13bc 5746 ffbd 375b 293e
000000b0: 402d 463d 627d 4f3e f6d6 223e 6464 fe3d
000000c0: 704c 13bd ca00 503e d027 bdbd ae8f 58be
000000d0: c80b 37be ceb6 96bd f50b 5fbe d269 f3bd
000000e0: 5222 0e3e 5871 58be b23e a1bd 96c6 c6bd
000000f0: d0d8 9cbd 7794 d7bb dc84 4dbe 0a02 3d3d
00000100: 934d 2abe d01f 37be 6c26 033e 6e33 4ebe
00000110: 3ab2 22be d6e3 44be 0476 4abd 764d cbbd
00000120: f2e8 1b3e 8898 153e b65e 283e cc2e 3dbd
00000130: 12eb a3bd b4e1 8e3d 5ae5 53be f81c 92bd
00000140: 417e babd 1839 82bd 1a65 103e 9241 553e
00000150: a47b 223e 4097 5c3d dacd 3e3e c0e8 e43d
00000160: 82c9 193e 7283 2f3e 84e9 30bd 3cfc 4abd
00000170: de7a 5a3e 8ac0 133e a0b2 2a3d 58bd 8ebd
00000180: 0064 e33d 0090 0f3e 009d 4bbe 6082 4f3d
00000190: aec1 e53d a22e 01be 8a1e 0ebe 4fff 313d
000001a0: 38eb f03d da94 05be 34dc b53d 5ece b9bd
000001b0: a7c7 56be 00dd 3fbc e4ec e53d 3040 683d
000001c0: 16c1 2c3e 4ae2 0fbe b094 753d 884d 6f3d
000001d0: 5eda 493e 00a5 e1bd e2eb 1bbe 5097 a5bc
000001e0: b45f 20be ed79 5e3d 949d 4ebe 2541 fbbc
000001f0: 70b8 553d 8081 9f3b f45e 1cbe 98e4 c6bc
00000200: c23d 043e c819 bc3d de92 223e c4dc 1dbd
00000210: 0830 5fbd 70ee 2d3d 8ea9 b4bd 56e7 273e
00000220: 247a 34bd 345a 233e 183d 53be 0018 4abe
00000230: c5a5 653e c5b7 053d f278 383e 23b3 733e
00000240: dc7f e33d 1ac1 4a3e 8417 053e 20c1 943d
00000250: 78ec 3ebd 0647 a8bd 7869 2ebe c0f8 00bc
00000260: 60d8 f93c 7083 3b3d e0a5 073e aeff 463e
00000270: 2093 c43d c0a2 763c 4080 febc 64ce ea3d
00000280: ba7f 2fbe 1749 33be 9edd f83d 11aa 653e
00000290: 5857 52bd 0a03 05be 8bab 57be cc5e 53be
000002a0: a034 98bb 5846 db3d 6876 2a3d c8ae b5bc
000002b0: d003 e23d 7013 5cbe 4023 753c b07d 193d
000002c0: 94eb fd3d 007c 293d 8004 213d 307b 77bc
000002d0: fd5b 34be b903 cfbc e02d 5ebe 1a54 a7bd
000002e0: 7298 2b3e de15 bdbd e007 8f3d 764d d4bd
000002f0: daa3 2fbe 6899 7b3d d962 2cbe c839 513e
00000300: 6541 0bbe 7660 49be f88a 5bbe 3a9b 84bd
00000310: 401c e1bd 506f 183d f4d0 96bd 2873 993d
00000320: 88f1 8cbe 4874 bf3d 4e95 703d b0e0 183d
00000330: 0578 4abe e64d 5dbe 905a d63c 31bf f8bd
00000340: 686c c03d 7cda fd3d b0f4 3f3e c02f 2e3e
00000350: 80bc 403d bc32 883d 4284 b6bd bc06 9a3d
00000360: 90a4 31be 3864 3cbe ff38 f7bd 823f 403e
00000370: 711b 59bb 3809 813d 9f34 293e 77a8 8e3d
00000380: 4fa9 5fbe 58ff a43d 7475 73bd 88fe c5bd
00000390: f0c3 02bc 86e6 5cbe deac 2fbe b0b5 a93c
000003a0: fc48 fe3d c45a 1c3e 3c74 38be 34c2 543e
000003b0: 68b8 7cbd dab0 583e 0472 b53d 2409 43be
000003c0: 628d c73d be64 493e dea7 19be 801b 523e
000003d0: 90bf 4dbc 4ee4 093e 0ee9 603e 3904 1ebe
000003e0: e879 fb3d 4445 5b3e 00bf d63a 6030 293d
000003f0: 78d5 793d 28c7 14be 4870 c93d d4ac 3abd
-0.24572252 -0.1288295 -0.06313483 0.24256934 0.12676501 -0.008188382 -0.04381302 0.18010429
-0.07622656 0.06479338 0.014084876 -0.05187422 0.12066561 -0.039704204 -0.20193085 -0.1542156
-0.030087724 -0.11167297 -0.11912037 -0.11764898 -0.2165654 -0.3011014 -0.14301364 -0.008132037
0.026937038 -0.12418626 -0.035282716 0.0043940097 0.12041706 0.060217112 0.040581614 0.118551105
0.17997617 -0.12344226 0.010698631 0.18987179 -0.028775424 0.079699636 -0.06739555 0.07970142
0.22219057 -0.008978 -0.12464588 0.16538702 0.048382998 0.20262673 0.15902314 0.12421492
-0.03596157 0.20312801 -0.09236109 -0.2114856 -0.17875588 -0.07359086 -0.21781905 -0.11885418
0.1388028 -0.21136987 -0.07873286 -0.09705846 -0.07658541 -0.0065789777 -0.20070213 0.046144523
-0.16631155 -0.1788323 0.12807626 -0.20136806 -0.158883 -0.19227538 -0.049428955 -0.09926884
0.1522558 0.14608967 0.1644238 -0.046187207 -0.080038205 0.06976643 -0.2069296 -0.071344316
-0.09106112 -0.06358546 0.14101067 0.20825794 0.15867478 0.05385518 0.18633214 0.11177206
0.15018275 0.17139986 -0.043191448 -0.049556956 0.21335933 0.14428917 0.041674256 -0.06969708
0.11103058 0.14019775 -0.1988411 0.050661445 0.11218582 -0.12615445 -0.13878837 0.043456372
0.117636144 -0.13045064 0.08879891 -0.090725645 -0.20974599 -0.011710405 0.11226824 0.05670184
0.16870531 -0.14051166 0.059956253 0.05842355 0.19712207 -0.110177994 -0.15226701 -0.020213753
-0.15661508 0.054315496 -0.20177299 -0.030670712 0.052177846 0.0048677325 -0.15270597 -0.024278924
0.12914184 0.09184605 0.15876338 -0.038540617 -0.054489166 0.04246372 -0.088214025 0.16396841
-0.044061795 0.15952379 -0.20628774 -0.19735718 0.22426517 0.03264596 0.18014887 0.23798804
0.111083716 0.19800225 0.12997252 0.07263398 -0.046612233 -0.08216672 -0.1703242 -0.007871807
0.030498683 0.045779645 0.1324687 0.19433472 0.09598374 0.015053451 -0.031067014 0.11465147
-0.17138568 -0.1750835 0.12151645 0.22428156 -0.05135283 -0.1298944 -0.21061532 -0.20641631
-0.0046449453 0.107067764 0.041616827 -0.022178069 0.110358834 -0.2149179 0.014962018 0.03747338
0.123984486 0.04137802 0.039310932 -0.015105054 -0.17613216 -0.02527033 -0.21697187 -0.08170338
0.16757372 -0.092326865 0.06983924 -0.10366337 -0.17152348 0.061425596 -0.16834582 0.20432198
-0.13599165 -0.19665703 -0.21439731 -0.064749196 -0.109917164 0.03721553 -0.073640734 0.074926674
-0.27528024 0.09348351 0.058736138 0.037323654 -0.19772346 -0.21611747 0.02616623 -0.12145842
0.09395677 0.12395188 0.18745685 0.17010403 0.047054768 0.06650302 -0.08911945 0.07520816
-0.17347932 -0.18397605 -0.12071418 0.18774226 -0.0033127929 0.063005865 0.1652398 0.06965726
-0.2184193 0.080565155 -0.059438184 -0.096676886 -0.007981285 -0.21572313 -0.17155787 0.020716518
0.124162644 0.15269 -0.1801309 0.20777208 -0.0616993 0.21161214 0.088596374 -0.19046456
0.097437635 0.19667336 -0.15005443 0.20518303 -0.012557879 0.13465998 0.21963903 -0.15431298
0.12279111 0.21413141 0.0016383827 0.0413059 0.060994595 -0.14529097 0.09835869 -0.045574978

fc1.bias f4 [100]
00000000: 12d2 d13c 9582 3a3e b515 86be f2d5 21be
00000010: 1089 fd3d 3981 a33d 9543 243d 46a8 7e3c
00000020: 2f2b 463e daa1 4a3e d626 663c 6362 f23c
00000030: 2e57 323e 858f 0d3e 8ab9 043e 6ec9 08be
00000040: 7425 c2bd d431 5e3e ba3b 2c3e dea4 f6bd
00000050: 9e3a bf3d 8eb1 0a3e 13f2 4bbe 9c6e e03d
00000060: c19f 38be 2bdd b83d c8a8 4c3e c857 afbd
00000070: 346c a03d 6b67 31bd 87db 9e3d 7d68 53bd
00000080: 3719 07be 243a 583e db3e 7a3d 1ade 26be
00000090: 0012 0c3e 4b9e 193c 4062 01bd 4826 21bd
000000a0: dc72 4dbe 66da a1bc 2c8d 96bd bcdc 02bd
000000b0: d0ea 1e3e e89d eb3d 0a9c 393e 9324 08bd
000000c0: abde 973d 3031 ab3d 033b 80be 73d2 3e3e
000000d0: fda5 e23d 6815 3dbe 966b 123d 73f9 533e
000000e0: 7003 3fbe b59d ee3d 69ab 7a3d 8b8b d63c
000000f0: a4d4 563e dde3 393e 370b 84bd 896e d0bd
00000100: c59d 25bc 2f0d 9b3d a134 5f3e 6511 dc3d
00000110: 3cf4 8a3e 9a67 063e 7e18 82bc 524d 5b3e
00000120: 7175 69bb 2789 bf3d 2e30 c9bd 3a22 60be
00000130: 5ae8 4b3e 80d1 a4bd 70a1 6dbe 0e30 01be
00000140: b32a 27be 3ce8 efbd 721d c9bd b58d 1f3e
00000150: 99ee 03be 7eee 3e3e 930d 3c3e 69b1 00be
00000160: 20b8 693e 00a8 3e3e 2a04 32be f831 2ebe
00000170: bb45 f2bd 20dd b23d 61c6 1c3e 9b78 8a3e
00000180: e1ae a53d dac1 4abe 8c89 b9bc 9c67 eebd
0.025612865 0.18213876 -0.26188436 -0.1580427 0.12379658 0.07983632 0.040103514 0.015543049
0.1935241 0.19788304 0.014047345 0.02958793 0.17416069 0.1382428 0.12961403 -0.1335809
-0.094798 0.21698695 0.16819659 -0.12043165 0.09337352 0.13544294 -0.19916563 0.10958597
-0.18029691 0.090265594 0.1998626 -0.08561665 0.07833138 -0.043311518 0.07756715 -0.05161332
-0.13193212 0.21115929 0.0610951 -0.16295663 0.13678741 0.009376119 -0.03158784 -0.03934315
-0.20063347 -0.01975746 -0.07351145 -0.03194879 0.15519261 0.115047276 0.1812593 -0.033238005
0.074155174 0.08358991 -0.25045022 0.18634968 0.11066816 -0.18465197 0.035747133 0.20700626
-0.18653655 0.11651174 0.061198626 0.026189586 0.20979553 0.18153329 -0.064474516 -0.10177333
-0.010108416 0.07570874 0.2179742 0.10745505 0.2713946 0.13125458 -0.01588082 0.21416214
-0.003562298 0.093523316 -0.09823643 -0.21888056 0.19912854 -0.080477715 -0.23206115 -0.12615988
-0.16324882 -0.11714217 -0.098200694 0.155814 -0.12883987 0.18645665 0.18364553 -0.12567677
0.22824144 0.18618774 -0.17384401 -0.17011249 -0.11829706 0.087335825 0.1531005 0.2704514
0.08089996 -0.19800511 -0.022648595 -0.11640856

fc2.weight f4 [100, 100]
00000000: f7bb 7cbd 18c8 6ebc ff2a ab3d 7d0f 29bd
00000010: d327 a6bd 50cb 173c 53b4 5cbd c265 603d
00000020: 7e6e 8dbd a8f4 09bc a701 c43d 2495 d03c
00000030: 0b98 c0bd 830a 2dbd 5809 093c ff6e a43d
00000040: 608f 893c 2ab3 c7bd 8026 c9bd 6a49 29bd
00000050: 9360 62bd 36e6 0b3d bef5 643d 130b 933d
00000060: 3047 923b 40a1 c9ba 98b2 013c 84ae f63c
00000070: d0cf c5bd 5e41 233d f1f9 bb3d 26b0 00bd
00000080: d602 4b3d 42bc 033d 5e59 a1bd e356 b5bd
00000090: a037 0f3b feb2 443d e0c8 c5bd bec2 453d
000000a0: 9d7f 8e3d b0c5 b3bd c8ee 8abc 8dd9 b3bd
000000b0: bf00 a13d a877 abbc 48a0 ffbc a3a6 8fbd
000000c0: 02b2 93bd 67d6 50bd a840 be3c 9004 69bc
000000d0: 40d3 93bd faf1 1ebd 93ef 4bbd 4857 c7bc
000000e0: a7f0 67bd 0c7f adbc 183c 29bc 4c82 f23c
000000f0: 288d a1bc c761 b7bd 8786 1abd 8060 b0bd
00000100: 88cf 9e3c 784b 81bc e048 ecbb e8d8 47bc
00000110: ded7 243d 2084 da3b ca09 18bd 009c a3bd
00000120: ffa4 813d 18f2 903c bceb 81bd 2244 85bd
00000130: 9909 c63d 5522 813d 91c0 813d a024 24bb
00000140: 3aab c9bd 8020 393c 9acd 2abd c8ca 9fbc
00000150: a233 563d 476d 37bd 1c94 e33c d788 b6bd
00000160: 00ce edb9 2ec5 92bd d5ac 983d 91d7 b93d
00000170: ba75 023d 362c 5b3d 68aa 473c 00f7 98bb
00000180: 6a39 91bd de81 393d 0018 c038 0098 9c3a
00000190: 34b8 f5bb a157 133e 0357 78bd 20ef 943d
000001a0: a3f9 e63d 6c9b 1ebd 5a30 d03d dcfe 593d
000001b0: 21b0 d73d b126 fe3d b982 083e 6053 e9bc
000001c0: ae31 fa3d acf0 12bd 5c58 003e 58d0 86bd
000001d0: 8352 333d 255d b3be f6b6 a83c 5e91 8bbd
000001e0: 4a9e a9bd afa4 e63c 195b 0cbc 0770 a73d
000001f0: 3082 7fbc 7f2a 743d 5997 8bbd e676 a4bd
00000200: f002 053e a2ec ae37 fc93 d33d 660f a53c
00000210: 7d43 a7bd c453 94be f509 b2bd 2d11 423d
00000220: a194 ac3c dcce 273d 1829 683c 6091 c13d
00000230: dd1a b63d b63e 063e 1e98 9d3c c0e5 933c
00000240: e109 84bc 8e02 cd3d 97d4 833c c0c6 e93c
00000250: f682 a03d 7687 4fbd 51be b63b 668f bb3d
00000260: 0f76 acbd 4634 83bd c5e6 223d 5400 be3d
00000270: 0c0e 04bd 92e8 acbd eccc 823c f2b0 083e
00000280: 0c24 adbc cf0d cb3d 991f 093b 8002 ca3b
00000290: 1891 00bf 7c39 cf3a 1e26 7e3d 6519 afbd
000002a0: 33f0 9cbe 5079 043e 128e c33a c719 343d
000002b0: 9b4d eebd 856b 88bd ee9c 89be 6da3 afbd
000002c0: 697e ea3d 1411 b03d 25ed aabd 0072 3a3d
000002d0: e99e c23d c2dd 003d 8372 41bd 91fd a9bd
000002e0: 335d 4d3d cd10 69bd e015 033d da3e 893d
000002f0: b739 e83d 469f f23d 9643 483d c0ec 5c3d
00000300: 9fc0 023d c144 c03d edc3 093d 27d6 8fbe
00000310: 990c b3be d292 03be 8109 903d e057 89bd
00000320: 089f 023e b24b 753d 78bb 0abd ddc2 023e
00000330: 5964 17bd bfa1 af3d cfdd a33d 0752 21bd
00000340: 262d 98bd 5b08 a43d cb55 20be 4fd6 5c3c
00000350: 23ff 52bd 3bd4 a1bd feb7 afbd 6f3c 9f3d
00000360: d059 313d d26c 24be fe4e 3f3d 0243 94bc
00000370: bb9d 55ba cc0d 603d 812b aebb 0c1f ea3d
00000380: 8144 9e3d e7b2 053e e923 c53b e5a1 babd
00000390: 3016 9cbc 6d9f a93d 4989 99bb 23fb 9e3c
000003a0: 0fd0 9ebc e4dc 2bbe b649 6bbd 672a 9a3d
000003b0: 82af 843d ff52 6e3d 5590 1e3d f40b 25be
000003c0: 1b35 c13d 5dc3 9dbd 451e dd3d 5e6e 323d
000003d0: 32c5 4cbd 0a67 453d 4597 84bd 1aee 31bd
000003e0: 40ba ca3d 000d ea3d fb8d 483d 0ea8 103e
000003f0: cca5 f93c 45bb a0bd 0a8a 003e 483b 59be
-0.061702695 -0.014574073 0.0835781 -0.041274536 -0.081130646 0.009264782 -0.053882908 0.054784544
-0.0690584 -0.008420147 0.09570628 0.02546174 -0.09404 -0.042246353 0.008364044 0.08028983
0.016792 -0.0975097 -0.098217964 -0.04132978 -0.05526788 0.034155093 0.05589842 0.071798466
0.0044640526 -0.0015383139 0.007916115 0.030112512 -0.09658778 0.03985726 0.09178532 -0.03141799
0.04956325 0.03216196 -0.078783736 -0.08854463 0.0021853223 0.048022263 -0.096574545 0.048281424
0.06957934 -0.0877794 -0.016959563 -0.08781729 0.078614704 -0.02093108 -0.031204358 -0.07014205
-0.07211687 -0.05098572 0.02322419 -0.014222279 -0.07218027 -0.038804986 -0.049789023 -0.024333611
-0.05662599 -0.021178745 -0.010329269 0.029603146 -0.019720629 -0.089541964 -0.03772595 -0.08612156
0.019386068 -0.015783057 -0.007210836 -0.012197711 0.04024493 0.0066685826 -0.03711871 -0.07988739
0.06330299 0.017693564 -0.06343791 -0.06507136 0.09669799 0.063053764 0.06335557 -0.0025046244
-0.09847112 0.0112992525 -0.041699983 -0.019505873 0.052295335 -0.04478195 0.027780585 -0.08912819
-0.00045357645 -0.07166515 0.0745484 0.09074319 0.031850554 0.05350896 0.012186624 -0.0046681166
-0.07091029 0.045289867 9.159744e-05 0.0011947155 -0.0074987654 0.14388897 -0.060629856 0.07272172
0.11278083 -0.03872244 0.10165472 0.05322157 0.10531641 0.124097236 0.13331117 -0.02848214
0.12216507 -0.035874054 0.12533706 -0.06582707 0.04377986 -0.35032 0.020595055 -0.06814836
-0.08282144 0.0281547 -0.008566641 0.081756644 -0.015595004 0.05961084 -0.06815977 -0.080304906
0.12989402 2.0852607e-05 0.1033096 0.020148944 -0.08167169 -0.28970158 -0.086933054 0.04737966
0.021066966 0.04096876 0.014169954 0.09451556 0.088918425 0.1310986 0.019237574 0.01805389
-0.016117992 0.10010253 0.016092582 0.028537154 0.07837479 -0.050666295 0.0055768867 0.091582105
-0.084209554 -0.06406455 0.03977086 0.09277406 -0.03223996 -0.08442797 0.015966855 0.1334875
-0.021135353 0.09914743 0.0020923375 0.006164849 -0.50221395 0.0015809978 0.06204807 -0.085497655
-0.30652007 0.12936902 0.001491966 0.043969896 -0.11635896 -0.06661133 -0.2687754 -0.08576093
0.11449892 0.085970074 -0.08346013 0.045518875 0.09502966 0.031461485 -0.047228348 -0.08300317
0.05013771 -0.056900788 0.032003284 0.06701441 0.11339133 0.11846785 0.04889258 0.05393672
0.03192198 0.09388114 0.033634115 -0.28093073 -0.3497055 -0.12848976 0.07033063 -0.06706214
0.12755978 0.05988664 -0.03387019 0.12769647 -0.036960933 0.085757725 0.08001291 -0.039384868
-0.074304864 0.08009406 -0.15657727 0.0134788295 -0.05151285 -0.07901808 -0.085800156 0.07775199
0.043298542 -0.16057137 0.046706192 -0.018098358 -0.0008148809 0.054700658 -0.0053152447 0.11431703
0.0772791 0.13056527 0.0060162437 -0.0911291 -0.019053549 0.08282361 -0.004685555 0.01940686
-0.01938632 -0.16783482 -0.057443343 0.07527619 0.06478788 0.05818462 0.038711865 -0.16117841
0.09433957 -0.07703278 0.10796789 0.043562286 -0.049992748 0.04819397 -0.06474165 -0.043439962
0.098988056 0.11428261 0.048963528 0.14126608 0.030474566 -0.07848219 0.12552658 -0.2121402

fc2.bias f4 [100]
00000000: 301f c5bb 8b0b e43b 43a5 e23d 0b26 c7bd
00000010: 4b00 423d 9e5f aa3d 6eff 843d a786 cfbd
00000020: 27a2 2e3c 9375 9fbc 44fd 84bb b645 8c3d
00000030: 054f e4bc 2af3 55bc 31fb 6a3d 3455 4f3d
00000040: dbf9 823d 753b 9b3d e54e c03c 1e5e 56bd
00000050: 24be c83d 90d9 bfbd d06d a93d 160c 973d
00000060: c484 a73d 3db1 b8bd aa5f 3c3d cae1 a1bd
00000070: e068 45bd ac5d 063d 769c 743d a5db 92bc
00000080: 973a 4e3d f2c0 e63c cf44 503d e25b 893d
00000090: e65b 373c 0f21 843b 7bbe 523d 231d 11bd
000000a0: c3cc 4ebd da65 313d 24f1 00bd 8b0a b5bd
000000b0: 8065 2bbc f88a ca3d 0cdf 8e3d 7988 4abd
000000c0: 80da aabd a3bb 3f3d cfd8 52bc c77c 21bd
000000d0: bb16 c0bc edb7 8cbd e202 c6bd d69e f13d
000000e0: fa16 0c3c f515 a93b ef25 33bd e805 2ebc
000000f0: 2690 f93d 3657 30bd 782d 99bc 5a0c 6fbd
00000100: fe22 2abd 026b 9dbc 7d05 693d c012 653b
00000110: bfac 833d 8d49 9c3d 41c8 d0bd 80c9 183d
00000120: 9087 213d 7a2b dbbd 5c25 c43c b12a 6fbd
00000130: ff83 c1ba 0650 803d 98d6 c83d 00b8 0dbd
00000140: 1e32 f03d 8015 36bd 38a0 b63c af93 383d
00000150: c12f 4b3b ef56 ec3d f632 803c bc0f a43d
00000160: 55ca aebd c24f ca3d 862b 133d 8044 fb3d
00000170: 2844 ec3c 7cae e43d d425 233d e2e6 a13d
00000180: 00a3 debd 7d96 6d3d 7325 bd3b 4b26 393d
-0.0060156807 0.006959384 0.110666774 -0.09724053 0.04736356 0.08319019 0.06494032 -0.10133105
0.010658777 -0.019465243 -0.004058512 0.06849234 -0.02786971 -0.013058463 0.05736846 0.050618365
0.063953124 0.075797 0.02347512 -0.05233585 0.098018914 -0.09367669 0.08272898 0.07375352
0.0817962 -0.090181805 0.04598967 -0.07904394 -0.04819572 0.032804176 0.059719525 -0.017927
0.050348844 0.028168175 0.05084687 0.067069784 0.011191344 0.004032261 0.051451188 -0.035428178
-0.050488245 0.043310024 -0.03147997 -0.088399015 -0.010461211 0.098897874 0.069761366 -0.049446557
-0.08342457 0.046809804 -0.012869074 -0.039425638 -0.023448339 -0.068710186 -0.096685186 0.11797874
0.0085504 0.005160088 -0.04373735 -0.010621525 0.12185697 -0.04305192 -0.018698439 -0.05836139
-0.041537277 -0.019216064 0.05689 0.0034953803 0.06429433 0.07631216 -0.101944454 0.03730154
0.039435923 -0.10701652 0.023943596 -0.058390323 -0.0014764069 0.06265263 0.098065555 -0.034599304
0.11728309 -0.044454098 0.022293195 0.045062717 0.0031003805 0.11540019 0.0156493 0.080108136
-0.085346855 0.09878494 0.03593018 0.12268925 0.028841093 0.11166093 0.039830998 0.079053655
-0.108709335 0.058004845 0.0057722866 0.045202535

fc3.weight f4 [100, 100]
00000000: d017 3abd 8c50 9c3d 60eb 3e3c 6c60 c13c
00000010: b5ff 613d 97b4 2ebd 7d88 74bb c15c d2bd
00000020: 70d8 403e c08b e8bd d85c e53d 0968 04be
00000030: f73e a43d 94d6 063e 1b12 93bd a8df a43d
00000040: aa68 443d 4a6b 0ebd b4b6 46bd a6a0 1d3d
00000050: 474a f03d dc58 b93c 548e 7b3d dde0 58bd
00000060: 1f79 03bc 228d b4bc 0a10 8bbd 464b 723d
00000070: 0d08 973d d83c e4ba 8f49 8f3c c195 393d
00000080: ea8f a73d 7507 703d f9fb 923d 9970 2d3d
00000090: cced fb3c 4c43 c33d 149e 543c 304b 893d
000000a0: 7e3e a63b a0e8 9fbc 750d b63d 7450 b9bd
000000b0: 91e7 683d fd4b 063d 65a0 ba3d fb55 aabd
000000c0: c8b6 ac3c fb10 86bc 24e5 2fbd 93b1 d5bd
000000d0: 3661 21bc 2cea cd3c eb74 96bd 3d6d 533e
000000e0: 0081 38bc f26d 463e a4fd d83d 91fb a43d
000000f0: 2e12 a63d ed24 aa3c e92e 52bd c301 aa3d
00000100: 2906 c63b a390 f83c 92a1 95bc 6a59 79bd
00000110: 4474 eb3c 7d97 c93d c009 073e 8d45 233e
00000120: da98 073d aa1b 853d 16d6 8dbc afe1 3dbc
00000130: 7ef1 1cbd 6997 40be ae93 26bc 8c0d 89bd
00000140: 967c 8e3d 0e40 68bd c1ef 013e 633f 693d
00000150: 8f8f 6c3d 7901 0cbd f29c 72bd ce6f 6fbc
00000160: dd5a 3a3d 8933 9a3d 1b2c 10bd 3b9c 693d
00000170: ac0c 09bd 15c7 693d b824 0dbd 32df 1f3e
00000180: 76d2 76bd 89ca 193e 6307 763d a250 12bd
00000190: 410e c13d ad0e a73d b03f 70bc e243 343d
000001a0: 8cae 0dbd 130a b03d 4025 9c3a 7482 dcbc
000001b0: 6a63 b1bd b5c4 bdbd 094d 893d de0c 3d3d
000001c0: 57ba 35bd b7e7 1ebd 85bc 8fbd 15b3 86bd
000001d0: fdb3 3cbd 942a e53c 85dc b0bd d00d fd3b
000001e0: 70c7 b1bd 0afb 57bd 314b 883d 90e1 1abd
000001f0: 0872 a6bc 6a34 273d 4c7c aebc f0a9 37bc
00000200: 80b0 c53a 4200 6c3d 945a f43c f1b3 a63d
00000210: f460 8ebc b0f7 543c 9abd 05bd c3fc 62bd
00000220: 802b 60bd 50a8 41bd d686 5b3d 886e 813c
00000230: 54b4 ecbc bcaa 8bbd cc26 a43c f960 873d
00000240: cad9 90bd 7bbc bfbd 5040 653c a30f a33d
00000250: 436e b03d c607 aabd 50e6 373c b389 a83d
00000260: f9ae c63d 5845 8e3c 1012 22bc c082 efba
00000270: eb42 bbbd 713f b43d 75d6 a6bd 588a 99bc
00000280: 589c 5bbc 126c 97bd 1d53 b7bd 3c80 18bd
00000290: 5951 9b3d f332 1dbd 6c5f ab3c b239 4d3d
000002a0: 4035 77bb eaf7 7dbd 55e5 ad3d 3a7e 49bd
000002b0: eda8 85bd 5c1d ea3c 7bbc b8bd 2ed0 003d
000002c0: 7a28 6e3d d0f8 273c 23a9 45bd 1614 133d
000002d0: 1559 c53d 4cec e33c e076 b1bd ca0d 753d
000002e0: 398f c83d 60e5 4dbd f77b 8d3d ad74 32bd
000002f0: 2311 57bd 84c5 0abd e0c6 a93c 7a86 10bd
00000300: c593 c13d 3d63 89bd 56b2 9ebd 00ed 603c
00000310: b73e b93d 5aa2 75bd 7dbd 96bd 8436 f93c
00000320: d438 ad3c f589 833d 2c68 b33d f344 a13b
00000330: 9cbf ee3d 0bb8 113e 9f0b ac3d be3a d53d
00000340: bb81 ecbc 80a1 89bd 7c8b 47bd 776f 2fbe
00000350: 4302 65be 95bf b63c 7e74 4d3d 4561 313d
00000360: cd38 b03d f633 90bd bbf1 d13d dfa4 c4bd
00000370: a3d2 c83d bfd6 373d 5074 4bbd b751 68bd
00000380: 50ce a6bd c819 1b3e fc15 bf3d aa8e 8bbd
00000390: 291f be3d 0fff 09bd daf2 773d 0be9 98bd
000003a0: fc1f 2b3c 3394 4f3d 5c31 933c 5107 73bd
000003b0: b67a 59bd 90db 47bd 320d 473d f5bb ff3d
000003c0: 54db df3d 7d36 c63d 5b32 bd3d decd 08be
000003d0: 1843 9a3d 217d 30bd 59fe bebd bcaa 45bd
000003e0: 7ecf 283d bb96 ac3c d3b0 a13c 0ae8 003d
000003f0: 31fb 76bc d760 73bd d8ea 81bc 080c cabd
-0.045432866 0.076325506 0.011652797 0.023605548 0.0551755 -0.042652693 -0.0037312799 -0.10271598
0.18832564 -0.1135478 0.11199349 -0.12930311 0.08019822 0.13167793 -0.07181188 0.080504715
0.047951378 -0.034770288 -0.048514083 0.038483284 0.11732917 0.02262538 0.06141503 -0.05294882
-0.008024483 -0.022039954 -0.067901686 0.059153818 0.073745824 -0.0017413152 0.01749113 0.045308832
0.08181746 0.05860086 0.07176966 0.04234371 0.030753039 0.0953432 0.012977142 0.06703794
0.0050733676 -0.019520104 0.088892855 -0.09048548 0.056861464 0.03278731 0.09112624 -0.08317181
0.02108325 -0.016365519 -0.042943135 -0.1043426 -0.009849837 0.025136076 -0.07346519 0.2064714
-0.011261225 0.19377878 0.10595253 0.08055795 0.08108936 0.02076956 -0.05131427 0.08301117
0.006043215 0.030342406 -0.01826552 -0.060876288 0.028741963 0.09843347 0.13187313 0.159445
0.033104755 0.06499417 -0.017313998 -0.011589452 -0.038316242 -0.18807758 -0.0101670455 -0.06692037
0.06957357 -0.056701712 0.12689115 0.056945216 0.057754096 -0.034181092 -0.059231706 -0.014614059
0.04549681 0.07529361 -0.035198312 0.05703376 -0.03345935 0.057074625 -0.034458846 0.15612486
-0.060259305 0.15018667 0.06006564 -0.03572143 0.09426547 0.08157096 -0.014663622 0.04401005
-0.03459029 0.085956715 0.0011912957 -0.026917674 -0.0866154 -0.092660345 0.067041464 0.04615485
-0.04436716 -0.0387952 -0.07018379 -0.06577126 -0.046070088 0.027974404 -0.08635811 0.007722594
-0.08680618 -0.052729644 0.066549666 -0.03781277 -0.020318046 0.04082147 -0.021299504 -0.01120995
0.0015082508 0.057617433 0.029828347 0.0813979 -0.017380215 0.012998506 -0.03265152 -0.055416834
-0.054728985 -0.047279656 0.053595386 0.015799776 -0.02889458 -0.068196744 0.020038031 0.06610293
-0.0707279 -0.09362122 0.013992384 0.07961967 0.08614781 -0.08302264 0.011224344 0.08229389
0.09701342 0.01736705 -0.009892002 -0.001827322 -0.09143623 0.08801163 -0.08146373 -0.018742725
-0.0134039745 -0.0739366 -0.089513995 -0.03723167 0.07583875 -0.038378667 0.020919524 0.05010385
-0.0037720948 -0.062004007 0.08491007 -0.049192645 -0.06526361 0.028578453 -0.09020325 0.031448536
0.05814407 0.010252193 -0.048257004 0.035907827 0.09636132 0.027822636 -0.08665252 0.059827603
0.097929426 -0.050267577 0.0690841 -0.043568302 -0.052506577 -0.03387977 0.020724714 -0.035284497
0.09452013 -0.06708381 -0.07748859 0.01372838 0.09045165 -0.059969284 -0.07360361 0.030421503
0.021145262 0.064227976 0.087601036 0.0049215495 0.1165764 0.14230363 0.08400654 0.10411595
-0.028870454 -0.06720257 -0.048717007 -0.17132364 -0.22364144 0.02230815 0.050159924 0.043305654
0.08604584 -0.07041161 0.102511846 -0.09601759 0.09805801 0.044882532 -0.04967147 -0.056718554
-0.0814482 0.15146554 0.09330365 -0.068143204 0.09283287 -0.03369051 0.060534336 -0.074663244
0.010444637 0.050678443 0.017967872 -0.05933315 -0.053095542 -0.048793375 0.04859657 0.12487022
0.109305054 0.096783616 0.0923812 -0.13359782 0.07532328 -0.043088082 -0.09325857 -0.048258528
0.041213505 0.021067968 0.019737637 0.03147129 -0.015074537 -0.059418526 -0.015859053 -0.09865576

fc3.bias f4 [100]
00000000: fa0e 9dbc d8a5 98bd aaf8 a3bc 8b6e 813c
00000010: 1296 c4bd 3074 a3bb 1ec9 a5bd 14ed 683d
00000020: 66cc ea3d 4ee2 413c 1adb 023e 24c5 a53d
00000030: 6dbd b03d 776c 683c 0c41 b93d 722f 013e
00000040: f449 c4bb 24f7 5d3c 34aa ce3d 04f6 1abc
00000050: 1932 b73d 0290 db3d 004d 08bd 5276 65bc
00000060: f0fd dcbc d0a8 f63c cd9d 96bd 13bb 58bd
00000070: 347a 913c 8b01 353d bf0c 05bd 186a 593c
00000080: 24b0 6bbd b497 843d bbea 223e 9ee2 d83d
00000090: 1ff9 49bc 5ebc c2bc 8770 0a3d 79e6 923c
000000a0: 4407 1f3d fdef ccbd 02f1 ad3d 22f0 0e3c
000000b0: 1050 043d 9698 b43c 9ecc c5bd d9f6 023c
000000c0: 2500 90bd 0c48 173d e1f9 0fbd bb0b 5fbd
000000d0: 90ca 863d 4cb8 a13d 4046 ccbd 4f3a 993d
000000e0: 383b cbbd f04f cabd 25ee ee3c 6623 dc3b
000000f0: 57c3 86bd 9569 363c 3143 5a3c 774d 7fbd
00000100: d4dd 4a3d b35d 77bd bb16 9e3d 6a06 0c3d
00000110: 367d 483d 3bee 433d 9a72 a9bd 79f4 6bbd
00000120: d577 9f3c 8b71 af3c 0ebd b1bc 469d c43d
00000130: ffa5 a73d 984d 5b3d 5e03 86bd 99fe bc3d
00000140: 95cd c73d 7ffb 97bd f4ea 803d 3f62 48bd
00000150: 9d9e 52bd 353d e93d 0922 923d 139b abbd
00000160: 7e0d a4bd 808f d63d ea23 173e d894 2bbd
00000170: 1c49 c9bd fae4 1abc 01b1 9a3b 518b 48bd
00000180: 4c31 20be bcf0 813d 4032 8b3c e556 f03d
-0.01917218 -0.07453507 -0.020016033 0.015799781 -0.09598936 -0.004988216 -0.08095001 0.05686672
0.11464767 0.01183374 0.12778893 0.08094242 0.0862988 0.014186016 0.0904561 0.12615755
-0.005990261 0.013547692 0.100910574 -0.009458069 0.08945102 0.10720827 -0.033276558 -0.014005261
-0.026976556 0.030109793 -0.07354317 -0.052912783 0.017758466 0.044190925 -0.03248286 0.013269924
-0.057541028 0.064742476 0.15909855 0.10590099 -0.0123274615 -0.023771461 0.03379872 0.017932164
0.03882529 -0.10006712 0.08493234 0.008724244 0.032302916 0.022045415 -0.09658168 0.007993423
-0.070312776 0.036933944 -0.035150412 -0.054454546 0.065816045 0.0789648 -0.099743366 0.074818246
-0.099234045 -0.09878528 0.02916629 0.006718087 -0.06580227 0.011133571 0.013321684 -0.062329736
0.049527958 -0.060392093 0.07719179 0.034185804 0.048947535 0.047834616 -0.08273812 -0.057606194
0.01946632 0.021416446 -0.021696594 0.0960031 0.08185958 0.053540796 -0.06543611 0.09228248
0.097560085 -0.07421016 0.06294814 -0.04892182 -0.051420797 0.113886274 0.07135398 -0.083791874
-0.08010386 0.10476589 0.14759794 -0.041889995 -0.09828398 -0.009454006 0.0047208075 -0.048960987
-0.15643805 0.063447446 0.016991735 0.11735324

fc4.weight f4 [100, 100]
00000000: 127c abbd f05b 31bd d5ef c2bd 309a 05bc
00000010: 160a 1d3d 383d d5bc fbd5 6dbd b7c7 713c
00000020: 25bb 80bd 1fac a8bd ed1b 993d 3f79 5f3d
00000030: 5909 993d 438c 20bd 7e37 b03d b6e0 ac3d
00000040: 933c c93d 37c5 803d 28b4 8fbd eafc 943d
00000050: 5068 853d 2e50 b33d 5fa2 83bd 4177 7a3c
00000060: 205e 55bc ed8f 8bbb 3c02 3cbd 2c3f 473d
00000070: 1553 df3d 6492 abbb 3c85 fa3d 2191 58bd
00000080: 53fb fbba c28d 913d 9174 57bb bb21 483d
00000090: d5e1 80bd 2164 e03c d2f3 89bd ed8d b1bd
000000a0: d140 a5bc 0451 a6bd b6b2 823d 165d b93d
000000b0: ec28 d3bc 11c8 50bc 2cba 283d 8ca3 e7bd
000000c0: 845c a83d 280a c4bd c3fe 0abd 5ca0 bebd
000000d0: b890 86be 0547 65be b604 bebd 3cc3 903d
000000e0: 06a9 8f3b 0f61 9bbd c9f8 a3bd 3072 8dbd
000000f0: 4376 2e3c d204 a23d 1240 2b3c 8d3b 853d
00000100: b843 0e3c 8ef3 083d 083d af3b 62d8 1bbe
00000110: b7c9 a03d f3df 033d 3622 ed3d daca d63c
00000120: 4b29 09be 16de 663c bcc5 0abd 8df7 13bd
00000130: 0ff4 2c3d 4e6c c8bd 6dea 893d 718d 4d3d
00000140: 94b0 5cbe 632c 243a 724e 193d ab04 4bbe
00000150: cc6b 28be 1efb 9c3d 4265 6fbd 2c5e 88bd
00000160: f419 0bbe 2f40 9abd 5a9f 07bd c3c8 44bd
00000170: 4a7d a9bd d3b6 9e3d 2d1a 0cbd 7550 c83d
00000180: 5d71 27be 6595 25be 4cfa 45bd 1381 57bd
00000190: 4192 853d 175d cb3d d7cd ccbd 569b 133d
000001a0: 1df1 54bd a5ef 2bbd fab8 623c f6ec 2ebd
000001b0: 0b7c 9f3d 6ddd 413e 4e85 7c3d 83c0 dbbc
000001c0: e9cc 55b9 8ae5 c93d 17cb d23d 2357 0cbc
000001d0: 4635 8fbd 48ad 94bd 22c9 06bd 62b6 7d3c
000001e0: 596b a43d 2ad4 0e3b 5e1c c53c 8380 ce3d
000001f0: d742 c03d c9e0 a6bd d01a 0f3e cec7 9f3d
00000200: a2b0 473d 56ae 7c3d c109 2a3d ee8f 60bc
00000210: a5c3 77bc 2c82 a0bb d0c8 66bd 861b 6cbb
00000220: 9d5e b43d 21ee 283e 6992 243d dace 053d
00000230: 797c 73bd 1b89 38bd 2743 8a3d bc59 cf3c
00000240: 95dd b5bc 958f 0a3e fc4b ab3d 8395 c53c
00000250: c640 3c3e dd11 6fbd 3f14 133e 76eb bebb
00000260: e4ac 25ba 5c3d e73b 681b e7bc 0904 9b3d
00000270: 1877 c63d 8ddd 58bc ef0c adbd dd57 0fbc
00000280: 6540 7e3d 5ea6 9fbc 0ef9 073d 21a4 bfbd
00000290: 1d8f 8e3b 9a99 3bbd e80a aebd ab79 7c3c
000002a0: dfff af3b 6ea0 ae3d 9f96 52bb 0aab f43d
000002b0: f29c 393e 6ae5 903d 529a b1bc db08 593d
000002c0: c25c c7bd 77dd 9f3b 4d20 ce3d 701f 9dbc
000002d0: d629 28be 801d 86bd 12c6 723e b048 123b
000002e0: 317e a03d fd72 b13b 6a37 833d 4725 ac3d
000002f0: 0f5e 003e 3447 8c3d 8262 99bd 7210 d8bc
00000300: abc5 d9bc b421 8dbd 1689 313d ae19 993d
00000310: 4810 423e cb75 f8bd da96 11bd d081 db3d
00000320: 4038 39bb 0f06 ae3d 6d6b 4f3d 3fed 49bd
00000330: f2a2 443d e14f 8a3d df1f d1bd c7c5 c43d
00000340: e275 9ebd a98a 683d 9c26 be3c 465d 133c
00000350: d512 50bd b864 33bc 4dbf 95bd ff22 44bd
00000360: 3635 a83d b1b5 d73c a1a7 48bd 4513 8cbc
00000370: d87b 2c3d 66c7 b83c a667 1f3c a183 a43c
00000380: ed5d 26bc 4a3d 103c f54e 9e3d 8ed4 553d
00000390: a400 a73d baf5 cc3a 3bd1 1cbd f43e 12bd
000003a0: b54b 6c3b cb2d 5b3d b15b 9dbd 411c 94bd
000003b0: 974b 713b a840 babd 3a93 73bd 2b15 e7ba
000003c0: 8da5 a33d 5157 b83d cfe5 bdbd 1116 a0bd
000003d0: e4f3 69bd 6e17 ca3d 1442 01be c65d 00be
000003e0: af93 b7bd 48c6 533d 40fa 9c3d 8414 6abd
000003f0: 0db0 21be 4ac8 1ebe 8619 873d 65d1 aebd
-0.08373274 -0.04330057 -0.095184006 -0.008154437 0.038339697 -0.026030168 -0.058065396 0.014757088
-0.06285695 -0.082359545 0.074760295 0.05455899 0.07472486 -0.039196264 0.08604334 0.08441298
0.09826007 0.06287616 -0.07016784 0.07274802 0.06514037 0.087555274 -0.06427454 0.015287221
-0.013022929 -0.0042591006 -0.04590057 0.04864423 0.109045185 -0.005235957 0.12232444 -0.05287278
-0.0019224681 0.07107116 -0.0032875875 0.048860293 -0.06293074 0.027391495 -0.06735958 -0.08669648
-0.020172508 -0.08120921 0.06381743 0.09050958 -0.025776349 -0.012743012 0.041193172 -0.11310491
0.08220771 -0.0957225 -0.033934366 -0.0930793 -0.26282287 -0.22390373 -0.09278242 0.07068488
0.004384163 -0.07586872 -0.080064364 -0.06906545 0.010648313 0.07911076 0.010452287 0.06505499
0.008683138 0.033435397 0.0053478517 -0.15219262 0.07850974 0.032195996 0.11578791 0.026219774
-0.13394658 0.014091035 -0.03387998 -0.036124755 0.04222494 -0.097862825 0.06734166 0.050183717
-0.21551734 0.00062627177 0.037428327 -0.19826 -0.16447371 0.07665084 -0.058446176 -0.06658587
-0.13584119 -0.07531773 -0.033110954 -0.048043024 -0.0827585 0.07749715 -0.03420465 0.09780971
-0.16351838 -0.1617027 -0.048334405 -0.05261333 0.06522036 0.09929865 -0.10000198 0.03603681
-0.051987756 -0.04197659 0.013838047 -0.042706452 0.07787331 0.18932123 0.061650567 -0.026825195
-0.00020389598 0.09858234 0.102926426 -0.008565697 -0.06992583 -0.07259613 -0.03290666 0.015485378
0.080282874 0.002179394 0.024061378 0.100831054 0.09387749 -0.08148343 0.13975072 0.078017816
0.048752435 0.061689697 0.04151321 -0.0137061905 -0.015122329 -0.00489833 -0.056343853 -0.0036027147
0.088071086 0.16497089 0.04017869 0.032667972 -0.05944488 -0.04505263 0.067510895 0.025311343
-0.022200385 0.13531335 0.08364102 0.024119144 0.18384084 -0.058366645 0.14363192 -0.005826409
-0.0006320013 0.007056875 -0.02821131 0.07569129 0.09690684 -0.013236416 -0.084497325 -0.008748976
0.06207313 -0.01948851 0.0331965 -0.09357477 0.0043505565 -0.045800783 -0.08498174 0.015409867
0.0053710784 0.08526693 -0.0032133234 0.119466856 0.18126276 0.07075007 -0.021680031 0.05298696
-0.09734489 0.0048786956 0.10064755 -0.01918003 -0.16422209 -0.065485954 0.2370837 0.0022321157
0.07836569 0.005415319 0.06407054 0.084055476 0.1253588 0.068495184 -0.07489492 -0.02637503
-0.026583513 -0.06891194 0.043343626 0.07475601 0.18951523 -0.12131842 -0.035544254 0.10718119
-0.0028262287 0.08497249 0.05063956 -0.04929852 0.04800696 0.06753517 -0.10211157 0.096080355
-0.07737328 0.05677286 0.02321177 0.008994406 -0.05079921 -0.010949306 -0.07311878 -0.047884937
0.08213274 0.026331754 -0.04898799 -0.017099032 0.042110294 0.022556018 0.009729302 0.020082297
-0.01015423 0.008803675 0.077299036 0.05220466 0.08154419 0.0015637197 -0.038285475 -0.035704568
0.0036055867 0.05351047 -0.076835044 -0.072319515 0.0036818737 -0.090943635 -0.059466578 -0.001763021
0.07990561 0.09001029 -0.09272348 -0.07816709 -0.057117358 0.0986775 -0.12622863 -0.12535772
-0.08963715 0.051702768 0.07664919 -0.05714847 -0.15789814 -0.15506092 0.06596665 -0.085360326

fc4.bias f4 [100]
00000000: 63f8 883d 3a53 95bd da71 993c f9d8 bf3d
00000010: 9961 0fbd ef65 893c 9942 8ebd 4f75 ce3c
00000020: c233 bd3d 1e40 7c3b d9c5 76bc d2e1 2a3e
00000030: 6191 0fbc 872c 4b3d b700 fa3a cd23 183d
00000040: 2827 11bd a602 abbd f1a4 913d 61cd 80bd
00000050: d4a8 da3d f07c a33d 22f8 a73d 1a32 32bd
00000060: cc1e a73d 7131 8ebd 4d62 943d fabe adbd
00000070: 167c c63c a9c8 a63c b671 8c3d fb5d bcbd
00000080: fb72 58bd f9b4 773d 1506 da3d b97f 443d
00000090: 316d a0bd 6224 843d fdda de3d 6860 f53d
000000a0: fb22 9bbb 50ce 1abd c2a7 0a3d a679 1ebd
000000b0: a1ba 933c dea1 55bd 4117 8dbc ea92 d4bd
000000c0: 5a78 d3ba 45cb 0fbd d251 7e3d 29ad fdbc
000000d0: f820 643d c707 6c3c f4ad dbbd 7867 dbbc
000000e0: 7131 0f3e 20bf 163e e5cd b13d ea23 72bd
000000f0: 2bb6 7cbd 8945 a4bc 82ad e13c 2cc9 163c
00000100: bcef f63d 22fb d73d a7bb 9a3d a558 42bd
00000110: 54a0 cdbc 7dc9 03bd be02 103d 512c 02bd
00000120: 3a11 71bd 9740 933d 1dc1 34bd 5897 d0bc
00000130: 1262 8bbd 1249 f6b9 d234 a93d d3e4 2ebd
00000140: eb16 8bbb 4423 18bd 405a fbbc af6c 1a3d
00000150: 1161 373d b37c eb3d bd50 e23d bc94 7ebd
00000160: 887d c3bd c315 0cbd 4c36 313c e2e4 9fbd
00000170: d85b 253d 87f8 22bd 12f4 57bc 2e33 493d
00000180: 5fce dc3d 2e82 56bd 1f9a 33bd 61a3 93bd
0.06688001 -0.07291265 0.018731046 0.09367556 -0.035005186 0.016772239 -0.06946296 0.025202421
0.09238388 0.0038490365 -0.015061819 0.16687706 -0.008762688 0.04960301 0.0019073699 0.037143517
-0.035437733 -0.083501145 0.07111538 -0.06289173 0.10676733 0.07982814 0.082016245 -0.04350481
0.08160171 -0.06943024 0.07245312 -0.084836915 0.02422909 0.020359354 0.06857626 -0.09197613
-0.05284403 0.060475323 0.10645691 0.04797337 -0.078333266 0.06452252 0.108816124 0.11981279
-0.0047343946 -0.03779441 0.033851393 -0.03869023 0.018033328 -0.05215632 -0.017223002 -0.10379584
-0.001613389 -0.035105962 0.06208975 -0.030966358 0.055695504 0.014406151 -0.10726538 -0.026782736
0.13983704 0.14721346 0.086818494 -0.05911628 -0.061697166 -0.020052688 0.027548555 0.009203237
0.120574445 0.10545947 0.07555323 -0.04744782 -0.025100864 -0.032174576 0.035158865 -0.031780545
-0.05885432 0.07190054 -0.04412948 -0.025462791 -0.06805815 -0.00046975218 0.08262028 -0.042698693
-0.0042446754 -0.037143007 -0.030682683 0.037701305 0.044770304 0.11498394 0.11050556 -0.062153563
-0.095454276 -0.03420044 0.010816168 -0.07807328 0.040370792 -0.039787795 -0.0131807495 0.049121074
0.1078155 -0.052370243 -0.043848153 -0.072088964

fc5.weight f4 [100, 100]
00000000: 14b4 e93c bf55 7e3a 45ee dcba 0a7a 5ebd
00000010: b580 55bd 1ea8 433d cdfd 543d dfbc 85bd
00000020: ede9 c6bd 0323 76bd d473 19bd dde5 02bd
00000030: a0d8 abbd c6dc 51bd eb15 723d dd57 d4ba
00000040: 306c 12bd adf4 9fbd 5406 cb3c 1ed7 243d
00000050: dbae a23d 0c0a f3bc 9dbb aebd 61b0 303d
00000060: 8657 803d b6e7 8abd f196 903c ce38 35bd
00000070: df22 933d 237f 303d 8062 beba 2d59 c6bd
00000080: e8c8 bbbd 5164 48bd 6161 82bd 99b1 5bbd
00000090: cfc6 7f3d 80ac 703d 86e0 5e3d 41b3 d8bd
000000a0: 29c9 4e3c bc74 a23c 1f60 86bd 380b 8a3c
000000b0: 10ed 523c f9b2 213c 9625 243d db7e 6fbd
000000c0: 1b72 9fbd 50e8 943c f2da b43d e29f 21bc
000000d0: ad18 853d d8e9 60bc e545 a63d f6ae abbd
000000e0: 17dd e13c ae16 f53c 0ef9 b5bd 14a7 b3bc
000000f0: 6450 ffbc 6c80 aebc 4a81 a8bd 3a48 df3c
00000100: 34b2 2a3d 9b18 19bd e93e a43d 47ef 963d
00000110: e5d7 9e3c cbb6 813d 9dc8 e63c 1e9d 963c
00000120: e06a c63b d9f6 a1bd 758c 073d 887f 8ebc
00000130: d6b4 e2bd dd43 993d 6344 ccbd 2c0b a33c
00000140: df77 6d3d 7de4 b0bd cae5 37bd bdb5 c7bb
00000150: 08da 9f3d 035d 923d 4c73 20bd d245 c43d
00000160: d2ec 183d 94cb f0bc da19 64bd 941a ac3c
00000170: 5d0a 66bd e83f 6c3d 0e2e a93d befa 103d
00000180: c8b1 cebd 010e 733d b6f3 c0bc 55ef 16bd
00000190: b6f7 91bd c89e 9d3c 8701 1cbd 8268 c8ba
000001a0: 18d8 2b3d 73b4 31bd 9983 a8bd 55a2 753d
000001b0: 99f2 9b3d c6a3 263c 063b 223d 150c c0bd
000001c0: ea33 f13b cf7c cdbd c436 aa3d b0a0 d9bb
000001d0: 5d03 b5bd ba69 04bd 44e2 7e3d c324 913d
000001e0: 8fbb d13b 7895 93bc 4f6a d3bc ef03 a1bc
000001f0: 92bc 1dbd 77fa 7abd eea2 f1bc 399c 4cbc
00000200: 4db8 acbd 6582 12bd f04e 69bc 0627 373d
00000210: 2353 a1bd 0e98 8abd 57fc ac3d 1408 5cbd
00000220: 7e6d 213d 1d67 aa3d 4f59 c9bd 0f08 923d
00000230: 0e38 ad3d 8fcd 363d 5352 cdbd d8fc 27bc
00000240: 4c26 a93d 3fd8 853d 0b22 a63a c2aa aabd
00000250: 5b3d 8dbd 729c 3ebd 4122 933d de79 00bd
00000260: bc0c ddbb e639 5a3c e394 b33d 001b 98bb
00000270: ab42 693c 7af7 e93c 4b71 9c3d 6a1a 8ebd
00000280: ccce adbd 20ea 883d a057 b43c 3e12 86bd
00000290: 1e1a cbbd 3041 733d 8581 92bd ef20 543c
000002a0: 99c0 b1bd 5c4d a7bd fdf8 3a3d 731b 103c
000002b0: d751 c0bd f327 71bd 1431 233d aa84 343d
000002c0: f552 8f3d 937f a63d 8a18 27bd 8833 aebd
000002d0: 7a88 e03c a81d 663c d547 adbd 1ee7 023b
000002e0: 585d c83c 1ec0 91bd 4ff4 a03d 1338 67bd
000002f0: 13ed c43d 9e17 2e3d 80dc 873b 00a7 073b
00000300: 8091 8ebd 9c25 fb3c 1b2b 403d aaf2 07bd
00000310: 6e37 a8bd b0e3 bfbd 14b4 a0bc 9493 14bd
00000320: 056e a9bd 9735 843d c0b6 56bc 0ede 11bd
00000330: 9a19 b13c 5447 45bd af34 073d 9906 893d
00000340: d4fa 8f3d c946 2b3d 8036 8dbd 985f 2e3b
00000350: b3b8 a63d e8b0 a43d ea9d b73c 0d54 35bd
00000360: 4bef 9e3d 5ad2 0d3d de08 72bd 9270 80bd
00000370: c0b0 05bd fd9e 05be 3848 37bd d8d0 6c3d
00000380: 1e1a afbd de44 83bd 745c 6c3d e147 ca3d
00000390: 4885 933d 2956 36bd 8553 e63c 4bf6 c6bd
000003a0: b982 e43d 8a0d 55bd d22b 16be 41c6 5abc
000003b0: 1a63 1e3d 4aed 1bbc 6640 c2bd a562 063d
000003c0: 38ea cabc 1c53 6cbd 4e09 f5bc 006c d73a
000003d0: 42b7 01b9 415f 973d ea54 d2bd 677a ed3c
000003e0: 6bcd 883c c7d6 28bc 8c5d 1d3d 55fa 743d
000003f0: 1d11 ff3d edf0 813c 00e7 24ba a0ff 8fbb
0.02852825 0.0009702108 -0.0016855678 -0.054315604 -0.052124698 0.04776775 0.051999856 -0.06530165
-0.097125866 -0.060091984 -0.037463978 -0.031957496 -0.08390927 -0.051235937 0.059102934 -0.0016200502
-0.035747707 -0.0781034 0.02478329 0.040244214 0.07943507 -0.029667877 -0.08531878 0.043136958
0.06266694 -0.067824766 0.0176501 -0.044243626 0.071843855 0.043089997 -0.0014525205 -0.09684978
-0.09169179 -0.048923794 -0.0636623 -0.053636167 0.062445458 0.05875826 0.05441334 -0.10581065
0.0126212025 0.019831054 -0.065613024 0.016851053 0.012873903 0.009869331 0.040074907 -0.05847059
-0.07785436 0.018177181 0.08830823 -0.009864779 0.06498847 -0.013727628 0.081188 -0.083829805
0.027571244 0.029918041 -0.08885394 -0.021930255 -0.031166263 -0.02130147 -0.08227785 0.02725612
0.041673854 -0.03737698 0.08019812 0.07369857 0.019390056 0.06333693 0.028171832 0.018385466
0.006055221 -0.079084106 0.033092935 -0.017394796 -0.11069648 0.07483647 -0.09973981 0.019902788
0.057975646 -0.08637331 -0.04489688 -0.006094663 0.07805258 0.07146647 -0.039172456 0.0958363
0.037335224 -0.029393949 -0.055688716 0.021008767 -0.056162227 0.057678133 0.08260737 0.035395376
-0.10092503 0.059339527 -0.02355371 -0.03684934 -0.07127325 0.019240752 -0.038087394 -0.0015289935
0.04195413 -0.04338498 -0.08228225 0.059969265 0.07614631 0.010170883 0.03960707 -0.093773045
0.007360925 -0.10033571 0.08311227 -0.00664147 -0.08838532 -0.03232739 0.062227502 0.0708709
0.0064005326 -0.018015608 -0.025807528 -0.019655196 -0.038509913 -0.06127402 -0.029496636 -0.012488418
-0.0843359 -0.035768885 -0.014240012 0.04471495 -0.07877185 -0.067672834 0.084465675 -0.05371864
0.03941106 0.083204485 -0.098314874 0.07130443 0.08457957 0.04462963 -0.10025468 -0.010253154
0.08259258 0.06535386 0.001267494 -0.08333351 -0.06896468 -0.046535917 0.07184268 -0.03136622
-0.006745903 0.013319468 0.08768632 -0.0046418905 0.014237086 0.028560389 0.076387964 -0.06938632
-0.08486709 0.06685281 0.02201444 -0.06546448 -0.09917091 0.05938834 -0.0715361 0.012947305
-0.08679313 -0.08169052 0.04564761 0.008795607 -0.0939061 -0.05887599 0.039841726 0.04407183
0.06998245 0.081298016 -0.040794887 -0.085059226 0.027408827 0.014045157 -0.084609665 0.0019974182
0.024458572 -0.071167216 0.07859098 -0.05644996 0.09615531 0.04250299 0.0041461587 0.0020698905
-0.06961346 0.030657582 0.04691611 -0.033190407 -0.082136974 -0.093696 -0.019617118 -0.036273554
-0.08272938 0.06455534 -0.013105094 -0.03561216 0.021618653 -0.048163727 0.033009227 0.066907115
0.070302635 0.041815553 -0.06895161 0.0026607271 0.08140697 0.08041555 0.022414166 -0.04426961
0.07760485 0.034624435 -0.059090488 -0.06271471 -0.032639265 -0.1304893 -0.044746608 0.057816356
-0.08549903 -0.0640962 0.057705358 0.09876991 0.07203156 -0.044515762 0.028115997 -0.097149454
0.11157746 -0.052014865 -0.14665154 -0.0133529315 0.03866873 -0.009517023 -0.09484939 0.03280892
-0.024769887 -0.057696447 -0.029911663 0.0016435385 -0.00012370668 0.07391215 -0.10270102 0.02898903
0.016699513 -0.010305113 0.03841929 0.059809048 0.12454436 0.015861953 -0.0006290525 -0.0043944865

fc5.bias f4 [100]
00000000: 0bff 30bd 50ae 9abd 969a 31bd 0487 0e3e
00000010: bad4 c53d 421c b13d ee99 ad3d d466 a1bc
00000020: 5df5 c73d 0337 b03d 6a1b 80bc e2ec d03d
00000030: 0da5 623d 053e 3dbd 8547 1dbc d11c 1b3d
00000040: 4535 b23d f2a7 2a3e e83d a2bd d764 603d
00000050: ccc6 b43d 8e4f 2dbd 06f1 ee3c 054d 043d
00000060: 5704 d93d 91af a63d fc2f a73d bea6 3a3e
00000070: 3b8a ea3c d5e9 12bd fddb a43d b71d dd3d
00000080: 4315 3bbd 8d5c 823d 4244 a13d ddcd 2fbe
00000090: 920f 123c 25b4 a0bd 8e10 fc3d d1bf 613d
000000a0: c81d f83d 8b0d ea3c a855 143d e276 423d
000000b0: 9e09 87bd 52b2 243d 66a1 27bd 60d3 8abd
000000c0: a0ff a23d 9585 55bd afb0 dd3d 4e67 273d
000000d0: 1514 7dbc 5cc0 15bd feba e63c c5f6 aabc
000000e0: 969d ae3c 797c 903d 2fd0 8f3c 8593 013e
000000f0: acf2 0c3d da19 c13d 5050 313e 2e1d 183d
00000100: d8a8 e03d 40de 343e 72a5 4a3c ba03 3cbd
00000110: a8a9 393e ecc4 8fbd 7330 87bd a20b 06be
00000120: 6d61 14bd c264 c23d 00e8 61bc 6f00 323d
00000130: 6c52 a2bd 1057 30bc 7d95 153e 06f5 e93c
00000140: 6573 cfbd 4c41 8b3d 465b 1e3e 5673 b1bd
00000150: 2d9a dabd 387a 433e 5bff b53c 25ab 5c3d
00000160: d708 823d 160b 663d 440e 083d a3fc 343d
00000170: b505 4abd b1cb 99bd e6b9 483d d1e5 b83d
00000180: ef3d 57bc a369 463d f649 a33d dd3c d9bd
-0.043211978 -0.07552779 -0.043360315 0.13918692 0.09659715 0.08647968 0.084766254 -0.019702353
0.09763596 0.08604243 -0.015638072 0.10201432 0.055333186 -0.046201725 -0.009599571 0.03786928
0.087015666 0.16665629 -0.07921964 0.05478367 0.0882698 -0.042312197 0.029167663 0.032300014
0.10596531 0.081389554 0.08163449 0.1822767 0.028630367 -0.03586753 0.08049772 0.10796683
-0.045674574 0.06365309 0.07874347 -0.17168374 0.008914845 -0.0784686 0.12307845 0.05511457
0.12115055 0.02857091 0.0362145 0.047476657 -0.06593631 0.040209122 -0.040925406 -0.06778598
0.07958913 -0.052129347 0.10824715 0.040870003 -0.015446682 -0.0365604 0.028165337 -0.020869622
0.021315377 0.07054991 0.017555324 0.1265393 0.034411117 0.09428759 0.17315793 0.037137203
0.109697044 0.17662907 0.012368547 -0.04590199 0.18131125 -0.07019982 -0.06601038 -0.13090375
-0.036225725 0.09491874 -0.013788223 0.043457445 -0.07925877 -0.010762945 0.14607807 0.02855922
-0.10129432 0.06799564 0.15464506 -0.08664577 -0.10673938 0.19089592 0.02221649 0.053874154
0.06349342 0.056162916 0.03321673 0.044186246 -0.04932185 -0.07509554 0.04900541 0.09028209
-0.013137325 0.048440587 0.07973091 -0.10607312

fc6.weight f4 [100, 100]
00000000: dbaf aa3d cfe5 a03d f794 e63d 1494 fd3d
00000010: a1d9 2ebd 4cc3 a7be bfb0 2c3e 30f7 f93b
00000020: 2afd a0bd 9f6e 22bd 9af0 173e 6db6 84bd
00000030: ddfc d13d bc18 0e3e a117 183e 6afa 38be
00000040: 824c f5bc e329 1ebd b21d 143d c57e c23b
00000050: b060 b6bd 1a0c 96be b7e5 f13d 1a69 123e
00000060: 2e10 0d3d 6d08 2abe 5e32 923c 5bfc 14bd
00000070: 1a5d 6f3d 502d 733d 890b b53d 6213 ae3d
00000080: 4403 4d3e 1549 20be 93f5 46bb dcb3 72bd
00000090: 3b52 25bd 2253 453c 49e2 103e 4898 f4bd
000000a0: ebb5 28bd b1f8 f2bd eade 3d3d e696 3e3d
000000b0: e7b7 283d 9042 cbbc 8d92 c2bd d2cc 5a3e
000000c0: cd71 99be 15ef a03d 3bac ff3c 3626 393d
000000d0: 8f13 9f3c b524 b9bd ed05 1c3e c55f f23d
000000e0: f474 273d 264b 8a3d e4a2 e6bd c354 ca3c
000000f0: 9792 973d b2af 303d 3e8e bb3d 028e b13d
00000100: d4c7 03be 3335 82bd 9dd7 a53c f2a3 dcbd
00000110: 034a 12be 7bfe f33c 5b50 96be 5796 86bd
00000120: c8dc 01be a7d2 9d3d 11ee 003d 374f 77bd
00000130: 4ec9 b9be bced ac3b a049 073d ceaf c23d
00000140: 8ef0 6ebc e159 cc3d 28ca b93d 549d e1bc
00000150: fb57 053e 5acb a5bd 79a8 f33d d62b c93d
00000160: d117 ddbd 23f5 1a3c d5b0 da3d 0910 e43d
00000170: f458 0b3e eb3a ad3d c567 2bbe 2e82 f4bb
00000180: 0f01 9f3d c5f7 8c3c 8501 67bd dcd0 b5bd
00000190: f122 563c 321b a53d d791 123d cacf 1a3e
000001a0: 858b 24bc 0f63 733c 98e7 363c 1456 05bd
000001b0: b4bd dc3c b7bd 31bd 1a2b e6bd ef40 aa3d
000001c0: 2238 06bb 1491 0ebd 7bfa 16be efc2 3dbd
000001d0: 7ed4 ec3c 0c20 c6bc b48b c93c f3ad ccbc
000001e0: b6fe a13d 7a38 703b 0ebd 233c dd64 01bc
000001f0: 253e db3d 3e95 29bd a472 0cbe ce58 223e
00000200: aaef a6bd eeb7 29bd e4d1 f0bc 1acd f33c
00000210: f573 97bd 0251 a2bd f481 9bbc 1f54 183d
00000220: 27bb 3b3d fd69 e1bd 8712 963d ebaa 543d
00000230: b5c2 5b3d 048d be3d 1a25 4d3d 8579 e23d
00000240: 01f3 20be 4f20 a73a 7fa5 76bd 2a44 953c
00000250: 0762 4e3c f9aa 6e3d 2fd9 8b3d 08e7 3dbd
00000260: d49c 11be 8366 4f3c 7947 ac3c df34 2fbe
00000270: e6b4 f3bd b909 ab3d efe7 973b 8353 84bb
00000280: 8a42 a33d 9f02 14be 9beb dc3d ecc7 09bc
00000290: 8025 35bd c2f9 153d 317b 25be fd47 a13d
000002a0: 262d 4d3c f6cf 23be 1e12 2abd 76a9 18be
000002b0: 7e87 003e 8967 213d d63c 6f3d 20d8 edbb
000002c0: fdcd e9bd 4a2e 863c 2a21 233d 7db0 d1bd
000002d0: f8eb d9bc a74f 1fbd 741f 483d 3d89 97be
000002e0: e074 a3bc 3870 c53d 3d03 3bbe cd3e 153d
000002f0: 412f c53c 3320 4bbd 84d4 3c3d c6fc a4bd
00000300: 1fb2 22bd fc5b de3d c80f 9cbd af56 9bbc
00000310: 3947 263e 7149 bc3d 6d88 d03d 7e34 a23d
00000320: debd a73c 4d05 f13b e757 dfbc 377a 143e
00000330: b73b 463b dcee 283d 710f f03d 20e0 bc3c
00000340: e1eb 88bd 57b7 c53d b5e1 6bbd 4055 c0bc
00000350: 9e29 e7bd 0bb3 26bd 7fbc 97bd 8a90 3ebd
00000360: 8a47 033e a72b 413d f08a 23bc c7c7 9fbd
00000370: 904c c93d f0c8 963b 8d93 893c 6d02 9a3d
00000380: e8de e93d 196c 68bd 5d15 55bd e0c0 853d
00000390: e285 d4bd b97c 5cbc 4c80 9f3d 4b77 613c
000003a0: 2b33 f33c ce68 fdbc 51bc c93d 96ea 70bd
000003b0: 61bd 443d 3302 0e3e ecf6 0b3d f5ba 0c3e
000003c0: 4b0e c2bc 5450 b6bd 4646 59bb 6d3d c3bd
000003d0: 2826 b33d 9966 cebd 6637 a73d ff76 07b9
000003e0: dd84 963d e75f b73d 3357 b13c a79b 93bd
000003f0: 7361 553b f394 29bd 75b1 973d 8961 b3bd
0.08334323 0.078563325 0.112588815 0.12381759 -0.042688016 -0.32766187 0.16864298 0.007628344
-0.07860787 -0.039656278 0.14837876 -0.064801075 0.10253308 0.13876623 0.14852764 -0.18064275
-0.029943708 -0.038614165 0.036161132 0.0059355223 -0.089051604 -0.29306108 0.11811393 0.14297906
0.03443926 -0.16604777 0.017846283 -0.036373477 0.058438398 0.059369385 0.08840091 0.08499791
0.20020777 -0.15652879 -0.0030358776 -0.05925356 -0.040361624 0.012043746 0.14148821 -0.11943108
-0.041189115 -0.1186384 0.046355166 0.046530627 0.041191008 -0.024812013 -0.095006086 0.21367195
-0.29969636 0.07858101 0.031210056 0.045202456 0.019418506 -0.090402044 0.15236636 0.11834673
0.04088302 0.06752615 -0.11261538 0.02469862 0.07401007 0.043136306 0.0915799 0.08669664
-0.12869197 -0.06357803 0.020244414 -0.107734576 -0.14286046 0.029784432 -0.2935818 -0.06571644
-0.12681878 0.07706194 0.031477038 -0.06037828 -0.36286396 0.0052773636 0.0330292 0.09506188
-0.01458372 0.099780805 0.09071761 -0.02754084 0.13021843 -0.08095427 0.11897368 0.09822814
-0.10795558 0.009457859 0.10678259 0.11135871 0.13608152 0.08458503 -0.16738804 -0.0074618077
0.07763874 0.01720799 -0.056397934 -0.088777274 0.013069854 0.08061828 0.035783615 0.15118328
-0.01004303 0.01485516 0.011163615 -0.032552794 0.026945926 -0.043393817 -0.1123869 0.08313166
-0.0020480235 -0.034806326 -0.14743988 -0.04632848 0.028909918 -0.024185203 0.024602748 -0.02498529
0.079099104 0.0036654756 0.009993805 -0.007897583 0.107052125 -0.041402094 -0.13715607 0.15854189
-0.08151181 -0.041435175 -0.029396959 0.029760886 -0.07395164 -0.07925607 -0.018982865 0.0371896
0.04583278 -0.11006544 0.073277526 0.051920813 0.053652484 0.0930424 0.05008421 0.11058334
-0.15717699 0.0012750718 -0.060216423 0.01822098 0.012596614 0.05826852 0.06828534 -0.046362907
-0.14219981 0.012658718 0.021030175 -0.17110012 -0.11899738 0.08351464 0.004635803 -0.0040382757
0.07971676 -0.14454125 0.10787126 -0.0084094815 -0.044225216 0.03661514 -0.16160275 0.07875059
0.012522971 -0.159973 -0.041521184 -0.14908394 0.12551686 0.03940538 0.058407627 -0.00725843
-0.11416242 0.016379494 0.03982655 -0.102387406 -0.026601776 -0.03889432 0.04885812 -0.29596892
-0.019953191 0.09640545 -0.18262954 0.036436845 0.024070384 -0.049591254 0.04610111 -0.08056025
-0.03972065 0.108573884 -0.076201975 -0.018962232 0.16238107 0.09193695 0.10182271 0.07920168
0.020476278 0.007355368 -0.027263595 0.14499746 0.0030247995 0.04124342 0.11721695 0.02305609
-0.06685615 0.0965411 -0.057588298 -0.02347815 -0.11287235 -0.040698092 -0.07409 -0.046524562
0.12820259 0.04716077 -0.009981856 -0.078017764 0.09829056 0.0046015903 0.01679399 0.07519994
0.11419469 -0.056743715 -0.052022327 0.065309286 -0.103770986 -0.013457471 0.077881426 0.013761352
0.029687485 -0.030933764 0.09850372 -0.05881747 0.04803217 0.13868026 0.03417103 0.13743193
-0.023688456 -0.0890204 -0.0033153458 -0.095332004 0.08747512 -0.10078163 0.08164863 -0.00012918933
0.073495604 0.08953839 0.021648025 -0.07207423 0.0032559305 -0.041401815 0.07406894 -0.08758838
